SAC_own_hardcore/sac_400/actor_sac.pth (torch, 533976 bytes, 8 tensors)

fc1.weight f4 [400, 24]
00000000: 5b6c 46bf 0b4c 3bbe 2c00 633e e351 733f
00000010: edb6 f8be e11e 6cbd 46a3 35be 0aa3 bbbd
00000020: 9cee 153d f78d 96bc bfa1 48bd 2fc1 acbe
00000030: 968a d93b 4101 56bc 927e b53d be32 8dbd
00000040: 6888 343e b3fb 433e f6e3 293e 6b23 bc3c
00000050: ac63 1a3e 0cb0 6f3e af38 1ebd 4d9d 40be
00000060: bc4c 4bbd 749a 963f 8452 abbf 17ac 7abd
00000070: cf4f 30be fc5b 0d3f befe 9b3d 79b4 ba3e
00000080: 1050 34be f71d 30be de49 a0be 5396 4b3e
00000090: ebf9 853e 76e4 bf3e c437 8dbe 3cb4 02be
000000a0: c98a bcbd 355e 8cbe 5cfa a7be b868 84bd
000000b0: 40a4 a13d f6b2 ebbd 731d 45be f61e 39bd
000000c0: 52fe 653e 9533 7b3e ec03 33bf f848 a2bf
000000d0: 5f97 88be 97a8 b93e 0307 c33d 10b5 c43e
000000e0: e62c d1be b3ee 85bd 7a49 693e bbd2 0bbf
000000f0: 6516 9d3d aa39 47be 7265 983e 3d54 2cbe
00000100: 94dd 87be 961e 11bf a3ba fb3d 2792 12be
00000110: c677 423c 4d18 993b d27b d5be bef6 35bd
00000120: bc96 acbe 21e1 c83e 8ce9 063f 5b7a 343e
00000130: 7211 8abd 8300 2dbf bc25 a8bc 4c30 efbe
00000140: 0e08 63bd 01f7 98be f0cd c0bd 3046 4c3c
00000150: 03cc d1bd b73b 1ebe d1af 963d 87ae 993e
00000160: bf2f e6bd a59c acbd 56cd 1bbe 560a f4bd
00000170: e389 14be 08cd 5cbe 9b98 dfbe ed6c a9be
00000180: 220a b63e 25c8 10be 218a 963d c66c 893e
00000190: 2cf3 153e ef0c ca3e 49bd e4be 5e9f 0c3e
000001a0: 465d a53e 0bb2 41bf 98fb ff3d 979f bcbd
000001b0: 9300 d83c 5bcb 6d3d cba8 29bd 854e 0abe
000001c0: 9979 3ebd bc44 ac39 3e39 6ebe b9fa 5ebd
000001d0: ca48 96be 43b7 9cbe 292c 3cbe aa5a 4cbe
000001e0: ed78 243e 47e7 a03f adc6 f03e 9403 2bbe
000001f0: 3503 523e e09f 4bbd f3bb 5f3d 82d2 99be
00000200: 2eea 18be 16a7 283e a69d ec3d 57ac 923e
00000210: 7edb c03d ba7f cfbe 9c4a 353e a1e7 5f3e
00000220: 4a9b 0a3e 5525 a4bd 96fe 813d 6e30 843c
00000230: 83b5 313e bd4a 67bc c49d 6b3c 7c16 1cbe
00000240: 95b6 cc3e 58c7 6a3f 627b 8cbf 01fa 80bb
00000250: af0d a73e 7f61 acbd 9922 8a3c 208f f5bb
00000260: 0fee f63e fa4e 5a3d 15ed cf3e c9d0 b0bd
00000270: 3d3b 583d fe61 cdbe 001d d9bd 5d41 bebc
00000280: 2ff6 3cbe b1a9 83bd 5884 70be e51d 7cbe
00000290: a932 fdbd 9025 15be 11eb 4abe eb9b d8bd
000002a0: fa06 d53d 7a5c 2d3f b382 0ebf fd62 2ebf
000002b0: 17e2 9b3e 6b8d 13bd c4d7 af3d 2f23 b93e
000002c0: c3bf b5bd 106d 453f 43ea 0e3d 59b3 c5bd
000002d0: 3d06 cc3d 3327 55be 6da9 bcbd aaa6 bfbc
000002e0: bbb0 babd 80c4 b2be 966c 24be aa1c 58be
000002f0: b3f4 4ebe 1019 ecbc f5a4 6f3c d551 78be
00000300: e0ca 6dbe 1191 303f 057d 84bf 7d8f 3e3e
00000310: 1d20 403c 9ed3 403e 4656 63bd 39f8 f0bc
00000320: 03dc 94be 59a8 113f 0b0b 9ebe 06bc 9fbe
00000330: ed25 343e 9250 11be 87eb 35be 0ba0 09bc
00000340: 744e 853e 8c23 303e 2cc3 5cbd e17e d43d
00000350: f5bf 68be 03ea d7bd 6725 2fbb 7e64 8ebe
00000360: 948f cd3e 26bd 28bf 0813 993f 8467 bd3e
00000370: d85e 01be b6f9 46bd ce9b 16bf 446d c23e
00000380: 9305 143e 358b c0be 589f d23e 849d 423e
00000390: a2a0 78bc 2080 89be 8480 52be 5733 6abe
000003a0: 8b69 9bbe a0be bd3a 0264 40be d8c5 67be
000003b0: a963 e03b 5f6e 143d b2a9 33be 1510 273e
000003c0: 877c aebe e733 a23d 1774 eebf 98d7 dfbe
000003d0: 1fcc ddbd e289 93bd 283d ee3d 6c25 803d
000003e0: 4857 073e 8a87 7ebe 3240 13be 9f1e fcbc
000003f0: 57c3 7fbc befc 40be 17b9 733d eb49 a03e
-0.7750909 -0.18290727 0.22168034 0.95046824 -0.4857706 -0.057646636 -0.17738065 -0.091619566
0.03660451 -0.018378241 -0.048982378 -0.33741137 0.006638835 -0.013061822 0.08862032 -0.06894444
0.1763016 0.19138984 0.16590866 0.022966107 0.15077084 0.23407 -0.038628276 -0.18810005
-0.049633726 1.1765885 -1.3384557 -0.061199274 -0.17217945 0.5521848 0.076169476 0.36465815
-0.17608666 -0.1719893 -0.31306356 0.19881563 0.26167235 0.3747899 -0.27581608 -0.12764066
-0.09206159 -0.27415624 -0.32808197 -0.06465286 0.07892656 -0.115087435 -0.19249515 -0.045195542
0.22460297 0.24531396 -0.6992786 -1.2678518 -0.26677987 0.36261436 0.09522822 0.3841939
-0.40854567 -0.06539669 0.22781935 -0.54618424 0.07670287 -0.19455591 0.29764897 -0.1682901
-0.26536238 -0.56687295 0.122914575 -0.14313565 0.0118693765 0.0046720863 -0.4169603 -0.044424765
-0.3370875 0.3923426 0.52700114 0.176248 -0.06741609 -0.67578906 -0.020525806 -0.46716535
-0.055427603 -0.2987595 -0.094142795 0.012467906 -0.1024399 -0.15452467 0.07357753 0.30015966
-0.112395756 -0.08428315 -0.15215048 -0.11916034 -0.14505725 -0.21562588 -0.43671116 -0.33090916
0.35554606 -0.14138849 0.07350565 0.268408 0.14643544 0.39462993 -0.44675663 0.13732669
0.32297724 -0.75662297 0.124991596 -0.09210127 0.026367461 0.058055263 -0.04142074 -0.13506515
-0.046502683 0.00032857608 -0.23264024 -0.054438327 -0.2935241 -0.30608568 -0.18376221 -0.1995646
0.16061755 1.257058 0.47026578 -0.16700584 0.20509036 -0.049713016 0.0546226 -0.30043417
-0.14933082 0.16469988 0.115535066 0.2864711 0.09416865 -0.40527135 0.17704242 0.21865703
0.135358 -0.08014933 0.063473865 0.016136374 0.17354397 -0.01411694 0.014380876 -0.15242952
0.3998305 0.91710424 -1.0975153 -0.003936053 0.32627627 -0.084170334 0.0168622 -0.0074938685
0.482285 0.053297974 0.40610567 -0.086335726 0.05279087 -0.40113825 -0.106012344 -0.023224527
-0.18453287 -0.064288504 -0.23487985 -0.24620779 -0.12363178 -0.1456511 -0.19816233 -0.10576614
0.10401721 0.67719233 -0.5566818 -0.68119794 0.3044593 -0.03602354 0.08586076 0.36159655
-0.08874466 0.7711954 0.034891378 -0.096533485 0.09962127 -0.20815735 -0.09212003 -0.023394901
-0.0911574 -0.34915543 -0.16057047 -0.21104684 -0.20210533 -0.028820544 0.014626731 -0.24249966
-0.23221922 0.68971354 -1.0350653 0.18609424 0.011726406 0.18830726 -0.0555022 -0.029415237
-0.29074106 0.56897503 -0.308678 -0.31198138 0.17592593 -0.14190891 -0.17765628 -0.008399974
0.26036417 0.1720106 -0.053897068 0.10375763 -0.22729476 -0.10542681 -0.0026725174 -0.27811044
0.40148604 -0.6591362 1.1958933 0.3699304 -0.12633836 -0.048577987 -0.5883149 0.37973988
0.14455251 -0.37606207 0.41137195 0.190054 -0.015175017 -0.26855564 -0.20556837 -0.22871147
-0.3035396 0.0014476366 -0.1878815 -0.22634065 0.006847818 0.03623807 -0.17545202 0.16314729
-0.34079382 0.07920056 -1.8629178 -0.43719172 -0.10829949 -0.072040334 0.116327584 0.06257138
0.13216889 -0.24856392 -0.14379957 -0.03077632 -0.0156105375 -0.18846413 0.059502687 0.31306395

fc1.bias f4 [400]
00000000: e0de 9a3d dee3 c0bc 4b67 733e fc03 083e
00000010: 2b6f f3bc b837 f4be 54c6 3bbe d6f0 e53b
00000020: d0e0 17be a470 4fbe ae9c d6be f480 a2be
00000030: bc75 5bbe 893e bebc 5f30 e43d 3dd1 cbbe
00000040: 95aa 71be 8f2f b3be 10bf 35be 351b 05be
00000050: f4bf bcbe a4f3 1dbd 0cb5 aebd 8e8a 8cbe
00000060: 21ac be3d d0cb 7abe b20a a4be 0bd7 47be
00000070: 022b f1be 3df3 fd3d ee87 2dbe 074d fa3d
00000080: d00d a6be dc51 57be 91fc d0be 9965 5abe
00000090: da92 5ebe b177 6ebe 4ea0 063d 748b 94be
000000a0: 5f22 80be 94a8 4fbe 5096 85be 2119 77be
000000b0: 0d9f 5ebe 1fff f5bd 60e7 c3bd 63d0 fabd
000000c0: d8ce 2dbe c677 053e 23fe 043d bd5d cc3d
000000d0: 5666 d1be bab4 e0be a1a0 35be 1152 5bbe
000000e0: bc60 00be d8f3 b43e 6245 683e 896f 36be
000000f0: ffbe 6abe 798c 113e 5c65 a7bd df2e 9dbe
00000100: 06fd 77be 0b81 92be a5c0 25be c806 11be
00000110: 11f7 25bd 0ca8 263e cd0c 84be 2cf1 82bb
00000120: 42f0 d9be 516c acbe 4126 0cbf a158 bd3d
00000130: 3d26 a83d 728d 243c ba3f 5e3d 35e6 abbd
00000140: 34c7 8f3d cf2f 94be 35e0 33be 9aa5 b0be
00000150: a138 b0be 10e8 3fbe 2824 dd3d b5f1 d53d
00000160: 763b 8ebe 8779 b23d 03b6 00be 0c8a 72be
00000170: 7c6b 89be cf6f 3fbd 1d25 873e aa29 aa3c
00000180: ee20 b4bd 8fe9 17be 7e4b afbe 6ab9 123c
00000190: 0196 f53d e180 ffbc 432d c4bd 33ca 6dbe
000001a0: 7eb6 0ebe 0512 bbbe 16e5 afbe d765 64be
000001b0: fd12 39be 2a06 1e3d a621 393e 3b10 afbe
000001c0: 3bd1 2dbe fc57 993e d8fd ec3c 57bc 23bd
000001d0: 7d96 7abe 046c d4be 1068 cabe db12 4cbe
000001e0: e1f5 f03d a7c1 413e 5302 503e 0114 8b3e
000001f0: cb7a e63d b7fa 2c3c b52e 72be 2688 acbe
00000200: b068 f6bd 2205 87be bea8 3fbd ea24 e8be
00000210: 24e2 84be fac7 d93d 5cf2 7fbe 0f57 5bbe
00000220: be61 73be aa96 95bd d45e a1be 26f7 90be
00000230: cf02 593d 0e1f 9cbe 2dfb afbd 8cfe 28be
00000240: fd2b 9abd 9533 5ebe ae4f 0f3e a5b1 30bc
00000250: 2fcf 253d 9eb8 f63d 0e54 533d d16f 923e
00000260: ddee 8dbe 50eb e2be 9e62 dfbd 2fe9 c4be
00000270: 8ac3 23be a040 3fbc f162 90be 3263 583c
00000280: b7b7 adbd 5ffb 77bd 03f1 1c3d 37c7 d0bc
00000290: 21d5 dabd 01e1 dabd 19ad ebbd 8ab3 f73d
000002a0: 3a16 65be 79f3 073e ad9e 19bd 6745 3abe
000002b0: fd43 b93c 1fb0 a03d 5f19 ffbd 50d2 98be
000002c0: f663 293c f90b d6be 10f2 21be 87ca 98be
000002d0: b814 9fbe 1978 883e 88da 05bf 409f 9bbd
000002e0: 07b1 86be cc2a e6bd fd83 f93c 86e8 0e3d
000002f0: df14 d53c 6abd 3bbe 9ac7 edbe b189 7c3e
00000300: 7c1b fb3d 3f5d a9be 82b4 5fbe a784 95be
00000310: dd84 b33b aea4 f7bd 44b1 25be 1bc5 513d
00000320: f84a 95be 12f6 9cbe 137a 78be 0c51 223e
00000330: 8fd6 9ebe b8cb 183c 2a76 8bbe 207b 603e
00000340: 870b 50be 3a22 9ebe 48da d6bd 626b 91be
00000350: c7db ddbe 8e41 30be 8e65 a53e f856 bdbd
00000360: d936 c0be 3147 2b3e dd04 1fbe 5e50 59be
00000370: 17d7 acbe e2ec 88be 1cd9 aabe 11b1 90be
00000380: 02b5 f1bd 0e75 3abe 83fa eebc 09a0 fdbd
00000390: 3b95 0c3e c4c8 03be dabb 933d 201e 14bd
000003a0: 7c32 533e 6b9a 003e 4eea 93be 5656 e53d
000003b0: ac23 9dbd c53b b5bd 0f41 2f3d f18e f0be
000003c0: 21e9 3dbe 6696 8fbe b647 bcbe 933a 91bb
000003d0: 170f 23be 0e93 10be 2dbc 5a3e fe75 42be
000003e0: 763d ef3c 8743 c6bd b4f6 bebe 14c0 92bc
000003f0: 0ed2 9cbe 398d 813d 4a0b a0be 2450 71be
0.07562041 -0.023546156 0.23769872 0.1328277 -0.029716095 -0.4769876 -0.18337375 0.0070172353
-0.14831853 -0.20257813 -0.41916412 -0.31739008 -0.21431631 -0.023223178 0.111420386 -0.39808074
-0.23600228 -0.34997222 -0.17748666 -0.1299866 -0.368652 -0.038562432 -0.08530626 -0.2744946
0.09310175 -0.24491811 -0.3203941 -0.19515626 -0.47103125 0.1239991 -0.16946384 0.12221723
-0.32432413 -0.2102732 -0.40817693 -0.21327819 -0.21735707 -0.23287846 0.032867722 -0.29012644
-0.25026223 -0.20279151 -0.26091242 -0.2413068 -0.2174036 -0.12011551 -0.09565616 -0.12246778
-0.16973436 0.13033971 0.032468926 0.09978817 -0.4089839 -0.43887883 -0.17737056 -0.21418025
-0.12536901 0.35342288 0.22682717 -0.17815985 -0.22924422 0.14213742 -0.0817363 -0.30699822
-0.24217615 -0.28614077 -0.1618677 -0.14162743 -0.040518824 0.16275042 -0.25791016 -0.003996035
-0.42566115 -0.3367639 -0.5474587 0.0924542 0.082104184 0.010043489 0.054259993 -0.08393518
0.07020417 -0.28942725 -0.17565997 -0.34501344 -0.34418204 -0.18740869 0.10797912 0.104464926
-0.2777974 0.08714586 -0.12569432 -0.23685473 -0.26839817 -0.04673749 0.26395503 0.02077182
-0.08795343 -0.1483519 -0.34237283 0.008955339 0.119915016 -0.031189384 -0.095789455 -0.23221664
-0.13936803 -0.36537185 -0.34354466 -0.22304474 -0.1807365 0.038580097 0.18079242 -0.3419207
-0.16974346 0.2994994 0.028929636 -0.039974537 -0.24471469 -0.4148866 -0.39532518 -0.19929068
0.11765648 0.18921529 0.20313387 0.271637 0.1125389 0.010557822 -0.2365063 -0.33697623
-0.12031686 -0.26371104 -0.046791784 -0.45340663 -0.25953782 0.106338456 -0.24994797 -0.21419929
-0.23767754 -0.073041275 -0.3151766 -0.2831356 0.052981194 -0.30492443 -0.0859283 -0.16503352
-0.07527921 -0.21699364 0.13995239 -0.010784541 0.04048079 0.12046932 0.051593833 0.28600934
-0.277213 -0.44320154 -0.109074816 -0.38459155 -0.15992561 -0.011673123 -0.28200486 0.013207244
-0.084823065 -0.06054246 0.038315784 -0.025485618 -0.10685182 -0.10687447 -0.11507625 0.12094791
-0.2237176 0.13276471 -0.03750484 -0.18190537 0.022615427 0.078460924 -0.12456011 -0.29847956
0.010338774 -0.4180601 -0.15814996 -0.29842016 -0.31070495 0.26654127 -0.5228658 -0.07598734
-0.26306936 -0.112386316 0.030458445 0.03488972 0.026010929 -0.18333974 -0.46441346 0.246619
0.122611016 -0.33078954 -0.21846202 -0.29202768 0.005478485 -0.12091957 -0.16180903 0.051213365
-0.2915876 -0.30656487 -0.24265318 0.1585123 -0.3102307 0.009325914 -0.2723859 0.21921968
-0.20316897 -0.30885488 -0.104908526 -0.2840224 -0.4333174 -0.17212507 0.32304043 -0.092451036
-0.37541845 0.16726376 -0.15529199 -0.21222064 -0.3375785 -0.26743227 -0.33368766 -0.2826009
-0.118021026 -0.18208715 -0.029172188 -0.1238404 0.13728802 -0.12869555 0.07213564 -0.036161542
0.20624727 0.12558906 -0.28889698 0.11198108 -0.076728195 -0.08849291 0.042786654 -0.46984056
-0.18545963 -0.28044432 -0.3677346 -0.0044320314 -0.15923725 -0.14118597 0.21360846 -0.18990323
0.029204112 -0.096808486 -0.37297595 -0.017913856 -0.3062901 0.06325764 -0.31258613 -0.23565727

fc2.weight f4 [300, 400]
00000000: 6e1a 0cbe 06f6 9f3d bfd0 4bbe cdfd 41be
00000010: 7011 753d 1b53 75bd e55f 033d 8c1c 9ebd
00000020: 9988 f8bd e5f4 a5bc d99f 873e 625b db3c
00000030: ee96 5abd 66ad 87bc bc69 883d a335 323e
00000040: a68d 39be 233b 2abd 0add 9ebe 60a6 993e
00000050: 74b0 b1be 6896 383e 564d d43d e5c1 42bd
00000060: db3c 3d3c c819 90bd 8320 443e d8b2 64bc
00000070: 7435 9ebe f9d6 48be da47 8bbe 4de2 87be
00000080: e468 59be 69f8 63bd 3fbf 283e 927c 00be
00000090: 03f8 dd3d da7b a3bd d0cd 03bd 3b84 843d
000000a0: c7f7 24be 58d5 2fbd 8d7b 523e a5a3 47be
000000b0: 025e 233e a1b7 783c f4b7 2abe b4f8 15be
000000c0: a454 1d3c 4b05 dfbe 5143 b9bd 03bd 433d
000000d0: 3ac6 a7be 2c78 7dbd aef3 a6be 6f53 51bd
000000e0: 5f2a c5bd 02a6 a8bd d1f2 013e 96bb f83d
000000f0: 7355 95be 6a92 79bb 8ec8 60be 524a 923d
00000100: ff3b 943e 047e 05bf d9fc 923e e019 bdba
00000110: 94c2 44be 7f5b e93d 8b5f 82bc 9dd3 80be
00000120: 8d4b 45be 3084 38be a685 aabe d64b 1cbe
00000130: 0078 7a3d 4c9a 0e3e bba4 923d cae7 b53e
00000140: ffb7 1ebe 7015 71bc 752e 073d 7ccb f3bd
00000150: 6b77 203e a879 86be 3c33 80bd fc9c f53d
00000160: d37d d83c 543c a2be 798e 8abd 03d2 103b
00000170: 9dd0 513e 98ef c1be 39b7 05bd 1d8f 95bd
00000180: 9246 e8bb 129b 8d3c d1c1 493e 2638 9dbe
00000190: 2c20 31be 6dfd 2ebe a151 533c e27b a8be
000001a0: e641 1d3e 577f 1b3d 724d 283d ef81 f43c
000001b0: 352c eabd 5862 72be 1ce4 9bbc 5791 e73d
000001c0: 3c24 15be c398 34be 0b39 943d bfb5 45be
000001d0: 88a1 80be 1ee5 4e3e f8dc cb3b cccf e9bd
000001e0: c403 243e 1235 43be d3a9 fe3d f5f8 9dbe
000001f0: c411 38be 155b 63be c2cf e3bc a8b3 cfbd
00000200: 6d03 23bd 361e e8bd 3898 43bc ea67 bebe
00000210: f1a0 be3c 4cc0 2f3e 49ba c4bd dd2d 643d
00000220: eb5e 423e 5dfd 51be c05b 1a3e 1e88 e73b
00000230: cc59 8fbe 90e3 a13d 767f 5dbd 9024 8cbe
00000240: 1597 0c3e 37f4 463d 49aa 0ebe 70a6 2bbe
00000250: 5387 a6b9 aea2 0c3e be4f 50be 1cd4 0bbc
00000260: 8098 1fbd c4c0 a43c 77c3 e3be 17c8 973e
00000270: 02a5 23be 0be4 093e a56a 843e 7bdc 823d
00000280: 729a 25be 5bce ff3b c7a2 f03c c456 9abe
00000290: 1c41 c6bd 73fe 933e 43c7 413d 8d43 523d
000002a0: 78c0 98be 7249 873e 519a 9a3e 6785 7bbd
000002b0: aaad f23d f51e 553c e634 753d fe42 58be
000002c0: e97a 7cbe aafe 61be 8c71 34be 184a 053e
000002d0: 9783 3fbe b2d5 b2bc 9bdd 59be 0bca 9f3d
000002e0: 935f c03e c587 af3d a806 523e fb20 efbd
000002f0: e9f3 d23d a013 223d 846e 643e 6321 7ebe
00000300: 5591 eabe 338a 8f3e e0fe 9b3d b004 563c
00000310: 2c61 5abe f4e4 0abe 3b60 96bc 1592 6039
00000320: d05f c5be bceb c13d 4bc1 d2bd 60cf 63be
00000330: f485 0bbe 0735 13be 96f4 c53d 60a0 353e
00000340: 0adc 70bd 0b8b a9bc e23a 2a3e d196 543e
00000350: b803 903d e8b8 0f3c 0022 adbe 1fb7 fdbd
00000360: cbab b6bd 9356 b0bd d9a2 78bd 88ac 833e
00000370: 7ff3 9b3d a596 9fbd db4c 6bbd 6eeb 483d
00000380: cb3e c6be 04be 563e 8cf1 27be e5b5 66be
00000390: 6c58 ecbe 5f14 41bc 88f0 91bc 9a40 8e3c
000003a0: c98e 133e b752 52bc cc93 08bc a1ab bc3c
000003b0: a831 3a3e 92c2 82be f5c6 08bd 9a01 1c3e
000003c0: 82f2 963e f576 dc3d 22f2 a0bd 455c cf3d
000003d0: 4536 61bc 6d06 2bbe eede 013e 2bc3 a7bd
000003e0: 3cb4 793d 6b1d 6ebd c0fa ccbd b7e1 b1bc
000003f0: fc83 f6bc 8388 08be 70fc 39be 7f8f 4f3e
-0.13681957 0.07810597 -0.19903849 -0.18944474 0.059831083 -0.05989371 0.032073874 -0.07720289
-0.12135429 -0.020258376 0.26489142 0.026776973 -0.053366594 -0.016562175 0.06660792 0.17403273
-0.18120441 -0.041560303 -0.31028014 0.30009747 -0.34704936 0.18026125 0.10366313 -0.047548193
0.011550154 -0.070361674 0.19153027 -0.013958655 -0.30900156 -0.19613256 -0.27203256 -0.2653984
-0.21231419 -0.055656824 0.16479205 -0.1254752 0.1083832 -0.07982607 -0.0321787 0.064705335
-0.16110145 -0.04292807 0.20554943 -0.19496019 0.1595383 0.015180499 -0.16671735 -0.14645654
0.009602699 -0.43558726 -0.09046043 0.047787677 -0.32768422 -0.061882183 -0.32607788 -0.05110496
-0.09627222 -0.082347885 0.12690283 0.12145154 -0.29166755 -0.0038081654 -0.21951506 0.07143082
0.28952023 -0.5214541 0.28708532 -0.0014427267 -0.1921485 0.113944046 -0.015914699 -0.25161448
-0.19267102 -0.18019176 -0.3330509 -0.15263304 0.061149597 0.13926047 0.07160326 0.35528404
-0.15499876 -0.014714584 0.03300329 -0.11904046 0.15670554 -0.2626469 -0.06259772 0.11992833
0.026427185 -0.31686652 -0.06765456 0.0022097833 0.20489736 -0.37878108 -0.032645438 -0.07302687
-0.0070884908 0.017285857 0.19702841 -0.307069 -0.17297429 -0.17088862 0.01289788 -0.32907015
0.1535717 0.037963238 0.041089483 0.029847113 -0.11434213 -0.23670328 -0.01902967 0.11307018
-0.14564604 -0.17636399 0.072374426 -0.19307612 -0.2512324 0.20204589 0.00622141 -0.11416587
0.16017061 -0.19063213 0.12434735 -0.30854002 -0.17975527 -0.22202714 -0.027809028 -0.101416886
-0.03979819 -0.11333887 -0.011938147 -0.37188655 0.023270102 0.17163199 -0.096058436 0.0557078
0.18981521 -0.20506807 0.15074062 0.007065787 -0.27998197 0.07904732 -0.054076634 -0.27371645
0.13729508 0.048572745 -0.13932146 -0.1676271 -0.00031762812 0.13733932 -0.20342919 -0.008534458
-0.038963795 0.020111449 -0.44485065 0.29644844 -0.15980914 0.13465898 0.25862613 0.063897096
-0.16172197 0.007806582 0.029374493 -0.30144322 -0.096803874 0.28905067 0.04730917 0.051333953
-0.29834342 0.26423222 0.3019586 -0.06140652 0.1184953 0.013007869 0.0598649 -0.21119305
-0.24656262 -0.22069803 -0.1762144 0.13016546 -0.18702541 -0.021830413 -0.21275942 0.078022085
0.37572917 0.08570818 0.20510352 -0.116762124 0.103004284 0.039569497 0.22307783 -0.24817424
-0.45814005 0.28035125 0.07616973 0.013062641 -0.2132613 -0.13563901 -0.018356433 0.00021416724
-0.38549662 0.09468791 -0.10290774 -0.22247076 -0.13625318 -0.14375697 0.09665792 0.1773696
-0.058803596 -0.020696184 0.16624025 0.20760657 0.07031959 0.008772112 -0.33815002 -0.12388443
-0.08919486 -0.08610263 -0.06070218 0.25717568 0.076148026 -0.07792405 -0.057446342 0.04905265
-0.38719782 0.20970923 -0.16400737 -0.22530325 -0.4616121 -0.011784642 -0.01781489 0.017364789
0.14409937 -0.012837104 -0.008336019 0.023031058 0.18183005 -0.2553907 -0.033392865 0.15234986
0.29481894 0.10764877 -0.07858683 0.10125021 -0.013745849 -0.1670167 0.12682697 -0.08191522
0.0609629 -0.058133524 -0.10008764 -0.021714075 -0.030092232 -0.13333325 -0.18162704 0.20269583

fc2.bias f4 [300]
00000000: 30e0 1fbe 3579 2b3e abdc 84be dad1 41bd
00000010: 5496 87be 5c10 30bc 2a26 c4bd 6f59 72be
00000020: 7cbc 3d3e 070d 64be 2e5b 18be 9254 443d
00000030: f53d 31bd cd13 b83d 6428 3a3d 4799 193e
00000040: 03bd 8d3e 9fda 1e3e b179 183e 4b54 9c3d
00000050: 209c 57be 0f8d 00be 120c 26bf 7505 873d
00000060: 2d8f 3e3e 456c 32be 1b06 97be ad7e bdbd
00000070: 96ce 0bbe 035b 3bbd 4b6e 40be 3e62 463e
00000080: 2cdf d73e aa28 1d3d 6e4f 6bbe ba4e 8c3c
00000090: 8b1f 7cbe 4f4a 77be 8bd2 12bd 0c04 bebd
000000a0: e255 0abe 1e03 17be 1673 92bd 092b d0bd
000000b0: 8a95 fd3d bae6 49be 9af8 5b3d 8d16 27bd
000000c0: e6d1 febd b5c7 94be f888 5bbe f331 82be
000000d0: a4d3 9bbe ce5d 953d b739 0c3e a2c2 c1bd
000000e0: 640d 8ebd ad50 e13d f3c9 a23e 11c0 6f3e
000000f0: 7932 11be e6e9 2a3e 7f5a 183e 0064 d5bc
00000100: 8d83 a6bd 17d7 4a3e 580b bc3b 26ae 7b38
00000110: 0a75 723e 202a 20bd b994 b03e ea90 7a3e
00000120: fb8f 263c 4bc5 b73d fe3d 52bd a72c 60be
00000130: 1148 913a 20a9 94be 7198 dabc e505 60ba
00000140: 0bf8 a0be 0a24 8bbd a612 523e e286 c63d
00000150: 3ed4 993e 4f27 83bd 767b 033e 69ae b73d
00000160: c99b 57bd 9b7e 903e ad32 673c 9ae1 a4bc
00000170: d32a 063c f776 b4bd bcfb 613e 6f15 b1bd
00000180: 0bf9 073e 373c df3e c325 a83d 09b2 ffbc
00000190: 55cf 34be fabb 0b3e d1d5 673e 5b94 83bd
000001a0: fe52 84be 3066 9bbd c1bb 3abd 2cc1 31be
000001b0: f6cb cf3d d375 083e 6072 c23c f6d7 96bd
000001c0: e450 83bd 5d18 fa3d 0dcf 8ebe 7b33 81be
000001d0: af94 81be 137a 2e3e 1447 713c 6fc1 683e
000001e0: 3d9f d43d 5ac9 9abd 20a5 4bbd ffc2 b9bc
000001f0: 3974 69be 6280 90be da1a abbd 4930 54be
00000200: 12f0 9abe 0e0c cd3e 0608 873d 6119 033e
00000210: 0fc3 58be 4c7c 24be d3e2 0e3e 7fe1 9abc
00000220: f0f5 0bbd 4bd4 0abd 652f 43bd 6803 073e
00000230: c8d1 c7bd 8b69 bbbd 9f84 b8bd 3369 52be
00000240: 44f4 81be 0fc0 88bc 760e 58be 55bc f3bb
00000250: 77ed 4fbe b7da d1be 7636 acbe d68a 72bc
00000260: 1951 333e 3c53 b63d 3ed7 973c 6de7 00be
00000270: 6ca7 73bd 8bc9 83bd e03e 7dbe 56b5 34be
00000280: 7901 b5bc 0ce1 22bd f662 2b3e d831 8fbd
00000290: 03ad 36be 42d7 a1be 96d8 9dbd c510 9bbd
000002a0: 43d6 06be 39fc 0ebe 077b cbbc e66b 6abe
000002b0: 0e82 5a3e ed4f 553d 2db1 0ebe 57b1 0abe
000002c0: 8e80 68bd 1b74 8abe 27ed 19bd 3f6e 33bd
000002d0: 20bb 413e 5ff7 b33c f3ef 63bd d4bc 66bd
000002e0: c523 843d fda4 8c3e 0ad0 11be 6ec4 bebd
000002f0: 1c61 a2bd 2c8f fa3d 11c7 afbd f0a2 5d3e
00000300: a30f 8b3c ca74 3bbe b390 d43c 362a 22be
00000310: 2ca7 f9bd 0776 63be 9b7a 30be 9ed9 16be
00000320: c4cf 3e3d 660b f1bd 2356 f1be bc41 b2bd
00000330: 19f3 26bd 4a07 8dbd 9335 4abd e6a5 30be
00000340: e02e 5dbd 01e1 5bbe d532 3fbe 6164 4bbe
00000350: 40d0 14be e7fa e33d b7aa 83bd 69ce 27be
00000360: 2b8b 30be bc04 0f3e 27d0 d13d 7025 2bbe
00000370: e4d9 b73c 1708 14be 7309 d63b a875 533c
00000380: a23e 133c 970f 3cbd 8ea2 06be 96ae 7dbe
00000390: b810 36be 3009 8c3e 0b82 89be e076 453c
000003a0: ea1c 5abd 9472 cc3c 2593 80be 10f5 933c
000003b0: d1c5 493e d8c6 b238 246a 073d 4be1 63be
000003c0: 1fd9 69bd 9038 833e 8839 043e f41d e4bd
000003d0: 9d67 423d d2ef 293d 3f85 513d 968c b7ba
000003e0: 34d8 103c c0c7 72bc 3685 dcbb e3ef 96bd
000003f0: 4381 c2bd 03fa b53c 8092 0ebd 634b 83be
-0.15612864 0.16745456 -0.25949606 -0.04731927 -0.2648188 -0.010746088 -0.09577592 -0.23666929
0.18528932 -0.22270595 -0.14878532 0.047932215 -0.043271977 0.08988152 0.045448676 0.14999877
0.27683267 0.15513085 0.14890172 0.07633265 -0.2105565 -0.1255381 -0.6486217 0.06592838
0.18609305 -0.17424114 -0.29496846 -0.09252677 -0.13653025 -0.045741092 -0.18792073 0.19373414
0.42162454 0.03836886 -0.22979519 0.017127384 -0.24621408 -0.2414944 -0.03584532 -0.09278116
-0.13509324 -0.14747283 -0.07150857 -0.10164458 0.12382038 -0.19716921 0.05370388 -0.04079299
-0.12442379 -0.29058614 -0.21438968 -0.25428733 -0.30434906 0.072932824 0.13693891 -0.094609514
-0.06936148 0.11001716 0.317947 0.23413111 -0.1417941 0.16690788 0.14878272 -0.02604866
-0.0813056 0.19808613 0.005738657 6.000525e-05 0.2367746 -0.039102674 0.34488466 0.24469343
0.010166164 0.089731775 -0.05132865 -0.21892034 0.00110841 -0.29035282 -0.026684018 -0.00085458
-0.31439242 -0.06793983 0.20514926 0.096936956 0.3004474 -0.06403982 0.12840065 0.08968813
-0.052638803 0.28221592 0.014111203 -0.020127106 0.008188921 -0.08811753 0.22068685 -0.08646666
0.13278596 0.43600628 0.082103275 -0.031212823 -0.17657216 0.13645926 0.22640158 -0.06424781
-0.25844568 -0.0758785 -0.045589212 -0.17358845 0.10146324 0.13326196 0.023736179 -0.0736541
-0.06411913 0.12211678 -0.27892342 -0.2523459 -0.2530875 0.17038755 0.014726419 0.22730039
0.10381935 -0.07557936 -0.049718022 -0.02267599 -0.22798242 -0.28222948 -0.08354731 -0.20721544
-0.30261284 0.4004826 0.06593327 0.1280265 -0.21168159 -0.1606304 0.13953714 -0.018906353
-0.03417009 -0.033893865 -0.04765262 0.13184893 -0.097568095 -0.0915099 -0.090096705 -0.20547943
-0.25381672 -0.016693143 -0.21099266 -0.0074382224 -0.2030543 -0.4098718 -0.336353 -0.014803609
0.17511405 0.089025944 0.018535253 -0.12588282 -0.059485838 -0.06434926 -0.24731016 -0.17647299
-0.022095429 -0.039765403 0.1673697 -0.06991929 -0.17839436 -0.3160954 -0.07707326 -0.07571558
-0.13167672 -0.13963403 -0.024838937 -0.22892722 0.21338674 0.052078176 -0.13934775 -0.13544212
-0.056763224 -0.27041706 -0.03757968 -0.04380631 0.18919039 0.021968542 -0.055648755 -0.056332424
0.06452135 0.27469626 -0.14239517 -0.0931481 -0.079286784 0.12234339 -0.08582891 0.21644187
0.01697523 -0.1830627 0.025947904 -0.15836415 -0.12190089 -0.22212993 -0.1723427 -0.14731452
0.04658486 -0.11769752 -0.4713603 -0.08703944 -0.04075918 -0.06886156 -0.0493675 -0.17250785
-0.05399978 -0.21472551 -0.18671735 -0.1986251 -0.14532566 0.1113184 -0.06429046 -0.16387333
-0.17240588 0.1396665 0.1024478 -0.167135 0.022442766 -0.14456211 0.006531888 0.012906469
0.008987101 -0.045913305 -0.13147947 -0.2477363 -0.17779815 0.2735076 -0.26857027 0.012052268
-0.05325023 0.024956979 -0.25112262 0.01806119 0.19704367 8.524739e-05 0.033060208 -0.22253911
-0.05709183 0.2562909 0.12912571 -0.111385256 0.047462095 0.041488476 0.051152464 -0.001400369
0.008840609 -0.014818132 -0.006729747 -0.073699735 -0.09497311 0.022213941 -0.034807682 -0.25643453

mu.weight f4 [4, 300]
00000000: 74bc 7fbd 5b7a 873c 3d99 023c 6e10 b1bc
00000010: d8f5 04be f175 163c 58c5 743d b8f4 8bbc
00000020: acaf 11bd b6f1 d53e e308 04bd 29b5 6e3d
00000030: 4d08 85bc 6b79 db3d 35a1 9e3e 3762 87be
00000040: 982a bc3c 25a1 6e3d 73d3 5c3e 91ce 21be
00000050: 1bf3 9abe a600 7abc 2a4b 763e f217 13bc
00000060: 6eb4 c83e 9ae5 66be 4635 3cbf ea50 d8be
00000070: f74d b23e 9107 a33e 2022 00be ed35 683e
00000080: 0775 003d 2d57 5c3d 93d6 89bd fd55 fc3d
00000090: a055 883f 2ddd 7a3d 63b7 953e 55fb 9f3d
000000a0: afd6 393e b48e 1ebe 7176 53bd 85d6 cc3d
000000b0: affb 61be af36 513d 88f2 413f 632c 1f3d
000000c0: ee64 c0bc 31a5 483e 2789 963d 3c77 c8bc
000000d0: 99b2 0c3e e93b 31be d077 9a3d e633 92be
000000e0: cc90 88bc 075a 9abe 16e6 fc3d 1019 6d3e
000000f0: 13d8 eebd 2e96 67bd e3d0 22bd 7567 7ebc
00000100: 5f67 f43d 5575 d73e ceb3 ed3e 5701 54bd
00000110: 7df4 143e 6e6a 98bd 5874 9b3d dcb5 96bd
00000120: 7b49 1bbe 1257 c7be 52a6 2cbd 271b 21bc
00000130: e220 723e c8e5 92bc 3b7d d8bb f21d 32bc
00000140: 4282 173e 11f7 6ebd 2626 8bbd 981d 5a3d
00000150: 3f84 2b3e 6e68 dc3b 373d 80be 1b5d 21bf
00000160: 5f28 adbd 1f7a 083f 3612 89be 797b 3cbc
00000170: a94d 83bc c34d b53e 3f47 973f b000 863d
00000180: 37d3 283e 6ad1 b5bd ece2 b73e 56d0 d9bc
00000190: 3336 bc3f 2094 74bf 1a6c 03be 0eb0 5f3e
000001a0: dffe 4a3d 4aaf d73d 50ca 44bd 60bf f33d
000001b0: 393f 75be fec9 363e e290 783e f704 df3d
000001c0: 86bc 82bc 96ae b4bd 56c1 dfbd ba3d 95be
000001d0: dd42 59bc 1937 fdbd 8f4c b93e 1995 37be
000001e0: ed0e 23ba c641 9cbc 0e7c 323d ae52 aabe
000001f0: 23ce 7d3d f94c 383f b938 e9be 9465 8a3c
00000200: 1841 023f f8e2 6e3e b188 83bd 870d d1bd
00000210: 400a 713d 2596 2ebc 6794 c33d 62fc 07bc
00000220: abfe 6abd 0b16 1bbd 4071 6fbe 4986 183e
00000230: 7472 533e 6d83 43be 13b7 28be c0a0 a03e
00000240: 09c1 9fbb 968d c0bc 258e 8cbe 3d0f cc3d
00000250: 4513 9abe df85 533e cc9b 26be dc07 4e3d
00000260: e97b a6bd dcf4 fb3d 679c d63d 241a 7cbd
00000270: 172d 083d 6bb5 64bd a138 563d 2db4 b53e
00000280: fcb5 143d 22d9 c8bc 732e 153d 789a 5dbd
00000290: 1481 913e 10bd 59be 21c4 94bc d21c cabe
000002a0: 4bf1 2a3e 08ab a23e d966 98bd 5220 843e
000002b0: 2bc1 8cbe 29fb 923c b48f 393e ae9a 2cbe
000002c0: 48ac 4abd 27cb bbbc 9a88 9bbb 387b acbc
000002d0: f946 c2be 7648 243e 45f9 f03e ffd5 763c
000002e0: 9ed7 e0bd 38f8 9b3b 52a6 af3d 13b3 cc3c
000002f0: 6b61 9fbe 9539 fd3e 4e26 2c3d d67c 57be
00000300: d380 59bd 4e82 2cbd 0e4a b8bd 4544 a8be
00000310: 1fd1 c73c ebe2 a83c 4ca2 a63d b78a 473d
00000320: 707b ecbd 3c9a d13e a89f 1f3e 9219 8bbe
00000330: ac65 2abe ba78 8fbd 0b61 633e 4338 d83d
00000340: 5b8f 0dbc 24c1 c73c 1c9f 18be f658 383d
00000350: b5f1 d53e 1cbb 2bbe 4cb0 823d e1ac 10bf
00000360: 1c7a 23bd d20f b83c 71df d63c ce50 523f
00000370: bae3 003e c416 49bd 6aae 303d 57cc 373d
00000380: 36e5 403d dcef 0f3e e882 1f3e 59d3 86bd
00000390: c8bc c93c 2648 423d 88d8 c83c 3e8e 853c
000003a0: 715b 57bc 7ec6 303e 21dd 89be 2d55 0ebf
000003b0: 7a15 1ebe 4f4d 22bc 3c46 07bf 5b44 2b3c
000003c0: a91e 17bc 8819 3abd f9bc cf3d 2b65 24bf
000003d0: ded0 cb3d a092 44bd 3402 8fbe 709b 87bd
000003e0: a2ca d03e f99b 213c 7710 07bd 97b9 a0bc
000003f0: d695 1ebd 4a86 403e e8fb d13c d398 2c3f
-0.062435582 0.016537836 0.007971105 -0.02161428 -0.12984407 0.009183393 0.059758514 -0.017084464
-0.035567924 0.41785973 -0.032235038 0.058278237 -0.01623931 0.10716518 0.30982366 -0.2644212
0.022969529 0.05825915 0.21565036 -0.15801455 -0.302636 -0.015258944 0.2405211 -0.008977877
0.39200157 -0.22548524 -0.7351879 -0.42249233 0.34825107 0.3184171 -0.12513018 0.22676821
0.031361606 0.053794075 -0.0673038 0.123210885 1.0651131 0.061246086 0.29241475 0.0781161
0.18148302 -0.15484124 -0.051626626 0.10001854 -0.22068666 0.05107754 0.757607 0.03886069
-0.023485627 0.19594266 0.073503785 -0.024470918 0.13740005 -0.1730801 0.07542384 -0.2855522
-0.016670607 -0.3014681 0.12348573 0.23154092 -0.11662307 -0.056539707 -0.03974999 -0.015527596
0.11933779 0.42081705 0.46426243 -0.05175909 0.1454639 -0.07442175 0.0759055 -0.07358906
-0.1516475 -0.38933617 -0.042150803 -0.009833134 0.23645356 -0.017931834 -0.0066067255 -0.010871397
0.14795783 -0.05834109 -0.067943856 0.05325088 0.16749667 0.006726316 -0.25046703 -0.6303269
-0.08454966 0.5331134 -0.26771706 -0.011504048 -0.016028242 0.3541089 1.1818618 0.065431
0.16486822 -0.08877833 0.35915315 -0.0265886 1.470404 -0.9553852 -0.12834206 0.21844503
0.04955947 0.105314806 -0.048044503 0.11901736 -0.23949899 0.17850491 0.24274018 0.10889619
-0.015959036 -0.08822362 -0.10925548 -0.29148656 -0.01326057 -0.12364025 0.36191222 -0.1792797
-0.00062201807 -0.019074332 0.04357534 -0.33266205 0.061964165 0.7199245 -0.45551088 0.01689414
0.50880575 0.23328769 -0.06422556 -0.10207658 0.058847666 -0.010655914 0.0954979 -0.008299919
-0.057371777 -0.03786282 -0.23383045 0.14894976 0.20649129 -0.19093104 -0.16476087 0.31372643
-0.0048753065 -0.023505013 -0.27452198 0.09963844 -0.30092826 0.20656537 -0.1627037 0.050300464
-0.08129103 0.123025626 0.1047905 -0.061548367 0.033246126 -0.055837076 0.0523001 0.35489026
0.036306366 -0.0245176 0.03642125 -0.05410239 0.2841879 -0.21263528 -0.018159928 -0.39475113
0.16693608 0.3177111 -0.07441492 0.25805908 -0.27491125 0.017942028 0.18121225 -0.1685588
-0.049480706 -0.022924019 -0.004746509 -0.021054849 -0.37944773 0.16043267 0.47065178 0.015065669
-0.10978626 0.0047598146 0.08576645 0.024987733 -0.31129012 0.49457994 0.042028718 -0.21043715
-0.053101372 -0.042116456 -0.089985 -0.32864586 0.024391709 0.020616015 0.081364244 0.048716273
-0.11546981 0.40937984 0.15588248 -0.27167946 -0.16640347 -0.07005449 0.22204988 0.10557606
-0.008640136 0.024384089 -0.14904445 0.045006715 0.4178597 -0.16770595 0.06381282 -0.5651379
-0.039911374 0.022468481 0.026229592 0.8215455 0.12586871 -0.049093977 0.043135084 0.044872608
0.047093593 0.14056343 0.1557728 -0.0658328 0.02462615 0.047432087 0.024517313 0.016303178
-0.01314436 0.17263219 -0.2692652 -0.5559872 -0.1543788 -0.009906127 -0.52841544 0.010453309
-0.009223619 -0.045434505 0.101434655 -0.6421687 0.09951948 -0.047991395 -0.27931368 -0.06621444
0.40779597 0.009863847 -0.032974686 -0.019619746 -0.038717113 0.18801227 0.025632814 0.6742069

mu.bias f4 [4]
00000000: bbf2 303c 0a24 3d3d 1fbf f43b c0ff c53d
0.010800059 0.046176948 0.0074690725 0.09667921

sigma.weight f4 [4, 300]
00000000: 635e 4f3c 9162 14bd 4615 023d 4b3f dfbc
00000010: ef5a 013c 69eb cd3c a332 73bd 68d9 c23c
00000020: 1bb0 1e3e b054 273d 0312 fa3d d9b6 033c
00000030: 9585 30bc 7178 663d 73b8 3ebc 29e7 a63c
00000040: fc19 05bc 7e91 7a3c c97f 1bbd 9ae4 acba
00000050: a392 8a3d 0409 f03a 0bdd 91bb 08d5 0d3d
00000060: c095 503d afe5 d93c d5c8 313d 7ac2 1dbc
00000070: 1d34 8bbc ef0e f9bc 491d e3bc 0ee4 cab9
00000080: 521a 063f 6811 c5bc 7106 84bd d312 bf3c
00000090: 22ce 783e 7189 7cba eb67 0ebd 05fd 00bd
000000a0: 880c 1fbd f984 9b3c bcaf 09bd 9026 833d
000000b0: 01d0 683c b8fe 043e ad66 193e 5d47 36bc
000000c0: 8aa0 f93c 1135 7d3d 0da3 ccbc f94e db3d
000000d0: ebc7 923c 9f5a b7bb 8d0a 1f3c 2a7e 843c
000000e0: a7e4 0dbc bbe5 183d 3865 aeba 12d8 3ebc
000000f0: dc36 1fbc f25f 96bc 53b3 83bc 8023 803d
00000100: d24c 953b 13d3 473d 218d b63c 5921 03bc
00000110: a1b0 38bd af0b 813d 5141 163e c15f c93c
00000120: d343 453c e085 353d 7e4d 25bc 6270 ffbb
00000130: aca9 e43c 1f7c 5bbc f43c a83c 6223 3b3d
00000140: 3059 22bc cf52 a53c 6cdc 2b3b cb88 b13c
00000150: db53 85bc 2e81 23bd 2b37 123d 2297 3abc
00000160: 9e46 733d 8b86 973d 3014 bcbb a15c aebb
00000170: 9ea6 403d 7651 19ba 4d2d c63d 43eb 4f3d
00000180: 5c42 fd3c 8755 a2bd a337 bfbc a57b ac3c
00000190: 70f9 0e3e 1ea5 793e 32aa f4bb 9822 713d
000001a0: 7abb b23c 5f61 963c 1391 7c3c 3f8b 1cbb
000001b0: cc24 ad3c 2e22 14bb 8915 003e a6d1 363d
000001c0: 4e5c 2d3b 1530 ea3c 3035 7f3d 3f0e f93d
000001d0: 14c3 c93d 229f 893c 6983 69bd d0a3 093d
000001e0: 87d7 2cbc 74af 02ba 31ab 0cbc 49d0 1fbc
000001f0: 84e5 4e3c f813 5f3d df2f 533d 4a75 9fbc
00000200: 1d24 653e d433 3e3b 3ce1 14bd 1f84 ccbc
00000210: 793a ff3d 3713 4f3c 4dcd dabc ac13 de3c
00000220: 4000 973c c608 d8bc 3e1d 053c 3b44 17bb
00000230: b781 3bbc eff6 a93d fc22 19bd 517d 363d
00000240: 7a1a f33b 4c2c ef3c 70d5 31bd 43ab b23d
00000250: 3887 1e3c bd5d e2bc 3202 303d d71e 4e3c
00000260: 6aec 76bc 0032 cc3b 52d4 de3c d0cb cc3c
00000270: 45b3 6b3d 87be b53c a4e1 ccbc db1c e13c
00000280: 148d 753d 1bdf e73c 7f77 0ebc eb2a 0cbc
00000290: 7730 883d 6ca9 b73d 3c01 da3c 57df 8a3d
000002a0: 3440 8cbc acf7 f93c 1247 863c 4aa9 21bd
000002b0: dad4 513d 6cf8 73bc 1350 493d f066 353d
000002c0: 9d91 523d 1b80 00bd aca6 843d f16c c93b
000002d0: cdbf aa3d 9cde 2b3b 365c c33d 582b 6e39
000002e0: b7d2 53bc be3f 15bd c471 8bbd ffe1 02bb
000002f0: a167 f33c fd7c 2abe 2b75 753c 95ea 37bc
00000300: b0a3 26bc 5960 fb3b 040b 053d 2de2 9f3d
00000310: 351f 6cbb 871d c83c 16b9 dd3c a7a0 3bbc
00000320: 760a 55bb b315 f23d d583 1e3e dba9 d43c
00000330: 5074 80bb 5c95 29bd 475c c33b 6af8 d63a
00000340: d446 913c 0d91 ab3d b873 6e3c 0a67 91bc
00000350: 0a90 18bd 2a2c 19bc 77ed 053c 0256 f33d
00000360: 638a c73b 9d6d 823c d151 163d 3aef b23d
00000370: 98bb 1a3d e9a9 143d 8955 a03c ee3f 133b
00000380: 587b 1abd e0a1 12bd 2ed9 c0bc f3ef 003d
00000390: e6a3 f93d b9a0 70bc 9d53 a03b 79a3 8e3b
000003a0: 00ed 11bd 3cd6 51bd 50f6 1b3d 0cfa 1b3e
000003b0: 2359 09bd 870e 643d 1fde c73d cf2f 863c
000003c0: 1e32 e23c 21c4 37bc 382c 733b ddcb 1e3d
000003d0: 270d a13c 8e44 573c 86f0 70bc bcf2 83bc
000003e0: 4195 f43c 234a b4bb f6e3 c1bc 4fca 1a3d
000003f0: 557c 843d 1495 64bd 8981 233d 245f 103e
0.012656781 -0.036226813 0.03175857 -0.02725186 0.007895215 0.025136666 -0.059374463 0.023785308
0.15496866 0.04085225 0.12210467 0.0080392 -0.010774036 0.056267206 -0.011640656 0.020373898
-0.008123871 0.015293477 -0.037963662 -0.0013190687 0.0676625 0.0018313234 -0.004451399 0.03462699
0.050924063 0.02659878 0.04340442 -0.009628886 -0.016992623 -0.030402629 -0.027723925 -0.00038698356
0.5238391 -0.024056152 -0.06446541 0.023324406 0.24297383 -0.00096335175 -0.034767073 -0.0314913
-0.03883031 0.018984305 -0.03361486 0.064038396 0.014209748 0.12987792 0.14980574 -0.011125413
0.030472059 0.061818186 -0.024980092 0.10708422 0.017917594 -0.0055955197 0.009707105 0.016173441
-0.008660472 0.037328463 -0.0013305312 -0.011648195 -0.009717669 -0.018356297 -0.01607672 0.06256771
0.004556277 0.04878528 0.022284092 -0.008003556 -0.04509032 0.063010566 0.14673354 0.024581792
0.012040096 0.044317126 -0.010089276 -0.0077953795 0.027912937 -0.013396292 0.020536877 0.04568804
-0.009908959 0.020181088 0.002622391 0.021671673 -0.016275337 -0.039918117 0.035697144 -0.011388572
0.059393518 0.07398709 -0.005739711 -0.005321101 0.0470339 -0.00058486254 0.09676609 0.050761472
0.030915432 -0.07926469 -0.02334196 0.021055052 0.1396234 0.24379393 -0.007466578 0.05887088
0.021817911 0.018356977 0.015415448 -0.0023886708 0.02113571 -0.002260338 0.12508215 0.04463353
0.0026452723 0.02858738 0.062306583 0.1216092 0.09851661 0.016799513 -0.057010088 0.03360349
-0.010549433 -0.0004985251 -0.008585737 -0.009754249 0.012627963 0.054462403 0.051559325 -0.019465107
0.22377057 0.0029022591 -0.036347613 -0.024965344 0.12462325 0.0126388585 -0.026709223 0.02710899
0.018432736 -0.026371371 0.008124648 -0.002308144 -0.011444501 0.08299052 -0.03738688 0.044553105
0.0074189277 0.029195927 -0.04341644 0.08724072 0.009675793 -0.027632589 0.042970844 0.012580595
-0.015071014 0.0062315464 0.027200852 0.02499953 0.05754401 0.022185577 -0.025009938 0.02747958
0.059948996 0.028304627 -0.008695482 -0.008555154 0.06649869 0.089678615 0.026611917 0.0678088
-0.017120458 0.030513607 0.01639131 -0.039468087 0.05122838 -0.014890771 0.04914863 0.044287622
0.0514084 -0.03137217 0.06477103 0.00614702 0.08337364 0.0026225215 0.09539072 0.00022713596
-0.012928656 -0.036437742 -0.068088084 -0.001997113 0.0297125 -0.16649242 0.014981548 -0.011225362
-0.010170862 0.0076713976 0.03248121 0.078068115 -0.0036029343 0.024428142 0.027065795 -0.011451877
-0.0032507456 0.11820545 0.15479977 0.0259599 -0.0039201155 -0.041402206 0.005961928 0.0016400937
0.017733969 0.083772756 0.014553957 -0.017749328 -0.03724674 -0.009348908 0.008174292 0.11881639
0.006089495 0.015921408 0.03669912 0.08737035 0.03777656 0.03629485 0.019572036 0.0022468525
-0.037715286 -0.035798907 -0.02354106 0.031478833 0.12189464 -0.014686757 0.00489278 0.0043529836
-0.03562641 -0.0512297 0.0380767 0.15232104 -0.033532273 0.055677917 0.09759163 0.016380219
0.027611788 -0.011216194 0.0037105214 0.038768638 0.019659592 0.013138903 -0.014705783 -0.016106956
0.029856326 -0.005502002 -0.02366827 0.037790593 0.06469027 -0.055806234 0.039918456 0.14098793

sigma.bias f4 [4]
00000000: d833 a13e 3b80 c23e 4d2f a73e 65b9 b13e
0.31484866 0.37988457 0.32653275 0.34711757
