SAC_own_hardcore/sac_400/critic_1_sac.pth (torch, 531386 bytes, 5 tensors)

fc1.weight f4 [400, 28]
000000 8d 9a de bd c3 c6 db bf cd 74 9a 3f f8 d0 0e 3b
       -0.10869322 -1.7170032 1.2066895 0.0021792036
000010 4e fa 50 bf 57 e2 7f 3e e0 5d 2f bf d0 1f 3d 3f
       -0.81631935 0.24988686 -0.68502617 0.7387667
000020 3b b2 50 bc 2d 9b 35 3f 62 b5 fc 3c 12 b7 53 3e
       -0.012737806 0.70939904 0.030848209 0.20675305
000030 ad 2a 2b 3e 6d 81 13 3e a7 73 e4 3e a2 c0 f1 3d
       0.16715498 0.14404841 0.44619486 0.1180432
000040 c7 d8 dd 3d 97 a4 20 bc 55 0a 2d be db df a2 bd
       0.108323626 -0.009804866 -0.16898473 -0.07952853
000050 e2 08 1f bd b0 96 fd 3d d6 41 81 3d 14 38 89 bd
       -0.03882683 0.12382257 0.06311385 -0.06700149
000060 33 5b 72 3e 04 cb 82 3e 20 b0 34 3e ba 2c dd bd
       0.23667602 0.25545514 0.17645311 -0.107995465
000070 1f 37 29 bd c1 bb 9c be c8 82 0f 3f 16 6f 8b bd
       -0.041312333 -0.30611995 0.5605893 -0.06808297
000080 4e 0f 3a 3d c3 a2 13 bc 49 b8 12 3e 20 38 1b bf
       0.045424752 -0.009010973 0.14328112 -0.60632515
000090 17 ff 29 bd b3 9a d3 3d e2 79 09 bd 9a 05 83 3e
       -0.04150304 0.10332241 -0.033563502 0.2559021
0000a0 f4 6f 1c bd 94 b8 62 be 47 e2 9e bd c6 60 2d 3e
       -0.038192704 -0.22140723 -0.07758003 0.16931447
0000b0 33 a5 5c 3e 40 a9 a4 3e 69 61 bf 3d 26 2d b7 be
       0.21547394 0.32160378 0.093447514 -0.35776633
0000c0 5f 88 2f be d0 63 7c 3d cf 53 cc 3d c3 cb a4 3d
       -0.17141865 0.061618626 0.09976923 0.08046677
0000d0 be 43 0c 3d 65 ff ea 3b ec 75 2d bd 9a e2 39 3e
       0.03424429 0.0071715587 -0.042348787 0.18152848
0000e0 20 af 84 3e b0 0c 01 be 0f c8 9b 3e ce 47 8b be
       0.2591486 -0.12602496 0.3042607 -0.2720322
0000f0 84 45 7e 3e d0 fd 34 bf 9e 20 d6 bd 58 0a cb 3d
       0.24831206 -0.7069979 -0.1045544 0.09914082
000100 ec ac f7 bc 60 0f d6 bb e5 ee ba be bd 42 9c 3e
       -0.030233823 -0.0065325946 -0.36510387 0.30519667
000110 fc 1f 0f be ba 91 b2 bd 8b d5 31 3e 2c 19 c5 3e
       -0.13977045 -0.087192014 0.17366616 0.38495767
000120 84 15 6b 3e cf 18 ac 3d 8a 5c 5d 3e fb 2f 33 3e
       0.22957426 0.08403169 0.21617332 0.17498772
000130 35 46 96 3e f0 9a 8c 3e f8 59 1d 3e fc 71 a6 3e
       0.2935044 0.27461958 0.15366352 0.32508838
000140 ec cc a3 ba 49 21 72 3c 6b 58 2b be d4 24 ae bd
       -0.0012496985 0.014778444 -0.16732948 -0.08503118
000150 ee fb a0 be 12 78 10 bf 78 c5 4f 3e ba 8c 34 3f
       -0.31442207 -0.5643321 0.20290172 0.7052723
000160 7f 0c f6 3d ed 7d 24 bf dc fb da be b3 2a 16 3f
       0.12014102 -0.6425465 -0.42770278 0.58658904
000170 80 b2 0d bf fd 2c 3c 3e ca 1d 26 3e 97 42 9d bd
       -0.55350494 0.18376537 0.16222301 -0.07678717
000180 b5 44 b6 3e 64 5e eb 3e 1b 20 9e bd 31 7b 0d 3e
       0.35599294 0.45970452 -0.077209674 0.13816525
000190 e2 b5 ca bd b8 fc 2a 3e e7 26 49 3e 76 9f 81 bd
       -0.09897973 0.16697967 0.19643746 -0.06329243
0001a0 49 77 92 3d bb 11 93 3d ad 3c cc bd 10 d8 5c bd
       0.07151658 0.07181116 -0.099725105 -0.05391699
0001b0 cd 39 39 bf 7f 0f ba 3c ab 0e fa 3e f3 78 b0 3d
       -0.7235382 0.022712467 0.48839316 0.08616819
0001c0 24 a7 74 bc c8 f7 58 bf ec c3 75 3d 18 5e b1 3e
       -0.014932428 -0.84753084 0.0600013 0.346421
0001d0 e0 76 f7 3c 33 72 97 3e cd b4 32 3d 1b cc 76 3c
       0.030208051 0.29579315 0.043629456 0.015063311
0001e0 ec f0 62 3e 80 a7 8b bc 7e 27 a6 3d e2 bf 5f be
       0.22162217 -0.017047644 0.08113001 -0.21850541
0001f0 87 f7 05 bc 5f 14 d0 3d 36 12 80 3e 84 db 87 3c
       -0.008176691 0.101601355 0.25013894 0.016584165
000200 02 75 e4 bd ab a4 bd 3c c0 46 fb bd 98 87 51 3e
       -0.1115513 0.023149809 -0.12269354 0.20461881
000210 18 0f 37 3e ad ac 5e 3e 7a a0 fe 3d 43 06 20 3d
       0.17876852 0.21745558 0.12432952 0.03906847
000220 9d 12 95 bd f9 d9 97 be 7c be 57 3e 3f 28 46 3d
       -0.07278941 -0.29658487 0.21068758 0.048378225
000230 47 14 aa bf b0 e5 36 bf 94 cd 2d be d5 2d ae 3d
       -1.3287438 -0.71444225 -0.16972953 0.085048355
000240 8b 2b ef 3e 0a fe 44 3f 04 26 52 be 7f 86 77 3e
       0.46712908 0.7695013 -0.20522314 0.241724
000250 bb b1 2d be 9c 18 31 3f 93 d8 53 3e 93 71 8f bc
       -0.1696233 0.69178176 0.20688085 -0.017510211
000260 51 9e 12 3e 70 b8 24 be d1 58 29 3f b5 77 72 3f
       0.14318205 -0.16085982 0.6615115 0.9471391
000270 50 0a 55 3f 16 ad e7 3e b9 c0 75 be 3a 50 09 bf
       0.8321886 0.45249242 -0.23999299 -0.5363804
000280 e9 8b 21 bf d7 92 72 bf e3 73 65 bf 7e 1e 1c bf
       -0.6310411 -0.9475531 -0.89629954 -0.6098403
000290 7c fc b0 3d bb c3 80 3e f9 52 02 3e 02 22 ba bd
       0.086419076 0.2514933 0.12726964 -0.09088518
0002a0 da ad a5 3e 5e fa 46 3f 6a e1 1b bf 7a 4d d8 3e
       0.323592 0.7772578 -0.6089083 0.4224661
0002b0 4b e3 89 3e fb 92 a5 bc 20 43 8b be 79 cc fd bd
       0.26931223 -0.020211687 -0.2719965 -0.12392516
0002c0 6b 52 05 3e 6f 92 1f be 2e 4d 76 3d ba d4 8c be
       0.13019721 -0.15583204 0.060132198 -0.27506047
0002d0 42 72 02 be 42 6d 6e bd 53 e1 a2 3e 8d 5c 10 3e
       -0.12738898 -0.058209665 0.31812534 0.14097805
0002e0 bd b7 32 3c 63 c7 03 3d d2 f3 9d bb 7e 19 8c 3e
       0.010908064 0.032172572 -0.0048203254 0.273632
0002f0 fe 66 de 3d e6 9f 19 3e d8 6e a9 3e 92 29 f4 3d
       0.10859488 0.15002403 0.3309238 0.119219914
000300 75 f5 12 3c 2f 1e 8d be 68 71 17 3e b1 f0 a1 3e
       0.008969654 -0.2756209 0.14789355 0.31628945
000310 fa 91 00 bd a1 69 d3 be 55 1a 89 3f d1 65 99 bf
       -0.031389214 -0.41291526 1.0711161 -1.1984197
000320 c2 0b 27 bf 44 21 e2 be 28 cd 2f bb 87 98 16 3e
       -0.65252316 -0.44166005 -0.0026825164 0.14706622
000330 ea ca 36 3e 5b 54 01 3d b2 0d c2 be 1f 7e 27 bd
       0.17850843 0.03157459 -0.37901074 -0.040891763
000340 85 d5 4f 3e e8 26 18 bf 0a c1 2b 3f 5e 2a 99 3e
       0.20296295 -0.59434366 0.6709143 0.29915136
000350 c0 36 8e 3e 59 d7 8b 3d 8b 98 4d bd 1f 5a d6 bd
       0.27776146 0.06828184 -0.050194304 -0.10466408
000360 4d d8 6d 3e 50 28 b3 3d a6 3d 41 3d 91 4b 12 3e
       0.23227043 0.087479234 0.047177933 0.14286639
000370 c1 db 22 3f 66 9e 9f 3e 47 56 3f bf 1d c7 25 3e
       0.6361657 0.31175536 -0.74741024 0.16189237
000380 42 79 82 be fe d5 0b bf e9 1f 14 3f d5 fe 79 bf
       -0.25483137 -0.546234 0.5786119 -0.9765447
000390 15 16 d8 bd c1 52 e0 3d 58 27 8e 3e 25 54 84 be
       -0.10551087 0.10953284 0.27764392 -0.25845447
0003a0 ac de 9a 3e a1 a6 60 bf 50 5e 16 3e 72 6e 29 be
       0.3024801 -0.87754256 0.14684415 -0.16546038
0003b0 16 1d 1e 3e 6a cc d7 3e e4 7d ed bb 3a 95 9d 3d
       0.15440783 0.42148143 -0.0072476733 0.07694478
0003c0 56 6d 0d be af 19 9a be d0 0a 14 be 08 86 a1 bd
       -0.1381124 -0.3009772 -0.1445725 -0.078868926
0003d0 bc 7c 19 be 1d 26 7b be 7e 8c b3 bc 9e d9 ca bd
       -0.14988989 -0.24526258 -0.021917578 -0.099047884
0003e0 82 56 cb bd d2 4d 38 3d 15 dd 31 3e 62 00 9a be
       -0.099286094 0.04499609 0.17369492 -0.30078417
0003f0 77 f2 09 3f 9b a2 21 40 97 c0 e2 be c1 24 cf be
       0.53885597 2.5255497 -0.4428756 -0.40457729

fc1.bias f4 [400]
000000 8c 65 80 3e e8 f9 8d 3e 00 47 76 3d e6 97 93 3d
       0.25077474 0.27729726 0.060126305 0.07206707
000010 b5 9f da 3d 24 27 df be c3 3a ac 3d 55 57 10 3e
       0.10674993 -0.4358455 0.084096454 0.14095815
000020 96 56 05 3d 3f 31 2e be 0d b4 04 be 78 4e b4 3c
       0.032553278 -0.17010973 -0.12959309 0.022010073
000030 b4 b8 1d 3e 43 c7 66 3f 72 d1 4b be ad 8c 92 3e
       0.1540249 0.901478 -0.19904116 0.28622952
000040 a4 68 b8 3e c4 e4 00 be 09 26 0c 3e de 4f 2a 3e
       0.36017334 -0.12587267 0.13686384 0.1663203
000050 59 44 1f 3e bf 45 1e bd 60 f7 48 3e af 04 1d 3f
       0.15553416 -0.038640734 0.19625616 0.6133527
000060 d0 39 39 be 43 6a f3 3d cd c4 a6 ba 5f 73 bf 3e
       -0.1808846 0.11885502 -0.0012723446 0.3739271
000070 cb 5e 12 3e 9c 09 26 3f 2a 88 21 3d 54 25 5b 3e
       0.14293973 0.6485841 0.039436497 0.21400958
000080 92 a7 62 bd a4 61 1e 3e cf a8 d3 bd cd 69 66 be
       -0.05533559 0.15466934 -0.10334932 -0.22501297
000090 02 75 2e be c0 0c 29 be a2 2b 13 3e 13 7a 66 3e
       -0.17036822 -0.1650877 0.14372113 0.22507505
0000a0 87 42 7d be 24 d4 b8 bd 80 00 b9 3e e5 56 4c be
       -0.2473241 -0.090248376 0.36133194 -0.19955023
0000b0 83 39 4a 3d 8f 7c d0 bd 24 77 32 bd 7d dc 85 3e
       0.049371254 -0.10180008 -0.043570653 0.26144782
0000c0 59 75 de 3e d4 d7 e4 3e 87 f9 6f 3e a1 37 35 3e
       0.43448904 0.44695914 0.23435031 0.17697002
0000d0 5e 95 37 3e dd 5d b1 3e de 22 92 bd d5 7a 0d bd
       0.17928073 0.34641925 -0.07135557 -0.03454097
0000e0 9a ea 2b be 08 0a d0 3d ac 50 30 bd b7 a3 12 3e
       -0.16788712 0.10158163 -0.043045685 0.14320265
0000f0 79 b5 33 3e c5 bc da bc 28 e6 72 3e 1a d3 1e bd
       0.17549695 -0.02670134 0.2372061 -0.03877554
000100 49 c2 07 3f 68 e8 71 be fd 6e 96 3e bd 93 eb bd
       0.5303083 -0.23623812 0.29381552 -0.11502788
000110 e9 56 1a 3e d4 5f 58 bd e9 83 c2 3d 6b c4 f7 3a
       0.15072216 -0.052825764 0.09497816 0.0018903142
000120 54 8d ac 3d d0 1d df 3b 72 0e 77 3e 93 5d ba 3d
       0.08425394 0.006808974 0.24126604 0.09099879
000130 9e f3 3e 3f 57 9c 89 3c 32 a3 65 be b2 a4 bb 3d
       0.7459048 0.016798181 -0.22425535 0.091622725
000140 84 28 62 bd f6 02 66 3e 68 e2 dc bd 32 52 a5 bd
       -0.05521442 0.22462067 -0.10785371 -0.08072318
000150 c6 75 92 be 00 4f 2e 3f ea ca 52 3d 49 43 14 3f
       -0.2860548 0.68089294 0.051463045 0.5791517
000160 3f 81 11 3f c5 9d 94 3e f9 b5 d4 3c 1c 8c 8b bd
       0.5683784 0.2902662 0.025965678 -0.06813833
000170 80 2f 49 3e 59 1a 97 be 9b 0a 9d 3e ca b2 71 bd
       0.19647026 -0.2951229 0.30672154 -0.059008397
000180 20 59 de be 4a cb f6 3b 31 ef 25 3d 48 01 7d be
       -0.43427372 0.007531558 0.040511314 -0.2470752
000190 f2 db f6 3c d1 cb 10 3d d3 9a 20 bd 46 fb 94 3e
       0.030134175 0.035350624 -0.039210152 0.29097956
0001a0 ae 72 3f 3e 0a ee f8 be 82 f0 23 be 7f 11 19 be
       0.1869609 -0.4861911 -0.16009715 -0.1494808
0001b0 63 1c a4 3e 5d c3 ae 3e ec bf ca 3d 89 f3 f5 3d
       0.32052907 0.34133425 0.098998874 0.12009341
0001c0 ea 3f 22 3f 47 f5 82 3e 9d b3 a8 3d 7d 31 3d 3e
       0.63378775 0.25577757 0.082373835 0.1847591
0001d0 54 eb c2 bd 60 d6 8f be a2 6f f5 be 03 d1 c7 3d
       -0.095175415 -0.28093243 -0.47936732 0.09756663
0001e0 e3 87 e5 3e 25 1a 21 3e f6 73 39 3d 86 84 93 be
       0.44830236 0.1573263 0.045276605 -0.28812045
0001f0 26 a5 1f 3f 2f bf ac be 74 41 cb 3e 92 49 bc 3d
       0.6236137 -0.33739612 0.39698374 0.0919372
000200 ae 00 27 be a9 ad 59 3e a0 ab d1 3e 96 db e7 bc
       -0.16308853 0.21257652 0.40951252 -0.028302949
000210 98 d7 12 be f1 c1 89 3d ee bd da 3e 9b 8a c5 3b
       -0.14340055 0.067264445 0.4272303 0.006028486
000220 10 d2 87 be eb fc 8b bd fc 0b 06 3c 72 32 64 bd
       -0.26527452 -0.0683535 0.008181568 -0.05571217
000230 9f 4d 1b 3e c0 ec 31 3a de d5 d5 bd 92 0c 19 bd
       0.15166329 0.00067872927 -0.104411826 -0.037365504
000240 0b 67 18 bd 6b f9 66 bc 52 92 3a 3f 70 bc bd 3d
       -0.037207644 -0.014097552 0.7287952 0.09264457
000250 c5 80 dc 3d 0c 03 0f bd ef 9c ca 3e ef b1 03 3e
       0.10766748 -0.034915015 0.39572856 0.12860845
000260 15 ff d0 3e 7d 7f 58 3d 4c d3 9d 3e 6e ce de bb
       0.40819612 0.052855957 0.3082527 -0.0067995107
000270 4c 9a 4d 3e 37 8d 24 3e 33 9d ef be 4d 5e 39 bd
       0.20078391 0.16069494 -0.4679962 -0.045255948
000280 c6 c3 62 3e d2 df 9c be b7 02 3b bd 62 b3 a4 3d
       0.22144994 -0.3063951 -0.045656886 0.08042027
000290 5a 63 67 bd 80 63 e3 bd 2d 86 a0 bd 22 63 bd bb
       -0.056491233 -0.111029625 -0.07838092 -0.00577964
0002a0 45 25 1b 3f 8a ef 69 3e 3d 00 8c 3e 15 b6 e1 bd
       0.60603744 0.22845283 0.27343932 -0.110210575
0002b0 c5 86 41 3e 27 11 7e 3c 8c 91 7c be b4 53 87 3e
       0.18899067 0.015507019 -0.24664897 0.26431048
0002c0 0a 68 0b 3e 74 18 29 be 83 08 8c be 6f 01 4a 3e
       0.13613907 -0.16513234 -0.27350244 0.1972711
0002d0 00 0d 1b 3e 87 93 2d 3e f2 95 20 3f 3c 73 c0 bb
       0.15141678 0.16950808 0.627288 -0.005873112
0002e0 c6 92 39 bd 64 e2 14 be b2 bc a8 3e 10 60 c7 bd
       -0.04530599 -0.14539486 0.32956463 -0.09735119
0002f0 37 b2 06 be a3 e1 29 bd 2b c3 4a 3e 6a 2d 20 3f
       -0.13153921 -0.04147495 0.19801013 0.62569296
000300 4e fc 8e ba 5c d0 d1 3e 1d 22 13 3e a1 37 8b 3d
       -0.0010908933 0.40979278 0.14368482 0.0679772
000310 91 72 57 bd d9 14 7f 3e d8 41 9e 3d df 37 e0 3d
       -0.052599493 0.24910296 0.077274024 0.109481566
000320 54 0d 47 be 70 9f 85 3e 62 05 69 3e fa de af bd
       -0.19438678 0.26098204 0.2275596 -0.08587451
000330 20 23 d6 3d bc 4c a6 be e0 4a 0c 3d 61 f0 4d 3e
       0.10455918 -0.3248042 0.034251094 0.20111229
000340 43 74 26 bf 3b 0a ae 3d 14 4a 74 3e ee ad 0a 3d
       -0.6502115 0.08498045 0.23856384 0.03385728
000350 e0 29 87 3e 21 f6 4b 3b 03 a1 0b bd c6 8f 96 be
       0.26399136 0.0031122046 -0.0340891 -0.29406565
000360 ae 79 27 bd ad 9a 1c 3f 4b 67 25 3f c2 c3 80 bc
       -0.040887527 0.61173517 0.6461074 -0.015718345
000370 9d 40 17 3e 5b e7 89 be 3f da 06 3e 6f f7 1b 3f
       0.14770742 -0.26934323 0.13169192 0.6092443
000380 49 f8 cf 3e 96 97 9b 3e 1b c9 4f 3e 89 55 e2 3c
       0.40619114 0.30389088 0.2029156 0.027628677
000390 ca 8a f5 3d 78 3c 97 3e 6f 29 7c 3e d5 86 24 3e
       0.119893625 0.29538321 0.2462518 0.1606706
0003a0 33 c5 0b be 64 d5 1b 3f 12 44 b4 bd a8 df 0e 3e
       -0.13649444 0.60872483 -0.08802046 0.13952506
0003b0 e8 b4 23 bc 7c 60 40 3e 41 26 0f be 32 c6 22 3d
       -0.009991862 0.18786806 -0.13979436 0.039739795
0003c0 84 48 b7 3d be 55 00 3e 02 17 6b 3e 58 33 d4 bd
       0.08949378 0.12532708 0.22957996 -0.103613555
0003d0 64 42 87 be 24 aa dc 3e 91 4b da bc 8a ba de 3d
       -0.2641784 0.43098557 -0.026647361 0.10875423
0003e0 58 06 e7 3d 36 61 0a 3f 12 44 9a bd cb 19 a6 3e
       0.11280507 0.5405458 -0.07532515 0.32441553
0003f0 8d 63 f1 bd e6 e3 14 3f 80 ec 28 3f fb d9 7a 3e
       -0.11786566 0.58160245 0.6598587 0.24497215

fc2.weight f4 [300, 400]
000000 fb 69 57 bd c2 34 8f bc d1 cb 6b bd ab 90 2b bc
       -0.052591305 -0.017481212 -0.05756742 -0.010471503
000010 cc 26 d1 3b b6 86 90 bc 34 96 46 bb a3 4b 00 3d
       0.006382799 -0.01764236 -0.003030193 0.031322133
000020 be f2 70 bc ad 46 20 3d 9b b6 4d 3c db 49 aa 3c
       -0.014706312 0.0391299 0.012555744 0.02078717
000030 68 96 14 bd b7 50 ba 3c e9 67 b6 bc 04 a1 23 bd
       -0.03627625 0.022743566 -0.022266345 -0.03994848
000040 d9 59 bf ba 6c f8 27 bc 14 71 ba bc 20 7b d3 bc
       -0.001459892 -0.0102520995 -0.022758998 -0.025815547
000050 4a 07 42 bc 4a 35 13 bd 54 b1 0d 3d ba 4b 4a bd
       -0.011842558 -0.035939492 0.03459294 -0.049388625
000060 b2 76 06 3d b0 47 51 bb c0 a6 1d 3a 45 b0 e3 3c
       0.03282804 -0.0031933598 0.00060139224 0.027794013
000070 b0 ba 7f 3b 51 97 e2 3c 80 d8 23 ba 6d ca 8d 3b
       0.0039021187 0.027660044 -0.00062502176 0.0043271095
000080 ad b6 71 bd 23 78 c2 bc dd db 1d 3d 0d 00 62 bd
       -0.059012104 -0.023738926 0.038539756 -0.05517583
000090 ec 5f 29 3c 93 5d 49 bc 10 83 60 3c 25 fb 4d bd
       0.010337811 -0.012290376 0.013703123 -0.05028834
0000a0 2e fa bd 3c 3c af 80 bc 55 d7 42 bc 98 a1 f0 3b
       0.023190584 -0.015708558 -0.0118921595 0.007343482
0000b0 58 df 13 bc e5 3d b1 bc 98 ff b0 3b 12 1d 87 3a
       -0.009025417 -0.021635959 0.005401563 0.0010308346
0000c0 0e 9b ff bc 26 ad 08 bc 89 84 cf 3a 0a 13 87 3c
       -0.031201866 -0.008342063 0.0015832345 0.01648857
0000d0 be cd 03 3c 37 0f d7 3c b2 b7 e8 3c 27 08 97 bb
       0.008044658 0.026252372 0.028407905 -0.004609126
0000e0 ee be ad 3b cc 61 2d 3c 4e 81 b7 bb b5 ae 9f 3c
       0.0053023016 0.010582399 -0.005600131 0.019492486
0000f0 42 a0 30 bd aa 5d 78 bd 5c 1a 56 3c 87 d3 40 bd
       -0.043121584 -0.0606362 0.013067808 -0.04707673
000100 9b f8 95 bb 3d 8f b4 bc 5b 5c 83 bd b7 2e c5 bc
       -0.004576755 -0.022040958 -0.064141 -0.024070127
000110 4c 35 78 3c a8 16 97 3b 84 0f 50 3c 80 67 3c bd
       0.015149426 0.004610855 0.012699012 -0.045997143
000120 21 07 3b 39 21 71 28 bc 94 2e 9c bc a2 b8 02 3c
       0.00017836365 -0.010280878 -0.019065179 0.00797859
000130 eb ed cb 3b 63 d1 09 3d 31 7f 44 3d 73 43 f2 3c
       0.0062234304 0.033646952 0.04797286 0.029573178
000140 70 7b 5e bd 28 ca 3f bd a9 a0 1c bd c1 f6 92 bc
       -0.054316938 -0.04682365 -0.038239155 -0.017939927
000150 5d 81 a8 3c 20 1e 79 bd 8d 81 db bc 34 59 6a bc
       0.020569498 -0.060819745 -0.026795173 -0.014303494
000160 06 13 cf bc c0 d7 c0 bc 3d 6e db bc da ac 75 bc
       -0.025277626 -0.023540378 -0.026785964 -0.014994824
000170 1c 39 83 bd af 41 44 3b f6 5b a9 bc c1 51 a7 bc
       -0.06407377 0.0029946377 -0.020673733 -0.020424725
000180 3a fc 27 bd da f1 9d 3c a7 30 32 3c 81 b9 24 bd
       -0.041012026 0.019280363 0.010875857 -0.040215973
000190 2c c4 53 3c d3 26 62 bd b3 13 d9 3c 66 12 07 bd
       0.012925189 -0.055212807 0.026498651 -0.03297653
0001a0 78 a5 bc 3c 96 e8 81 bc 27 42 cf bc 4e dd 0f 3c
       0.02302812 -0.015857976 -0.025300099 0.0087807905
0001b0 16 d6 f9 ba be 49 7a bd 27 f1 f6 bc dc 6f 5b bd
       -0.0019060995 -0.061105482 -0.030144287 -0.053573474
0001c0 2c 08 44 bd f2 75 fd 3c a8 b6 49 bd 39 ca 29 bd
       -0.047859356 0.03094003 -0.04924646 -0.04145262
0001d0 79 a6 98 bc 80 57 2d bd 78 9f 59 3c dd 9c 0f 3c
       -0.018634068 -0.042319775 0.013282649 0.008765426
0001e0 73 48 60 bd f2 2f e3 bc c8 02 25 bc 20 8a 15 bc
       -0.054756593 -0.027732823 -0.010071464 -0.00912717
0001f0 2f da 1f bd f8 9e 83 3c ea 69 b5 bc ec 1a 31 3d
       -0.039026435 0.016067013 -0.02214523 0.043238565
000200 00 bb 2c b9 96 68 f2 bc 9c e7 47 bd 6e 5a 27 bd
       -0.00016472861 -0.029590886 -0.048804864 -0.040857725
000210 05 3e 53 bd 38 43 36 bd 5a 49 83 bc fd d1 0e 3d
       -0.05157282 -0.0444977 -0.016026188 0.03486823
000220 b0 c7 9a bb 9d 6c 2f bd 99 c8 08 bd 7e 31 b6 bc
       -0.0047235116 -0.04282819 -0.03339443 -0.022240397
000230 24 0f 89 3b 87 96 53 bd d6 d3 9f 3c b4 1a ee bc
       0.004182713 -0.051657226 0.019510191 -0.029065467
000240 d7 5c 29 bd 0b 9b 23 bb 49 21 e5 ba 1b 16 89 3c
       -0.041348305 -0.002496424 -0.0017481233 0.016734174
000250 5e eb e4 3c 8c 29 62 bd bb 51 56 3b ca ee 99 3c
       0.027944263 -0.055215403 0.0032702524 0.018790621
000260 f7 87 4a bd 98 de 39 3c 75 ae 5f bc 97 9c ad bc
       -0.049446072 0.011344574 -0.013652434 -0.021192832
000270 95 cd 00 3d 2b 3b 2a bd d5 63 50 bd f3 24 e4 bc
       0.03144606 -0.041560333 -0.050876457 -0.02784965
000280 b7 13 a5 bc 63 ab 16 bd f0 52 0d bd c9 ed f7 3b
       -0.020151002 -0.03678454 -0.034502923 0.007566188
000290 32 4b 86 3c 1a 4e b0 3c 38 22 c6 bb 7f 3c 43 3b
       0.016393278 0.021521617 -0.0060465597 0.0029790697
0002a0 83 97 54 3b d7 a7 2b 3c f9 38 cb 3a 00 48 7d 3a
       0.003243894 0.010477028 0.001550465 0.0009661913
0002b0 f2 60 e6 bb f8 ae cd 3c 6f 19 2e bd 6e 3f 91 3c
       -0.0070305998 0.025107846 -0.042504724 0.017730441
0002c0 e9 5b 9e ba ab 7f 88 bc c3 c2 42 3d d0 c2 82 3c
       -0.0012081835 -0.01666244 0.04754902 0.015962034
0002d0 b1 e3 cb 3c e6 3e 06 bd 3f 87 28 bc fc 4d 0d bd
       0.024888845 -0.03277483 -0.010286151 -0.0344982
0002e0 61 53 94 3c ec c4 e7 bc 03 2c 47 bd 32 6b e8 bb
       0.018106164 -0.028292142 -0.048625957 -0.007092857
0002f0 94 7f 98 bc 80 c6 17 3d e0 aa 28 bd ac 74 79 3c
       -0.018615521 0.03705454 -0.041178584 0.015225571
000300 8a 68 dd b9 5c da cd 3c 4d 6d 76 3c 3c f8 c5 3c
       -0.00042230292 0.025128536 0.015040708 0.024166219
000310 c1 ac 23 bc b4 ac 45 3c 84 bb 8c 3a d7 56 cb 3c
       -0.009989918 0.012065101 0.0010737036 0.024821682
000320 13 8b 32 bd be 21 15 3d 98 30 3c bd 8f 1c 39 bd
       -0.043589663 0.036409132 -0.04594478 -0.04519325
000330 95 9d 13 bd 8a 01 d7 3c ae 81 08 3d 41 9a 38 bd
       -0.036038954 0.026245851 0.033326797 -0.045068983
000340 98 ed bb 3b ef e1 b7 bc 38 b5 0b bd 46 c0 17 bd
       0.0057351105 -0.0224466 -0.03410837 -0.0370486
000350 00 0a fd 3c 7a 57 57 bd 50 9d 7e 3b 04 c8 7c 3c
       0.030888557 -0.05257366 0.003885109 0.015428547
000360 98 ba 0d bd f7 6c 50 bd 7a bc 5d bd 7f 89 1f 3d
       -0.034601778 -0.050885167 -0.054134823 0.038949486
000370 45 29 18 3d 25 b5 75 bc 63 97 23 bd 92 9e 53 3c
       0.037148733 -0.0149968015 -0.039939296 0.012916224
000380 eb ec 6d bd 62 66 e0 3c 32 33 c5 3c 27 45 f6 3b
       -0.05808727 0.02739257 0.024072263 0.007515568
000390 f5 72 0d bd db 08 ca 3c d5 1d a3 3c bf 11 33 3c
       -0.03453346 0.024662426 0.019911686 0.010929524
0003a0 ee 34 14 3c 4e ba 58 bd 07 c3 c2 bc 31 30 46 bd
       0.009045823 -0.05291205 -0.023774637 -0.048385803
0003b0 35 ba 07 bd 23 8c 20 3d 74 b6 da bc b8 bc eb 3c
       -0.033136565 0.039196145 -0.026698329 0.028776512
0003c0 d0 3f 1a bd 97 a3 d7 3c 01 27 82 bd 50 cb df 3b
       -0.037658513 0.026323123 -0.06355096 0.0068296567
0003d0 fa fc 61 bd 81 47 fc 3b fc a8 4b bd 20 6d 9d bc
       -0.055172898 0.0076989536 -0.049721703 -0.019217074
0003e0 9e 79 10 3d f5 8d 37 3c c3 57 90 bc 2b b7 30 3c
       0.035272233 0.011203279 -0.017619973 0.010785858
0003f0 3d 37 27 bd 3a ad 57 bd 4d 2d 19 bd 67 3b a7 bc
       -0.040824164 -0.052655436 -0.037396718 -0.020414067

fc2.bias f4 [300]
000000 66 78 72 bd a4 2b 82 3e ea a5 7f 3e be 22 74 3e
       -0.059196852 0.2542392 0.24965635 0.23841378
000010 70 f3 5c 3e 96 8b 9b 3c db 7e 79 3d e1 6e 1b 3e
       0.21577239 0.018987458 0.060911994 0.15179016
000020 17 e5 b0 3c bc dc 54 3e 89 7a 24 3e 93 8f 41 3e
       0.021593614 0.20787328 0.16062368 0.18902425
000030 83 16 18 bd 30 9b 68 3e 79 20 ea 3d c0 51 05 3b
       -0.037130844 0.2271545 0.11431975 0.0020342916
000040 75 6b 3d 3e d9 47 9f 3d 83 48 2c 3e 08 81 74 3e
       0.18498023 0.07777376 0.16824536 0.23877347
000050 f7 8e 2a 3e b2 83 78 bc 72 db 16 bd fc fd 4c 3e
       0.166561 -0.015168117 -0.036830373 0.20018762
000060 59 a8 39 3e c5 5a 08 bd 9a 85 21 3e 0d 8f 25 3e
       0.18130626 -0.03328969 0.15773621 0.16167851
000070 dc a8 f7 3d 1a c6 57 3e 00 6a 01 bd ac aa 3f 3e
       0.12092754 0.21071663 -0.03159523 0.1871745
000080 9d a8 90 3e 7f 6a 3d 3e b2 a8 b3 3d db 07 7a 3d
       0.28253642 0.18497656 0.087724105 0.061042648
000090 bf 00 a3 3d 32 87 87 bd 7a a6 80 3c 4a b4 12 3e
       0.07959127 -0.06617583 0.015704382 0.14326587
0000a0 d7 3e 8d 3e b8 8b 0b 3d 5f 1d 38 3e 7a 60 e4 3d
       0.27587005 0.034068793 0.17979954 0.11151214
0000b0 20 43 1a 3d 5c a1 1d 3e d6 34 65 3e 3e 23 02 3e
       0.03766167 0.15393585 0.22383437 0.12708756
0000c0 c0 c5 d8 3d 3a 00 fd bc d9 f3 a7 3d 23 93 ce 3d
       0.10584593 -0.030883897 0.08200807 0.10086658
0000d0 dc 52 ff bc c4 e6 24 3e 2e 34 80 3e f6 24 a7 bb
       -0.03116744 0.16103655 0.2503981 -0.0051008416
0000e0 66 7c ac 3d 9b c8 2f 3e 42 d8 78 3e ab fe 4a 3e
       0.084221646 0.17166369 0.24301246 0.1982371
0000f0 21 dc fc 3d 40 66 a9 3d e1 54 29 3f 42 0a 24 3e
       0.12346674 0.08271456 0.6614514 0.16019538
000100 d7 20 6d bd f7 8b a4 3d e3 7c 87 3d bf 3a 02 3d
       -0.057892647 0.08034509 0.06615617 0.031794306
000110 63 77 48 3e 5e b3 5e 3e 8d 38 48 3e 64 3a a4 3d
       0.19576792 0.2174811 0.19552822 0.0801895
000120 eb 4a 23 3e ef 18 a3 bc b1 05 8f 3d fc 7a 2f 3e
       0.15946548 -0.01990935 0.069835074 0.17136759
000130 78 7c 3a 3e c7 fd 29 3e 6e 2d 6f 3e 7d 36 68 3e
       0.18211544 0.16600715 0.23357174 0.22677036
000140 39 dd bc 3d d4 03 28 3e c0 ea c5 3d d3 e3 f7 3d
       0.092218824 0.1640771 0.09663916 0.12104001
000150 ef 5b 4e 3e 5e 95 21 3d f9 a0 12 3e a6 6f 49 be
       0.20152257 0.03944909 0.14319219 -0.19671497
000160 52 a5 01 3d 39 6a 0d 3e 50 d2 b2 3d 68 30 56 3e
       0.031651802 0.13810052 0.0873152 0.20916903
000170 fd 11 2e 3c 84 c2 08 3e 5e 80 2b 3e c6 3f 00 bd
       0.010624406 0.13355452 0.16748187 -0.03131082
000180 59 67 60 3e 0c 4a e5 3d 0c 7d 23 bd 35 8f 23 3e
       0.21914424 0.11195764 -0.039914176 0.15972598
000190 db ef 5d bd dd bb 2f 3e 64 30 44 3e 05 9e 10 3e
       -0.054183822 0.17161508 0.19159085 0.1412278
0001a0 4f f8 81 3e f8 5b 37 3e bf 8a d0 3d 74 bf 35 3e
       0.25384757 0.17906177 0.10182714 0.17748815
0001b0 5b 7e e5 bd 33 9f 16 3e c3 6e e0 bb f4 1f 17 3e
       -0.11205741 0.14709167 -0.0068491413 0.14758283
0001c0 6f a5 37 3e 09 17 1f 3e f4 61 2c 3e c2 a2 ee 3d
       0.17934202 0.15536131 0.16834241 0.11652137
0001d0 b0 41 dd bc 67 9c b8 3d cf ba 10 3e dd 74 c8 3d
       -0.027008861 0.090142064 0.14133762 0.09787915
0001e0 24 aa 5f 3e 74 53 98 3e 48 50 1a 3e 14 52 16 bc
       0.21842247 0.2975117 0.15069687 -0.009174842
0001f0 e0 aa 79 3e 53 3b 0f 3e cb 5c f8 3d 6f cf 17 3e
       0.2438159 0.13987474 0.12127074 0.14825223
000200 05 3d 32 3e 7f db 5a 3e 26 85 57 3e 7e c5 63 3e
       0.1740609 0.21372794 0.21046886 0.22243306
000210 83 d9 40 3e 23 18 65 bd 3b a1 41 bc 5e c4 79 bc
       0.18832974 -0.05593122 -0.0118182255 -0.0152445715
000220 bb 96 c8 bc df 70 2c 3e 41 c8 6d 3d 0b e2 49 3e
       -0.024485936 0.16839932 0.058052305 0.19715135
000230 df 86 10 3e 28 cc 23 3e e0 87 7c 3e 2f 20 eb 3c
       0.14113949 0.15995848 0.24661207 0.02870187
000240 60 f6 05 3e 4a b3 0f 3e 65 4b 89 3e 49 84 84 3e
       0.13082266 0.14033237 0.26815334 0.25882176
000250 16 6e 20 bd 45 15 47 bd 86 f2 66 bd 05 95 8c 3e
       -0.039167486 -0.04860427 -0.056383632 0.27457443
000260 88 7e ad 3b 24 c0 3b ba 65 42 c6 3c bc 61 30 3e
       0.0052946247 -0.0007162115 0.024201581 0.17224783
000270 e0 2e 01 bd 82 be 1b bd 10 30 0b 3e f7 0f 5f bd
       -0.031538844 -0.03802348 0.13592553 -0.054458585
000280 b0 eb 34 3e f9 99 36 3e b6 3f 36 3e c2 f3 bb 3d
       0.17668033 0.17832173 0.17797741 0.091773525
000290 35 0e 20 bd e9 3a 32 3e cf b1 fc bc 0a 7a df 3d
       -0.03907605 0.17405285 -0.030846504 0.10911949
0002a0 a9 be a0 3d 29 54 c4 3d 56 1c 23 3e 7e 55 02 3e
       0.078488655 0.09586365 0.15928778 0.12727925
0002b0 df 86 ad 3d be f8 46 3e 48 c2 88 bc f7 cb 0a bc
       0.0847299 0.19430825 -0.016694203 -0.008471481
0002c0 2c b7 1f 3e 3a 5d 63 3e c4 93 9a 3e d1 05 4d 3e
       0.15597218 0.22203532 0.3019086 0.2002175
0002d0 4a 2f fc bc c1 df 08 3e 6c fb 18 bd 61 d9 7e 3d
       -0.030784268 0.13366605 -0.03734915 0.062219027
0002e0 8d 6d 4c 3e 64 0f 33 3e 37 12 79 bc 48 c9 c3 bb
       0.19963665 0.1748634 -0.015202097 -0.0059749223
0002f0 14 09 4f 3e c5 df 2a 3e e5 48 6e 3e 18 8a e9 3d
       0.20218307 0.16686924 0.23269995 0.114032924
000300 f9 43 5f 3e a5 1f 46 3e fa fc 80 bc a1 88 71 3e
       0.21803273 0.19348009 -0.015745629 0.23587276
000310 27 19 0c 3e 8e 11 6d 3e fe 96 33 3e 97 0d 09 3e
       0.1368147 0.23151228 0.17538068 0.1338409
000320 c3 f0 30 3e 57 b2 5c 3e 77 7b 25 3e f7 17 fa 3d
       0.17279343 0.21552406 0.1616038 0.12211602
000330 09 1e 30 3e 94 9a 0f 3e fa b5 19 3e 41 74 ba 3a
       0.17198958 0.1402381 0.15010825 0.001422532
000340 0f bd 5e 3e 2e bf 2e 3e 45 48 48 3e 83 2f c9 bd
       0.21751808 0.17065117 0.19558819 -0.09823515
000350 69 71 23 3e 0b 20 55 be f5 7a 57 3e c6 32 0d 3e
       0.15961231 -0.20813005 0.21042998 0.137889
000360 50 ba ce 3c 46 8c 36 3d 95 ce 83 3e ef 7c 28 3e
       0.025235325 0.04456737 0.25743547 0.16453908
000370 b1 f8 11 be 25 4d a7 3d 71 9e 91 3c 62 ed 7c 3e
       -0.14255024 0.08169011 0.017775746 0.2469993
000380 1b 13 07 3e 9f 34 24 bc b3 23 19 3e e6 45 00 3e
       0.13190882 -0.0100223115 0.14955024 0.12526664
000390 b3 15 08 bd 6a 15 6f 3e 49 24 57 3e 0d 63 53 3e
       -0.03322382 0.23348013 0.21009935 0.20643254
0003a0 94 05 21 3e 99 8f c9 3d 92 a6 62 3e 3b 10 51 3e
       0.15724784 0.09841842 0.22133854 0.20416348
0003b0 87 49 f2 3d 58 c5 cb 3d d2 95 6a 3e 27 35 82 3e
       0.118304305 0.0994975 0.22908714 0.25431177
0003c0 e2 ab 81 3e 55 98 91 bd 10 0d 1e 3e 2a 81 07 3e
       0.2532645 -0.07109133 0.1543467 0.13232866
0003d0 88 f6 e7 3c d2 91 c7 bc c1 89 09 bd 14 49 8f bc
       0.028315797 -0.024361525 -0.033578638 -0.017490901
0003e0 0b 00 f4 3d 06 cd fd ba 13 88 8b 3c 03 3a 3d bc
       0.11914071 -0.001936347 0.017032659 -0.011549476
0003f0 12 ec 0b 3e 05 79 80 3d 89 3f df 3b 01 9c 02 3e
       0.13664272 0.06273083 0.006812994 0.12754823

q.weight f4 [1, 300]
000000 1a a2 04 3d 25 1d eb 3f b6 34 3a 3f e2 73 05 3f
       0.032381155 1.8368269 0.7273668 0.5212995
000010 be 04 5d 3f c7 e1 10 bc 7c 09 8a be 25 64 24 3f
       0.8633536 -0.008842892 -0.2696036 0.6421531
000020 31 55 a4 be 48 f6 0e 3f 08 ac 0b bf fe 4e 34 c0
       -0.32096246 0.55844545 -0.54559374 -2.8173213
000030 dd 44 35 3d 0b d0 12 3f 95 2f d4 bf f8 23 14 bb
       0.044255126 0.573487 -1.6577021 -0.0022604447
000040 12 24 c4 bf fb 98 2b 3f 43 34 00 bf 3f 68 2d 3f
       -1.5323508 0.67030305 -0.50079745 0.6773719
000050 14 77 f3 3e ef e8 bc 3b af c7 35 3c 30 0a 4a 3f
       0.47551787 0.0057650725 0.011094972 0.78921795
000060 6c ab 05 3f c9 a1 3a 3d b8 c1 b5 bf 7b ec 03 bf
       0.52214694 0.045564447 -1.4199743 -0.51532716
000070 26 72 e3 be b1 15 28 3f 67 02 84 bf 68 38 31 3f
       -0.44423026 0.656581 -1.0313233 0.69226694
000080 c1 27 60 c0 d4 6e 2a 3f 25 5b 17 c0 1c 95 a1 be
       -3.5024264 0.6657536 -2.364938 -0.31559074
000090 60 c5 d6 bf 66 98 8e 3c e1 ae 55 bd fa 53 cd be
       -1.6778984 0.017406654 -0.05216873 -0.40103132
0000a0 6e fb 47 3f 8b 38 dc 3f fd 6b 10 3f 4b 5f fb 3e
       0.78118026 1.7204756 0.5641478 0.4909614
0000b0 df 4b 89 be 6c ed 8a 3f 78 be 0d 3f 15 9d 05 3f
       -0.26815698 1.0853705 0.5536876 0.52192813
0000c0 b0 02 22 3f 11 7b 1b bd e3 80 d7 be 97 1a cb bf
       0.6328535 -0.037959162 -0.4209052 -1.586749
0000d0 8a 84 02 40 f5 45 00 bf ca 8a 15 c0 73 10 85 be
       2.0393395 -0.50106746 -2.336596 -0.25989112
0000e0 43 38 d7 be 24 3d 21 3f d4 3f 0c 3f fd fd 29 3f
       -0.42035112 0.6298392 0.54784894 0.6640318
0000f0 d9 ae 4b 3f 9f de 1c 3f 31 03 ce c0 ed 5b 11 3f
       0.7956367 0.6127719 -6.4378896 0.5678089
000100 be 16 01 3d 8d 95 00 3f 09 38 94 be ef aa b0 be
       0.03151583 0.50228196 -0.28949 -0.34505412
000110 e1 4e 03 bf ba 23 24 3f d8 6e 08 bf b7 a4 1a 3f
       -0.51292235 0.64117014 -0.53294134 0.60407585
000120 1c f0 0c bf 1d 5e dc 3c 9f e0 1e 3f bd fc f3 be
       -0.5505388 0.026900345 0.62061495 -0.47653762
000130 a5 b4 1f 3f 52 b8 25 3f 58 1b 29 3f 84 a4 fd be
       0.62385017 0.64734375 0.6605735 -0.49539578
000140 80 93 00 3f 10 45 f7 be 78 30 d8 be 12 f3 ed 3e
       0.5022507 -0.48294878 -0.4222448 0.4647451
000150 75 18 55 3f 7d 38 a0 be 48 32 e5 3e 02 2f e8 3f
       0.83240443 -0.31293097 0.44764924 1.8139346
000160 8c 8c 8f be 99 44 b7 bf 1f 7d f4 bf 59 5f 3b c0
       -0.28036916 -1.4317809 -1.9100684 -2.9276946
000170 a9 e8 ba 3c e3 17 f3 3e 83 e1 fd be b6 0f b2 3c
       0.02281602 0.47479162 -0.49586114 0.021736007
000180 37 71 ec be 0d fb dd be 9e 83 07 bd b5 7c 22 c0
       -0.46180126 -0.433556 -0.033084504 -2.5388615
000190 df 4b dc be 23 39 aa bf c6 ce 2e 3f 18 ec 6a 3f
       -0.43026635 -1.3298687 0.6828426 0.917665
0001a0 b1 2b 41 3f a2 e2 d1 bf ae 38 d8 be 28 ba 1c 3f
       0.7545729 -1.6397288 -0.42230743 0.6122155
0001b0 c4 48 03 bf f5 a1 14 3f 5c 31 09 3d 08 e1 e0 be
       -0.51282907 0.58059627 0.03349434 -0.43921685
0001c0 c8 b3 03 bf bc 78 19 3f df 3d 01 c0 20 98 3f 3f
       -0.514462 0.5994985 -2.0194013 0.748415
0001d0 3a a7 1a bd 29 90 50 3f 0b a0 26 c0 ca d1 cf bf
       -0.037757136 0.8146997 -2.6035182 -1.6235898
0001e0 e1 88 f6 bf b7 a4 46 c0 6e 2d 05 c0 c0 aa a6 3a
       -1.9260522 -3.1038034 -2.0808978 0.0012715682
0001f0 df c1 36 3f d6 bd 03 3f d9 97 bb bf eb dd 00 bf
       0.71389574 0.5146154 -1.4655715 -0.5033862
000200 ee b7 f3 be 1d 3a e9 bf 94 08 da 3f 0b e2 2b 3f
       -0.47601265 -1.822086 1.7033868 0.6714179
000210 7f d9 5d 3f ef 8d 55 3c 3a 32 b0 be ea 63 b7 bf
       0.8666 0.013034328 -0.3441332 -1.4327366
000220 08 15 10 3d a3 8e cd bf 94 32 0b 3f 8f 6e 38 c0
       0.035176307 -1.6059154 0.5437405 -2.881748
000230 d2 7b 06 3f de 0e 41 3f 5f ee 2b 3f a1 26 de 3c
       0.52532685 0.7541331 0.671606 0.02711803
000240 ec cd e5 3e 1e e9 43 3f 79 eb 37 3f 4b 5e 32 3f
       0.44883668 0.76527584 0.7184368 0.6967513
000250 8e a1 b4 3c db c2 ff 3c 26 25 3a bd 21 35 36 3f
       0.022049692 0.031220844 -0.045445584 0.7117482
000260 bc 80 b6 3c a3 30 b5 3f 14 d9 25 3d fd 6f ff be
       0.022278182 1.4155468 0.040490225 -0.49890128
000270 b8 60 6e 3c b2 a7 4f bd 2f bf 27 c0 cb 47 28 3b
       0.014549427 -0.050697036 -2.621044 0.0025677558
000280 5e ad 65 3f 05 1e fc be 82 f1 32 3f 75 ca 4f 3f
       0.8971766 -0.49241653 0.6989976 0.811683
000290 f9 af e7 3c bf 1f f7 bf 8f 8e dd ba 68 33 e2 bf
       0.028282152 -1.9306563 -0.0016903448 -1.7671938
0002a0 3f 7c dc be d0 ce dc be 05 12 05 bf 31 47 1b c0
       -0.43063542 -0.43126535 -0.5198062 -2.4262202
0002b0 97 ca 13 3f 11 0c 46 3f 11 19 e7 bb ae 12 0b 3b
       0.57731 0.7736216 -0.0070525487 0.002122085
0002c0 93 b3 01 c0 3d d0 f6 be da 1f 2f c0 2f 1c 0c bf
       -2.0265853 -0.48205748 -2.736319 -0.54730505
0002d0 d7 28 ab 3c 5f 15 0e 3f 34 19 b7 3c 3d 48 18 c0
       0.020893497 0.5550136 0.022350885 -2.379409
0002e0 5d c4 1c 3f 29 82 11 3f 5b 02 34 3d 4e d5 65 3a
       0.61237127 0.56839234 0.04394756 0.00087674416
0002f0 3d ce 69 3f e1 cc 0d 3f ed 3b ee be 0d 7e 0c 3f
       0.9133032 0.55390745 -0.46530095 0.5487984
000300 b5 9a 57 3f 05 f7 ee be c0 ef f0 bc 30 74 2b c0
       0.8422044 -0.46672836 -0.029411197 -2.6789665
000310 11 47 02 3f cd c7 f0 bf 35 f0 41 3f 24 f1 c2 bf
       0.5088969 -1.8810974 0.7575715 -1.522984
000320 0e 75 01 bf 54 58 2d 3f 49 37 07 3f dd b5 7f 3f
       -0.50569236 0.67712903 0.52818733 0.99886876
000330 65 54 f7 be ab 0d 09 3f ac 2d 02 bf aa 3c b1 be
       -0.48306575 0.5353648 -0.5085094 -0.34616596
000340 11 71 57 3f 3d 5b 07 3f 48 34 13 3f b4 c1 ec be
       0.841569 0.52873594 0.5750165 -0.46241534
000350 f5 b6 e4 be 61 93 a9 40 3a a0 30 3f 6b a2 ca be
       -0.44670835 5.2992406 0.68994486 -0.3957704
000360 9d 4b b6 bf be 6a 8e be fa 7b 42 3f a3 04 01 bf
       -1.4241825 -0.27815813 0.75970423 -0.503977
000370 36 74 6a bf ca 3d b5 40 a0 f0 0f 3c 91 c9 23 3f
       -0.91583574 5.6637926 0.008785397 0.6397944
000380 8c 72 12 3f 8b ed a5 be 22 61 f7 be 28 82 44 3f
       0.57206035 -0.32407793 -0.48316294 0.767611
000390 e0 66 38 3d fb 00 03 bf 9b 27 4e 3f 59 7b fc be
       0.045019984 -0.5117337 0.80529183 -0.49312857
0003a0 eb 45 f1 be 84 92 d7 bf bb b2 0d 3f 9c 39 d1 3f
       -0.47123656 -1.6841588 0.55350846 1.6345706
0003b0 66 cb 04 3f 6e cc 8c 3f 6a 14 07 c0 5b f6 44 3f
       0.5187286 1.0999887 -2.110621 0.7693841
0003c0 84 00 2a 3f 8a 94 71 bf f5 ec 76 3f 57 cb 03 bf
       0.66407037 -0.9436728 0.9645532 -0.51482147
0003d0 a7 82 0f bd 78 6a 02 3d 75 85 20 3d 31 f6 c8 bf
       -0.03503671 0.031839818 0.039189775 -1.5700132
0003e0 95 a5 ff bf c4 56 9e be 29 62 24 be f3 86 88 be
       -1.9972407 -0.30925572 -0.1605307 -0.26665458
0003f0 e1 44 ce be 53 1c 18 3f 71 69 1a 3d 4c 13 39 bf
       -0.40286925 0.5941822 0.037698213 -0.7229507
