SAC_own_hardcore/sac_400/value_sac.pth (torch, 524956 bytes, 5 tensors)

fc1.weight f4 [400, 24]
0	0x3fe52f8f	1.7905139
1	0x3d80dff1	0.062927134
2	0x3da8b1ea	0.082370594
3	0xbf09ed87	-0.5387806
4	0x3f0bd2b8	0.54618406
5	0x3d63ba22	0.055597432
6	0x3eb5a9b8	0.35481048
7	0x3c0ca147	0.008583373
8	0x3bd467ad	0.0064820857
9	0x3f16d328	0.5891595
10	0xbd263cbd	-0.04058527
11	0x3e266dc3	0.16252808
12	0xbc2a916e	-0.01041065
13	0xbd154e52	-0.036451645
14	0x3da34ed1	0.079740174
15	0x3d123efe	0.035704605
16	0x3e61ab2f	0.22037958
17	0xbd8c0f52	-0.068388596
18	0xbdfc93ed	-0.12332902
19	0xbe866dc3	-0.26255617
20	0xbf0b4f72	-0.544181
21	0x3ea35aa8	0.31905103
22	0x3dfdf6f4	0.12400618
23	0xbd70ede9	-0.05882064
24	0xbf5317ca	-0.82458174
25	0xbf5ba7de	-0.8580302
26	0x3ef86e9f	0.48521897
27	0xbeeb5017	-0.4595954
28	0xbc97883c	-0.018497579
29	0xbc7e2383	-0.015511396
30	0x3e67ffcb	0.22656171
31	0xbdb8a374	-0.09015551
32	0xbde762bf	-0.11298131
33	0xbf076085	-0.5288165
34	0xbe2b4c16	-0.16728243
35	0xbe94bc8f	-0.2905011
36	0xbd84e493	-0.064889096
37	0x3da53365	0.08066443
38	0xbcf0e27d	-0.029404873
39	0x3d10d9ba	0.03536389
40	0xbdffbc39	-0.124870725
41	0xbe271d68	-0.16319811
42	0x3defa8f1	0.11702145
43	0x3db1cc42	0.08681537
44	0xbcc1a4a2	-0.023638073
45	0x3cef1e84	0.029189356
46	0xbde00acb	-0.109395586
47	0x3e0a979b	0.13534395
48	0xbe9af672	-0.30266148
49	0x3d2e89d2	0.042611904
50	0x3f106087	0.5639729
51	0x3ec35529	0.3815091
52	0xbf95f301	-1.1714784
53	0xbe48c9a7	-0.19608174
54	0xbe1b2712	-0.15151623
55	0xbe260cc7	-0.16215812
56	0x3e8be75a	0.27324945
57	0x3e321bfb	0.17393486
58	0xbeebdd72	-0.46067387
59	0xbe923be1	-0.2856131
60	0xbc038b0e	-0.008028759
61	0xbc78e0b2	-0.01519029
62	0xbcaf8fd8	-0.021430895
63	0xbe1e7ce3	-0.15477328
64	0x3eff161e	0.49821562
65	0x3f0e0fd2	0.5549289
66	0x3e325807	0.17416392
67	0x3eafee92	0.34361702
68	0x3e6978b7	0.22799955
69	0x3d9a961a	0.07548161
70	0x3d9ff2c2	0.07809974
71	0xbcc5fabf	-0.024167417
72	0x3ea0c238	0.31398177
73	0x3fa402d2	1.2813361
74	0xbf55d233	-0.83523864
75	0xbf733043	-0.94995517
76	0x3d954573	0.07288637
77	0x3e22bc1a	0.15892068
78	0x3e93d079	0.2886999
79	0x3e8e7d58	0.27830005
80	0x3db176e2	0.08665253
81	0x3e1dd444	0.15413004
82	0x3e57efcd	0.2108757
83	0xbe423516	-0.18965563
84	0x3d699094	0.057022646
85	0xbe7617e4	-0.24032551
86	0xbec4a3c4	-0.38406193
87	0xbd2b8cf9	-0.04188249
88	0xbe58b203	-0.21161656
89	0x3e96aa2d	0.2942671
90	0x3f186d56	0.59541833
91	0x3ef7ffe2	0.4843741
92	0x3e227c6b	0.15867774
93	0xbe602d70	-0.21892333
94	0xbe01e682	-0.12685588
95	0xbe94126e	-0.2892031
96	0xbf0b168f	-0.54331297
97	0xc05aff1f	-3.4218214
98	0x3fa7789a	1.308368
99	0x3e3e052f	0.18556665
100	0xbf722596	-0.945886
101	0xbd6033a4	-0.05473675
102	0xbf56f68b	-0.83969945
103	0xbb3530f9	-0.0027647598
104	0x3c5c3f23	0.013442787
105	0x3e74d741	0.23910238
106	0xbd5af8ea	-0.05346004
107	0x3e061acf	0.13096164
108	0xbccc9896	-0.024975102
109	0xbd2812d1	-0.04103357
110	0x3eb9ff3b	0.36327538
111	0x3ea45112	0.32093102
112	0x3e7e6381	0.24842645
113	0xbe03042a	-0.12794557
114	0xbe4be2ca	-0.19910732
115	0xbe9c3b35	-0.3051392
116	0xbcb11a8f	-0.02161911
117	0xbddf4ae7	-0.10902958
118	0x3e4555fa	0.19271079
119	0x3dc28e7e	0.094998345
120	0x3ebcc9ec	0.36872804
121	0x3e8467e4	0.25860512
122	0x3ecf5c1a	0.40499955
123	0x3f5d98cd	0.8656128
124	0x3eb397f1	0.3507686
125	0x3d8fdcc2	0.07024528
126	0x3e66d338	0.22541511
127	0xbe2eff66	-0.17089614
128	0xbc2d2fec	-0.0105705075
129	0xbee5d2f5	-0.4488751
130	0x3e9b07a8	0.3027928
131	0xbdad3ef9	-0.08459277
132	0x3e2b5f8f	0.16735671
133	0x3cd582b5	0.026063303
134	0x3b2227cc	0.002474296
135	0xbdccbacf	-0.099965684
136	0x3e494aca	0.19657436
137	0xbd12d274	-0.035845235
138	0xbd53ef5a	-0.051741935
139	0xbdb562b8	-0.0885672
140	0xbe02b5b7	-0.12764631
141	0x3e231ab6	0.15928158
142	0x3e1d7805	0.15377815
143	0x3d9fb372	0.07797898
144	0x3f06caff	0.526535
145	0x3f6d4a31	0.9269133
146	0x3db71882	0.08940221
147	0x3f4fa7e0	0.8111553
148	0xbcce1769	-0.025157647
149	0xbb691052	-0.0035562706
150	0xbea68f27	-0.32531092
151	0x3e47f119	0.19525565
152	0xbdd516ac	-0.10404715
153	0xbdf6d251	-0.120518334
154	0x3eccec2c	0.40023935
155	0xbe4e06ae	-0.20119736
156	0x3e1c837a	0.1528453
157	0xbe305f51	-0.1722386
158	0x3e081efb	0.13293068
159	0xbb473228	-0.0030394886
160	0x3e7e708e	0.24847624
161	0x3e48407d	0.1955585
162	0x3e284da6	0.1643587
163	0x3de323ca	0.110908106
164	0xbcba9fc2	-0.022781257
165	0x3ee22aa8	0.4417317
166	0x3ee64666	0.44975585
167	0x3ebaaba0	0.36459064
168	0xbdfe6094	-0.124207646
169	0x3f80410f	1.0019854
170	0x3db7f739	0.08982701
171	0xbe6de4a2	-0.23231748
172	0x3da863ee	0.08222185
173	0x3e0d3dd9	0.13793124
174	0x3f1eac6a	0.61981833
175	0xbdd9861f	-0.10621285
176	0x3e7881c2	0.24268249
177	0xbe6ee8fe	-0.23331067
178	0xbd8e3566	-0.06943779
179	0x3db4663f	0.088085644
180	0xbcb434e3	-0.021997875
181	0xbeb7a27b	-0.3586615
182	0x3f07bc79	0.5302196
183	0x3f072e5f	0.5280513
184	0x3e97f299	0.29677275
185	0x3dfb89b6	0.12282126
186	0x3de23f07	0.11047178
187	0x3ce8bb40	0.0284096
188	0xbe8bc032	-0.2729507
189	0xbf08b72a	-0.53404486
190	0xbe593d21	-0.21214725
191	0xbe4f464a	-0.20241657
192	0xbf093d03	-0.5360872
193	0xbfc9e038	-1.5771551
194	0x3eb5d6f0	0.35515547
195	0x3e4367ab	0.19082515
196	0xbf0804bd	-0.5313223
197	0xbdaf29b3	-0.08552875
198	0xbeb7dae1	-0.3590918
199	0x3e011b12	0.12607983
200	0xbe2d0510	-0.16896462
201	0xbf04e061	-0.51904875
202	0x3d45cff9	0.04829404
203	0xbe25f7e9	-0.16207851
204	0xbe2fab29	-0.17155136
205	0x3cf18b6b	0.029485425
206	0x3e70be62	0.23510125
207	0x3ebe578d	0.3717617
208	0x3ec14049	0.37744358
209	0x3f00eb61	0.5035916
210	0x3ee81d35	0.45334783
211	0x3d6aee86	0.05735638
212	0x3ea70418	0.3262031
213	0x3d39288e	0.04520469
214	0x3e2a17e5	0.16610678
215	0x3e94e1e2	0.29078585
216	0xbd1c82ab	-0.038210552
217	0xbedda1aa	-0.43287402
218	0xbe050c1e	-0.12992904
219	0xbd882a86	-0.06648736
220	0x3d2dec44	0.04246165
221	0xbe3c9165	-0.18414839
222	0x3d8c29a2	0.06843878
223	0xbeb78877	-0.35846302
224	0x3c340426	0.010987317
225	0xbf11f56c	-0.5701511
226	0xbf063966	-0.52431333
227	0x3e11c415	0.14234956
228	0x3e0a7a9b	0.13523333
229	0x3e2d0c11	0.16899134
230	0x3f02d376	0.51103914
231	0x3efb1560	0.49039745
232	0x3c90f5df	0.017695365
233	0xbc5e08c5	-0.0135518955
234	0x3d5e8d0e	0.05433374
235	0xbe112d80	-0.14177513
236	0xbebbfa92	-0.36714607
237	0x3c719ba9	0.014746585
238	0x3d9b05d6	0.075694725
239	0x3d95aa71	0.073079
240	0xc041324f	-3.0186956
241	0xc026fdd0	-2.6092415
242	0x402621bc	2.595809
243	0x3fa0c997	1.256152
244	0xbf3c88c1	-0.7364617
245	0xbda0f039	-0.07858319
246	0xbd045d40	-0.032315493
247	0xbe325162	-0.17413858
248	0xbd29a8d0	-0.041420758
249	0x3f1f6baf	0.6227369
250	0xbe11392c	-0.14181966
251	0xbd991cc5	-0.074761905
252	0xbde47594	-0.11155239
253	0xbe483f7f	-0.19555472
254	0x3f2ef808	0.68347216
255	0x3f5b4f9c	0.8566835

fc1.bias f4 [400]
0	0xbe1d9f88	-0.15392888
1	0xbe07330b	-0.13203065
2	0xbde8ddb5	-0.11370412
3	0xbdb4b7bc	-0.08824107
4	0x3e3727f4	0.17886335
5	0x3d9d5fc2	0.0768428
6	0x3d9937b6	0.07481329
7	0x3e8854ed	0.26627293
8	0x3e82ab17	0.25521156
9	0x3cfc400d	0.03079226
10	0xbe713bb4	-0.23557931
11	0x3e923a0a	0.28559905
12	0x3ddca6f2	0.1077403
13	0x3eb22456	0.34793347
14	0xbe1fdf41	-0.15612508
15	0x3e0df6a1	0.13863613
16	0x3e9c724b	0.3055595
17	0x3e657e39	0.22411431
18	0x3e94808b	0.2900432
19	0x3e5140cd	0.20434876
20	0x3e9340e7	0.28760454
21	0x3dba2b65	0.09090308
22	0xbea35307	-0.31899282
23	0xbe0ab09a	-0.1354393
24	0xbd5e390f	-0.054253634
25	0x3b36e374	0.0027906569
26	0x3d07dfb2	0.033172317
27	0x3ea40815	0.32037416
28	0x3e269f2f	0.16271661
29	0x3e9ff7ea	0.3124383
30	0x3e3de9d4	0.1854623
31	0x3ea1372c	0.31487405
32	0xbda296a3	-0.07938888
33	0x3e857c09	0.26071194
34	0x3df687ef	0.12037646
35	0x3c8149ed	0.01578232
36	0xbc50d473	-0.012745964
37	0x3da619df	0.08110403
38	0x3c8252bd	0.015908593
39	0x3e01476e	0.12624905
40	0x3d9a4011	0.07531751
41	0x3ec3cd21	0.38242438
42	0x3e1c94fb	0.15291207
43	0xbcd9b087	-0.026573433
44	0x3dd35429	0.10318787
45	0xbf1cd366	-0.6126007
46	0xbe83f18e	-0.2577023
47	0x3d5963c8	0.053073674
48	0x3d0db478	0.034595937
49	0x3e1b34b6	0.15156826
50	0xbec14503	-0.37747964
51	0xbd990892	-0.07472338
52	0x3e15b3ca	0.14619365
53	0xbed30c95	-0.41220537
54	0x3e41896f	0.18900083
55	0xbe51840a	-0.20460525
56	0xbe8ebe61	-0.27879623
57	0x3ce92205	0.028458605
58	0xbbd2aef7	-0.006429549
59	0x3cd3be02	0.025847439
60	0x3e1604ea	0.14650312
61	0x3e61b65b	0.2204222
62	0xbe940cf0	-0.2891612
63	0x3d9bbc3f	0.076042645
64	0x3e5bd287	0.21467029
65	0x3ea5f428	0.3241284
66	0x3e76c7cb	0.24099652
67	0x3d3bcc1e	0.04584896
68	0xbed9a377	-0.42507526
69	0xbe577d0e	-0.21043798
70	0xbc6e56ea	-0.014547089
71	0x3d9dbdfe	0.07702254
72	0x3e51476b	0.204374
73	0xbe7c0ca9	-0.24614204
74	0x3e24d782	0.16097835
75	0x3e1e54dc	0.15462059
76	0xbe46e2c9	-0.19422449
77	0xbea5d10b	-0.3238605
78	0x3e916fe2	0.28405672
79	0xbef7bf44	-0.48388112
80	0x3e0c2aca	0.13688198
81	0x3e5e9b11	0.2173884
82	0x3e11728d	0.14203854
83	0x3e931322	0.28725535
84	0x3daa64c6	0.08320002
85	0xbe920682	-0.2852059
86	0x3e0efe77	0.13964258
87	0x3e89fd95	0.2695128
88	0xbf365114	-0.71217465
89	0x3da74730	0.08167875
90	0xbc65ae41	-0.014018596
91	0xbd68fb81	-0.056880478
92	0xbdbc2002	-0.091857925
93	0xbbaf990e	-0.0053588217
94	0x3e0edffc	0.13952631
95	0xbddc9e59	-0.1077239
96	0x3e951af7	0.29122135
97	0x3ef03b64	0.4692031
98	0xbefeb592	-0.49747902
99	0xbe4f9189	-0.20270361
100	0x3eaedbb7	0.34152004
101	0xbec3ec50	-0.3826623
102	0xbe2dfa63	-0.16990046
103	0xbe4b3f3f	-0.19848345
104	0x3e550945	0.20804317
105	0x3bea2ab4	0.007146204
106	0x3e686d4f	0.22697948
107	0xbce4a92c	-0.027912699
108	0xbf0db693	-0.5535671
109	0xbe851b51	-0.25997403
110	0x3e2b2c86	0.16716203
111	0x3d733ccd	0.059384156
112	0x3dc5bd53	0.09655251
113	0x3e0c18e6	0.13681373
114	0x3df822e1	0.121160276
115	0xbe91d69f	-0.28484055
116	0x3e9b4a47	0.30330107
117	0xbcdd53d2	-0.027017508
118	0x3cb8c870	0.022556514
119	0x3e8b9c67	0.27267763
120	0xbe02c06e	-0.12768719
121	0x3de30bed	0.11086259
122	0xbd99d071	-0.0751046
123	0x3ec7c203	0.39015207
124	0xbe3a40ce	-0.18188784
125	0x3e4c37cb	0.19943158
126	0x3eb71d9e	0.35764784
127	0xbd67396f	-0.056451257
128	0x3dc033f2	0.09384908
129	0x3e1c6af9	0.15275182
130	0xbd6d0778	-0.05786845
131	0xbe1dc2c4	-0.15406328
132	0xbdc3863f	-0.0954709
133	0x3d4c768b	0.04991774
134	0x3e24a93b	0.16080181
135	0x3d067537	0.03282663
136	0x3e8117bd	0.25213423
137	0xbd40765e	-0.046987884
138	0x3de4f2a2	0.11179091
139	0xbe75a281	-0.23987772
140	0x3eae7cfe	0.34079736
141	0x3e07e719	0.1327175
142	0x3e9ccdee	0.30625862
143	0x3e48eb06	0.19620904
144	0xbca16556	-0.019701641
145	0x3d0c2d3f	0.034222838
146	0x3df03ce8	0.11730367
147	0xba566be8	-0.00081795314
148	0x3de3e329	0.11127312
149	0xbde69fe2	-0.11260964
150	0x3cd880fc	0.026428692
151	0xbeceb07f	-0.4036903
152	0x3e44373c	0.19161695
153	0xbd81ff0b	-0.06347474
154	0xbe0014e8	-0.12507975
155	0xbccf9d03	-0.025343424
156	0xbe1decd6	-0.15422377
157	0xbd82905f	-0.06375193
158	0x3eb01c0f	0.34396407
159	0x3b02e022	0.001997002
160	0xbdfca222	-0.12335612
161	0x3e67ecb4	0.22648889
162	0xbdc6ea91	-0.09712709
163	0x3e076a40	0.13224125
164	0xbdb430a9	-0.08798344
165	0xbd3faafa	-0.046793915
166	0x3e669f98	0.22521818
167	0x3e906cd3	0.28208026
168	0x3db9d32a	0.090734795
169	0xbea6086d	-0.32428303
170	0xbe52f086	-0.20599565
171	0xbc882a5a	-0.016621757
172	0xbde508e8	-0.11183339
173	0x3e629a40	0.22129154
174	0x3e97c07f	0.2963905
175	0xbe55a17c	-0.20862383
176	0xbed589fb	-0.41706833
177	0x3da8c522	0.08240725
178	0xbdd63264	-0.1045883
179	0xbc567681	-0.013089777
180	0xbe2ac37e	-0.16676137
181	0xbedf652f	-0.43631884
182	0xbd90f42f	-0.07077824
183	0xbda1c428	-0.07898742
184	0xbd51ef63	-0.051253688
185	0x3e263804	0.16232306
186	0xbe3d7ac2	-0.1850386
187	0xbdc1a056	-0.0945441
188	0xbf0c6ae2	-0.5485059
189	0x3d3e8697	0.046515074
190	0x3aadf41e	0.0013271605
191	0x3d84a077	0.06475919
192	0x3dc71908	0.09721571
193	0x3eaaa2e8	0.33327413
194	0x3d622423	0.055210244
195	0xbe1edcca	-0.15513912
196	0xbe587762	-0.21139291
197	0x3ec6dd96	0.38840932
198	0xbc252178	-0.01007878
199	0xbe2efe58	-0.17089212
200	0xbcdc2e81	-0.026877644
201	0x3eb6711f	0.3563318
202	0xbe74b6cb	-0.23897855
203	0x3e3341e9	0.17505611
204	0x3ca29605	0.019846926
205	0x3c9eb423	0.019373005
206	0x3e108de7	0.14116631
207	0x3d2832a0	0.041063905
208	0x3ed36987	0.41291448
209	0x3d39d271	0.04536671
210	0x3d9107d3	0.070815705
211	0x3ec90b93	0.39266643
212	0xbdecd5db	-0.11564227
213	0x3e4f49d4	0.20243007
214	0xbd847f2d	-0.06469569
215	0x3e199581	0.14998437
216	0x3da3951c	0.07987425
217	0x3e91ea37	0.28499004
218	0xbd1828d0	-0.037148297
219	0xbd8ca887	-0.068680815
220	0x3e978875	0.29596296
221	0xbee408af	-0.44537875
222	0xbf135b05	-0.5756076
223	0x3e3e73b8	0.1859883
224	0x3e9db8df	0.30805108
225	0xbe10106a	-0.14068761
226	0xbee1e5d2	-0.4412065
227	0x3e3b2a07	0.18277751
228	0x3db50655	0.08839098
229	0xbe3f676d	-0.18691798
230	0xbe0a0e49	-0.13482012
231	0x3eedac9b	0.4642075
232	0xbe16dd54	-0.14732867
233	0xbe817129	-0.25281647
234	0x3e742453	0.23841982
235	0x3df54f60	0.1197803
236	0x3e757a84	0.23972517
237	0xbdc96bef	-0.0983504
238	0xbded4e5f	-0.11587214
239	0xbe5a72d3	-0.21332864
240	0x3df51123	0.11966159
241	0xbeaec177	-0.34131977
242	0x3dab6396	0.08368604
243	0xbdddd866	-0.1083229
244	0xbd3f455f	-0.046697017
245	0x3cff4ea9	0.031165438
246	0xbd51017a	-0.0510268
247	0x3d8f6c63	0.07003095
248	0xbebd6217	-0.369889
249	0x3e9fb69f	0.31194016
250	0xbe3098ec	-0.17245835
251	0x3e21f2bd	0.15815254
252	0xbed558ac	-0.41669214
253	0xbe60eee6	-0.21966133
254	0xbcb8ba67	-0.022549821
255	0xbd977915	-0.073961414

fc2.weight f4 [300, 400]
0	0x3f000b00	0.50016785
1	0xbf9b0f26	-1.2113998
2	0x3e76d7c6	0.24105749
3	0xbf03788d	-0.5135582
4	0x3e0e927f	0.13923071
5	0xbe766672	-0.24062517
6	0xbd37b8c7	-0.04485395
7	0xbea3b9a4	-0.3197757
8	0x3e91bd61	0.28464797
9	0xbda3cc22	-0.079979196
10	0x3fe5f521	1.7965432
11	0xbf6f5810	-0.9349375
12	0xbdc30fcc	-0.095244974
13	0xbf52150a	-0.82063353
14	0xbdb2b9dd	-0.08726857
15	0xbd2d1610	-0.04225737
16	0x3d062c4a	0.03275708
17	0xbc8d4c2a	-0.017248232
18	0x3f86427a	1.0489037
19	0xbdc4eef5	-0.0961589
20	0x3f2bbb9a	0.6708313
21	0xbee91709	-0.45525387
22	0xbdf9f8e8	-0.12205678
23	0xbf5ef809	-0.8709722
24	0x3cbed98b	0.023297092
25	0x3e0cf8a4	0.13766724
26	0xbf65b8f0	-0.8973532
27	0x3ef0f29f	0.47060105
28	0x3e824a56	0.2544734
29	0x3c575ab1	0.013144181
30	0xbcec4f83	-0.028846508
31	0xbdf1a6cf	-0.11799394
32	0x3cffc2a2	0.031220738
33	0x3e8e38ff	0.2777786
34	0x3d49a157	0.04922613
35	0x3dae3090	0.08505356
36	0x3f979557	1.184245
37	0x3dbd99e0	0.09257865
38	0x3cd48ecf	0.025947003
39	0xbca327d2	-0.019916449
40	0xbcda0431	-0.026613327
41	0x3ec50f08	0.3848803
42	0xbe1d2ab6	-0.15348324
43	0x3e393e8a	0.18090263
44	0x3d97c021	0.074096926
45	0xbe9c04d9	-0.30472448
46	0xbe9523a3	-0.2912875
47	0xbdecc3ea	-0.11560805
48	0x3ec574e7	0.38565752
49	0x3e313756	0.17306265
50	0xbecb58a4	-0.39716065
51	0xbe97c41a	-0.296418
52	0x3dee5620	0.11637521
53	0x3d2eda8d	0.042688895
54	0x3def2879	0.116776414
55	0x3fe8bced	1.8182656
56	0xbe83efe7	-0.25768968
57	0x3d9909ab	0.07472547
58	0xbf1c2878	-0.6099925
59	0x3eccae66	0.39976805
60	0x3f305cf8	0.6889186
61	0x3e4c1a27	0.19931851
62	0xbf445158	-0.7668662
63	0x3ecd2e0f	0.40074202
64	0x3d6ad6c7	0.057333734
65	0x3d87a6af	0.06623589
66	0x3ddb742b	0.10715517
67	0xbd6453bc	-0.055743918
68	0xbdb2a99e	-0.08723758
69	0xbf842d47	-1.0326318
70	0x3e221850	0.15829587
71	0x3e29ece5	0.16594274
72	0x3e1286df	0.14309262
73	0x3d046efe	0.032332413
74	0x3e981a51	0.29707578
75	0x3ee46af8	0.4461286
76	0x3f8576e1	1.0426904
77	0xbca54b29	-0.02017744
78	0x3f09eaa2	0.53873646
79	0xbd4b02a0	-0.04956305
80	0xbe53da34	-0.20688707
81	0xbdfe942c	-0.12430605
82	0x3e9631f3	0.29334983
83	0xbdc3c9ee	-0.095599994
84	0x3d7a0f8a	0.061049975
85	0x3cd471db	0.025933197
86	0x3d4a7ddc	0.049436435
87	0xbe1ff503	-0.15620808
88	0xbedc8145	-0.43067375
89	0xbf0bf5f6	-0.5467218
90	0xbe90a495	-0.28250566
91	0x3d447ec4	0.047972456
92	0x3eac8090	0.33691835
93	0xbd8289b0	-0.06373918
94	0xbe98aa37	-0.29817364
95	0xbe831ada	-0.25606424
96	0x3ea3c13e	0.3198337
97	0x3d9c9b5e	0.076468214
98	0xbefb8191	-0.4912229
99	0xbc2ea0ea	-0.010658482
100	0xbd1cf602	-0.03832055
101	0xbda85af7	-0.08220475
102	0xbf0c1be0	-0.54730034
103	0xbe878c14	-0.2647406
104	0x3dcfb7ba	0.10142465
105	0xbe81520d	-0.25257912
106	0x3f4f7d65	0.8105071
107	0x3f2a7098	0.66578054
108	0xbf090927	-0.5352959
109	0x3e352ce4	0.17692906
110	0x3f96eec8	1.179162
111	0x3ed434cb	0.41446528
112	0xbe024200	-0.1272049
113	0x3d80d127	0.06289893
114	0x4086139f	4.189895
115	0xbecb8d36	-0.39756173
116	0xbe154ed7	-0.14580856
117	0x3d3a894f	0.045541104
118	0x3e25eef6	0.16204438
119	0x3cf40d92	0.029791627
120	0xbddc628a	-0.10760982
121	0x3e865e1b	0.26243672
122	0xbf54213c	-0.8286321
123	0x3d2aea4b	0.041727345
124	0xbe680fd2	-0.22662285
125	0x3e9a9e24	0.30198777
126	0x3e9a738c	0.3016628
127	0x3e839a84	0.25703824
128	0xbd695dcc	-0.056974217
129	0x3e20ffc3	0.15722565
130	0xbce46fd6	-0.027885359
131	0x3e09e5db	0.13466589
132	0xbdca1c76	-0.0986871
133	0x3cdfd5f7	0.027323706
134	0xbe507482	-0.20356944
135	0xc00192b8	-2.02458
136	0x3f01c022	0.50683796
137	0x3da93367	0.08261757
138	0x3e15e9e5	0.14640005
139	0x3e863e96	0.26219624
140	0xbeda8567	-0.42679903
141	0x3e4fba3e	0.2028589
142	0x3e1c8b97	0.15287624
143	0x3e895a28	0.26826596
144	0xbe9a2cc8	-0.3011229
145	0x3de16e27	0.11007338
146	0xbd7b8f89	-0.061416183
147	0xbe695764	-0.22787243
148	0x3be98750	0.007126726
149	0x3d12b2f8	0.03581521
150	0x3ea17f3a	0.3154238
151	0xbe3edd74	-0.18639165
152	0x3f8a96a9	1.0827228
153	0x3de334d9	0.11094064
154	0xbe64ac9d	-0.22331472
155	0xbd8b0a60	-0.06789088
156	0xbd8a0f69	-0.067412205
157	0x3e511f39	0.20422067
158	0x3b8877e2	0.004164682
159	0x3ef691d4	0.48158133
160	0xbdf7b98b	-0.120959364
161	0x3ee7a29d	0.45241252
162	0xbf1b00bd	-0.60548
163	0xbdaa4b12	-0.083151
164	0x3dbdeaf4	0.092733294
165	0x3fb04aec	1.3772864
166	0x3ead516b	0.3385118
167	0xbdcda139	-0.100405164
168	0x3d78b97a	0.06072376
169	0xbe758875	-0.23977835
170	0x3abdfa92	0.0014494231
171	0x3e19d0ac	0.15021008
172	0xbe342629	-0.17592682
173	0x3d8d523a	0.06900449
174	0x3e986a07	0.29768392
175	0x3c351274	0.011051763
176	0x3ea95ea0	0.33080006
177	0x3f36e4bb	0.71442765
178	0x3d4f0b8a	0.050548114
179	0x3ed37cde	0.41306204
180	0xbcf6c725	-0.030124256
181	0xbe9ce7c8	-0.30645585
182	0xbe4d1241	-0.20026495
183	0x3d223f76	0.039611302
184	0xbbec0d38	-0.0072037242
185	0x3e759c15	0.23985322
186	0xbe8a6fc7	-0.27038404
187	0xbd45211e	-0.048127286
188	0xbe205841	-0.15658666
189	0xbe4c4507	-0.19948207
190	0xbefb3583	-0.49064264
191	0xbf27b0e1	-0.6550427
192	0xbbc29aea	-0.0059388774
193	0xbe71e17f	-0.23621176
194	0xbe021d55	-0.12706502
195	0xbddcc884	-0.10780433
196	0x4018b641	2.386124
197	0x3fbaabd9	1.4583694
198	0x3e4b0e56	0.19829687
199	0x3dc0ae07	0.09408193
200	0xbde99565	-0.11405448
201	0x3e052b5a	0.13004819
202	0xbec593fb	-0.38589463
203	0xbcb60ab0	-0.022221893
204	0x3e8b62aa	0.27223712
205	0x3f0f9327	0.5608391
206	0xbdde92e8	-0.10867864
207	0xbe73a9fa	-0.2379531
208	0x3e2ad1a2	0.16681531
209	0x3da1f971	0.07908905
210	0x3d44f591	0.048085753
211	0xbe140fd2	-0.1445916
212	0xbd1feb83	-0.03904296
213	0x3ef8c6cf	0.4858918
214	0x3c32ae32	0.010905789
215	0x3e7925c0	0.24330807
216	0x3b510ab5	0.003189725
217	0x3e7b90bd	0.24566932
218	0x3c01bae5	0.007918094
219	0x3eeac8b7	0.45856258
220	0x3e2d781c	0.1694035
221	0xbf819900	-1.0124817
222	0xbf1490a4	-0.58033204
223	0xbdc76cb8	-0.09737533
224	0x3d72b538	0.059254855
225	0xbed3a7ed	-0.41339055
226	0x3b66ffac	0.0035247607
227	0x3f32e9fe	0.69888294
228	0x3e7efa7f	0.24900244
229	0xbf35210d	-0.70753556
230	0xbed371d1	-0.41297773
231	0x3dd57479	0.10422606
232	0x3e86e2a0	0.26344776
233	0x3f4954a6	0.7864479
234	0x3ed59167	0.41712496
235	0x3e255c78	0.16148555
236	0xbf18c378	-0.5967326
237	0x3e5cd866	0.21566924
238	0xbf026e80	-0.5094986
239	0x3bffd7c6	0.0078077046
240	0xbde3f617	-0.11130922
241	0xbd677be1	-0.056514625
242	0xbe426f67	-0.18987809
243	0x3f5ae6da	0.855085
244	0x3e340f75	0.17584021
245	0x3e5d39da	0.216041
246	0xbd2c6e58	-0.04209742
247	0x3cfa539a	0.030557442
248	0xbef86ef8	-0.48522162
249	0xbd23cd53	-0.039990734
250	0xbf2cfc8b	-0.6757285
251	0xbdab6d9b	-0.08370515
252	0xbf2a5853	-0.6654102
253	0x3e45bffe	0.1931152
254	0x3eda1f66	0.4260208
255	0x3b00c0e8	0.001964623

fc2.bias f4 [300]
0	0x3e871982	0.26386648
1	0x3d1e4900	0.038643837
2	0xbd0106f7	-0.031500783
3	0x3bc523a9	0.006016214
4	0xbd215a17	-0.039392557
5	0x3e29120c	0.1651079
6	0x3d146e91	0.036238257
7	0x3e534825	0.2063299
8	0xbcf5cb6b	-0.030004224
9	0x3e62d253	0.22150545
10	0x3db1859f	0.08668064
11	0xbd43f09e	-0.047836892
12	0x3c85359a	0.01626091
13	0x3e3ef2aa	0.18647256
14	0x3bd4480c	0.006478315
15	0x3e7fff78	0.24999797
16	0x3e165392	0.14680317
17	0x3d18deda	0.037321903
18	0x3e65311a	0.22382012
19	0x3e821e2b	0.2541364
20	0x3b59208e	0.0033130976
21	0x3e3f387b	0.1867389
22	0x3e5deff0	0.2167356
23	0x3e5edbb3	0.21763496
24	0x3c9ccf9b	0.019141963
25	0xbc535e7e	-0.012900947
26	0xbca3a206	-0.01997472
27	0x3e9e91b6	0.30970544
28	0x39ff2df7	0.00048671637
29	0xbd4beb29	-0.049784813
30	0x3e88f57c	0.2674979
31	0x3e496710	0.19668221
32	0x3c9edbfb	0.019392004
33	0x3e5421c5	0.20716007
34	0x3dca758f	0.09885704
35	0x3e2a1db0	0.16612887
36	0x3e1a34eb	0.15059249
37	0x3e4873fb	0.19575493
38	0x3e932e56	0.2874629
39	0x3cb5dc7d	0.022199864
40	0xbc70a20a	-0.014687071
41	0x3e5c45c1	0.21510984
42	0x3e349c4a	0.17637745
43	0xbd5889f6	-0.052865945
44	0x3bcd268d	0.006260699
45	0x3b5168bb	0.0031953293
46	0x3d8463e0	0.06464362
47	0xbab320f8	-0.0013666442
48	0xbc4b3145	-0.0124018835
49	0x3d05bfb0	0.03265351
50	0xbcc933a2	-0.024560753
51	0x3e456504	0.19276816
52	0xbd19ad85	-0.037518997
53	0x3e752f85	0.23943909
54	0xbd2d2d96	-0.042279802
55	0x3edecde8	0.4351647
56	0x3e9bcc61	0.30429366
57	0x3e49ca94	0.19706184
58	0x3d22d69a	0.03975544
59	0x3eee0b93	0.46493205
60	0x3e6452f9	0.22297277
61	0xbd689efd	-0.056792248
62	0xbcdc19f2	-0.02686784
63	0x3e7ea90e	0.24869177
64	0xbd4467cc	-0.04795055
65	0x3e462d56	0.19353232
66	0x3aa9b6d6	0.0012948166
67	0x3e741650	0.23836637
68	0xbcde7451	-0.027155073
69	0x3e0cded1	0.13756873
70	0x3d981ffc	0.074279755
71	0x3e628a13	0.22122984
72	0xbda6eba3	-0.08150413
73	0xbc366493	-0.011132377
74	0x3e85ab23	0.2610713
75	0xbd23edec	-0.04002182
76	0x3dcb53da	0.09928103
77	0xbe1dd737	-0.15414129
78	0x3c7fca2b	0.015612165
79	0x3e4a092b	0.1973006
80	0x3e8b40bc	0.27197826
81	0x3e2bd2bc	0.16779608
82	0xbd15aaa6	-0.036539696
83	0x3d192a1c	0.037393674
84	0x3f0649b8	0.52456236
85	0x3e8e9114	0.2784506
86	0x3e512ac6	0.20426473
87	0x3e8290ad	0.25501004
88	0xbc946d58	-0.018118545
89	0x3e383074	0.17987233
90	0x3ea860d5	0.32886377
91	0x3e4d26e7	0.20034371
92	0x3e497fdd	0.19677682
93	0x3d3df8e1	0.046379928
94	0x3e8174d6	0.2528445
95	0x3c8c794b	0.01714768
96	0xbd18fd12	-0.03735072
97	0xbd346144	-0.044038072
98	0xbc15dbec	-0.009146672
99	0x3e797606	0.24361429
100	0xbd4b2d1d	-0.04960357
101	0xbd3a72d4	-0.045519665
102	0xbc0feea6	-0.008784926
103	0x3dfb095e	0.12257646
104	0xbd33888a	-0.043831386
105	0x3c85e506	0.016344558
106	0x3e53139a	0.20612946
107	0x3e368fbf	0.17828272
108	0x3e64af35	0.22332461
109	0x3e80463d	0.25053588
110	0x3e2937ae	0.16525146
111	0x3e3817a4	0.17977768
112	0x3e5cd6d2	0.21566322
113	0xbd4d33bd	-0.05009817
114	0x3eba2f97	0.36364433
115	0xbbf37eec	-0.0074309018
116	0x3e81b5c6	0.25333995
117	0x3e7aaf62	0.24480966
118	0x3e676b55	0.22599538
119	0xbbb1ca71	-0.005425744
120	0x3eabd574	0.3356129
121	0x3e7cad0b	0.24675386
122	0xbcbf7f06	-0.023376
123	0x3d301528	0.042988926
124	0x3e05d387	0.13068973
125	0x3e5dbc85	0.21653946
126	0x3c922cc9	0.01784362
127	0x3e1d94bc	0.15388769
128	0x3e0e8685	0.13918503
129	0x3e68536e	0.22688076
130	0x3d240564	0.040044203
131	0x3e3bb775	0.18331702
132	0xbca04828	-0.019565657
133	0x3e983310	0.29726458
134	0x3ea37b20	0.31929874
135	0xbc7cc86e	-0.015428646
136	0xbb9e5dec	-0.0048329737
137	0x3e588deb	0.21147887
138	0xbd4aa9f6	-0.049478494
139	0x3e70c523	0.23512702
140	0xbcda18e7	-0.026623202
141	0x3e603de0	0.21898603
142	0x3e2312f7	0.15925203
143	0x3c09e2f8	0.00841593
144	0x3e6a0ac3	0.22855668
145	0x3e6c4c4c	0.2307598
146	0xbd50cd92	-0.050977297
147	0x3d14242a	0.0361673
148	0x3d07f353	0.033191036
149	0x3e4d5075	0.20050223
150	0x3ea69f0c	0.32543218
151	0xbd414967	-0.047189143
152	0x3e2935ff	0.16524504
153	0x3c84ea96	0.01622514
154	0x3e3b2286	0.18274888
155	0xbcae54d2	-0.02128068
156	0x3e738f83	0.23785214
157	0xbd6c4d3d	-0.057690848
158	0xbd0b7391	-0.03404576
159	0x3e8c2f5e	0.27379888
160	0x3e21d9b5	0.15805705
161	0x3e5e420b	0.21704881
162	0xbd05f515	-0.03270443
163	0xbd1970b4	-0.037460998
164	0x3e56b7ae	0.20968506
165	0x3e9730de	0.2952947
166	0x3e759636	0.23983082
167	0x3e91a7d9	0.2844837
168	0x3e9ceffd	0.30651847
169	0x3e0e0175	0.13867743
170	0x3d0c8aa8	0.03431192
171	0xbc705249	-0.014668056
172	0xbc8c3602	-0.017115597
173	0x3ea1d411	0.31607106
174	0x3cf4895f	0.02985066
175	0xbd3b041f	-0.045658227
176	0x3dd6cdc0	0.104884624
177	0x3e7c5df9	0.24645223
178	0xbd1aee14	-0.037824705
179	0x3e3b0e9a	0.18267289
180	0x3e9b1139	0.30286577
181	0x3d083e17	0.03326234
182	0x3e7bd6c5	0.24593647
183	0xbb599226	-0.0033198684
184	0x3df1b679	0.11802382
185	0xbc197791	-0.009366886
186	0x3e4f25b2	0.20229223
187	0x3e86a2b3	0.26296005
188	0x3e368ccf	0.17827152
189	0x3cefb7db	0.029262474
190	0xbd26e3d1	-0.040744606
191	0x3e457f8f	0.19286941
192	0xbd5fa12f	-0.054597076
193	0xbd078f6f	-0.033095773
194	0x3e68c96b	0.22733085
195	0x3e4934a9	0.19648995
196	0x3e0cb4a9	0.13740791
197	0x3e8117c2	0.25213438
198	0xbb89bae9	-0.0042031896
199	0x3e6dd841	0.23227026
200	0xbd42929c	-0.0475031
201	0x3e531f8f	0.20617507
202	0x3e62cc67	0.22148286
203	0x3b51db15	0.0032021452
204	0x3e50e523	0.20399909
205	0x3e6eaa38	0.23307121
206	0x3e77e83c	0.24209684
207	0x3e8763d5	0.26443353
208	0x3e6571d9	0.2240671
209	0xbceb07fc	-0.02869033
210	0xbcecf9b9	-0.02892767
211	0x3e2fd8eb	0.17172591
212	0x3e1d5160	0.15363073
213	0x3e926fd7	0.28600952
214	0x3e6a8308	0.22901547
215	0x3e3cb864	0.18429714
216	0x3c0cb9b8	0.008589201
217	0x3e963229	0.29335144
218	0xbcdd06e9	-0.026980834
219	0x3e59cc06	0.21269235
220	0x3e48c42d	0.19606085
221	0xbb46d00c	-0.0030336408
222	0x3e52aece	0.20574495
223	0x3b94360e	0.0045230454
224	0x3eaa5c6b	0.33273634
225	0x3e2f440a	0.17115799
226	0x3e894761	0.2681227
227	0x3e65c04e	0.2243664
228	0x3a9a633a	0.0011778839
229	0x3e6b3011	0.22967555
230	0x3e7b3d29	0.2453505
231	0x3e6d5445	0.23176678
232	0x3e3b71d5	0.18305142
233	0xbafa4d6d	-0.0019096561
234	0xbd24d80f	-0.040245112
235	0x3e1081c3	0.14112
236	0x3eaed641	0.34147838
237	0xbd7874e2	-0.060658343
238	0xbd12e2a3	-0.03586067
239	0x3ee39b31	0.4445434
240	0x3dfbe1e3	0.12298944
241	0x3e722f1c	0.23650783
242	0x3e6c541e	0.23078963
243	0x3f052c46	0.5202068
244	0x3e896170	0.2683215
245	0x3e55010b	0.20801179
246	0x3ed3103a	0.41223317
247	0x3e6dc0b3	0.2321804
248	0x3d154224	0.03644003
249	0xbd37b101	-0.04484654
250	0x3e546140	0.20740223
251	0x3e168aa7	0.14701329
252	0xbce8aafc	-0.028401844
253	0xbc2404c2	-0.0100109
254	0x3dc647ee	0.09681688
255	0x3de92818	0.113846004

v.weight f4 [1, 300]
0	0x3f7259e3	0.94668406
1	0x3ca4a0fb	0.020096293
2	0xbef8bdb5	-0.48582235
3	0x3c035fed	0.008018476
4	0x3baf27aa	0.0053453045
5	0x3e24de79	0.16100492
6	0xbcc54081	-0.02407861
7	0x3e1b2e3e	0.15154359
8	0x3b21a239	0.0024663343
9	0xbf8412bc	-1.0318217
10	0xbf6d273d	-0.92638
11	0x3c9be5a2	0.019030396
12	0xbca69eed	-0.020339454
13	0x3e408299	0.18799819
14	0xbd1e74d6	-0.038685642
15	0xbfa2de66	-1.2724121
16	0xbf502c54	-0.8131764
17	0xbc52e708	-0.012872465
18	0xbf930155	-1.1484782
19	0x3e0f8b8c	0.14018077
20	0x3d38deb0	0.045134246
21	0x3e4ce994	0.20010978
22	0x3e52daa7	0.20591222
23	0xbf45eed3	-0.7731754
24	0xbf5df07e	-0.86695087
25	0xbd0074dc	-0.031361446
26	0xbc1b84f5	-0.009492149
27	0x3f480484	0.7813189
28	0x3d320420	0.043460965
29	0xbef5b9ed	-0.47993413
30	0x3e1eefca	0.1552116
31	0xbf3f451c	-0.7471483
32	0x3d1bc55f	0.038030025
33	0x3dbdc0e6	0.09265308
34	0xbf3b84a6	-0.7324928
35	0x3e207bfc	0.15672296
36	0xbf98e3df	-1.1944541
37	0x3e271c65	0.16319425
38	0x3e30c56c	0.1726281
39	0x3b8c2faa	0.004278143
40	0x3d65dc53	0.05611832
41	0x3e5abce7	0.21361123
42	0x3de0c47f	0.10974979
43	0xbbc6d5bf	-0.006067961
44	0xbcdc3cf9	-0.026884543
45	0x3cc24436	0.023714166
46	0xbf852bda	-1.0404007
47	0xbc41dd99	-0.011832618
48	0xbc8c9b8c	-0.017164014
49	0xbd38df75	-0.04513498
50	0xbb4a14e0	-0.0030835196
51	0x3e31af3f	0.17352007
52	0xbc9fe2d8	-0.019517347
53	0x3e45b1c6	0.19306096
54	0xbd273130	-0.040818393
55	0xc01bf700	-2.4369507
56	0xbf4fd912	-0.811906
57	0x3de37377	0.111060075
58	0xbf358dbe	-0.70919406
59	0xbf5c51b0	-0.86062145
60	0x3e08208e	0.13293669
61	0xbb8aed35	-0.004239703
62	0x3ceefb38	0.029172525
63	0x3e2d8311	0.16944529
64	0x3d3fd5ee	0.04683488
65	0x3e36343a	0.1779336
66	0xbd22d53f	-0.03975415
67	0x3e1224e7	0.1427189
68	0xbf67d072	-0.9055244
69	0xbeff99d9	-0.49922064
70	0xbf26ff24	-0.65233064
71	0x3e1ddb6c	0.15415734
72	0xbf00a6c8	-0.5025449
73	0x3c08520a	0.008320341
74	0x3e3b421a	0.18286934
75	0xbcd51932	-0.02601299
76	0xbf0e14c5	-0.5550044
77	0xbea958c4	-0.33075535
78	0x3c5bada9	0.013408103
79	0x3e479ff4	0.19494611
80	0xbf35037b	-0.70708436
81	0xbf8aa5ec	-1.0831885
82	0xbc056aef	-0.008143171
83	0xbf048a46	-0.5177349
84	0xc01dd8ba	-2.466353
85	0x3e5ebafa	0.21751013
86	0x3f867066	1.0503051
87	0x3dc8a017	0.0979616
88	0xbc3f34bb	-0.011670287
89	0xbf56f7ef	-0.83972067
90	0xbfae5bb5	-1.3621737
91	0x3e1359e6	0.14389762
92	0x3e25d47f	0.16194342
93	0x3aa5ce44	0.0012649973
94	0x3e03c4b4	0.12868005
95	0x3ceaf662	0.028681938
96	0x3bad0031	0.005279564
97	0x3c41b018	0.011821769
98	0x3d2fa5dc	0.042882785
99	0xbf556efd	-0.8337248
100	0x3d23f9c2	0.04003311
101	0x3c02ad87	0.007975942
102	0xbc852da4	-0.016257115
103	0xbf5928de	-0.84827983
104	0xbf3e5d85	-0.7436145
105	0xbad870e7	-0.001651314
106	0x3e1a83cd	0.1508934
107	0x3e4929ce	0.19644853
108	0x3e16dc90	0.14732575
109	0x3e576cc9	0.21037592
110	0x3e235df3	0.15953808
111	0x3e3d9dc3	0.18517213
112	0x3e49b8c9	0.19699396
113	0xbd06f005	-0.032943744
114	0xc00360b9	-2.0527785
115	0xbd152785	-0.036414642
116	0x3e1fa859	0.15591563
117	0x3e0b9bf5	0.13633712
118	0x3e0e2ae4	0.13883549
119	0x3b0aa205	0.00211537
120	0xbf5014ff	-0.8128204
121	0xbf4b52ab	-0.79423016
122	0xbcfd2b01	-0.030904295
123	0x3d3fdd68	0.04684201
124	0xbf38f7b0	-0.7225294
125	0x3ddedd96	0.10882108
126	0x3b88cf41	0.004175097
127	0x3fa0bf07	1.2558297
128	0xbf2e6960	-0.6812954
129	0x3e279079	0.16363706
130	0xbf060006	-0.52343786
131	0xbf32d7bb	-0.6986043
132	0xbe19d633	-0.15023117
133	0xbf915061	-1.1352655
134	0xbfb9d5fb	-1.4518427
135	0xbd568891	-0.052376334
136	0xbc24705b	-0.010036553
137	0x3e532193	0.20618276
138	0xbcb8285f	-0.022480188
139	0x3e45ded3	0.19323282
140	0xbcbed111	-0.02329305
141	0x3e6535fb	0.22383873
142	0x3e40457f	0.1877651
143	0xbb79e1f1	-0.0038129056
144	0x3e76bb91	0.24094988
145	0x3e4e92b5	0.20173152
146	0x3cd73e77	0.026274903
147	0x3d50c737	0.050971236
148	0xbf462a06	-0.7740787
149	0x3e16f20a	0.14740768
150	0xbf387f8b	-0.72069615
151	0x3cca12b8	0.024667129
152	0xbf4a6fdb	-0.7907693
153	0x3ca4a6b7	0.020099027
154	0xbfdeaeac	-1.7397056
155	0xbab5dbcf	-0.0013874712
156	0x3e383ab1	0.17991139
157	0x3c2b7a63	0.010466191
158	0x3c90d03e	0.017677423
159	0x3e346cce	0.1761963
160	0xbf32abd6	-0.6979345
161	0x3df3923e	0.11893128
162	0x3b41e64e	0.0029586735
163	0xbd0aaadf	-0.03385436
164	0xbfa480a5	-1.2851759
165	0xbf9a6a7e	-1.2063749
166	0xbf3b6181	-0.73195654
167	0x3e3733b3	0.17890815
168	0xbf30f91a	-0.691301
169	0xbf41bc3f	-0.75677866
170	0xbf06b4e9	-0.52619797
171	0xbd300656	-0.042974792
172	0xbf58ad5b	-0.8463952
173	0x3f7ffcd0	0.99995136
174	0x3cc47dfe	0.023985859
175	0x3d1f3a5a	0.038874008
176	0xbf498f27	-0.7873406
177	0x3e15651a	0.14589348
178	0x3d0de18f	0.034638938
179	0xbf4a9dd1	-0.7914706
180	0xbf31dc27	-0.6947655
181	0xbc247669	-0.010037997
182	0xbf319baf	-0.6937818
183	0xbca1a44d	-0.019731665
184	0xbf30140d	-0.68780595
185	0xbbb099c8	-0.005389426
186	0x3dde1d0f	0.10845386
187	0x3e47e029	0.19519104
188	0xbf03ecbd	-0.5153311
189	0xbb35df1e	-0.0027751396
190	0xbd0b7fd4	-0.034057453
191	0x3db3191d	0.08745024
192	0xba719973	-0.0009216286
193	0xbbbc7b8b	-0.005752032
194	0x3e3ea58d	0.1861784
195	0x3e4a8f8b	0.1978132
196	0xbf682d2d	-0.9069393
197	0xbf39d628	-0.725924
198	0xbad9317f	-0.0016570537
199	0xbfa19f3b	-1.2626718
200	0xbc0c7aa4	-0.008574162
201	0x3e36962c	0.17830724
202	0x3e5ebf0a	0.21752563
203	0x3d058097	0.032593336
204	0xbf8620b2	-1.0478728
205	0x3e539e07	0.20665751
206	0x3e2cb4ac	0.16865796
207	0x3f8496ed	1.0358559
208	0xbefdea29	-0.49592713
209	0xbd0d26e3	-0.034460913
210	0x3d1173d4	0.035510853
211	0x3e18d80e	0.14926168
212	0x3e4946ab	0.19655864
213	0xbf408b79	-0.7521282
214	0x3e217132	0.15765837
215	0x3d926b54	0.071493775
216	0x3d30693a	0.043069102
217	0xbf48767c	-0.7830579
218	0x3d1c8ade	0.03821837
219	0x3e37ebfd	0.17961116
220	0xbfc50e11	-1.5394918
221	0x3b76bf13	0.003765051
222	0xbf8f7691	-1.1208059
223	0xbc227432	-0.009915398
224	0xbf893f8b	-1.0722517
225	0x3f7d885e	0.99036205
226	0x3e5eae3f	0.21746157
227	0x3e234344	0.15943629
228	0xbf15d91a	-0.58534396
229	0x3e35e343	0.17762475
230	0x3e30d495	0.17268594
231	0x3e148f08	0.14507687
232	0x3e4f2301	0.20228197
233	0x3cd674cc	0.02617874
234	0xbcff9fa0	-0.031204045
235	0xbf71020c	-0.9414375
236	0xc0245ff2	-2.568356
237	0x3cdeb34b	0.027185103
238	0xbc6be1cb	-0.014397095
239	0xbfc21ea5	-1.5165602
240	0xbf176b58	-0.5914817
241	0xbf3f111b	-0.74635476
242	0x3e5e1a23	0.21689658
243	0xc004c085	-2.0742505
244	0xbf8ba64d	-1.0910126
245	0x3e327b94	0.17429954
246	0xbfde4c93	-1.7367119
247	0xbf941e27	-1.1571702
248	0x3cca31d7	0.024681969
249	0xbc09bfeb	-0.008407573
250	0x3e3c45e9	0.18386044
251	0xbf597956	-0.8495077
252	0x3c7082be	0.014679609
253	0xbf1c8cde	-0.61152446
254	0xbf876630	-1.057806
255	0xbf12312f	-0.571063
