SAC_own_hardcore/sac_300/actor_sac.pth (torch, 533976 bytes, 8 tensors)

fc1.weight f4 [400, 24]
000000 7f af 39 bf 4f 34 17 3d a6 9f 7e 3e df 5e 26 3f
       -0.7253341 0.03691512 0.24865589 0.6498851
000010 49 03 d5 be 33 66 47 bd b9 d9 39 be fd 8a 04 be
       -0.4160407 -0.04868145 -0.18149461 -0.12943645
000020 3b 6f 48 3d 04 00 d1 bc 19 ac 7e bc 41 fd 8f be
       0.048934203 -0.025512703 -0.015543961 -0.28122905
000030 95 fc a8 bb 55 d9 52 bd c0 3f 22 3e a8 11 75 3b
       -0.0051570632 -0.051476795 0.15844631 0.0037394557
000040 ff c8 0c 3e e6 af 14 3e 39 36 18 3e 44 65 97 3b
       0.13748549 0.14520225 0.14864434 0.004620226
000050 31 49 0e 3e f6 f7 77 3e 55 bb 2f bd 27 31 67 be
       0.13895108 0.24215683 -0.042903263 -0.22577344
000060 2d e8 9f bb 80 e4 87 3f 21 73 99 bf 25 03 e9 3b
       -0.0048799724 1.0616608 -1.198826 0.0071109706
000070 4e d8 1c be 79 5e f3 3e 0d 3a 1c 3d c0 5f c6 3e
       -0.15316889 0.47533014 0.0381413 0.38744926
000080 24 eb 36 be 2b b9 4f be b5 b2 96 be 43 70 3b 3e
       -0.17863137 -0.2028548 -0.29433218 0.18304543
000090 91 5f 51 3e 02 db ba 3e 3d 98 7f be 8b 59 b6 bd
       0.20446612 0.36495215 -0.24960418 -0.08903798
0000a0 60 b1 31 bd 9a 1e 82 be 6f 8a b0 be 41 14 8e bd
       -0.04338205 -0.25413972 -0.34480616 -0.06937457
0000b0 7e 19 99 3d ab 70 bd bd 4f 8a 25 be 9e cb 4e bd
       0.074755654 -0.09250005 -0.16166042 -0.050487153
0000c0 0d f9 55 3e 29 9a c9 3d d0 8b 24 bf a3 b1 8f bf
       0.20895787 0.09843857 -0.64275837 -1.1226085
0000d0 b7 92 9a be 13 de 96 3e 71 7a fd 3d ec 0a c1 3e
       -0.3019006 0.29466304 0.123768695 0.37703645
0000e0 c3 3a d5 be be 61 be bd c2 41 2d 3e 06 31 e2 be
       -0.41646394 -0.092959866 0.16919616 -0.44178027
0000f0 2a 77 e7 3d 4c 79 71 be 95 9f 41 3e 3b a1 1d be
       0.113020256 -0.23581427 0.18908532 -0.15393536
000100 98 f3 4c be 6a 71 00 bf 3a 19 1c 3e 3e 9e e4 bd
       -0.20014799 -0.50173056 0.15243998 -0.11162995
000110 30 1e 2c 3d 09 19 16 3d 34 c9 d4 be ff 29 65 bd
       0.042020977 0.03664497 -0.41559756 -0.055948254
000120 19 81 8c be 23 88 e6 3e 8d 10 07 3f 17 20 78 3e
       -0.27442244 0.4502574 0.5275963 0.24230991
000130 11 ae 0e be 32 8f 20 bf bf 90 9e bd a5 b3 f8 be
       -0.13933589 -0.627185 -0.07742452 -0.48574558
000140 ef d3 57 bc 00 f6 90 be 3d 28 88 be 53 cc c0 bb
       -0.0131730875 -0.28312683 -0.265932 -0.0058837323
000150 5a 2f 09 bb 93 e2 d6 bd 44 99 4c bc 4d 8b 81 3e
       -0.0020932765 -0.10492434 -0.012487713 0.2530159
000160 28 b1 cc bd 85 97 90 bd d3 f9 5a bd 09 3a ae bd
       -0.099947274 -0.0706015 -0.053460907 -0.08507163
000170 7b b6 77 bd 29 86 00 be ea 7a b5 be d3 49 91 be
       -0.06047676 -0.12551178 -0.35445338 -0.28376636
000180 06 24 96 3e 0e 8b 5e be 8f b3 3f 3e db 94 cc 3d
       0.2932436 -0.21732733 0.1872084 0.099893294
000190 dd 8a 3b 3e 99 80 9d 3e 7d 6e e6 be 7a 61 61 3d
       0.18314691 0.30762175 -0.4500617 0.0550246
0001a0 96 fd 96 3e 19 fc 41 bf f6 eb f0 3d 4e 4c 02 be
       0.29490346 -0.75775295 0.11763756 -0.1272442
0001b0 48 1f 90 bc 71 ee 8a 3d ec f9 a7 3c 66 da 1a be
       -0.017593041 0.0678376 0.020504914 -0.15122375
0001c0 e8 a2 a2 bd fd 0e 67 bc a3 ff 6e be 9d ea 5d bd
       -0.07941228 -0.014102695 -0.23339705 -0.054178823
0001d0 66 ed 81 be 1a bc 4a be af d4 1c be 6e 70 33 be
       -0.25376433 -0.19798318 -0.15315507 -0.17523357
0001e0 ce 97 4b 3e 15 98 96 3f cb 18 e5 3e 06 c0 e0 bd
       0.19882128 1.1765162 0.44745478 -0.109741256
0001f0 c5 2f 7a 3e 9d f0 b6 bd 42 70 e9 bd 9b 75 6f be
       0.24432285 -0.08932612 -0.113983646 -0.23384707
000200 07 e2 ac be d4 9d e8 3d ee 5f 47 3d a6 6d 84 3e
       -0.33766195 0.11358228 0.04867547 0.25864905
000210 75 cb 6a bc b6 03 9a be 5e d2 11 3e bd 88 52 3e
       -0.0143307345 -0.30080956 0.14240405 0.20559974
000220 b6 04 e6 3d fb 8d be bd 18 bb 90 3d b7 69 22 3d
       0.11231367 -0.093044244 0.07066935 0.0396516
000230 9c 44 58 3e e9 c7 00 bb 05 2e 07 3d 9a 32 ef bd
       0.21119922 -0.0019650406 0.033002872 -0.11679573
000240 be d6 c7 3e 75 0c 58 3f 48 5f 4d bf d7 aa 27 be
       0.39031023 0.8439401 -0.8022351 -0.16373764
000250 52 f0 b9 3e d7 2f 50 be c0 27 37 bd 44 ba 71 3c
       0.36316162 -0.2033075 -0.044715643 0.014753882
000260 ee 8d b9 3e 40 c4 98 3d c6 93 c2 3e 9d 43 09 be
       0.36241096 0.07459307 0.38003367 -0.13404699
000270 f6 f0 18 3e ed 11 cf be e7 f9 ba bd 9d 26 b1 3b
       0.1493567 -0.40443364 -0.09129696 0.0054062144
000280 43 cc 20 be b9 19 b4 bc 58 89 48 be de 61 55 be
       -0.1570292 -0.021984922 -0.19583642 -0.20838115
000290 ce 7e 80 bd f6 8b 81 bd f0 4c 25 be 58 b9 0a be
       -0.06274186 -0.063255236 -0.1614263 -0.13547266
0002a0 be 10 6e 3d 4c 03 16 3f 8c 26 cb be c3 03 20 bf
       0.058121435 0.5859878 -0.39677846 -0.6250574
0002b0 c5 51 6d 3e e7 27 82 bd de 02 dd 3d 55 0f 98 3e
       0.23175724 -0.06355267 0.107915625 0.29699197
0002c0 34 83 84 3c 90 00 2f 3f 81 5d fb 3c a9 17 ba bd
       0.016175844 0.68360233 0.030684235 -0.09086544
0002d0 de 82 d8 3d 52 2e 5b be bc 6b 92 bd 66 61 1f 3b
       0.10571836 -0.21404389 -0.07149455 0.0024319529
0002e0 fd bc 85 bd b5 8c a7 be b7 8c 16 be 80 13 50 be
       -0.06530187 -0.32724538 -0.14702116 -0.20319939
0002f0 19 5f 48 be a2 56 f5 bb 5e 59 26 3c 83 31 88 be
       -0.19567527 -0.007487134 0.010153143 -0.26600274
000300 7a 2d 08 be 94 0a 2c 3f b4 3a 6a bf 48 35 72 3d
       -0.13298598 0.6720364 -0.91495824 0.059132844
000310 be 68 28 3d 6b 78 46 3e 9d bf e5 bd 92 61 11 be
       0.041115515 0.19381873 -0.11218188 -0.14197376
000320 40 ef c3 be ff 46 ff 3e a5 bd 65 be a0 a7 af be
       -0.3826847 0.49858853 -0.22435625 -0.34307575
000330 88 c5 29 3e 02 ea 4d be 02 c8 f5 bd 91 e9 1f 3d
       0.16579258 -0.20108798 -0.12001039 0.039041106
000340 4c 6b 8d 3e 53 c6 49 3e b3 cf 04 bd 4e 25 03 3e
       0.27620924 0.19704561 -0.03242464 0.128072
000350 0a f1 53 be 5f b2 ba bd 95 fc a4 3c 6c 9c 64 be
       -0.20697418 -0.09116053 0.020139972 -0.22325295
000360 bb a5 a7 3e 62 f2 23 bf 5f 58 98 3f f6 54 fe 3e
       0.3274363 -0.6404172 1.1901969 0.49674195
000370 ed 62 91 bd 9a 0c 4c 3c 60 69 26 bf a2 56 b9 3e
       -0.07098947 0.012454176 -0.6500454 0.36198908
000380 be 50 07 3e bb 5d 87 be 77 9f a5 3e c6 34 d6 3d
       0.13214394 -0.26438698 0.32348225 0.104592845
000390 e3 e4 e3 bd 2d 63 71 be 19 ed 2d be 2f 58 3d be
       -0.11127641 -0.23572989 -0.16984977 -0.1849067
0003a0 c9 73 89 be 4f da b1 3c 74 c9 2d be 62 44 59 be
       -0.2684615 0.021710543 -0.1697138 -0.21217492
0003b0 7c bd 84 3c 93 43 0e 3d 19 5c 2b be 1d f7 11 3e
       0.016203634 0.034732413 -0.16734351 0.14254422
0003c0 44 91 88 be c3 84 91 3d 1d 41 d7 bf ce e5 b6 be
       -0.2667333 0.071054004 -1.6816746 -0.35722202
0003d0 dd e0 00 be 3b fc eb bd 1e 68 a8 3d 91 0b 09 3e
       -0.12585779 -0.115227185 0.08222984 0.13383318
0003e0 01 c2 23 3e c6 43 6d be c8 45 b1 bd aa 1d e0 bd
       0.15991975 -0.23170385 -0.08655888 -0.10943158
0003f0 fa a2 20 bc f8 73 37 be 06 9a 88 3d 73 e6 8b 3e
       -0.009804482 -0.17915332 0.06670003 0.27324256

fc1.bias f4 [400]
000000 b8 76 37 3d 3f bd 4e 3b 15 01 62 3e fa b1 29 3e
       0.044790953 0.0031545905 0.22070725 0.16571799
000010 f4 de 2e bd 47 e7 d8 be a2 8f 59 be 68 c4 ad bc
       -0.042693093 -0.4236395 -0.21246198 -0.021211818
000020 36 1f 68 bd 95 6f 4d be c7 44 c3 be 2e 7e 99 be
       -0.05667039 -0.20062096 -0.3813841 -0.2997908
000030 10 25 3b be 2d 83 93 3a 15 90 d0 3d 4b f7 a2 be
       -0.18275857 0.0011254303 0.101837315 -0.31829295
000040 50 e0 56 be f4 6e a9 be d0 48 34 be 4e 7c 24 be
       -0.20984006 -0.33092463 -0.17605901 -0.16063043
000050 a5 aa c8 be f1 5d 2b bc 2e ad b3 bd 67 3b 73 be
       -0.3919269 -0.010459409 -0.08773266 -0.23753129
000060 00 ab 75 3d 57 d5 71 be d0 65 a7 be c0 1f 38 be
       0.05997753 -0.23616539 -0.32694864 -0.17980862
000070 80 70 cd be 34 6f e4 3d e8 c7 1c be 70 67 e9 3d
       -0.40124893 0.11154023 -0.15310633 0.11396682
000080 f6 b0 81 be 74 ab 4f be 29 65 ab be 9f 36 6c be
       -0.25330323 -0.20280248 -0.33475617 -0.23067711
000090 e2 4c 78 be 4b 24 71 be ce 36 2e 3d 6f 7c 90 be
       -0.24248078 -0.23549001 0.042532735 -0.28219935
0000a0 1b 98 6a be 94 a8 4f be ea 58 57 be 22 c6 4c be
       -0.22909586 -0.20279151 -0.21030012 -0.19997457
0000b0 a5 5f 45 be 60 a0 ca bd 44 4e b0 bd c8 cd da bd
       -0.19274767 -0.0989387 -0.08608678 -0.10683781
0000c0 b6 43 f5 bd 70 95 de 3d 0a 77 b6 3c 3a b7 a8 3d
       -0.119758055 0.10868347 0.02227356 0.08238073
0000d0 59 8b c7 be bb c1 da be da da 19 be b7 88 30 be
       -0.389735 -0.4272593 -0.15024891 -0.17239653
0000e0 3a ec d6 bd 89 ee 9b 3e 6f 4c 58 3e a4 ec 15 be
       -0.104942754 0.30455425 0.21122907 -0.14641052
0000f0 f6 a3 65 be 57 c8 20 3e 7d 42 9a bd 4f b3 ac be
       -0.22425827 0.15701424 -0.07532213 -0.33730552
000100 a9 e6 3f be 07 9a 93 be 69 b2 e9 bd 17 5d eb bd
       -0.18740334 -0.2882845 -0.11410982 -0.11492365
000110 fa 2e 99 bd ce 1d 17 3e d2 e8 85 be 35 12 54 3c
       -0.07479663 0.14757463 -0.2615419 0.012943794
000120 15 5e cd be fe 2b 9b be bc 48 f5 be aa d3 15 3e
       -0.4011084 -0.30307 -0.47907054 0.14631525
000130 a3 b3 f1 3c d2 76 0d 3d 24 d4 d0 3d b4 bd d3 bd
       0.029504603 0.034537144 0.101967126 -0.103389174
000140 05 85 04 3e 5c 26 6d be f9 61 1f be 48 06 99 be
       0.12941368 -0.23159164 -0.15564717 -0.29887605
000150 e8 1c 9b be 82 49 46 be e6 46 12 3e 54 89 a1 3d
       -0.3029549 -0.19363979 0.14284858 0.078875214
000160 f1 19 7b be cb c4 e6 3d 7d 5e dd bd 95 20 57 be
       -0.24521615 0.11268004 -0.10809038 -0.21008523
000170 8c ff 5a be 30 c1 50 bd b9 7a 35 3e 9e aa e8 bc
       -0.21386546 -0.050965488 0.17722596 -0.02840167
000180 dc 8c 78 bd 8f e9 17 be ad 02 a8 be 0d a0 15 bc
       -0.06068121 -0.1483519 -0.3281454 -0.009132397
000190 d6 7b ee 3d 43 1f 2a bd 46 ef bb bd 11 e6 4f be
       0.116447136 -0.04153372 -0.09176497 -0.20302607
0001a0 f6 71 02 be 7e 16 9f be 72 77 9b be 5e cb 22 be
       -0.12738785 -0.31071848 -0.30364567 -0.15897891
0001b0 9c 28 3e be 16 9b 83 ba c3 3d 26 3e 21 e3 7e be
       -0.18570179 -0.0010040726 0.16234498 -0.2489133
0001c0 b1 96 0e be c9 7a 9e 3e 01 63 e3 3c 9b 04 43 bc
       -0.13924672 0.30953053 0.02775717 -0.0119029535
0001d0 c2 11 0d be bb 40 be be 67 03 a6 be 07 d1 52 be
       -0.13776305 -0.3715876 -0.3242447 -0.2058755
0001e0 9b fa e8 3d be b3 31 3e 57 ca 17 3e 39 5b 85 3e
       0.11375924 0.17353722 0.1482328 0.2604616
0001f0 b1 15 a8 3d 8f a2 13 bb b4 da 6f be 74 1b 9b be
       0.08207262 -0.0022527312 -0.23423272 -0.30294383
000200 12 31 04 be 84 58 76 be 12 6d 59 bd f4 0c d7 be
       -0.12909344 -0.24057204 -0.053082533 -0.4200207
000210 ff 9c 83 be 57 c0 83 3d 28 68 77 be cc a3 27 be
       -0.25705716 0.0643317 -0.24160826 -0.16371077
000220 ed 8b 2c be d3 24 a7 bd 26 f5 8d be c4 a6 83 be
       -0.16850252 -0.081613205 -0.27726096 -0.2571317
000230 f7 b2 4b 3c da 8f 66 be 55 5d 1a bd 63 3d 2a be
       0.012432805 -0.22515813 -0.037686665 -0.1662498
000240 0f de 69 bd 7c 64 69 be 22 ba 13 3e 60 e4 48 bd
       -0.057096537 -0.22792238 0.14426473 -0.04904592
000250 17 d6 87 3d a8 94 f7 3d d9 e4 ad 3c c3 8c 6f 3e
       0.06632631 0.12088901 0.021227287 0.2339354
000260 62 f0 72 be 54 a3 ea be a8 8e 8f bd 05 4f ab be
       -0.23724511 -0.45827734 -0.070096314 -0.33458725
000270 70 70 bf bd 05 f8 0b bd 59 5e 92 be c6 03 c6 3c
       -0.093476176 -0.034172077 -0.28587607 0.024171721
000280 be c1 c5 bd a7 77 8e bd 6f 24 b4 3d 60 61 3f bb
       -0.09656094 -0.069564156 0.08796012 -0.0029202327
000290 9f a2 0f bd 26 63 25 bd 3e da d3 bd 00 8f 50 3d
       -0.035067197 -0.04037776 -0.10344361 0.050917625
0002a0 ee 41 80 be 40 f4 06 3e 40 54 16 3c 50 28 15 be
       -0.250503 0.13179111 0.00917536 -0.14566159
0002b0 98 59 86 3d 64 72 b0 3d ad 08 7d bd 64 04 81 be
       0.065600574 0.08615568 -0.061775852 -0.25198662
0002c0 ae b8 60 3d 90 06 bb be 5e 56 26 be a6 88 58 be
       0.054863624 -0.36528444 -0.16243884 -0.21145877
0002d0 b9 c0 97 be a6 a4 87 3e fc 28 ef be 78 c1 96 bd
       -0.29639223 0.26492804 -0.46710956 -0.0736112
0002e0 c6 a1 95 be d8 5d e9 bd 0d 7f 08 3d 8a 94 47 3d
       -0.29224986 -0.113948524 0.03332429 0.048725642
0002f0 56 39 9f 3d ac 50 de bd 33 87 db be b0 6c 77 3e
       0.07774608 -0.10855231 -0.42876586 0.24162555
000300 2f e1 c0 3d b6 e9 87 be 3b b4 35 be 0a c2 96 be
       0.0941795 -0.26545495 -0.17744534 -0.29444915
000310 33 81 e9 3c 11 cc d4 bd d8 02 f3 bd 3f dc a8 3b
       0.02850399 -0.10390485 -0.11865777 0.0051532085
000320 cf fa 97 be d0 25 87 be 07 b3 49 be 08 11 20 3e
       -0.2968354 -0.26396036 -0.196972 0.15631497
000330 15 08 85 be e6 17 03 3c 32 20 58 be 93 ef 8a 3e
       -0.2598273 0.008001303 -0.21106032 0.27135906
000340 37 c8 45 be e5 f5 8f be 18 ff 92 bd 54 a2 6b be
       -0.19314657 -0.2811729 -0.071775615 -0.23011142
000350 28 f0 d2 be 8e 41 30 be 99 9a a7 3e 3e 5e 69 bd
       -0.4119885 -0.17212507 0.32735136 -0.056974642
000360 ba ba b1 be d3 ac 0f 3e f7 90 10 be 4a d6 45 be
       -0.34712774 0.14030771 -0.141178 -0.19320026
000370 e6 a2 9d be b8 58 59 be b7 c7 97 be 56 5c 8e be
       -0.30788344 -0.2122525 -0.29644558 -0.27804822
000380 a5 49 01 be d2 35 5d be 33 1c 68 3d a3 3d c5 bd
       -0.1262575 -0.21602562 0.056667518 -0.09630897
000390 9a 93 f3 3d 69 d4 20 be a1 db 81 3d 32 55 4f 3d
       0.11893387 -0.15706028 0.06340719 0.050618358
0003a0 34 90 41 3e 73 95 b7 3d 0b c2 86 be 43 3c 0a 3e
       0.18902665 0.08964052 -0.26319918 0.1349955
0003b0 b0 32 84 bd 9b 46 0e bd 7d d6 86 3d f9 16 da be
       -0.064549804 -0.034735303 0.06583879 -0.42595652
0003c0 a6 86 3b be 6a 62 65 be 84 f8 93 be a7 69 5f bd
       -0.18313083 -0.22400823 -0.2890054 -0.054544117
0003d0 fe 91 25 be f3 01 1b be a1 1e 51 3e 17 d0 2b be
       -0.16168973 -0.15137462 0.2042184 -0.16778599
0003e0 4f 03 28 3c cf 78 76 bd 59 2e b2 be de 23 dd bc
       0.010254695 -0.060173806 -0.34800985 -0.026994642
0003f0 b9 6e 97 be 9a 8f 54 3d ff c6 8d be 6e a6 3e be
       -0.29576662 0.05189476 -0.27690884 -0.18618175

fc2.weight f4 [300, 400]
000000 40 42 09 be 2d 64 13 bd b4 bd 2a be 3e 9f 0c be
       -0.13404179 -0.035984207 -0.16673928 -0.13732621
000010 67 31 19 bd 9a 5d 97 ba bb 62 4d 3d b8 5e 5f bc
       -0.03740063 -0.0011548281 0.050142985 -0.013633423
000020 3b 5f 2e be 72 61 b1 3b 06 d9 00 3e 27 77 0e 3e
       -0.17028515 0.0054132277 0.12582788 0.1391264
000030 02 6f 84 3d 74 7c 11 bd 3e d2 53 3e e6 8b 18 3e
       0.064664856 -0.03551908 0.2068567 0.14897117
000040 b9 a9 eb bd 23 7d bb bc a7 f8 a9 be 29 e0 55 3e
       -0.115069814 -0.022886818 -0.3319752 0.20886292
000050 4c 37 f4 bd 92 7a 2c 3e 58 19 8c 3d 71 a0 18 3c
       -0.119246095 0.16843632 0.068407714 0.009315596
000060 5a 5f 18 3d 88 eb 84 bd 6a 4f 50 3d f0 7f 8c ba
       0.03720031 -0.064902365 0.050856985 -0.0010719281
000070 b7 bd 24 be 36 10 38 bd bd 88 be bd 1b 38 01 be
       -0.16087995 -0.044937335 -0.093034245 -0.12619059
000080 33 ff 57 be 32 5a ae 3d ec 7a de 3c 74 6c 39 3d
       -0.21093445 0.08513297 0.027158223 0.045269445
000090 8d 14 52 3d ac a6 b5 bd c1 9e cc bd fa 70 c4 3c
       0.05128913 -0.08869681 -0.099912174 0.023979653
0000a0 6e 8e 93 be 58 d5 2f bd 4d a6 99 3e 89 e8 0e be
       -0.28819603 -0.04292807 0.3000969 -0.13955893
0000b0 d3 25 aa 3e ce 4a 10 bd 0d 1b b8 3c 85 39 06 be
       0.33231983 -0.03522759 0.022473836 -0.1310788
0000c0 cc ab 98 3d c4 ed 78 be b0 62 a0 bc e6 50 d3 3d
       0.07454643 -0.2430945 -0.019578308 0.103181645
0000d0 89 4e 6e be 23 06 c9 3d 5f 7f f7 bd d5 4a 3d bb
       -0.23272146 0.098156236 -0.12084841 -0.0028883715
0000e0 7d eb 36 3c 72 8a 63 3c 0a 1b 72 3c fa a9 cf 3d
       0.011164543 0.013887988 0.014776954 0.10139842
0000f0 32 a3 87 be 88 cc 19 bd 70 ef 17 be a4 98 71 bc
       -0.26491696 -0.03754857 -0.14837432 -0.014745865
000100 b0 cc 5e 3d f7 9e 75 be d3 18 91 3e de 40 9f 3d
       0.054394424 -0.23986422 0.28339252 0.07776044
000110 a4 83 ce bd 99 c4 0a 3e d8 1c 93 bb ac a1 10 be
       -0.10083702 0.13551559 -0.0044895224 -0.14124173
000120 82 2c 8d bd 44 05 1d 3c 78 94 cd be b8 8c 3d be
       -0.06893255 0.009583775 -0.40152335 -0.18510711
000130 b7 ea a5 bd 9e d7 a7 3d 6f c5 70 3d c7 b2 7d 3e
       -0.08101409 0.081954226 0.058782037 0.2477523
000140 89 ac fe bd 6e cd 7b 3d 4a fd af 3c 52 30 0f bc
       -0.12435252 0.06147521 0.021483082 -0.008739548
000150 3e 16 cd 3d b1 bd f5 bd e6 91 e4 3d ad 5e 85 3d
       0.10014008 -0.119990714 0.111606404 0.065121986
000160 a0 48 00 be 2c 77 43 be 2c aa 25 bd da 27 b1 3d
       -0.12527704 -0.19088429 -0.04044549 0.08650179
000170 16 df cd 3d a2 d2 1b be 38 9c a7 3c 67 a1 79 bd
       0.10052316 -0.15217069 0.020460233 -0.06094494
000180 9b 3d 5f bd 12 9b 8d 3c 69 0d fc 3d 94 45 c9 bd
       -0.05450211 0.017285857 0.12307245 -0.09827724
000190 8c d6 dc bd 16 67 fd bd fb 28 cc 3d 2b d4 61 be
       -0.10783109 -0.12373178 0.09968754 -0.22053592
0001a0 c8 d9 25 3e 25 94 1a 3d b4 1a 13 3d e8 7d a5 3d
       0.16196358 0.037738938 0.035914138 0.08080655
0001b0 e6 64 54 bd 99 4d 91 be 4c 85 ca bc b7 95 ec 3d
       -0.051854037 -0.28379515 -0.024721764 0.11551993
0001c0 77 b7 74 be 0e 5d 71 be cf 9a 91 bd e1 f8 3c be
       -0.23898111 -0.23570654 -0.071096055 -0.18454315
0001d0 4b 93 a5 be 7f ce 65 3e 11 b2 37 bd f3 52 24 bd
       -0.32338938 0.22442053 -0.04484755 -0.04011817
0001e0 9a e7 08 3d e1 78 69 be 0a a1 e1 3d 61 b4 35 be
       0.033423997 -0.22800018 0.11017044 -0.1774459
0001f0 27 26 e1 bd 1d 95 a8 be a5 f7 01 bc ca ac 56 bd
       -0.10993605 -0.32926264 -0.007932578 -0.05241088
000200 58 a7 f2 bc 6c 72 a2 bd 00 7c a3 bd 23 e7 08 be
       -0.029620811 -0.079319805 -0.079826355 -0.13369422
000210 93 2e c9 ba 51 1c 4d 3e f0 6b f0 bd d8 56 fe 3d
       -0.0015348963 0.20030333 -0.117393374 0.12418908
000220 7c a7 bb 3c b5 c9 39 be 98 6a 11 3d a8 58 aa bd
       0.022907011 -0.18143351 0.035502046 -0.08317691
000230 ed 8c 37 be 76 08 b2 3d f3 bf 82 bd b0 8f 25 be
       -0.17924853 0.0869302 -0.06384268 -0.16168094
000240 ca d6 14 3e bc a1 6d 3c e1 e3 ef bd c3 16 06 bd
       0.1453506 0.0145038925 -0.11713386 -0.03273655
000250 12 7f 22 be 39 6b 63 3d 93 51 ae bd 2d a2 f5 bd
       -0.15868786 0.055522177 -0.08511653 -0.11993823
000260 a9 1f 1f bd df d0 80 bd 21 cc 3b be 4e a5 5a 3e
       -0.038848553 -0.06289839 -0.18339588 0.21352121
000270 4b 04 9a bd 09 fb b1 bc 00 b8 13 3e 9f 32 ae bc
       -0.0752035 -0.021726148 0.14425659 -0.021264372
000280 ab 02 80 be c8 f8 da 3c 87 3c 19 3d f6 d7 86 bd
       -0.25002035 0.026729956 0.03741124 -0.0658416
000290 b8 a8 a3 be fd 1d 93 3d a0 6a 40 3b aa 07 2c 3c
       -0.3196466 0.07183454 0.0029360428 0.010499874
0002a0 2f 9f 2f be 2e 83 80 3e 45 b4 7f 3e b2 de c2 3c
       -0.17150567 0.25100082 0.24971111 0.02378783
0002b0 46 93 91 bd a2 f5 03 be 3d d3 82 3d 28 0e 69 bd
       -0.07108168 -0.1288667 0.06387947 -0.056898266
0002c0 0f 34 23 be 7d 61 31 be b4 57 e3 bd f8 a8 42 3e
       -0.15937828 -0.17322345 -0.111007124 0.19009769
0002d0 02 f1 44 be b2 eb 28 3c 1e 47 86 bb 53 5b 9c 3d
       -0.19232562 0.0103101 -0.0040978333 0.07634606
0002e0 a1 b9 96 3e d2 96 c5 3d 7c 9d 2b 3e fe e0 a0 bd
       0.294385 0.09647907 0.16759294 -0.07855414
0002f0 ee fe ee 3d c7 06 ae 3c 66 08 e4 3d 33 47 3a be
       0.11669718 0.021243466 0.111344144 -0.18191223
000300 59 e0 c6 be 09 0a 34 3e f9 ae 74 bd 21 39 ba 3d
       -0.3884304 0.17581953 -0.05973718 0.09092928
000310 59 c7 d5 bd f3 08 2e bd 0e a9 38 bc 41 10 65 3d
       -0.10438413 -0.042489003 -0.0112707745 0.055923704
000320 5e 54 8f be ae f9 80 3d 00 86 99 3d 74 b6 1f be
       -0.27994055 0.062976226 0.074962616 -0.15596944
000330 4e 35 0f be 7c f0 52 be db 73 c1 3d 5a 3f ef 3d
       -0.13985178 -0.2059955 0.09445926 0.11682005
000340 3f 3b 8c bd a2 f5 31 3d 78 e8 48 3e fc 2e be 3d
       -0.06847238 0.043447144 0.1961993 0.09286305
000350 ae 4b 3c bd e8 b8 0f 3c 30 b5 42 be 5b f2 ae bd
       -0.04597061 0.008772112 -0.1901443 -0.085423194
000360 5e d1 bc bd c3 11 06 be c6 fe 32 be d3 a4 4f 3e
       -0.09219621 -0.13092713 -0.17480001 0.20277719
000370 6c d6 ac 3d c4 5b ba bb 53 c4 d8 bc b6 d3 fa 3d
       0.08439335 -0.005687209 -0.026460802 0.12247412
000380 2e e9 89 be e6 d7 2e 3e 7a 57 e4 bd 13 3b ef 3d
       -0.26935714 0.17074546 -0.11149497 0.116811894
000390 17 67 b8 be b1 62 6e bd e2 5c e6 bd 79 99 a6 3d
       -0.3601615 -0.05819959 -0.11248185 0.08134741
0003a0 56 81 6b 3e 3e 80 a5 bd 4b 5b 6f 3d b5 c0 9d bc
       0.22998556 -0.08081101 0.058436673 -0.019256929
0003b0 e2 ec 82 3d 1a c6 22 bd ae 85 42 bd 4d e9 12 3e
       0.06392838 -0.039739706 -0.047490768 0.1434681
0003c0 6c f9 83 3e 4a 03 eb 3d 44 97 52 3d 40 2e b4 3d
       0.2577623 0.11475237 0.05141379 0.08797884
0003d0 4c 3c 88 3d 60 bb 4f be d3 55 1d 3e a5 12 e9 bc
       0.06652126 -0.20286322 0.1536477 -0.028451273
0003e0 9f d3 0d bd 2a c6 d3 bc d7 47 83 bd 20 ac 0a bd
       -0.034625646 -0.025851328 -0.06410187 -0.033855557
0003f0 40 a2 16 bb 42 f0 2a be 83 f9 c7 bd b0 48 c3 3c
       -0.0022984892 -0.16693214 -0.097643875 0.023838371

fc2.bias f4 [300]
000000 57 15 01 be e5 ab 1f 3e 7c 80 2d be da d1 41 bd
       -0.12605797 0.15592916 -0.16943544 -0.04731927
000010 f7 1c 7a be 5c 10 30 bc ca ed 17 be 80 14 f8 bd
       -0.24425112 -0.010746088 -0.14836803 -0.12113285
000020 a0 64 46 3e f2 a6 c9 bd 2e 5b 18 be 0c eb 3c 3d
       0.19374323 -0.098462954 -0.14878532 0.046122596
000030 f5 3d 31 bd 2b bf b5 3d e7 fe 6e 3d 6e 7f 3e 3e
       -0.043271977 0.08874353 0.058348563 0.18603298
000040 f0 6c 86 3e 4c aa ce 3d 0a b9 93 3d 38 0d a9 3d
       0.26254988 0.10091075 0.07213028 0.082544744
000050 8e 6b 09 be 27 c5 ab bd c0 a1 0e bf 04 06 11 3d
       -0.13419935 -0.08387213 -0.5571556 0.035406128
000060 b7 24 30 3e 68 e9 84 bd b3 07 24 be f4 42 eb bd
       0.17201506 -0.06489831 -0.16018562 -0.1148738
000070 d2 ed e5 bd 54 d9 11 3d 66 55 00 be 5c 10 dd 3d
       -0.11227001 0.03560765 -0.12532577 0.10794136
000080 d8 1c c9 3e f2 32 29 3c 7d 7e 7f be ac 64 cf 3d
       0.3927982 0.010327088 -0.24950595 0.101266235
000090 2b df 69 be 9a 72 64 be ee 6c fa bc d6 0e a3 bd
       -0.22839038 -0.22309342 -0.03056952 -0.07961814
0000a0 b4 54 81 bd 47 ac 00 be 16 73 92 bd ad c7 79 bd
       -0.06314984 -0.12565719 -0.07150857 -0.06098144
0000b0 ba d7 f0 3d e7 c1 d6 bd 4f 5e c4 3c 8d 16 27 bd
       0.117598966 -0.10486203 0.023970751 -0.04079299
0000c0 90 f2 54 bd ad dd 88 be 87 d7 20 be 0b bc c8 bd
       -0.051989138 -0.26731625 -0.15707217 -0.09801491
0000d0 8a 69 76 be e5 a0 f4 3c d0 10 e6 3d 33 4e c6 bd
       -0.24063697 0.029861877 0.112336755 -0.09682884
0000e0 64 0d 8e bd e4 c3 3a 3d ed 74 89 3e 14 42 2f 3e
       -0.06936148 0.045596972 0.2684702 0.1711505
0000f0 0d 07 e5 bd 75 f9 17 3e fb 35 70 3d 94 5e 87 bc
       -0.111829855 0.14841254 0.05864523 -0.01652459
000100 52 b5 26 be 1b a5 2e 3e cd ea d5 bb b6 fe 10 bd
       -0.16280106 0.1705517 -0.0065282346 -0.03539916
000110 18 d7 01 3e 20 2a 20 bd e5 b3 b3 3e 03 d8 34 3e
       0.12679708 -0.039102674 0.35098186 0.17660527
000120 f4 01 0a 3c 67 6c 87 3d fe 3d 52 bd 96 ff 10 be
       0.008423317 0.06612473 -0.05132865 -0.14159998
000130 54 9b 6a 3d 34 88 70 be 71 98 da bc e5 05 60 ba
       0.05727704 -0.23489457 -0.026684018 -0.00085458
000140 4d 72 88 be 0a 24 8b bd 58 08 56 3e 18 1e 51 3d
       -0.26649705 -0.06793983 0.2090162 0.05105409
000150 6f 6d 7e 3e 4f 27 83 bd 5c 79 c9 3d 8a ec 94 3d
       0.24846433 -0.06403982 0.098376006 0.07271679
000160 c9 9b 57 bd a6 85 5b 3e 41 f4 61 bd 9a e1 a4 bc
       -0.052638803 0.21437702 -0.05516458 -0.020127106
000170 70 4d 36 bd c4 67 db 3c 56 38 4a 3e b3 e7 c6 bd
       -0.044507444 0.026782878 0.19748053 -0.09712162
000180 13 b0 04 3e 60 1f 9b 3e 3e 06 83 3c 09 b2 ff bc
       0.12957792 0.30297375 0.015994187 -0.031212823
000190 d5 ed 11 be ce 5f aa 3d d8 2e 4b 3e f3 77 66 bd
       -0.14250882 0.083190545 0.19842088 -0.056266736
0001a0 94 17 47 be e5 d0 c2 bd 0f d5 25 bd ff 65 ef bd
       -0.19442588 -0.095125 -0.04048639 -0.11689376
0001b0 13 76 5e 3d a4 65 0e 3e c8 08 f6 3c 88 55 82 bc
       0.054311823 0.1390596 0.030033484 -0.015909925
0001c0 88 c4 5f bd 5e c9 61 3d 79 29 85 be 9e 76 ff bd
       -0.054630786 0.05512368 -0.26008204 -0.12473796
0001d0 a5 48 f6 bd af 51 9f 3d 59 6e 7f bc 4b 0a 45 3e
       -0.120255746 0.07779252 -0.015590274 0.19242208
0001e0 d3 f3 0c 3e 5a c9 9a bd 20 a5 4b bd 60 50 ca bd
       0.13764887 -0.07557936 -0.049718022 -0.098786116
0001f0 a1 55 33 be 5e 9a 57 be d1 00 94 bd c6 cd 5b be
       -0.17513134 -0.2105498 -0.07226718 -0.21465215
000200 ea b6 80 be 7d 51 aa 3e 45 8a a3 3d 69 58 1a 3e
       -0.25139552 0.33265296 0.07985357 0.15072788
000210 eb 9c 95 bd a8 78 8c bd e9 c1 80 3d 7f e1 9a bc
       -0.0730532 -0.06858951 0.062869854 -0.018906353
000220 f0 f5 0b bd 4b d4 0a bd 64 16 4e bc c1 c4 91 3d
       -0.03417009 -0.033893865 -0.0125785805 0.07117606
000230 11 a1 07 be 13 06 9a bd 92 19 d3 bc d9 2f e2 bd
       -0.13245036 -0.0752069 -0.025769029 -0.110442825
000240 04 52 66 be 0f c0 88 bc 3b f6 33 be 64 b0 ae bd
       -0.22492224 -0.016693143 -0.17574398 -0.085297376
000250 0e 48 16 be 55 20 a9 be d2 85 8c be d6 8a 72 bc
       -0.14675924 -0.3303248 -0.27445847 -0.014803609
000260 09 b9 1d 3e f1 ea 54 3d 7e 85 19 3d 9e 95 cc bd
       0.15402617 0.05198187 0.037480824 -0.09989475
000270 6c a7 73 bd 51 0d c1 bb 4d 9b 9e bd 83 50 03 be
       -0.059485838 -0.00589148 -0.07744465 -0.12823682
000280 79 01 b5 bc 0c e1 22 bd e3 1b 02 3e d8 31 8f bd
       -0.022095429 -0.039765403 0.1270595 -0.06991929
000290 b4 cc a6 bd 86 4c a3 be 89 3a ca bd b0 5e 88 bd
       -0.08144513 -0.3189432 -0.09874446 -0.06658685
0002a0 23 5d 02 be dc 53 7d bd 98 81 19 3d 60 4d 58 be
       -0.12730841 -0.061847553 0.037477106 -0.21123266
0002b0 8c 6f 5a 3e 3c 05 9e 3c a4 26 a6 bd 07 5c f2 bd
       0.21331614 0.019289605 -0.08112839 -0.11833959
0002c0 8e 80 68 bd 32 74 1d be 73 f4 e5 bc 3f 6e 33 bd
       -0.056763224 -0.15376356 -0.028070664 -0.04380631
0002d0 06 df 31 3e 74 ca af 3c 8f c7 f4 3b 28 a4 c9 bc
       0.17370233 0.021458842 0.0074700783 -0.024614409
0002e0 93 8d 95 3d 4e 3c 13 3e 68 ae 09 bd 6e c4 be bd
       0.07302394 0.14378473 -0.033613592 -0.0931481
0002f0 2d 0e 16 bd 58 f9 d3 3d 26 df 83 bc 96 bc 24 3e
       -0.036634613 0.10350293 -0.016097616 0.16087565
000300 42 d5 91 3d 4d 58 45 be f6 81 88 3c 60 ec 07 be
       0.07120754 -0.19271965 0.016663533 -0.13273764
000310 ea 74 89 bd b1 a9 12 bd 40 49 17 be e0 d1 0e be
       -0.06711753 -0.03580636 -0.14774036 -0.13947248
000320 b0 f8 02 3d 78 20 d5 3b 6e e0 c4 be af eb d4 bd
       0.031975448 0.0065041147 -0.38452476 -0.103965156
000330 df 5d a2 3b b4 8c a4 bb 32 3d ca 3b 03 79 20 be
       0.004955038 -0.005021656 0.006171846 -0.15671162
000340 9e c4 24 bd 59 62 20 be 31 92 25 be b4 dc 19 be
       -0.04022657 -0.15662517 -0.16169049 -0.15025598
000350 51 8a 3e bd 9f 16 bc 3d b7 aa 83 bd 15 2d 02 bc
       -0.046518628 0.09184002 -0.06429046 -0.007945319
000360 8d 40 0f be a4 b3 38 3e 22 92 1e 3e ca 58 7f bd
       -0.13989468 0.18037277 0.15485433 -0.062340535
000370 da 83 bf 3c 88 a1 ef bd e8 84 4e 3c ac 58 82 3d
       0.023378301 -0.117007315 0.0126049295 0.06364569
000380 f2 1e 38 3c d3 0a 9e bd 32 5c 06 be 91 4c 5b be
       0.011237847 -0.07716908 -0.13121107 -0.21415927
000390 57 b4 02 be 81 8f 80 3e b3 69 31 be e0 76 45 3c
       -0.12764107 0.25109485 -0.17325477 0.012052268
0003a0 ea 1c 5a bd 9c e0 43 3d ba 8b d5 bd df 1e 4d 3d
       -0.05325023 0.047821626 -0.10427041 0.05007827
0003b0 fe 4b 40 3e d8 c6 b2 38 d2 35 26 3d 4d 1c 0c be
       0.18778989 8.524739e-05 0.04057867 -0.13682671
0003c0 1f d9 69 bd 51 43 8c 3e da aa 38 3e b7 d6 4d bd
       -0.05709183 0.27395108 0.18033925 -0.050253596
0003d0 29 ae fb bb 07 c2 8a 3d ed 9a 11 3e 62 e5 93 bc
       -0.0076806736 0.06775289 0.14219256 -0.018053714
0003e0 f7 dc 87 bc c0 c7 72 bc 36 85 dc bb ae 2e d5 bd
       -0.016584856 -0.014818132 -0.006729747 -0.10409294
0003f0 ee cc 79 bd e2 a3 e7 bb 80 92 0e bd 4c bf 43 be
       -0.06098645 -0.007069097 -0.034807682 -0.19115943

mu.weight f4 [4, 300]
000000 d8 87 bc bc 0c 0a 93 bc 59 77 63 bd 6e 10 b1 bc
       -0.023013994 -0.017949127 -0.05553374 -0.02161428
000010 a1 ae 1b be f1 75 16 3c 5c f8 94 3d 48 97 cc 3c
       -0.15203334 0.009183393 0.07273933 0.02497448
000020 28 1d ac 3c 27 71 99 3e e3 08 04 bd 1e f4 c7 b9
       0.021009997 0.2996914 -0.032235038 -0.0003813812
000030 4d 08 85 bc f1 cf 29 3e c2 b5 8b 3e cf 7b 4d be
       -0.01623931 0.1658323 0.27287108 -0.2006676
000040 ad 4e ad 3d 3e d0 68 3c 81 fc 88 3e f6 f0 24 be
       0.08462272 0.014209805 0.26755145 -0.16107544
000050 e3 16 55 be 94 dc a5 bd 27 74 73 3e 8d 4f b6 bd
       -0.20809512 -0.080987126 0.23774777 -0.08901892
000060 f4 10 13 3f e7 e6 07 be 24 dc 38 bf 49 a2 f0 be
       0.57447743 -0.13271676 -0.7221091 -0.46998814
000070 39 97 21 3e 29 81 ab 3e ba ba 06 be fe 43 7f 3e
       0.15780343 0.3349698 -0.13157168 0.2492828
000080 2e 8a 8b bb a3 2e 96 3d dd 7c c5 bd 9e ae 7c bc
       -0.0042584157 0.07333114 -0.096429564 -0.015422491
000090 e7 5f 88 3f 78 7d 34 3e b1 92 c2 3e 31 dd da 3d
       1.0654267 0.17625988 0.38002542 0.1068672
0000a0 48 ee 90 3e 48 6c f4 bd 71 76 53 bd 1d 16 50 3d
       0.28306794 -0.119347155 -0.051626626 0.05080234
0000b0 66 4f 38 be 3e 1b 21 3c 2b 6b 56 3f 63 2c 1f 3d
       -0.17999038 0.009833155 0.83757275 0.03886069
0000c0 5f aa b2 3c a0 4b 6b bc 8f 47 9e 3d 28 a6 0a bd
       0.021809755 -0.014361292 0.077284925 -0.033849865
0000d0 1d 26 c5 bd cb 1f 20 be 4b 8d 17 3e c0 56 04 bf
       -0.0962641 -0.15637128 0.14799993 -0.5169487
0000e0 cc 90 88 bc 47 5c c9 be 03 92 f6 3d 47 d0 00 3e
       -0.016670607 -0.39328215 0.12039568 0.12579452
0000f0 93 ca 37 3d 09 2f d6 bd 2d db 39 be 99 0d cc bb
       0.044870924 -0.1045819 -0.18150015 -0.006227207
000100 23 50 05 3e 78 2c 59 3e f3 36 b4 3e 48 7d 8b bd
       0.13018851 0.2120837 0.35198173 -0.06811005
000110 1c 8e d7 bb 6e 6a 98 bd c3 60 b1 3d 4f 79 42 3d
       -0.00657822 -0.07442175 0.08661034 0.04747897
000120 b3 e0 50 be f3 e2 c0 be 52 a6 2c bd 08 d6 82 bd
       -0.20398216 -0.3767315 -0.042150803 -0.063884795
000130 29 5e 7e 3e 7c 3d a4 bc 3b 7d d8 bb f2 1d 32 bc
       0.24840607 -0.02004885 -0.0066067255 -0.010871397
000140 11 00 70 3e 11 f7 6e bd 8b 28 3c bd 9f fd 18 bd
       0.23437525 -0.05834109 -0.045937102 -0.037351247
000150 9f 4b 21 3e 6e 68 dc 3b de 6d 73 be 49 6c 02 bf
       0.15751503 0.006726316 -0.2377238 -0.5094648
000160 5f 28 ad bd de 05 1e 3f ea 9f a2 be 79 7b 3c bc
       -0.08454966 0.617277 -0.3176263 -0.011504048
000170 9f fb c3 bd 78 97 a8 3e 24 23 8e 3f 53 3f 72 3d
       -0.09569477 0.3292806 1.1104474 0.059142422
000180 cf 76 6f 3e f7 40 a7 bd c0 c6 98 3e 56 d0 d9 bc
       0.23385166 -0.08166688 0.29839134 -0.0265886
000190 15 ad 84 3f 53 e6 8b bf b7 1e 01 be 60 a3 40 3e
       1.036532 -1.0929664 -0.12609373 0.18812323
0001a0 75 40 2c 3d 17 f6 00 3e 20 c6 cf bd 88 28 3e 3d
       0.04205366 0.12593876 -0.10145211 0.046425372
0001b0 b9 72 9d be c3 70 85 3e 56 8f c7 3e 65 1c d1 3d
       -0.3075159 0.26062593 0.38976544 0.10210494
0001c0 37 1b b2 bc e9 46 98 3d ed 38 d6 3c ac f6 dd be
       -0.021741493 0.074354 0.026150191 -0.43352258
0001d0 27 e7 38 3c 1b 0f 29 be 53 fe 91 3e a3 9c 36 be
       0.01128558 -0.16509669 0.28514346 -0.1783319
0001e0 24 f0 5f bc c6 41 9c bc 0e 7c 32 3d b7 41 a5 be
       -0.013668094 -0.019074332 0.04357534 -0.322767
0001f0 51 9f 92 3d f3 e3 37 3f 5f 5f b5 be 16 4d 6a bd
       0.071592934 0.718322 -0.35424325 -0.05720242
000200 b3 c9 a3 3e 67 1a a3 3e 7b f2 2e be 11 f7 fa bd
       0.31989822 0.3185608 -0.17084686 -0.122541554
000210 3e 97 4e 3e ca 22 56 bd 86 9c f3 3d 62 fc 07 bc
       0.20174882 -0.05227927 0.11895089 -0.008299919
000220 ab fe 6a bd 0b 16 1b bd 30 d9 7d be b9 6b 5e 3e
       -0.057371777 -0.03786282 -0.24789882 0.2172078
000230 09 8f 95 3e c3 5f 3e be 8b 4b 8b be c9 30 87 3e
       0.2921069 -0.18591218 -0.27206072 0.26404408
000240 40 ef b1 3a 96 8d c0 bc a8 14 39 be 57 7a b3 bc
       0.001357533 -0.023505013 -0.18074286 -0.021908922
000250 cd c1 8a be e8 d0 bc 3e 33 3e f2 bd dc 07 4e 3d
       -0.27100983 0.36878133 -0.1182827 0.050300464
000260 d9 82 f2 bc 48 40 6a 3e a4 8d 13 3e 1d c4 4f bd
       -0.029603409 0.22876084 0.144095 -0.050724138
000270 17 2d 08 3d dd 62 a0 bd 5b 6f 61 3d d7 bf 8b 3e
       0.033246126 -0.07831357 0.055037837 0.272948
000280 fc b5 14 3d 22 d9 c8 bc af b3 88 3d 78 9a 5d bd
       0.036306366 -0.0245176 0.06674897 -0.05410239
000290 f4 06 3c 3e 35 af 65 be 8a d1 9a bc 2b 83 3b be
       0.18362027 -0.22430117 -0.018898744 -0.18311755
0002a0 f9 cf 4d 3e 06 02 47 3e 6b 92 2a bd 8d f6 3b 3e
       0.20098867 0.19434366 -0.04164354 0.1835577
0002b0 c7 96 ca be 5c 2a c2 bc 8a d4 a6 3e 39 06 08 bd
       -0.3956816 -0.02370184 0.3258403 -0.03320906
0002c0 48 ac 4a bd 91 3f a2 bd f3 ae 66 bc 38 7b ac bc
       -0.049480706 -0.079222806 -0.014079797 -0.021054849
0002d0 1c 0b f1 be 0e b3 36 3d 44 2e d5 3e 62 00 bf bc
       -0.47078788 0.044604354 0.4163686 -0.023315612
0002e0 73 49 e0 bc b3 7c 61 3b 4c f6 1d 3d 13 b3 cc 3c
       -0.027378773 0.0034406602 0.038564965 0.024987733
0002f0 c8 37 2d be 6e 21 e0 3e 50 86 a5 bd fb de 89 be
       -0.1691581 0.43775505 -0.08082259 -0.26927933
000300 84 88 8d bd 12 44 a0 3c 05 7c c8 bc 07 1e ea be
       -0.06910804 0.019563708 -0.0244732 -0.45726034
000310 20 bf a4 3d bb a2 ad 3b d6 61 1d 3d a0 c2 2e 3e
       0.08044267 0.00529894 0.03842338 0.17066431
000320 65 ee 16 be 65 c8 86 3e b0 e4 9f 3d 3a d5 3c be
       -0.14739378 0.26324764 0.078072906 -0.18440714
000330 16 14 1c be cb 24 4d be 52 d5 6a 3e 64 26 87 bd
       -0.15242037 -0.20033567 0.22932938 -0.06599119
000340 79 4e 23 bb cc 6f 88 3c 2d 1f f3 bd 11 2c 68 bd
       -0.00249186 0.016654871 -0.11871181 -0.05668265
000350 53 29 0e be ce c3 5c be 4c b0 82 3d 1d ca 11 bf
       -0.13882951 -0.21559069 0.06381282 -0.56949025
000360 b1 a6 64 bd 19 ff 96 3d fa 8d ac 3c 9a 1f 39 3f
       -0.05582303 0.07372875 0.021063793 0.72313845
000370 a9 5c 1b 3e 67 94 ac 3d 88 c2 0c 3d 31 da f2 bd
       0.15172066 0.08426743 0.034365207 -0.11858023
000380 ef 53 f0 3c 18 f9 84 3d 22 f5 52 3e 41 f9 92 bc
       0.029336898 0.06492823 0.20601323 -0.01794112
000390 b6 d7 a5 bb 72 f5 92 bd 6e 9c 1b 3d 3e 8e 85 3c
       -0.005061115 -0.07175721 0.03799098 0.016303178
0003a0 71 5b 57 bc ed 92 79 3e fc 44 88 be 55 04 02 bf
       -0.01314436 0.24372454 -0.2661513 -0.5078786
0003b0 4f 28 da bd 4f 4d 22 bc 6f ce 15 bf 8c 4c e5 3d
       -0.106522195 -0.009906127 -0.5851812 0.11196241
0003c0 a9 1e 17 bc 77 87 02 bd de 84 02 3e f6 1d 40 bf
       -0.009223619 -0.03186747 0.12745997 -0.75045717
0003d0 96 c3 26 3e 5e a3 b5 3b fa 1b 29 be 20 2b 75 bd
       0.16285548 0.0055431565 -0.16514578 -0.05985558
0003e0 ac de be 3e f9 9b 21 3c 77 10 07 bd 30 31 a8 bb
       0.3727926 0.009863847 -0.032974686 -0.0051328167
0003f0 a8 ef 33 bd 30 4c 6b 3e e8 fb d1 3c 96 aa 12 3f
       -0.043929726 0.22978282 0.025632814 0.57291543

mu.bias f4 [4]
000000 93 2b 15 3d 85 eb 42 3d b4 74 9e bc 83 62 96 3d
       0.03641851 0.04758789 -0.019342758 0.07343008

sigma.weight f4 [4, 300]
000000 e9 34 a8 3c c0 b3 63 3d 55 60 e9 3a 4b 3f df bc
       0.020533042 0.055591345 0.0017805198 -0.02725186
000010 1a 73 33 bc 69 eb cd 3c ed e4 93 bc 61 90 0c 3b
       -0.010952735 0.025136666 -0.018053496 0.0021448361
000020 55 38 60 3e f6 1d bc 3b 03 12 fa 3d 36 00 c3 bc
       0.21896489 0.0057408763 0.12210467 -0.023803812
000030 95 85 30 bc cb fe a6 3d 8c ce 2a 3c 16 73 1a bd
       -0.010774036 0.08154067 0.010425221 -0.03770741
000040 5a 7c 96 bc 7b 4c 2b bd 8f 9a d5 3c cf 24 e4 bc
       -0.018369842 -0.041820984 0.026074676 -0.027849583
000050 8e cc 3e 3d 94 3c 10 bc 0e 81 f9 3c f6 00 15 3d
       0.046581797 -0.008803505 0.030457046 0.03637787
000060 04 6f 88 3d da c6 e9 3d ab d9 05 3e da ce 69 bd
       0.066617996 0.11414881 0.13071315 -0.057082035
000070 93 34 f4 bc f0 08 e9 3c 45 22 9c bc 8e 03 91 bc
       -0.029810226 0.028446645 -0.01905931 -0.01770189
000080 0c 4c e3 3e 56 d4 8a 3b 42 d8 d4 bc 8c c3 56 3b
       0.44393957 0.004236738 -0.025982026 0.0032770364
000090 32 10 7f 3e 6d 18 22 3c e3 82 cf 3d 0d 60 79 bc
       0.24908522 0.009893519 0.101323865 -0.015220654
0000a0 9a d3 4f bc 3f 74 01 bd bc af 09 bd 2e 49 0b bc
       -0.012684727 -0.031605 -0.03361486 -0.008501334
0000b0 92 e4 c1 3c 1a 1e 3d bc 0e df d8 3d 5d 47 36 bc
       0.023668561 -0.011542821 0.10589419 -0.011125413
0000c0 7a 9d 5e 3d f2 ec 35 3c bd 34 bb 38 72 80 ea 3c
       0.0543494 0.011103855 8.926678e-05 0.0286257
0000d0 b3 1e 97 3c 97 6e ac bc db eb 47 bd ee df be bb
       0.018447256 -0.021048827 -0.048808914 -0.0058250343
0000e0 a7 e4 0d bc 04 46 3b 3d 1f 47 a6 bc d7 50 66 3d
       -0.008660472 0.04572107 -0.020297585 0.05622944
0000f0 38 b1 02 3c 6d 24 01 ba 4f c5 df 3c 5c 6e 59 3d
       0.007976823 -0.00049263873 0.027315764 0.053083763
000100 c5 ce 98 bc cf 42 2d 3c 9c 15 de bc 1d 85 0d bc
       -0.018653283 0.01057501 -0.027109914 -0.008637694
000110 6a 5e a4 3b af 0b 81 3d 6a ea 01 3e ca 0e cc bc
       0.005016138 0.063010566 0.12687078 -0.024909396
000120 ed ff 2b 3c f9 2e f5 bb 7e 4d 25 bc d2 44 2c bd
       0.010498029 -0.007482406 -0.010089276 -0.04205782
000130 c7 19 4e 3b 0f 13 91 bc f4 3c a8 3c 62 23 3b 3d
       0.003144847 -0.017709283 0.020536877 0.04568804
000140 d6 74 61 bc cf 52 a5 3c af 56 f4 3b f9 32 28 3b
       -0.013760766 0.020181088 0.0074566226 0.0025665148
000150 0d c2 37 bd 2e 81 23 bd 9b 8d 5d 3d 07 cd 63 bb
       -0.044862796 -0.039918117 0.054090124 -0.0034759657
000160 9e 46 73 3d 29 03 d0 3d fa 4b d4 3b a1 5c ae bb
       0.059393518 0.10156853 0.0064787837 -0.005321101
000170 24 20 f0 bb 5d 81 1c 3c eb e0 31 3d b2 87 8a bc
       -0.00732805 0.009552327 0.04342739 -0.016910408
000180 18 03 00 bc db 72 b1 bd 15 39 01 bd a5 7b ac 3c
       -0.007813238 -0.08664485 -0.03154858 0.021055052
000190 0c 7c 1b 3e 40 12 2d 3e a3 10 d5 3b 2a 76 85 3c
       0.15184039 0.16901493 0.0065022274 0.016291697
0001a0 38 3f d7 bc 7d ff 3b 3d 0d cb 1b 3d 24 33 44 3c
       -0.026275262 0.04589795 0.03803544 0.0119750835
0001b0 4e 4a a0 3c 97 1b 67 3d 4e 46 71 3d 20 75 00 3d
       0.019566681 0.056422796 0.05890494 0.0313617
0001c0 49 e3 c1 3b 1b 47 05 bb 86 95 26 bc c6 d0 17 3e
       0.005916987 -0.0020336572 -0.010167485 0.14825734
0001d0 1e 5b 11 3e 1e 29 53 bd e2 09 95 bb 86 08 26 3d
       0.14194915 -0.051552884 -0.0045482973 0.040535472
0001e0 cb 32 9f 3c 74 af 02 ba 31 ab 0c bc c8 3f e8 3c
       0.0194334 -0.0004985251 -0.008585737 0.028350726
0001f0 fa 62 96 bc ac 9c 46 bd 76 fa 10 3d 7f b1 24 bd
       -0.018357743 -0.048489258 0.03539511 -0.040208336
000200 f7 c8 2d 3d 8f 15 a7 3c 22 57 15 3d 24 a9 10 bd
       0.042427983 0.020396022 0.03646005 -0.035317555
000210 af b2 01 3e 3a 0d 0d bd da 30 56 3c ac 13 de 3c
       0.12665819 -0.034436442 0.013073171 0.02710899
000220 40 00 97 3c c6 08 d8 bc 21 c3 9c bc 49 27 5f 3c
       0.018432736 -0.026371371 -0.019136013 0.013620206
000230 73 36 51 3c d0 8d b4 3d 1d b5 dc bd 70 a3 47 3d
       0.012769329 0.08816111 -0.10776732 0.04873985
000240 f4 0a 0b bd 4c 2c ef 3c 23 2a c0 ba 15 b7 01 bc
       -0.033945993 0.029195927 -0.0014660995 -0.007917185
000250 dc c6 93 3d cc 3d c3 3c 72 c7 df 3b d7 1e 4e 3c
       0.07215664 0.023833178 0.0068291957 0.012580595
000260 3f f7 3f bd 64 17 66 bd 06 d7 71 3d 2a af 4b 3c
       -0.04686665 -0.05617465 0.059042953 0.012431899
000270 45 b3 6b 3d 02 a7 17 bb 8d 39 8e bc c8 51 c0 bc
       0.05754401 -0.0023140316 -0.017361427 -0.023476496
000280 14 8d 75 3d 1b df e7 3c 8a 82 5f 3d eb 2a 0c bc
       0.059948996 0.028304627 0.05456785 -0.008555154
000290 c8 98 14 3d 74 78 ba 3d 12 6b 52 bc af 92 89 3d
       0.036278516 0.09105006 -0.01284291 0.06717431
0002a0 d4 78 79 bc 17 86 5a bc 70 45 85 3c ef 46 a7 bc
       -0.015226562 -0.013337634 0.016268462 -0.020419566
0002b0 7e 30 89 3d 7d e6 51 bb cf e5 8f 3d ba 77 33 3d
       0.06698702 -0.003202825 0.070262544 0.043815352
0002c0 9d 91 52 3d f7 3a d5 bc f6 83 64 3d f1 6c c9 3b
       0.0514084 -0.026029093 0.05578991 0.00614702
0002d0 02 bb 86 3d 3f d5 b6 bc 1b ff d9 3d b8 de 02 bc
       0.06578638 -0.02231848 0.10644361 -0.007987671
0002e0 0a 0a 0c bc 94 6d 37 bc b3 e4 6a bd ff e1 02 bb
       -0.008547315 -0.011195559 -0.05734701 -0.001997113
0002f0 97 4e 88 3b 15 33 63 3d 67 41 be bc 9c 8a 9b bc
       0.0041597593 0.055468637 -0.023224546 -0.018986993
000300 12 20 23 bd 11 26 a3 3b 5f c7 62 bc 05 bf 7e 3d
       -0.039825507 0.004978903 -0.013841479 0.06219389
000310 9d 00 0f bc 03 9f 48 3d 1a 13 39 39 7d 3e 0a 3d
       -0.008728174 0.04897977 0.00017650091 0.033751
000320 61 6f 99 3a 83 ab 49 3d c2 93 8a 3d 5d 9f 7b 3c
       0.0011706167 0.049235832 0.06766464 0.015357819
000330 e5 76 40 3c af 22 e3 bd 37 ca 75 bc 68 84 82 bd
       0.011747097 -0.110906 -0.015001825 -0.06372911
000340 19 dc ce 3c 3f 0f 9c 3c c5 74 4b 3c 9b 52 27 bd
       0.025251435 0.019050239 0.012417977 -0.040850263
000350 4e 1b b7 bc 6e cd 25 bd 77 ed 05 3c 9a 3e 13 3e
       -0.022351887 -0.040479116 0.008174292 0.1437935
000360 63 87 92 3d 05 6a 89 3d 3a 6b e4 bb 1b e7 38 3e
       0.07154729 0.06709675 -0.00697079 0.1805691
000370 0f dc 5d bc 72 83 71 3d 7f 81 4a 3c 51 b1 cf bc
       -0.013541236 0.058963247 0.012359976 -0.025353106
000380 ad 16 3c bd ed 4f b6 3a 38 24 7e bc ec 6c 61 bc
       -0.045920063 0.0013909318 -0.015511565 -0.013758879
000390 43 0a 7c 3d 5b 54 8a 3b eb 81 b9 bc 79 a3 8e 3b
       0.061533224 0.0042214817 -0.022644958 0.0043529836
0003a0 00 ed 11 bd a9 8e 3d bd 44 19 83 bc e2 09 9f 3c
       -0.03562641 -0.04627863 -0.016003259 0.019413892
0003b0 30 fe 77 bd 87 0e 64 3d 6e 1f a6 3d a8 3d 0e bd
       -0.060545146 0.055677917 0.081114635 -0.03472677
0003c0 1e 32 e2 3c 16 11 8b 3c 76 64 e6 3c 84 de c8 3d
       0.027611788 0.01697592 0.028124075 0.098080665
0003d0 16 9f 51 3c a2 7f af 3c 2d de 1a bd 57 35 62 3c
       0.012794277 0.021423165 -0.03780954 0.0138066625
0003e0 9d 09 96 3d 23 4a b4 bb f6 e3 c1 bc af 35 09 bc
       0.07326052 -0.005502002 -0.02366827 -0.008374616
0003f0 3c d5 83 3c 58 81 6c bd 89 81 23 3d fe fe fb 3d
       0.016092889 -0.05774054 0.039918456 0.12304495

sigma.bias f4 [4]
000000 e2 ca b2 3e 1f 9a c9 3e e5 34 b3 3e e0 5f b0 3e
       0.34920412 0.39375398 0.35001293 0.34448147
