SAC_own_hardcore/sac_300/critic_2_sac.pth (torch, 531386 bytes, 5 tensors)

fc1.weight f4 [400, 28]
000000 8b 50 9a 3d 3d 2a bd be c8 69 2f 3f 02 a2 2b bf
       0.075348936 -0.36946288 0.68520784 -0.6704408
000010 2c 3e 81 be a4 f2 b9 be 23 a5 da 3d 5b 60 b7 be
       -0.25242746 -0.36317933 0.106760286 -0.358157
000020 ad 29 30 3e d9 51 d1 be 52 c0 4a bd 5d e0 fa be
       0.17203398 -0.40882757 -0.049499817 -0.489993
000030 2c 29 93 bd a4 ac 8d 3e 47 f1 d2 3e f6 2a ad 3e
       -0.07185587 0.27670777 0.41199705 0.3382184
000040 a1 dd 7c 3e eb 95 66 3c 93 c6 18 be 79 b0 b0 bd
       0.2469392 0.014073829 -0.149195 -0.086274095
000050 07 c5 45 be 73 15 03 3e 2f 18 db 3b 1b 93 12 3e
       -0.19313441 0.12801151 0.0066862325 0.14313929
000060 d1 84 98 bd 8b 46 70 3e 24 e4 8e be 03 aa c9 3d
       -0.07447208 0.2346441 -0.27908432 0.0984688
000070 5b ec 76 3e a4 bf 27 3f b9 99 ea be ca fd b2 be
       0.241136 0.65526795 -0.45820406 -0.3495925
000080 ca d7 82 bf 8e 24 84 be 4b a6 37 bf 62 23 d6 be
       -1.0222104 -0.2580914 -0.7173812 -0.4182387
000090 44 4e e2 bd b4 34 00 3f d9 45 82 bd 63 06 34 3f
       -0.11050084 0.5008042 -0.06360979 0.70322245
0000a0 46 30 c2 3d 2d 8c ba bd 81 7b 69 3d 83 a4 74 3e
       0.09481864 -0.09108768 0.057002548 0.23890881
0000b0 3c 46 26 3e f6 22 59 3e d2 86 55 be 54 5e 6b be
       0.1623773 0.21204743 -0.20852211 -0.22985202
0000c0 23 27 32 be 66 66 bd be c2 67 8b be f1 f4 53 be
       -0.17397742 -0.36992186 -0.27227598 -0.20698906
0000d0 60 a0 80 3d b2 d9 c7 bd 88 4e 64 be 20 36 96 3e
       0.06280589 -0.09758319 -0.22295582 0.2933817
0000e0 4f 63 a1 3c 51 47 90 bf 1f 8a 2d 3f 53 5c 8c bd
       0.019700674 -1.1271764 0.6778888 -0.06853547
0000f0 02 a3 db bd f1 9b 34 be d2 24 03 3f ce 38 32 be
       -0.10724451 -0.17637612 0.5122806 -0.17404482
000100 16 1c ce 3d 23 fb 81 be 9b 8f b7 bd 08 d5 ef bd
       0.10063951 -0.25386915 -0.089629374 -0.11710554
000110 fa 61 27 bd a3 44 78 3e 49 f3 ee 3e b7 61 d9 3e
       -0.040864922 0.24244933 0.46669987 0.42457363
000120 7a b4 ef 3d d7 25 7d be ff e5 12 3b cd d4 56 3c
       0.11704345 -0.24721466 0.002241492 0.013112259
000130 68 19 85 be 8c b5 79 3d 00 8a 86 3d dc 03 48 3d
       -0.25995946 0.060964152 0.0656929 0.048831806
000140 f2 70 08 3d 91 06 0c be 43 1a 60 3d 9a f2 26 3e
       0.033310838 -0.1367438 0.054712545 0.16303483
000150 08 3c a3 3c 7c 03 80 be f2 48 15 bf da 38 19 3f
       0.019926086 -0.25002658 -0.5831443 0.59852374
000160 39 f5 01 bf d0 4a 61 be 08 53 10 3e 3b 9b f1 3d
       -0.50764805 -0.22001195 0.14094174 0.11797186
000170 9f a4 38 3e bc d1 09 3f f5 da 32 3d ea c5 94 3e
       0.18031548 0.53835654 0.043665845 0.29057246
000180 22 f4 1a 3e 2a ca c0 3e b3 d5 01 bf be f2 12 be
       0.15132192 0.3765424 -0.50716704 -0.14350411
000190 17 e1 22 3e aa d1 71 3e 2b c6 95 3d 87 65 c7 bd
       0.15906177 0.23615137 0.07313188 -0.09736162
0001a0 f0 18 d2 be a6 89 4d be 43 a2 9f be 9b ac 2e 3d
       -0.4103465 -0.2007204 -0.31178483 0.04264508
0001b0 20 2e 53 bc 5e 9c b7 3d 35 1c 45 3d 56 68 cd bc
       -0.012889415 0.089653715 0.048122603 -0.025074165
0001c0 0f 73 b5 be dc 8a 22 bf 1a 22 bc 3d 0e d1 0e 3f
       -0.35439345 -0.6349313 0.09186192 0.5578774
0001d0 bf 0c 88 3e 93 70 80 be 59 33 be 3e 79 80 1c 3f
       0.26572224 -0.25085887 0.3714855 0.61133534
0001e0 79 08 0e 3e 34 9c 0c 3f c6 d0 77 3e 23 03 02 3e
       0.1387042 0.5492585 0.24200734 0.12696509
0001f0 e7 2b e9 3d 38 fb a8 3e dc ae f0 3e 72 b7 29 3e
       0.11385327 0.33004165 0.47008407 0.16573885
000200 14 05 f9 3d 03 72 0b 3e 62 6a eb 3d ba 60 82 3e
       0.12159172 0.13617711 0.114949 0.25464422
000210 5e a3 33 3e 07 45 58 3e 77 8a 88 3e d9 e5 cf bc
       0.17542788 0.21120082 0.2666814 -0.025378155
000220 25 30 de bd eb 40 90 3e ad dc f5 3d 42 d5 39 bf
       -0.108490266 0.28174528 0.12004981 -0.7259103
000230 48 c1 a0 be b5 1c 5b bf 6b 33 d0 3e 39 9f 1c bf
       -0.31397462 -0.8559068 0.4066423 -0.61180454
000240 19 35 5d 3d 51 26 32 be f5 ff c0 be f8 05 65 3d
       0.054005716 -0.17397429 -0.3769528 0.055913895
000250 99 bd bb bd 12 4e eb be d3 84 70 3e e6 0f a5 bc
       -0.09167022 -0.45958 0.23488168 -0.020149183
000260 13 4c 2e 3e e8 3b c4 be 53 34 c9 3d 5c e1 44 bc
       0.17021208 -0.38326955 0.09824433 -0.0120166205
000270 5e af 07 3e d4 50 8f 3c b2 ea bc 3e 11 0d 81 3e
       0.13250491 0.017494597 0.36897808 0.2520528
000280 9f a5 25 3e 20 29 2f 3e f8 d5 50 3e 48 8f 0e 3e
       0.1617646 0.17105532 0.20394123 0.13921845
000290 ff 2f 91 bc f7 35 03 3e ba 4e b6 bc 74 00 aa 3c
       -0.017723082 0.12813555 -0.022254337 0.02075217
0002a0 78 35 9c be fa 7f 8a bf b8 8a de 3e 12 66 26 bf
       -0.30509543 -1.0820305 0.4346521 -0.64999497
0002b0 3f f3 9a be 81 4f 69 be 92 4d ca bd 7d 15 1f be
       -0.30263707 -0.22784235 -0.098780766 -0.15535541
0002c0 c3 05 05 3d f3 92 c8 be 1f df 8c 3e 1d f8 34 bd
       0.032476198 -0.39174613 0.27513978 -0.04418193
0002d0 57 71 f6 3d 30 4f 5d 3e 93 af 61 3f d9 e6 63 3f
       0.120333366 0.21612239 0.8815853 0.8902412
0002e0 e6 7c 43 3e 30 0a 04 3e b5 08 1f bd df 11 af bd
       0.19090614 0.12894511 -0.038826663 -0.085483305
0002f0 b3 5c 36 be ac 1c bd 3d 3e d9 9f 3d e5 1f b7 3e
       -0.178088 0.09233984 0.078051075 0.3576652
000300 06 d0 b7 be fa e2 77 3e e8 89 e1 bd bf cd 29 3e
       -0.35900897 0.24207678 -0.11012632 0.16582392
000310 09 93 10 bd ae 17 d8 be 81 db a4 3d da c7 ec be
       -0.035296474 -0.42205566 0.080496795 -0.46246225
000320 8a 05 20 be fa 0e d2 3e ad 31 2c 3e 1d b4 98 bd
       -0.15627113 0.4102705 0.16815825 -0.07456229
000330 db 17 3a 3d a3 6e bd bd 10 e6 3d be 7e ec 8e 3d
       0.045432907 -0.09249618 -0.18544793 0.06978701
000340 01 8a a6 3d 00 f5 2f be eb db 3a 3e e7 fe 75 3d
       0.08131791 -0.17183304 0.18247955 0.060057547
000350 13 68 3f 3e c7 02 96 3d d1 aa 87 3d ab c5 c6 3c
       0.18692045 0.073247485 0.066243775 0.024264177
000360 49 70 00 3e 10 dd 6c 3e 42 e8 fd bc ff a9 92 3e
       0.12542833 0.23131204 -0.030994538 0.28645322
000370 a4 2b 6a 3e fb 42 a0 3d 11 5f d4 bd 3b 77 9c 3e
       0.2286821 0.078252755 -0.10369695 0.30559716
000380 c4 95 df 3d 0f 59 42 be 4a a7 da 3d 98 06 07 bf
       0.109172374 -0.18979286 0.10676439 -0.52744436
000390 12 ff cd bd 14 13 0c 3b 62 05 c5 3e d9 85 ab 3c
       -0.100584164 0.0021373676 0.3848067 0.020937847
0003a0 45 31 9f 3c 02 51 79 be 5d 31 48 bd 1c 01 0d be
       0.019432673 -0.24347308 -0.0488752 -0.13769954
0003b0 cc 47 00 bd 02 d1 f6 bc 30 69 fb 3d b2 49 32 3e
       -0.03131847 -0.03012896 0.12275922 0.17410925
0003c0 50 e8 10 3e d6 41 8a bd c6 0a 12 3d 4b 5a 9c 3e
       0.1415112 -0.067508385 0.035654806 0.30537638
0003d0 04 a5 b7 3d 37 e6 2d 3d eb 98 81 3e aa 5e ed 3d
       0.08967021 0.042455878 0.2531198 0.11590321
0003e0 ab 73 12 3d 95 1b d8 3e 42 91 ca be af 8b a1 3d
       0.03575484 0.42208543 -0.39563948 0.07887971
0003f0 3d 8f 20 3f 41 7c 88 3f 8c 38 6a bf 84 e2 95 3e
       0.62718564 1.0662919 -0.91492534 0.2927438

fc1.bias f4 [400]
000000 b7 63 f0 3e a6 05 09 3f c7 f8 8f 3e fd 0f 06 3e
       0.46951076 0.53524244 0.2811949 0.13092037
000010 ea de 89 bd 69 c1 01 3d 4c 3a 47 3f 6f 3d 91 3e
       -0.067319706 0.03167859 0.7782333 0.28367183
000020 5e 47 d2 3e 1b 9f 50 3d 66 8b 4a 3f 25 21 27 3e
       0.41070074 0.050932985 0.79118955 0.16321237
000030 c7 b2 4c 3c aa c2 89 3e da 78 dd 3e ea 90 65 be
       0.012493796 0.2690633 0.43256265 -0.22418562
000040 28 71 f1 bd 73 6b 61 be b5 ab 14 3d 2e 2f d8 3c
       -0.11789161 -0.22013645 0.036296565 0.026389685
000050 35 2d 34 bc 1d aa 85 3c 29 03 08 be 1e b0 c6 3d
       -0.010997106 0.016316468 -0.13282456 0.097015604
000060 8b 0d e2 3e d8 ad 93 bd b6 49 45 bd af 32 40 3e
       0.44150957 -0.072108924 -0.048166 0.18769334
000070 24 75 b9 3d 70 0c 6e 3d 39 03 11 3f 02 80 0c 3f
       0.09055546 0.05811733 0.5664554 0.54882824
000080 f7 2e 9a be 91 6c d9 bd 15 f9 b6 3e 7c df b5 be
       -0.30113956 -0.106164105 0.3573691 -0.35522068
000090 2a bd a8 3e 69 12 90 3e f8 16 84 3e 03 95 80 3d
       0.3295682 0.28139046 0.25798774 0.06278422
0000a0 2d df 82 be 0d 8c ef 3d 67 e0 3b be af ef 08 3f
       -0.25560895 0.116966344 -0.18347321 0.5349073
0000b0 47 f1 08 3f 00 fb b8 3e 02 f3 08 be e3 6f b5 3e
       0.5349316 0.36128998 -0.1337395 0.35436925
0000c0 cf 14 a7 3e 42 1c 87 3e 86 6c 07 3e 04 49 91 3d
       0.32633063 0.26388747 0.13224992 0.07094005
0000d0 1f 1c 87 3e 1a 3d 7b 3c b6 15 78 bd b1 57 1f 3e
       0.26388642 0.015334392 -0.06056758 0.15560795
0000e0 41 4b f0 3c 6e 38 a2 3e d3 2f 3f 3d f4 be 29 be
       0.029332759 0.31683677 0.046676468 -0.16576749
0000f0 6d eb bf bd 1c 27 bf 3c f2 b6 2c be a4 f1 3e 3e
       -0.09371076 0.023334078 -0.16866663 0.18646866
000100 a5 9e 74 be 70 c0 af 3e e2 7c c6 3e d9 2f ea 3e
       -0.23888643 0.34326506 0.38767153 0.4573963
000110 3d 88 17 3d 60 37 a3 be 5f 1b 09 3e ef b5 c3 bd
       0.03699516 -0.31878185 0.13389347 -0.095561855
000120 34 f1 00 3c 8e ac 67 3e db a0 88 3e 76 7d 3e 3e
       0.007870007 0.22624418 0.26685223 0.18602547
000130 b3 09 5d bc f5 dd ed 3e 39 20 c1 be 61 1a 58 bd
       -0.013491082 0.46458402 -0.37719896 -0.052759532
000140 eb 9a b7 3e 70 16 94 be 84 a8 b5 be bb bd d4 3d
       0.3586038 -0.28923368 -0.3548013 0.10387751
000150 c8 1b 6d 3e 6d d3 17 be 80 d6 38 3d 16 59 15 3e
       0.23155129 -0.14826746 0.04512644 0.14584765
000160 3d 81 ed 3e df 3d aa 3e cb f8 b9 be c6 6f 63 3e
       0.46387663 0.3325033 -0.36322626 0.22210607
000170 80 21 bf be 4a ec 93 3e 96 fc 1e 3c 5f 2c bb 3d
       -0.37330246 0.28891212 0.009703776 0.091393225
000180 e0 8c 5d bd fa 4e 2a 3e a5 c0 99 3d b0 08 8d 3e
       -0.054089427 0.1663169 0.07507447 0.2754569
000190 10 18 71 3e b4 ed 30 bd cb bf bf bd 93 a7 dd be
       0.23544335 -0.04319544 -0.093627535 -0.4329191
0001a0 d6 91 c6 be 19 e8 54 3e b0 f7 3a bd 01 3f 08 3f
       -0.3878314 0.20791663 -0.04564637 0.53221136
0001b0 dc 54 0e 3f 35 5e 16 be c3 0a 75 be 54 24 87 bc
       0.55598235 -0.14684375 -0.23929887 -0.016496815
0001c0 7e c6 07 3e 2e e1 4a be 61 2c ac bd 14 bb 84 be
       0.13259313 -0.19812462 -0.08406902 -0.2592398
0001d0 74 55 0f 3d 2f b2 49 3e 42 7f 16 bd 4a cd bd be
       0.034993604 0.19696878 -0.036742456 -0.37070686
0001e0 1c 28 7b 3d ef f3 77 3d 10 75 79 be 93 a5 6c 3d
       0.06131755 0.060535368 -0.24361062 0.05777509
0001f0 c5 54 b1 bd 70 1b bd bd 69 3f 1c 3f 18 e4 21 bc
       -0.08658747 -0.09233749 0.61034256 -0.009881042
000200 01 de 17 3c cf 2c 6c 3d 8f 70 24 3e 52 e0 1f 3e
       0.009269238 0.05765992 0.16058563 0.15612915
000210 9e 7b 6f 3e dc ae 0e be 7e c8 0e be c3 39 a2 3e
       0.23387 -0.13933891 -0.13943669 0.31684694
000220 2d b7 7f 3e 84 37 49 3e a4 73 00 bd 18 5e 6e 3e
       0.2497222 0.19650084 -0.031360283 0.23278081
000230 d5 00 21 be 7a 52 21 be 5c 20 19 bb 8b 7a 70 3d
       -0.15722974 -0.15754119 -0.0023365235 0.058710616
000240 a8 b8 a4 bd 43 4e ae bc 99 be 0d 3f 78 bc 43 bc
       -0.08043033 -0.021277552 0.55368954 -0.01194679
000250 54 2a 19 3e 98 e8 2e 3f b9 d5 bc 3e b8 c1 ed bd
       0.14957553 0.6832366 0.36881807 -0.116092145
000260 d5 19 80 3d f1 d0 f0 bd 58 19 1c 3e a1 c1 b8 bc
       0.06254927 -0.117586024 0.15244043 -0.022553267
000270 29 36 04 be ae 91 99 be a1 f7 92 3e f4 4a 56 be
       -0.12911285 -0.29993957 0.2870455 -0.2092703
000280 20 6c d4 3d 1c 6b 77 3e 0e 7e 5a bd 01 e4 2e 3d
       0.10372186 0.24161953 -0.05334287 0.04269791
000290 bb 89 e1 3e 33 b8 6d bc a6 35 da be 64 75 fb 3e
       0.44050393 -0.014509249 -0.42619056 0.49113
0002a0 ac d8 a0 3e 0c c3 a7 3d ca 6c a9 3e d4 96 fd 3d
       0.31415308 0.08191499 0.33090812 0.12382284
0002b0 e9 2a 70 3e 1b b9 ba 3c 34 c1 a2 bd 1f 3a 1b 3e
       0.23453869 0.022793343 -0.07947007 0.1515889
0002c0 b5 68 84 3e b2 2e 82 3e 9e 02 db bd 35 d3 c9 3e
       0.25861135 0.2542625 -0.106938586 0.3941895
0002d0 5a 6d 49 3d be 78 b2 bd 47 0a 12 3e 01 9f cb 3d
       0.04917655 -0.08714436 0.14261733 0.09942437
0002e0 b4 a2 1b bd 56 a6 d7 3e 40 c2 d8 3d b0 c2 aa 3e
       -0.037996963 0.42119092 0.10583925 0.3335166
0002f0 5e c9 24 3e 5e ac 8d 3c 71 cf 6d 3d 7d 2a 02 3d
       0.1609244 0.017294105 0.05805916 0.0317788
000300 f6 8d 46 3e 02 3f b4 3d 65 25 03 be 5d a6 1f 3e
       0.19390091 0.0880108 -0.12807234 0.15590806
000310 71 2e 79 3d 48 9e 2c bd da e2 c0 3d cd 75 13 be
       0.060835306 -0.042143136 0.094182685 -0.14400406
000320 5b 4c 0b 3e 93 27 a1 3e 96 d1 62 bd d3 21 85 be
       0.13603346 0.31475505 -0.055375658 -0.26002368
000330 b9 25 d0 bd 7f 51 21 be 64 3a c4 3e 2e 10 cf 3d
       -0.10163445 -0.15753745 0.383258 0.10110508
000340 b1 16 8d be fe 0d 42 bb 77 ad 8c 3e 06 d1 8b 3e
       -0.27556375 -0.002961039 0.27476093 0.2730791
000350 d6 89 75 bd d9 71 f1 3c cf e8 84 be 74 e1 1b 3e
       -0.059945904 0.029473232 -0.2595887 0.15222722
000360 e3 31 a8 bc 88 60 c4 bd 98 a3 41 be bd 6a 18 3d
       -0.0205316 -0.095887244 -0.18910062 0.03721117
000370 94 24 2b be c0 a7 45 bd e9 4d 0b be f9 ef 6c 3c
       -0.16713172 -0.048255682 -0.13603939 0.014461511
000380 07 b5 22 bc a5 61 9f be 88 1c 85 3e fc f6 01 3f
       -0.009930856 -0.31129184 0.2599833 0.50767493
000390 4d 83 d6 3e 9d 9a 5d 3e 4b 93 d3 bb 83 2a 03 bf
       0.4189705 0.21641012 -0.0064567677 -0.5123674
0003a0 3f 13 10 3e 5c 9b 47 3e 2a 4e ab bb e6 ad 56 3e
       0.14069842 0.19492859 -0.0052278237 0.20964774
0003b0 63 54 71 3c 88 1e 80 3e a3 3f 2c 3e 10 6d a7 3c
       0.014729592 0.25023293 0.1682115 0.020437747
0003c0 38 ca 18 3d 8a aa 07 be 08 b0 b3 3d 72 e7 25 3e
       0.037302226 -0.13248649 0.0877381 0.1620157
0003d0 d2 e0 e2 3c 08 b8 96 bd 40 5c 51 3e d6 5a 33 3e
       0.027695093 -0.0735932 0.20445347 0.1751512
0003e0 d8 82 13 3f ad af 4e be e5 d8 bd 3e e1 11 d5 bd
       0.57621527 -0.20184202 0.3707954 -0.10403801
0003f0 08 8b 94 3e 5b b8 ac 3e 0e 5b 3e be f0 a5 fc 3c
       0.29012322 0.33734402 -0.18589422 0.030840844

fc2.weight f4 [300, 400]
000000 8a 80 64 bd fd 0d 4a bb 90 9a d3 bc 9e 6d 2e bd
       -0.055786647 -0.0030831092 -0.025830537 -0.042585008
000010 c6 4d 18 3d ba 12 80 3c a1 32 15 b9 ab 66 5e bd
       0.037183546 0.01563393 -0.00014228608 -0.05429713
000020 30 30 1b bd 38 5a 09 3d b8 3c 1f bc 41 76 0c bc
       -0.037887752 0.033533305 -0.009719066 -0.008573116
000030 83 77 b7 bc 15 51 4c 3d 5c ac 99 bc 0c cd da 3c
       -0.022395855 0.049882013 -0.018758945 0.026709102
000040 e8 bd 62 3c 8a 64 35 3c 8a e1 16 3c 32 3a 64 bb
       0.0138392225 0.011071334 0.009209046 -0.0034824726
000050 34 17 0d 3d 14 48 6f 3b 90 6d ca bc 2e 78 b2 bc
       0.034445956 0.0036511468 -0.024710447 -0.021785822
000060 7b 1f a5 3c fe ce cb 3c d7 16 17 3c 00 9d 1c bc
       0.020156613 0.024878975 0.009221754 -0.009558916
000070 09 0f 90 3c e0 41 03 bd ae 5c ba 3c 95 a4 d0 3c
       0.017585294 -0.032045245 0.022749271 0.025469104
000080 16 ac ab 3a 6c 92 ac bc 69 91 17 3b 05 6a 1e 3c
       0.001309755 -0.021065913 0.0023127443 0.009668832
000090 13 63 45 3c cb 34 1c 3b cc 52 3a bd 0e 48 18 bd
       0.012047547 0.0023835178 -0.045489118 -0.03717809
0000a0 57 87 22 bd 87 e2 1f bd 46 26 cc 3c 41 b7 bb bb
       -0.03967985 -0.039034393 0.024920594 -0.0057286327
0000b0 4d 13 bf bc eb c4 38 3c 51 c8 2e 3d 00 d7 4f bd
       -0.023324633 0.011277418 0.042671505 -0.05074215
0000c0 c6 29 01 3d 5f 44 28 3d f4 d2 a0 bc 83 f6 c5 3c
       0.03153398 0.04108083 -0.01963184 0.024165398
0000d0 e5 c9 b2 3a 7f b7 b0 bc e3 06 02 3d 27 dc 36 bc
       0.0013640492 -0.021571873 0.03174485 -0.011160887
0000e0 5e 96 e5 bb 58 f6 1d bc 30 1e eb bb c8 1b 3e bd
       -0.0070064506 -0.009641252 -0.0071752295 -0.046413213
0000f0 06 ef 35 3c 33 45 37 3d 4b a0 11 bc 41 97 42 3c
       0.011104351 0.044743728 -0.0088883145 0.011876882
000100 a6 c1 cb 3c 0e 7f f6 3c 08 b1 4d ba 98 37 43 bc
       0.024872612 0.030089881 -0.0007846509 -0.01191511
000110 01 5b 13 3d 96 c1 fa bc 51 3b f2 bc 1d 4b 21 3b
       0.03597546 -0.030609887 -0.0295693 0.0024611421
000120 9e 75 10 bd d7 d1 a8 3c 0b c0 29 bd fe 57 9b 3c
       -0.03526842 0.020607872 -0.041442912 0.018962856
000130 02 76 13 3c 00 22 1a 3d 09 76 47 bd 05 f6 b8 3c
       0.009000303 0.03763008 -0.04869655 0.022578249
000140 79 16 77 bd 92 94 63 bd 72 f6 0b 3d a1 4e 4e bc
       -0.060324166 -0.05556161 0.034170575 -0.012591989
000150 36 0f 1d bc fd 1b 09 3d 12 26 87 3c f3 24 4c 3c
       -0.009586146 0.033473957 0.016497646 0.012459981
000160 9a 78 67 bc 1b 1a 22 bd 1d 71 49 bd 67 e0 61 bd
       -0.014127875 -0.039575677 -0.04918014 -0.055145647
000170 ea 0e c5 3c a1 d5 19 bd c4 6a 72 3c 56 46 f7 3c
       0.024054963 -0.037557248 0.014795963 0.030184906
000180 66 8c 8a 3c f1 95 62 bd 94 41 d5 bc 2a d1 3c bd
       0.01691265 -0.055318777 -0.026032247 -0.046097912
000190 7d 4a 32 bd c0 fb c8 3b ba 30 94 3c 9d cd 46 bd
       -0.04352807 0.0061335266 0.01808964 -0.04853593
0001a0 2a 2e 3d bd 8f 15 94 3c 0e 2e df 3c 8b 38 63 bd
       -0.046186604 0.018076686 0.02724364 -0.055473845
0001b0 18 ad 45 bd 6f 18 86 bc 14 8f 02 bd ad a4 02 3d
       -0.04826078 -0.016369073 -0.03187473 0.03189533
0001c0 7b 8c 70 3b 30 4e db bc 4d c4 ad bb 34 8b 0c 3d
       0.0036704827 -0.026770681 -0.005302942 0.034312442
0001d0 7c d3 9d bb e3 98 9e 3a 42 b4 7a bd 62 8f 4a bd
       -0.0048164707 0.0012100007 -0.061207063 -0.049453147
0001e0 80 7f a8 3c bb 11 27 3b 8b 5b 2d bd 16 06 6b bd
       0.02056861 0.0025492746 -0.04232363 -0.05737885
0001f0 fd 90 99 3c 6a 55 c8 bc ef 21 9c 3c 6c 53 76 3c
       0.018745894 -0.024454791 0.01905915 0.015034538
000200 92 a7 da 3c f0 fc 98 bc 60 be 1b bd df 39 d8 3c
       0.026691232 -0.018675297 -0.038023353 0.026394783
000210 c5 c8 52 bc 8a fc 14 3d ca 68 88 bc b6 b8 7d 3c
       -0.01286525 0.036373653 -0.01665153 0.015485933
000220 0a 77 f9 bc 60 ab 1b 3d a8 d4 f0 3b 6f 96 1e bd
       -0.03045227 0.038005233 0.0073495694 -0.038717683
000230 b5 ea 37 bd ef a8 b5 3c 8e e1 2b bb 39 9c 63 bd
       -0.04490157 0.02217528 -0.002622697 -0.055568907
000240 73 08 13 3d a0 3f 87 3c ec d8 57 bd 84 28 17 bd
       0.03589673 0.016509831 -0.052697107 -0.036903873
000250 99 03 7f bd 72 55 a1 bc 23 57 09 3d 3e 44 fc 3c
       -0.06225929 -0.019694064 0.033530366 0.03079426
000260 26 a0 ba 3c 1e a0 0f bd 5e f6 12 3d c0 2a 39 bb
       0.022781443 -0.03506481 0.035879485 -0.002825424
000270 41 79 c8 3c 94 c9 89 bc 13 d5 9c 3c fc 70 01 3d
       0.02447188 -0.016819753 0.01914457 0.03160189
000280 ac a0 54 bd 26 06 6a 3c 9b eb b4 3c dd 44 05 3d
       -0.05191104 0.014283692 0.022085002 0.032536376
000290 88 f4 a8 bc 00 90 af bb ac ae 09 bd ca 19 d0 3a
       -0.020624414 -0.0053577423 -0.033613846 0.0015876826
0002a0 65 fe 03 3d 05 ed 34 bd 5c ab 0e bd e3 da 3c bd
       0.03222503 -0.044171352 -0.03483139 -0.046107184
0002b0 96 3e 27 3c 17 65 0e 3d 27 10 08 bd fa b4 4b bd
       0.010207793 0.034764376 -0.03321853 -0.04973314
0002c0 76 2e 2c 3c ce b5 15 bd 9d 84 ab bc 69 2a 18 bd
       0.010509124 -0.036550336 -0.020937258 -0.03714982
0002d0 0b 35 0b bd 68 0f 18 3c 69 39 4c bd ec 00 8a bc
       -0.033986133 0.009281017 -0.049859438 -0.016846143
0002e0 76 88 4f bc 68 50 a7 3c 7e 1e 04 3d 3c eb af 3b
       -0.012666812 0.020424083 0.032255642 0.0053686183
0002f0 b9 f1 02 bc 0f 82 61 bd 7e 30 e2 3c c0 ed 14 bd
       -0.0079922015 -0.055055674 0.027611014 -0.03635955
000300 05 ef e3 b9 e1 54 15 bd db 0f a7 bc 86 19 9b 3c
       -0.00043474897 -0.0364579 -0.020393303 0.018933069
000310 3a e1 f3 bc f2 d6 f4 bb e8 32 bf bb 9d ac 69 3c
       -0.029770482 -0.0074719125 -0.005834926 0.014262346
000320 f8 02 0f bd 00 52 e1 bb 13 c7 9f 3c 71 93 3f bd
       -0.03491494 -0.0068762302 0.019504106 -0.04677147
000330 66 49 12 3d 1e 34 2e bd c7 6b 8e 3c 00 70 52 39
       0.03571453 -0.04253017 0.017385377 0.00020068884
000340 dd 63 9d bc ab 74 f5 bc 9b 74 2f bc bf 91 aa 3c
       -0.019212658 -0.029962858 -0.010708953 0.02082145
000350 e2 2f 4b bd ae 6b 16 bd 97 3c 27 3d 2f 22 4f bd
       -0.04960621 -0.036723785 0.040829267 -0.05056971
000360 89 24 e1 bc d0 69 58 bc 59 5f fb bb c5 d5 38 3d
       -0.027483242 -0.013208821 -0.0076712784 0.04512574
000370 62 9c 45 3c 00 5c 78 3a 4c 01 db 3b 67 65 ab 3c
       0.01206121 0.0009474158 0.006683504 0.020922376
000380 a0 19 14 3d 2c 0c 44 bd 91 c2 46 3b 4c 81 87 3c
       0.03615725 -0.04786317 0.0030328373 0.016541146
000390 73 3d b4 bc f0 99 9b 3b d8 f0 29 bd a7 c0 05 3d
       -0.022001958 0.0047485754 -0.041489452 0.03265443
0003a0 1f 14 81 3c 4e ba 33 bc 6d f3 58 bd c6 c3 39 3d
       0.015756665 -0.0109697115 -0.052966524 0.04535272
0003b0 3c b2 b2 3c 64 f5 0d bd 92 88 71 bd 54 de 0b bd
       0.021813504 -0.03465785 -0.058968134 -0.034147575
0003c0 6f 13 28 3c a8 71 85 3b 4b 2f e8 3c 42 d2 46 bd
       0.01025854 0.004072387 0.028342864 -0.04854036
0003d0 ea 10 04 bd 8e ee bc 3c 8f 39 03 bd 70 fb 99 bc
       -0.032242693 0.02306297 -0.032037314 -0.018796653
0003e0 28 50 17 bd 7c d6 96 ba be e5 b0 bc 0f 2c ce bb
       -0.036941677 -0.0011508013 -0.021593925 -0.0062918733
0003f0 1f 02 61 bc f5 cd 0e 3b df 16 02 3d 1e c0 6d bc
       -0.013733416 0.002179024 0.031760093 -0.014511136

fc2.bias f4 [300]
000000 a4 a3 17 bd 91 17 f4 3d 2d 06 3a 3e cb 45 17 3e
       -0.037021294 0.119185574 0.18166418 0.14772718
000010 0c 75 3c 3d 6c 4f 2f 3e d6 41 d7 3d 2d 04 a8 3d
       0.046010062 0.17120141 0.10510604 0.082039215
000020 08 07 85 3d b8 9b 1f 3e bc e2 3f 3e af 97 dd 3d
       0.06495482 0.15586746 0.18738836 0.10819947
000030 51 f6 5a 3e f6 ff 00 3e 9f 1f 1c 3e 3d f9 a9 3d
       0.21383025 0.12597641 0.15246437 0.082994916
000040 0d 5e 16 3e 46 85 be 3d 49 2b 29 bd fe d8 ce 3d
       0.14684315 0.09302764 -0.041301046 0.10099982
000050 dd 2a 62 3d 8b ac 0c 3e 05 8e 49 bd f9 ac a9 3d
       0.05521666 0.13737695 -0.049207706 0.08284945
000060 e5 b7 43 bb 17 e7 14 3e eb e1 7c 3c a9 6b ae 3d
       -0.0029864248 0.14541279 0.015434722 0.08516628
000070 c9 f8 1f bd a0 88 1d 3e a2 d3 35 3e 5e e0 59 3e
       -0.03905562 0.1538415 0.17756513 0.21276996
000080 58 81 9b 3d 02 de f7 3d a3 bc 06 3e 56 d2 cd 3d
       0.0759303 0.121028915 0.13157897 0.10049884
000090 5e 38 63 3e 1e b7 94 3a 87 d9 26 3e 00 e0 04 bd
       0.22189471 0.0011346077 0.16293918 -0.032440186
0000a0 bc 82 ce bc a8 e0 ba bc eb 66 e1 3d 48 8a 4c bc
       -0.025208823 -0.022812203 0.11005958 -0.012484141
0000b0 5c d7 22 3e 5c 20 a2 3c ad 44 f3 3d cb 7b db 3c
       0.15902466 0.01979082 0.11878333 0.026792428
0000c0 fe d0 29 3e 4c 79 2e bd 26 f3 8f 3e 1a fb e2 3d
       0.1658363 -0.042596146 0.28115195 0.1108305
0000d0 1f dd 06 3e f3 49 ce 3c b1 05 16 3e 68 81 5f 3e
       0.13170289 0.025181746 0.14650609 0.21826708
0000e0 17 29 0d bd bf f9 db 3d 9c 0a 25 bb 4a 5a 7c bb
       -0.034463014 0.10740995 -0.0025183326 -0.0038505965
0000f0 cf 35 37 3e bc 0f e6 3d 35 d7 09 3e fc d5 b1 3d
       0.1789162 0.1123347 0.13461001 0.086833924
000100 1c 57 64 bd 0e 86 7e 3e 72 b3 88 3e 7f 66 f6 3d
       -0.055747136 0.24855825 0.26699406 0.12031268
000110 8b 90 34 3e 48 69 43 3e 99 57 49 3e 91 74 df 3d
       0.17633264 0.1908313 0.19662322 0.10910905
000120 34 8f dd 3d 12 00 19 3e b7 f3 b7 3d 73 0d b2 3d
       0.108183295 0.14941433 0.08982032 0.086939715
000130 a7 25 b4 3d 67 5e b5 39 fa b1 1c 3e 22 67 1e 3e
       0.08796244 0.00034593345 0.15302268 0.1546903
000140 6e 6c 08 3f 6e 51 14 3e 3f e3 0d 3e c6 92 97 3e
       0.5329045 0.14484188 0.13856219 0.29604167
000150 86 fc 93 3c 2f f5 13 bc bc 9c 35 3e 2b ef 09 3e
       0.018064748 -0.009030624 0.1773557 0.13470142
000160 be 7f 1f 3e d8 f3 4b 39 b5 2b 9d 3d de b2 33 3e
       0.15576074 0.00019450427 0.07674352 0.17548701
000170 0f 9c 2b 3d 5a 38 5a bd de 9e ed 3d 6b ff 18 3d
       0.041896876 -0.053276397 0.11602567 0.03735296
000180 b7 cc 6c 3d 99 7d 3a 3e 9e 44 f1 3d 2c f2 fe bc
       0.05781242 0.18211974 0.11780666 -0.031121336
000190 69 60 21 3e 65 cb 08 3e 01 f5 f9 3d 37 33 f8 3d
       0.15759434 0.13358839 0.12204934 0.121191435
0001a0 25 a0 4e 3e 3f 0a 33 3e 60 71 39 3e 3f e4 9c 3e
       0.20178278 0.17484377 0.18109655 0.30642888
0001b0 ab 51 0e 3e 73 ae ee 3d 1e 12 c9 3c 03 dc 8d 3d
       0.13898341 0.11654367 0.024544772 0.069267295
0001c0 a7 a6 1a bd 85 cf 14 3e e8 42 1d 3e ea 6f 08 3d
       -0.03775659 0.14532287 0.15357554 0.033309855
0001d0 07 dc 8d 3d b1 d2 b7 3d c8 54 9f 3d a5 ba 9c 3e
       0.069267325 0.08975733 0.077798426 0.30611148
0001e0 e7 fc da 3d d5 3d 13 3e 5b 5e ae 3c 2e 2b 0f 3e
       0.106927685 0.14379056 0.021285227 0.13981315
0001f0 0d db cc 3d 4c 74 a4 3d bd 61 2a 3e c8 d2 e7 bc
       0.10002718 0.08029994 0.16638847 -0.02829875
000200 ca 5e 47 3e 4e 1e 70 3d f9 d1 0e 3e 20 a4 b8 3d
       0.19469753 0.05862265 0.13947286 0.09015679
000210 ea 9a 2c 3e 2b ba 0b 3e 10 08 cb 3d 76 3b a8 bb
       0.1685597 0.13645236 0.09913647 -0.0051340414
000220 8d 43 85 3e 1b e4 e1 3d 8c 3f cb 3e 89 42 e7 3d
       0.260281 0.11029836 0.3969692 0.112919874
000230 10 ca 31 3e 9b 1e 39 3e 91 43 e7 3d 73 e4 45 3e
       0.17362237 0.18078081 0.11292184 0.19325428
000240 9c 16 1e 3e c9 4d 92 bd 67 d2 e8 bd 5f a8 10 3e
       0.15438312 -0.071437426 -0.11368256 0.14126728
000250 7f e3 59 3d e4 33 b3 bc e8 75 db 3d 0c 9d 09 3e
       0.053195473 -0.02187533 0.10715848 0.13438815
000260 83 11 a4 3d 4b d4 f0 bc 1d 02 32 3e cc fd 4a 3e
       0.080111526 -0.029398104 0.17383619 0.19823378
000270 83 c1 70 bd 9e e9 20 3e d3 41 05 3e 2e ac 34 3e
       -0.058778297 0.15714118 0.13013391 0.17643806
000280 7f 9c d8 3d ff 96 53 3e 5f ea 63 3d 9f 17 de be
       0.10576724 0.20663069 0.055643436 -0.43377396
000290 d3 69 3a 3e 9a d1 e6 3d 02 e2 a7 bc 8f ba 23 3e
       0.18204431 0.11270447 -0.020493511 0.15989135
0002a0 95 7f 05 3e 78 0c d8 3d 76 60 3b bd 50 7a b8 bc
       0.1303695 0.10549253 -0.04574629 -0.02251926
0002b0 7c c1 f7 3d e3 d6 55 3e c9 46 34 3e 35 d8 a7 3d
       0.12097451 0.20882754 0.17605127 0.08195535
0002c0 f3 b8 08 3e 19 bd e6 3d e4 bb dd 3d d8 d3 ca 3d
       0.13351803 0.11266536 0.10826853 0.09903687
0002d0 37 2f 08 3e 7b 2a 14 3e 3c 12 46 3e 13 03 1c 3e
       0.13299261 0.1446933 0.19342893 0.15235548
0002e0 78 95 38 3e e4 a0 3f 3b 5c e0 a3 3d 57 eb a0 3c
       0.18025768 0.0029240185 0.080017775 0.019643469
0002f0 72 6a 53 3e 07 0d 82 3e 83 b6 0d 3e 28 ee 17 3e
       0.20646074 0.25400564 0.13839154 0.14836943
000300 37 3a 3f 3e 82 5a 9e 3e 39 d3 12 3e 09 f9 32 3e
       0.18674551 0.30928427 0.14338388 0.17477812
000310 be d6 f6 3d ff 1a 16 bc eb 1c 36 bb b0 6a a3 3e
       0.120526776 -0.00916171 -0.0027788233 0.31917334
000320 99 e2 37 3e f9 b7 1b 3e 51 3a d4 3d d1 d2 40 bd
       0.17957534 0.15206899 0.103626855 -0.04707605
000330 a4 41 ba bc 9f 5c 25 3e 10 78 4b 3e a5 74 10 bd
       -0.022736378 0.16148613 0.19870019 -0.03526749
000340 2b de 04 3e e8 7a 6a 3e 0e 30 3f 3e 1a b0 53 3e
       0.12975375 0.22898448 0.18670675 0.20672646
000350 a2 4d 18 3e 03 cb 0d 3e c1 72 e8 3d c0 8d 5b bc
       0.14873365 0.13846974 0.113500126 -0.013400495
000360 a3 45 f9 3d 63 00 0f 3e dc aa 7b bd a8 49 b0 3d
       0.12171485 0.13964991 -0.06144224 0.08607799
000370 c6 20 04 3e 0c 56 cd 3d 63 fc 0e 3d 44 b8 8f 3b
       0.12903127 0.10026178 0.034908663 0.00438598
000380 04 ce 90 3d e1 cd 4e bd a4 23 85 3c fb c5 c4 3d
       0.07070544 -0.05048931 0.016252346 0.09608074
000390 11 9e 2b bc 6e fc 23 bd 7a 9c d2 3d 66 f0 78 bd
       -0.010474698 -0.040035658 0.10283752 -0.060776137
0003a0 fb b6 88 3e 1c eb 64 bd c4 74 03 bc 69 e1 0a 3e
       0.26702103 -0.05588828 -0.008023445 0.1356255
0003b0 55 c3 56 bc f4 87 37 3e 5b 86 39 3e 6b 41 4d 3e
       -0.013108094 0.17922956 0.18117659 0.20044486
0003c0 ae c9 08 3e 45 4d 39 3e 36 c1 b9 be d9 9a b9 3d
       0.13358185 0.18095882 -0.3628022 0.09062738
0003d0 31 76 1f bd 1e 69 42 3d d4 9b e2 3d 9d de 2e 3e
       -0.038931075 0.04746353 0.11064878 0.17077108
0003e0 a1 cf 8e 3d c1 3d 17 3e 94 8d a6 3e c3 b3 ea 3d
       0.06973196 0.14769651 0.3252989 0.11460068
0003f0 5f 36 0c 3e 3e 79 5e bd e8 e8 0a 3d f1 b9 49 3d
       0.13692616 -0.054314844 0.033913523 0.049249593

q.weight f4 [1, 300]
000000 31 3a 06 bc 9e 38 f0 be 7f 78 2c 3f 5b 19 eb be
       -0.008192585 -0.46918195 0.6737136 -0.45917782
000010 db 6d c9 be f5 45 d5 bf d8 41 08 3f cf 2b 7b bf
       -0.39341626 -1.6661974 0.5322547 -0.9811372
000020 24 35 3b 3f 46 5a 20 3f b6 36 f9 be 65 aa 02 3f
       0.7312796 0.62637746 -0.48674554 0.5104125
000030 41 4a dc 3f 5e dc 26 3f b7 ac 60 3f c1 f4 b1 be
       1.721016 0.65180004 0.8776354 -0.34757045
000040 10 53 09 3f 1b cf 12 3f 51 84 63 3b a2 cc 10 3f
       0.5364237 0.5734727 0.0034716318 0.56562245
000050 a0 b8 05 3f 33 7d 0d 3f d2 27 2a 3d a0 5e 0d 3f
       0.5223484 0.55269164 0.04154188 0.5522251
000060 97 00 88 3c 6b 35 03 bf 45 44 0e 3d d4 c5 eb be
       0.016601844 -0.51253384 0.034733076 -0.46049368
000070 1e 5b 57 bf 26 1a fc be fd e0 f7 be 8a 53 2d c0
       -0.8412341 -0.492387 -0.4841384 -2.7082238
000080 c6 cf cb be 98 5b df be 54 46 5e 3f 23 ec d6 be
       -0.39806956 -0.43624568 0.8682606 -0.41977033
000090 7b bf 24 c0 4d 67 f4 3b 44 64 37 3f f2 77 97 3c
       -2.574187 0.0074586035 0.7163737 0.018489812
0000a0 28 be 87 3b 58 96 71 bf 25 b7 1b 3f f3 83 43 3c
       0.0041425414 -0.9437003 0.6082633 0.011933315
0000b0 6f 39 09 bf e4 08 aa be bd bd b3 bf 07 f6 c3 be
       -0.5360326 -0.33209908 -1.4042279 -0.3827364
0000c0 ed 1f f3 be 93 cf 4a be 4d 22 40 c0 e9 f3 18 3f
       -0.47485295 -0.19805746 -3.0020936 0.5974718
0000d0 e7 47 e5 3e 61 cc fd be dc 81 96 3f 8f f3 03 c0
       0.4478142 -0.4956999 1.175838 -2.0617406
0000e0 ab f9 91 3c d3 b4 db be ee bb 5e 3c fb 5a 01 3b
       0.017819246 -0.42911395 0.013594611 0.0019738066
0000f0 31 76 f5 be a4 3f 23 3f 40 eb 2a 3f e7 c8 47 3f
       -0.47941735 0.6376898 0.66765213 0.7804093
000100 f4 94 97 ba 66 45 07 c0 07 a5 07 c0 40 8b 22 3f
       -0.0011564777 -2.1136107 -2.1194475 0.6349373
000110 05 bb b3 bf b6 29 2d 3f 3c 59 2f 3f 12 70 36 3f
       -1.4041449 0.6764177 0.68495536 0.71264756
000120 c3 e6 27 3f 88 82 30 3f b7 df 7e 3f d3 ec 03 3f
       0.6558649 0.68949175 0.9956011 0.5153324
000130 96 b7 26 3f a3 15 6a bf ad f1 ec be 37 ec fd bf
       0.6512388 -0.91439265 -0.46278134 -1.9837712
000140 02 21 7b c0 76 21 33 3f 92 f3 d7 be 76 97 34 c0
       -3.9238896 0.6997293 -0.42178017 -2.8217444
000150 1b 0b 53 3d bd 48 a2 bb 7a 34 15 3f bb 44 4c 3f
       0.051524263 -0.0049525187 0.582832 0.79792374
000160 fd cd 12 3f a8 ca 37 3d 89 3b 27 3f 65 aa 28 3f
       0.57345563 0.044871002 0.6532522 0.65885
000170 a1 6f 47 3f 87 bf 88 3c c6 20 08 3f 9d 84 fb 3c
       0.7790471 0.01669289 0.5317501 0.030702883
000180 ae 2e 79 bf ea 37 0d 3f 84 81 f3 be b9 71 81 3c
       -0.9733685 0.55163443 -0.4755975 0.015801298
000190 13 ff 12 3f 92 ec 27 3f 6f d7 16 3f e9 90 d9 be
       0.5742046 0.6559535 0.58922476 -0.4249337
0001a0 33 dc 01 c0 c7 2d 03 bf 67 d6 1b 3f 00 74 61 c0
       -2.029065 -0.51241726 0.60874027 -3.522705
0001b0 69 0d 29 3f 16 4e 28 3f 43 80 42 40 dd fd e1 be
       0.6603609 0.6574415 3.0390785 -0.44138995
0001c0 4d 4a 7b bf d2 43 34 3f 50 3a 11 3f 72 74 71 bf
       -0.9816025 0.70415986 0.567296 -0.94318306
0001d0 97 d1 d2 be 47 54 21 3f 85 60 ab be 10 b3 4c c0
       -0.4117553 0.6301922 -0.33472076 -3.198429
0001e0 c4 f3 e0 be df 22 14 3f c4 0a 0a bb 35 64 e2 be
       -0.43935978 0.5786571 -0.0021063546 -0.44217077
0001f0 d9 2f 21 3f 1a 52 14 3f fe 38 ea be fb f1 48 3d
       0.62963635 0.5793778 -0.45746607 0.049058896
000200 38 0f 02 bf f6 76 0d 3f 91 dd 79 3f 5a 89 28 3f
       -0.5080447 0.55259645 0.9760371 0.6583458
000210 4b e7 03 bf fe 21 7c 3f 6a 1c 07 bf b0 31 0f 3d
       -0.515248 0.9848937 -0.5277773 0.034959495
000220 c4 f1 50 c0 e8 63 3a 3f 06 d0 5b c0 82 70 3b 3f
       -3.2647562 0.72808695 -3.4345717 0.7321855
000230 35 a6 ec be d9 ae bd bf ca 66 fb be 2b 58 ea be
       -0.46220556 -1.4818984 -0.4910186 -0.45770392
000240 c4 62 8b 3f d4 26 d7 be 28 d1 c9 be ae 42 23 3f
       1.0889516 -0.4202181 -0.39417386 0.6377362
000250 d6 43 59 bf 84 3e 46 3d c1 b3 10 3f 3e 2b 90 bf
       -0.84869134 0.048399463 0.5652428 -1.1263196
000260 65 62 8e be a0 8e 16 3d 0f 1b 34 3f 14 a7 fe bf
       -0.27809444 0.03675711 0.7035379 -1.9894738
000270 04 58 ef be b2 c4 11 3f b0 0b 30 3f 04 75 e6 be
       -0.46746838 0.5694076 0.68767834 -0.4501115
000280 a3 44 43 3f fd e0 00 c0 26 2a ac be ca 6e 40 40
       0.76276606 -2.0137322 -0.33625907 3.006762
000290 5d 34 29 3f c1 1b 20 3f d3 18 9b 3c c3 21 f9 be
       0.66095525 0.6254235 0.018932736 -0.4865857
0002a0 f1 61 68 3f 74 df 12 3f 5c cb 55 3d 89 b6 94 3c
       0.90774447 0.5737221 0.05219589 0.018153446
0002b0 1f ab 3f 3f 30 6d f4 bf e5 bc 0f c0 96 2d d0 be
       0.74870485 -1.9095821 -2.2459042 -0.4065978
0002c0 79 44 26 3f d2 6c 1e 3f b3 e8 1c 3f c9 59 39 3f
       0.6494823 0.61884797 0.6129257 0.72402626
0002d0 ae a7 0d 3f 6e 76 20 3f 54 f6 fb be e9 86 e8 be
       0.55333984 0.6268071 -0.4921137 -0.45415428
0002e0 26 8a 2b 3f 8a ba a2 be 0c cd 17 3f d3 e4 14 bc
       0.6700767 -0.31782943 0.5929725 -0.009087759
0002f0 fb db f7 be fc 24 1d c0 f8 9b b8 bf 52 94 c7 be
       -0.4841002 -2.4553823 -1.4422598 -0.38980347
000300 45 60 31 3f b3 bf 30 c0 75 d3 ce be 92 9d 01 bf
       0.6928752 -2.7617004 -0.40395704 -0.5063106
000310 f7 60 ed be a0 29 44 bf 0c 17 1f 3c 66 62 4a c0
       -0.4636304 -0.76626015 0.009710085 -3.1622558
000320 12 70 13 3f a5 f0 d0 bf 50 eb 11 3f 73 7b 11 3d
       0.5759288 -1.6323439 0.56999683 0.03551812
000330 53 f5 85 bf 42 ae 7f 3f 15 94 e6 be 47 c7 b6 bc
       -1.0465492 0.9987527 -0.45034853 -0.02231182
000340 16 0a 00 3f a4 c6 0a c0 59 b3 ef be b0 f3 3f c0
       0.5001539 -2.168374 -0.4681652 -2.9992485
000350 93 fe 0a 3f 4c c0 e6 be c5 af 32 3f af 04 71 bf
       0.542947 -0.45068586 0.69799453 -0.9414777
000360 e0 3c f0 be 01 c8 46 3f 4a 84 d2 b9 e4 13 8e be
       -0.46921444 0.7764893 -0.00040152884 -0.2774955
000370 37 51 13 3f e2 6b b6 3f 46 a4 b2 be 59 a7 df be
       0.575458 1.4251673 -0.34890956 -0.43682364
000380 f3 3d e2 be 14 6a 22 3c 45 d4 62 bc 0b 78 84 bf
       -0.44187889 0.009912986 -0.013844554 -1.0349134
000390 9b 01 37 3d 18 67 c7 3c ee 68 33 3f b8 c0 09 bb
       0.044679265 0.024341151 0.70081985 -0.002101941
0003a0 7c c9 35 c0 48 ea 15 3d 51 f3 1a bf fd 3f e1 3e
       -2.8404226 0.03660038 -0.6052752 0.43994132
0003b0 4c ce 67 3c 71 8a de be c4 73 d1 bf 48 0d 33 3f
       0.014148306 -0.43464997 -1.6363454 0.6994214
0003c0 b9 8d eb be 61 8c ef be 3b 48 3d 40 c4 46 12 3f
       -0.46006563 -0.46786788 2.9575336 0.5713923
0003d0 a9 75 2e bf d7 ab d1 3f 75 3d a6 bf 60 ff 2e 3f
       -0.68148285 1.6380566 -1.2987505 0.6835842
0003e0 9d 3a 0e 3f cb f3 d4 be a6 d1 4a c0 da 8c d6 be
       0.55558187 -0.4159225 -3.169046 -0.41904336
0003f0 2b 52 26 3f 61 bf 80 3c 5c 63 38 3d 81 3a 5c bf
       0.6496913 0.015716257 0.04501663 -0.8602677
