SAC_own_hardcore/sac_300/value_sac.pth (torch, 524956 bytes, 5 tensors)

fc1.weight f4 [400, 24]
0	0x3fc43488	1.5328531
1	0x3e906276	0.2820012
2	0x3ee38eba	0.4444483
3	0xbf16882a	-0.5880152
4	0x3ee34441	0.4438801
5	0x3d8f58a2	0.06999327
6	0x3ec51a51	0.3849664
7	0x3d144811	0.03620154
8	0xbcd3f954	-0.025875725
9	0x3f0d916f	0.5530004
10	0xbb9c7b9c	-0.0047754776
11	0x3de4f989	0.111804076
12	0x3c375804	0.011190418
13	0xbd1aed42	-0.037823923
14	0x3cd03ad6	0.02541868
15	0xbd4be7fc	-0.049781784
16	0x3e1092c1	0.14118482
17	0xbda1d451	-0.07901824
18	0xbe101311	-0.14069773
19	0xbe8158fa	-0.25263196
20	0xbef459fe	-0.4772491
21	0x3e9f36c1	0.3109646
22	0x3e3d3f60	0.18481207
23	0xbd07a9f1	-0.033121053
24	0xbf513f6f	-0.81737417
25	0xbf58890e	-0.8458413
26	0x3efc9244	0.49330342
27	0xbefcb62b	-0.49357733
28	0xbb8a27b2	-0.004216158
29	0xbc9e7fd6	-0.019348066
30	0x3e6d48b3	0.23172264
31	0xbdc7368c	-0.09727201
32	0xbd9a8cae	-0.07546364
33	0xbf0053f6	-0.50128114
34	0xbe0f7a43	-0.14011483
35	0xbe838c87	-0.2569315
36	0xbde25416	-0.11051194
37	0x3df51850	0.11967528
38	0x3c561dd2	0.013068633
39	0x3da7192d	0.08159099
40	0xbde5d98a	-0.11223133
41	0xbe190204	-0.14942175
42	0x3e11f1db	0.14252417
43	0x3df138d9	0.11778421
44	0xbd0b5b3c	-0.034022555
45	0x3d2fe61c	0.04294406
46	0xbde2d494	-0.11075702
47	0x3de7450b	0.11292466
48	0xbeb5e020	-0.35522556
49	0x3ceec9b8	0.029148921
50	0x3f01761b	0.5057084
51	0x3ed84205	0.4223787
52	0xbf8e9408	-1.1138926
53	0xbdfd9d91	-0.12383569
54	0xbd33e246	-0.043916963
55	0xbe85f1eb	-0.2616113
56	0x3e72441b	0.23658793
57	0x3e37bed9	0.17943896
58	0xbeb37c26	-0.35055655
59	0xbe834eb4	-0.25645983
60	0x3ae682c4	0.0017586579
61	0x3d49b713	0.04924686
62	0xbd7be60c	-0.061498687
63	0xbe62172e	-0.22079155
64	0x3ed8296b	0.422191
65	0x3eecf30c	0.4627918
66	0x3d87a909	0.06624038
67	0x3e8e1429	0.27749756
68	0x3e5da74c	0.2164585
69	0x3db0e2a5	0.08636979
70	0x3dd78593	0.10523524
71	0x3d3b6e76	0.04575964
72	0x3ec2f39f	0.38076493
73	0x3f9ba170	1.2158642
74	0xbf5d99c2	-0.8656274
75	0xbf4023e1	-0.75054747
76	0x3cd9f849	0.02660765
77	0x3e8dfdb5	0.27732626
78	0x3e2bfcc3	0.1679564
79	0x3e1f9092	0.15582493
80	0x3de32221	0.11090494
81	0x3ced6054	0.028976597
82	0x3da94b0f	0.082662694
83	0xbc4a432a	-0.012345115
84	0xbc805bdd	-0.015668804
85	0xbecb0d77	-0.3965871
86	0xbe176230	-0.1478355
87	0xbc85f823	-0.016353672
88	0xbdffadbb	-0.12484308
89	0x3e87f4bd	0.26553908
90	0x3ef404ed	0.47660008
91	0x3eaece13	0.34141597
92	0x3db0b722	0.0862868
93	0xbe3df064	-0.18548733
94	0xbd161dea	-0.036649622
95	0xbe8c4b14	-0.2740103
96	0xbf0d16b5	-0.55112773
97	0xc0443733	-3.065869
98	0x3f959e6e	1.1688974
99	0x3cef76f7	0.029231532
100	0xbf4eb04d	-0.80737764
101	0xbbd9ae1b	-0.0066430694
102	0xbf35d474	-0.710273
103	0x3d4f3baa	0.05059401
104	0xbcdfc0fc	-0.027313702
105	0x3e759f94	0.23986655
106	0xbdc4d60e	-0.0961114
107	0xbd232cb6	-0.03983756
108	0xbd4283e4	-0.047489062
109	0xbd0c94a5	-0.034321446
110	0x3edbcf83	0.42931756
111	0x3e773160	0.24139929
112	0x3d3ebc1e	0.04656612
113	0xbe7006c1	-0.23440076
114	0xbe4906ab	-0.1963145
115	0xbe908621	-0.28227332
116	0xbca52250	-0.020157963
117	0xbe0e7507	-0.1391183
118	0x3e3f43a1	0.18678142
119	0x3df4b1b8	0.1194796
120	0x3eb2f08e	0.34949154
121	0x3e35c46c	0.1775071
122	0x3eff2b5c	0.49837768
123	0x3f5f45e8	0.87216043
124	0x3eb34979	0.35016993
125	0xbc50f44b	-0.0127535565
126	0x3e6dc639	0.23220147
127	0xbdc375ff	-0.0954399
128	0xbbd7d388	-0.006586496
129	0xbefdeaff	-0.4959335
130	0x3e8ec995	0.2788817
131	0xbe437ad7	-0.19089828
132	0x3dac202a	0.08404572
133	0x3d5cb00e	0.053878836
134	0xbc412e37	-0.011790804
135	0xbdbfcc46	-0.09365134
136	0x3e571084	0.21002394
137	0xbd796169	-0.060883913
138	0xbda38c64	-0.07985762
139	0xbdd7bb0a	-0.10533722
140	0xbde16f5e	-0.1100757
141	0x3e2c5854	0.1683057
142	0x3e2de7a6	0.16982898
143	0x3dba1414	0.09085861
144	0x3ef25d14	0.47336638
145	0x3f5e25cf	0.8677644
146	0x3e5417a0	0.20712137
147	0x3f4aabb2	0.79168236
148	0x3c712534	0.014718343
149	0xbc9ad5bc	-0.018900745
150	0xbe87a842	-0.26495558
151	0x3e4de892	0.2010825
152	0xbda4a254	-0.08038774
153	0xbe0e1dc5	-0.13878544
154	0x3ebc3789	0.3676112
155	0xbe33b29c	-0.17548603
156	0x3dd6305b	0.10458442
157	0xbe471ff4	-0.19445783
158	0x3e0b15a9	0.13582481
159	0x3cb383fb	0.02191352
160	0x3e9478fe	0.2899856
161	0x3e2a3685	0.1662236
162	0x3e12813d	0.14307113
163	0x3d5c41d6	0.053773724
164	0xbd539def	-0.05166429
165	0x3ebd1bd9	0.3693531
166	0x3ed0f3d6	0.40811032
167	0x3eb5db62	0.35518938
168	0xbc6dcef4	-0.0145146735
169	0x3f85619a	1.0420411
170	0x3d617443	0.055042516
171	0xbe0ae9d6	-0.13565764
172	0x3c0df570	0.008664474
173	0x3e9476be	0.28996843
174	0x3f291274	0.6604378
175	0xbd7a4472	-0.06110043
176	0x3e621154	0.22076923
177	0xbe53e05e	-0.20691058
178	0xbe730c4b	-0.23735158
179	0x3da3dc09	0.08000953
180	0xbd1b94c2	-0.037983663
181	0xbeaf37c5	-0.34222236
182	0x3ee10875	0.43951765
183	0x3ed4a24f	0.41530082
184	0x3e1b9422	0.15193227
185	0x3d857bd4	0.06517759
186	0x3d91339c	0.07089922
187	0x3b86d95f	0.004115268
188	0xbe5fb06f	-0.21844648
189	0xbeebb500	-0.4603653
190	0xbe395cd6	-0.1810182
191	0xbe760c66	-0.24028167
192	0xbf014a8e	-0.50504386
193	0xbfb6dde4	-1.4286466
194	0x3ed7d35a	0.42153436
195	0x3dde11ec	0.10843262
196	0xbf02f70c	-0.51158214
197	0xbe2516d9	-0.16121997
198	0xbeb0d77f	-0.3453941
199	0x3e72cad1	0.23710181
200	0xbe1ff80a	-0.15621963
201	0xbeea4120	-0.4575281
202	0x3e0af12a	0.1356856
203	0xbe47fc3e	-0.19529817
204	0xbe0d1bbf	-0.13780116
205	0x3dbed331	0.09317625
206	0x3e3d94eb	0.18513839
207	0x3ea0f55f	0.31437203
208	0x3e969c87	0.29416296
209	0x3ed5610d	0.41675606
210	0x3eceb05b	0.40368924
211	0x3d0113fb	0.031513195
212	0x3ea30e57	0.31846878
213	0x3d841bfe	0.064506516
214	0x3de9dded	0.11419282
215	0x3e947e21	0.2900248
216	0xbd0bff77	-0.034179177
217	0xbed3d1e9	-0.41371086
218	0xbe20a72c	-0.15688771
219	0xbd8d713c	-0.06906363
220	0x3d227be2	0.039668925
221	0xbe855432	-0.26040798
222	0x3e1deeb0	0.15423083
223	0xbed99b47	-0.4250128
224	0x3d93a0ab	0.07208379
225	0xbf18fcbf	-0.5976066
226	0xbf03da9f	-0.51505464
227	0x3db26c68	0.08712083
228	0x3d8b18f6	0.0679187
229	0x3debbaeb	0.11510261
230	0x3ee9088c	0.45514333
231	0x3edf5867	0.43622133
232	0xbd401d95	-0.04690321
233	0x3a353b8b	0.00069134746
234	0x3db683da	0.089118674
235	0xbdb4375b	-0.08799621
236	0xbe8acf4b	-0.27111277
237	0x3dd8d429	0.10587341
238	0x3de63dc7	0.11242252
239	0x3d67c64d	0.0565856
240	0xc00b83d2	-2.1799207
241	0xbff41cfe	-1.9071348
242	0x3fbbf094	1.4682794
243	0x3f622eb2	0.883525
244	0xbed53531	-0.41642144
245	0xbe0a450c	-0.13502902
246	0xbe99a4d7	-0.30008575
247	0xbdda4e93	-0.10659518
248	0xbda01ea1	-0.07818342
249	0x3eb5e81e	0.35528654
250	0xbe2cc24f	-0.16870998
251	0xbdd1f2b5	-0.10251371
252	0xbb8a9999	-0.004229736
253	0xbe305675	-0.1722048
254	0x3f3f03c6	0.7461513
255	0x3f56e95f	0.83949846

fc1.bias f4 [400]
0	0xbe1092e0	-0.14118528
1	0xbdbb0c53	-0.0913321
2	0xbdae1f94	-0.08502117
3	0xbd0c1de0	-0.03420818
4	0x3e6e807e	0.23291203
5	0x3d7ae37e	0.06125211
6	0x3d54ba28	0.051935345
7	0x3e5cfea1	0.21581508
8	0x3e6233e1	0.22090103
9	0xbbdf5336	-0.0068153394
10	0xbe18c3d1	-0.14918448
11	0x3e8ac30c	0.27101934
12	0x3d53b705	0.051688213
13	0x3e9d424e	0.3071465
14	0xbdd04bf7	-0.10170739
15	0x3dcf620c	0.10126123
16	0x3e8f2b72	0.27962834
17	0x3e3e8ab3	0.18607597
18	0x3e52f515	0.20601304
19	0x3e39ddfa	0.18151084
20	0x3e88b1b7	0.26698086
21	0x3d49929b	0.04921208
22	0xbe848b97	-0.2588775
23	0xbe0e7c83	-0.13914685
24	0xbd1543c6	-0.036441587
25	0xbb8c52a4	-0.0042823125
26	0x3c8e72f8	0.017388806
27	0x3e8f8b03	0.28035745
28	0x3e51edbf	0.20500849
29	0x3e96511f	0.29358765
30	0x3e229ce4	0.15880162
31	0x3e8c1f9c	0.27367866
32	0xbdd8c747	-0.10584884
33	0x3e6b9622	0.2300649
34	0x3e0483fb	0.12940972
35	0xbcaa8e74	-0.02081988
36	0x3d9284d5	0.07154242
37	0x3d62f685	0.05541088
38	0x3b0d7340	0.0021583587
39	0x3deae48c	0.11469373
40	0x3df96a0f	0.12178432
41	0x3ebf9d48	0.37424684
42	0x3df3f475	0.11911861
43	0xbccfc0d1	-0.025360497
44	0x3da5da4e	0.08098279
45	0xbf02ee83	-0.5114519
46	0xbe704682	-0.23464397
47	0x3cf2b68c	0.02962806
48	0x3c2758c1	0.010214032
49	0x3dcaec4e	0.09908353
50	0xbe9189c2	-0.28425413
51	0xbd858ad9	-0.06520624
52	0x3e31ac78	0.17350948
53	0xbe96f417	-0.294831
54	0x3e1f364b	0.15548055
55	0xbe13f28d	-0.14447995
56	0xbe3fdfb9	-0.18737687
57	0x39b41fa4	0.0003435585
58	0xbd72a8bb	-0.059242945
59	0x3db7de68	0.089779675
60	0x3e00376a	0.12521139
61	0x3e5dfd9d	0.21678777
62	0xbe8d1794	-0.2755705
63	0x3c9eae7c	0.01937031
64	0x3e6cc76b	0.23122947
65	0x3e91b08a	0.28455
66	0x3e73de3b	0.23815243
67	0x3d559079	0.052139733
68	0xbebdab34	-0.3704468
69	0xbe06d4b9	-0.13167085
70	0xbcc1b65a	-0.023646522
71	0x3d69b28b	0.057055037
72	0x3e2e4152	0.17017105
73	0xbe46aec6	-0.19402608
74	0x3db259e9	0.08708555
75	0x3e381873	0.17978077
76	0xbe536de0	-0.20647383
77	0xbe9e8a2b	-0.3096479
78	0x3eaa59fa	0.33271772
79	0xbeea60f9	-0.4577711
80	0x3e0b3502	0.1359444
81	0x3e7bcf21	0.24590732
82	0x3dbf243e	0.093330845
83	0x3e6c859b	0.23097841
84	0x3dc6e700	0.097120285
85	0xbe38420b	-0.17993943
86	0x3de77141	0.11300898
87	0x3e74b2ee	0.23896381
88	0xbf1bb81b	-0.608278
89	0x3d87281e	0.065994486
90	0xbd44249c	-0.047886476
91	0x3bb03d1a	0.0053783776
92	0xbd23b466	-0.039966963
93	0xbc9e04fb	-0.019289484
94	0x3db567fb	0.08857723
95	0xbdc1d9fa	-0.09465404
96	0x3e80b88c	0.25140798
97	0x3ee299f5	0.44258085
98	0xbef06592	-0.46952492
99	0xbe32444b	-0.17408864
100	0x3ea33cc6	0.31882304
101	0xbe9f9dac	-0.31174982
102	0xbe2c6246	-0.16834363
103	0xbe29d75c	-0.1658606
104	0x3e424328	0.1897093
105	0x3d2f75ae	0.042836837
106	0x3e32a42a	0.17445436
107	0xbc24138a	-0.010014424
108	0xbef1dee0	-0.47240353
109	0xbe2832e4	-0.16425663
110	0x3e3ec3ff	0.18629454
111	0xbd3280c4	-0.04357983
112	0x3e017cd6	0.12645277
113	0x3e333c30	0.17503428
114	0x3e8302cb	0.25588068
115	0xbe67921c	-0.2261433
116	0x3e78f2bd	0.24311347
117	0xbd8303e8	-0.063972294
118	0xbc3f896d	-0.01169048
119	0x3e71568a	0.23568168
120	0xbd9b72cf	-0.075902574
121	0x3e17c006	0.14819345
122	0xbd39d930	-0.04537314
123	0x3ebcbe28	0.36863828
124	0xbe547026	-0.20745906
125	0x3e3642e1	0.1779895
126	0x3ea4eca0	0.3221178
127	0xbd04bd1a	-0.032406904
128	0x3dbf5f69	0.0934437
129	0x3dd36440	0.103218555
130	0xbd9d1463	-0.07669904
131	0xbdab6aa2	-0.08369948
132	0xbd9291ee	-0.0715674
133	0x3d301d4a	0.042996682
134	0x3df96846	0.12178092
135	0x3d05abfd	0.032634724
136	0x3e874dc4	0.26426518
137	0xbcdb7ffc	-0.026794426
138	0x3e00ea98	0.1258949
139	0xbe82a65f	-0.25517556
140	0x3e970e33	0.2950302
141	0x3ddc19d8	0.10747117
142	0x3e862e98	0.26207423
143	0x3e45f487	0.19331561
144	0xbd32b19b	-0.04362641
145	0xbbb5ba03	-0.005545856
146	0x3d88361c	0.066509455
147	0xbd3fad1c	-0.04679595
148	0x3de33a1e	0.11095069
149	0x3cd74250	0.026276737
150	0x3d6a3c56	0.057186447
151	0xbebe6516	-0.37186497
152	0x3e05c9f9	0.13065328
153	0xbdbae77f	-0.091261856
154	0xbd815fd7	-0.06317108
155	0xbd313d55	-0.04327138
156	0xbe0a8cf7	-0.13530336
157	0xbdbed9d9	-0.09318895
158	0x3e9ab0df	0.30213067
159	0x3d38dd78	0.045133084
160	0xbe0aedd7	-0.13567291
161	0x3e35cc5b	0.17753737
162	0xbc92e872	-0.017933104
163	0x3e0c2145	0.13684566
164	0xbddd1477	-0.10794919
165	0xbd6a15cc	-0.057149693
166	0x3e7f83c7	0.24952613
167	0x3e7900ee	0.24316761
168	0x3d570cb6	0.052502356
169	0xbe71c445	-0.23610027
170	0xbe56c492	-0.20973423
171	0xbd72e48e	-0.059299998
172	0xbe085aca	-0.13315883
173	0x3e34d1c7	0.17658149
174	0x3e88d960	0.26728344
175	0xbe55a17c	-0.20862383
176	0xbec99a69	-0.39375618
177	0x3cf8b2b0	0.030358642
178	0xbd5d952a	-0.054097332
179	0xbd809125	-0.06277684
180	0xbe1eee0b	-0.15520494
181	0xbec124c7	-0.3772337
182	0xbdbdaaaa	-0.09261067
183	0xbd3b5d4d	-0.045743275
184	0xbbb083db	-0.005386812
185	0x3e28b765	0.1647621
186	0xbe1688b6	-0.14700589
187	0xbdd0ec83	-0.10201361
188	0xbef87027	-0.48523065
189	0x3a7d6cdb	0.0009667405
190	0x3c2a166c	0.010381322
191	0x3dbb3364	0.09140661
192	0x3d5ac0f9	0.05340669
193	0x3e910c41	0.2832966
194	0x3cc13802	0.023586277
195	0xbe0c28ba	-0.13687411
196	0xbe491cda	-0.19639912
197	0x3ea9293f	0.3303928
198	0xbcb9ee98	-0.022696778
199	0xbe3e5ac3	-0.1858931
200	0x3d8a153e	0.06742333
201	0x3e98913c	0.29798305
202	0xbe702d59	-0.23454799
203	0x3e3286b2	0.17434195
204	0x3da9d105	0.082918204
205	0xbc22ca89	-0.009935983
206	0x3e046f18	0.12933004
207	0x3d147bdd	0.036250938
208	0x3eb89420	0.3605051
209	0x3d2d991b	0.04238234
210	0x3d10af83	0.03532363
211	0x3eb95948	0.3620093
212	0xbdf15645	-0.11784033
213	0x3e3b2cef	0.1827886
214	0xbda950ba	-0.082673505
215	0x3e1c6354	0.15272266
216	0x3da1ce99	0.079007335
217	0x3e86a12b	0.26294836
218	0xbc68bcbf	-0.014205157
219	0xbcfdde10	-0.030989677
220	0x3e940bf2	0.28915364
221	0xbecd314d	-0.40076676
222	0xbf036443	-0.5132486
223	0x3e0a7fc2	0.13525298
224	0x3e97fe59	0.2968624
225	0xbe1b5fda	-0.15173283
226	0xbec54648	-0.38530183
227	0x3dd258a1	0.10270811
228	0x3d604651	0.05475456
229	0xbe07a2ae	-0.13245651
230	0xbdcefd6a	-0.10106929
231	0x3edcd7e0	0.4313345
232	0xbe00cd51	-0.12578322
233	0xbe3a1359	-0.18171443
234	0x3e75204b	0.239381
235	0x3d90e1b8	0.070743024
236	0x3e7075c2	0.23482421
237	0xbe12a5ea	-0.14321104
238	0xbe06063b	-0.13088314
239	0xbe0f79dd	-0.14011331
240	0x3dc07996	0.09398191
241	0xbeab1271	-0.33412507
242	0x3cf536d6	0.029933374
243	0xbe2008c0	-0.15628338
244	0xbd94c2ea	-0.072637394
245	0x3cfac06b	0.03060933
246	0xbc1f2be3	-0.009715053
247	0x3d9b55e2	0.0758474
248	0xbe9b1459	-0.30288962
249	0x3e903e9f	0.28172776
250	0xbde02cc2	-0.10946037
251	0x3dd333cb	0.10312613
252	0xbebc7d98	-0.3681457
253	0xbe131f58	-0.14367425
254	0x3cd828d3	0.026386654
255	0xbd8e0cbf	-0.06936025

fc2.weight f4 [300, 400]
0	0x3ebedd83	0.37278375
1	0xbf962e7b	-1.1732935
2	0x3e41bb0d	0.1891901
3	0xbef13c89	-0.47116497
4	0x3da34ea2	0.079739824
5	0xbe3342aa	-0.17505899
6	0xbbdf3e69	-0.00681286
7	0xbea10a97	-0.31453392
8	0x3e8d87f9	0.276428
9	0xbd9ab353	-0.07553735
10	0x3f96e219	1.178775
11	0xbf8f845a	-1.1212265
12	0xbda9454d	-0.08265171
13	0xbf49cd31	-0.7882872
14	0xbdbe8f13	-0.09304633
15	0xbb4d289c	-0.0031304723
16	0x3d93f3bc	0.07224223
17	0xbdcc1e03	-0.09966662
18	0x3f6ddfab	0.92919415
19	0xbd3ec224	-0.046571866
20	0x3f0fe61b	0.5621049
21	0xbf0ba0d3	-0.54542273
22	0x3db00a24	0.08595684
23	0xbf621754	-0.88316846
24	0xbe85567c	-0.26042545
25	0x3de0cf65	0.10977057
26	0xbf5fc08f	-0.87403196
27	0x3eedbb33	0.46431884
28	0x3e3b3f23	0.18285803
29	0x3bc37cac	0.00596579
30	0xbd453ce1	-0.04815376
31	0xbde6e9ae	-0.112750396
32	0x3cb3e98b	0.021961948
33	0x3eed774e	0.46380085
34	0x3d6ab3a5	0.05730023
35	0x3d966ceb	0.07344993
36	0x3ef9c61a	0.48783952
37	0x3cb849fa	0.022496212
38	0xbb732a1b	-0.0037103954
39	0x3d182f91	0.037154738
40	0xbcea2f55	-0.028587023
41	0x3eacdc19	0.3376167
42	0xbe005013	-0.12530546
43	0x3dd1d454	0.102455765
44	0xbba1e395	-0.00494046
45	0xbe8f8071	-0.2802768
46	0xbe756127	-0.23962842
47	0xbd86d253	-0.06583085
48	0x3e83f86d	0.2577547
49	0x3e11943b	0.14216702
50	0xbee5ffb0	-0.44921637
51	0xbe9dce5b	-0.308215
52	0x3de3b714	0.11118904
53	0x3d75695a	0.059914924
54	0x3da65432	0.08121528
55	0x3fd51a21	1.6648599
56	0xbe2b96d7	-0.1675676
57	0x3dc49c5b	0.09600135
58	0xbf101865	-0.56287223
59	0x3e910123	0.2832118
60	0x3f16fad9	0.58976513
61	0x3e374165	0.1789604
62	0xbf4fa1f4	-0.81106496
63	0x3e5fb549	0.21846499
64	0x3d81199a	0.06303711
65	0xbe17fb74	-0.14842016
66	0x3dec49b7	0.115374975
67	0xbc630b20	-0.013857633
68	0xbd9b4db9	-0.07583184
69	0xbf5ffde8	-0.87496805
70	0x3e65eb8b	0.22453134
71	0x3e2ad592	0.16683033
72	0x3d7bae7b	0.061445694
73	0x3beb93b4	0.0071892384
74	0x3e326639	0.17421807
75	0x3e8a9267	0.2706482
76	0x3f620d37	0.88301414
77	0x3e50b39c	0.20381016
78	0x3efc0ef6	0.49230164
79	0xbd161d01	-0.036648754
80	0xbe30c217	-0.1726154
81	0xbda33cd0	-0.079705834
82	0x3e5cfd12	0.21580914
83	0xbddac4c3	-0.106820606
84	0x3d7dcb12	0.06196124
85	0x3d1ae66f	0.037817415
86	0xbd9921c3	-0.07477143
87	0xbdd40843	-0.10353138
88	0xbe8e95b3	-0.27848586
89	0xbf29d526	-0.66340864
90	0xbe4cb820	-0.19992113
91	0xbe8d9d05	-0.2765886
92	0x3ec0d433	0.37661895
93	0xbd5864f9	-0.05283067
94	0xbe8b468f	-0.2720227
95	0xbe831ed8	-0.2560947
96	0x3ea6048c	0.32425344
97	0x3dd3eeae	0.10348259
98	0xbef35411	-0.47525075
99	0x3d5dd7f3	0.054161023
100	0xbc386f38	-0.011256985
101	0xbd9355f7	-0.07194131
102	0xbf16f0b8	-0.5896106
103	0xbe465e02	-0.19371799
104	0x3e08cfcd	0.1336052
105	0xbe34d971	-0.17661072
106	0x3edcbdcd	0.43113557
107	0x3f2f4cc0	0.68476486
108	0xbe90efc9	-0.28307942
109	0x3df75a5e	0.12077783
110	0x3f48f467	0.7849793
111	0x3dbdebe2	0.09273507
112	0xbe19a32e	-0.15003654
113	0x3d99dc5f	0.075127356
114	0x4067fb76	3.624723
115	0xbe65699d	-0.2240357
116	0xbde6efea	-0.11276229
117	0x3e432db0	0.19060397
118	0x3dddd4ae	0.10831581
119	0x3d394b0b	0.045237582
120	0xbdf4d6ba	-0.11955018
121	0x3e5995d6	0.21248564
122	0xbf3a4e8f	-0.7277612
123	0x3d4d915f	0.050187465
124	0xbe228916	-0.15872607
125	0x3e7ee92c	0.24893636
126	0x3e9a4aeb	0.30135283
127	0x3ea73832	0.3266006
128	0xbc5e5e81	-0.013572336
129	0x3da7f516	0.08201043
130	0x3d9159d5	0.07097212
131	0x3db45a61	0.08806301
132	0xbecc198a	-0.39863235
133	0x3ccf8af2	0.025334809
134	0xbe7a652c	-0.24452657
135	0xbff7ac83	-1.9349521
136	0x3ea7ecf1	0.3279796
137	0x3b3ac155	0.0028496583
138	0x3e080e67	0.13286744
139	0x3e59d824	0.21273857
140	0xbe9f4268	-0.3110535
141	0x3e1cafd1	0.15301444
142	0x3e77a1d4	0.24182826
143	0x3d8218b0	0.06352365
144	0xbe680918	-0.22659719
145	0x3db50c40	0.08840227
146	0xbd4cb122	-0.049973615
147	0xbe33e621	-0.17568256
148	0x3d12e861	0.035866145
149	0xbab634b8	-0.001390121
150	0x3e7a4803	0.24441533
151	0xbe47a813	-0.19497709
152	0x3f80ac97	1.005267
153	0x3e3ab8dd	0.18234582
154	0xbe953837	-0.2914445
155	0xbcb471ab	-0.022026857
156	0xbd0fdeae	-0.035124473
157	0x3e1a2660	0.15053701
158	0x3cc3f3e7	0.023920013
159	0x3e8938df	0.26801202
160	0xbb8113b0	-0.0039391145
161	0x3ec6a8d8	0.38800693
162	0xbf25e32e	-0.64799774
163	0xbd20a482	-0.039219387
164	0x3dcaf4bc	0.09909961
165	0x3f85f029	1.0463916
166	0x3e9827d0	0.29717875
167	0xbd3a3bdc	-0.045467243
168	0x3e2b1c97	0.16710125
169	0xbec8e214	-0.39234984
170	0x3db70812	0.08937086
171	0x3e3c2563	0.18373637
172	0xbe0aa8d4	-0.13540965
173	0x3d97f220	0.074192286
174	0x3e742382	0.2384167
175	0x3c351274	0.011051763
176	0x3ebe8619	0.37211683
177	0x3f2c83bc	0.6738851
178	0xbccbc47f	-0.02487397
179	0x3e28e209	0.16492476
180	0x3e26446c	0.16237038
181	0xbe748424	-0.23878533
182	0xbe04d227	-0.12970792
183	0x3d896e29	0.067104645
184	0x3c471e05	0.012153153
185	0x3e803bae	0.25045532
186	0xbe491393	-0.19636373
187	0xbd2fafc1	-0.04289222
188	0xbdb5f5b7	-0.08884757
189	0xbe0a1faa	-0.13488641
190	0xbe95ad0d	-0.2923359
191	0xbf236c78	-0.63837385
192	0xbbbb39a7	-0.00571366
193	0xbe79c3ea	-0.24391142
194	0xbce8811b	-0.028381875
195	0xbd8b7ee5	-0.068113126
196	0x3faaef63	1.3354305
197	0x3fba92ee	1.4576089
198	0x3d9ef76e	0.07762037
199	0x3d20c6d5	0.03925212
200	0x3d28e8e1	0.041237716
201	0x3d757e63	0.059934985
202	0xbe94e6d1	-0.2908235
203	0xbcc1876c	-0.023624144
204	0x3e828ca9	0.2549794
205	0x3f12dc66	0.5736755
206	0xbcbb4c35	-0.022863487
207	0xbe217a80	-0.15769386
208	0x3e36d1cb	0.17853467
209	0xbc258bf2	-0.010104166
210	0x3d629df6	0.055326425
211	0xbe0f6016	-0.14001498
212	0xbd4eac45	-0.050457258
213	0x3ea17efc	0.31542194
214	0xbd9135a3	-0.070903085
215	0x3e2c8fb9	0.16851701
216	0x3d1b7c0f	0.03796011
217	0x3e698bc6	0.22807226
218	0xbe7ae0b0	-0.24499774
219	0x3e93f240	0.2889576
220	0x3e134c28	0.1438452
221	0xbf4f885d	-0.8106745
222	0xbf0c25c3	-0.5474512
223	0xbd2c4742	-0.042060144
224	0x3d9077e8	0.0705412
225	0xbea2de0c	-0.31810033
226	0xbe179a7c	-0.14805025
227	0x3f37cae0	0.7179394
228	0x3e740bfb	0.23832695
229	0xbf150874	-0.58216023
230	0xbe57b52c	-0.21065205
231	0x3e2a995a	0.16660061
232	0x3e844c7e	0.2583961
233	0x3f275784	0.65367913
234	0x3ea6aee6	0.32555312
235	0x3e101844	0.14071757
236	0xbf18ef65	-0.5974029
237	0x3e97e171	0.29664186
238	0xbf4df4ab	-0.8045146
239	0x3c800566	0.015627574
240	0xbd5721fd	-0.052522648
241	0xbd581d52	-0.052762337
242	0xbebf87a1	-0.37408164
243	0x3f250b58	0.64470434
244	0x3e52b962	0.2057853
245	0x3e0806f5	0.13283904
246	0xbd83e175	-0.06439487
247	0xbb861fd3	-0.004093149
248	0xbec73b14	-0.3891226
249	0x3c90e054	0.017685093
250	0xbf3179fb	-0.6932675
251	0xbd678643	-0.056524526
252	0xbf21b315	-0.6316388
253	0x3e36da57	0.17856728
254	0x3e305b64	0.17222363
255	0xbddb68ee	-0.10713373

fc2.bias f4 [300]
0	0x3e5de720	0.21670198
1	0x3d1e4900	0.038643837
2	0x3c8c9800	0.017162323
3	0x3bc523a9	0.006016214
4	0xbcf4a512	-0.029863868
5	0x3dd8769b	0.10569497
6	0x3d146e91	0.036238257
7	0x3e13f117	0.14447437
8	0xbcf5cb6b	-0.030004224
9	0x3e40363b	0.18770687
10	0x3de8827f	0.11353015
11	0xbd43f09e	-0.047836892
12	0x3c85359a	0.01626091
13	0x3e022772	0.1271036
14	0x3bd4480c	0.006478315
15	0x3e74dbcb	0.2391197
16	0x3e4efcfd	0.20213695
17	0x3d18deda	0.037321903
18	0x3e643e43	0.22289376
19	0x3e4296e4	0.19002873
20	0x3b59208e	0.0033130976
21	0x3e037dd8	0.12840974
22	0x3e1d7a22	0.15378621
23	0x3e5b180f	0.21395896
24	0x3c1c69a4	0.009546671
25	0xbc535e7e	-0.012900947
26	0xbca3a206	-0.01997472
27	0x3e765adc	0.24058098
28	0x39ff2df7	0.00048671637
29	0xbd1de353	-0.03854687
30	0x3e54099d	0.20706792
31	0x3e428220	0.18994951
32	0x3c9edbfb	0.019392004
33	0x3e193802	0.14962772
34	0x3dc43ea9	0.09582264
35	0x3de266ee	0.110547885
36	0x3e16bfd9	0.14721622
37	0x3e0b12e5	0.13581426
38	0x3e64ce0a	0.22344223
39	0x3cb5dc7d	0.022199864
40	0xbc70a20a	-0.014687071
41	0x3e21e53e	0.15810105
42	0x3def5f22	0.11688067
43	0xbd5889f6	-0.052865945
44	0x3bcd268d	0.006260699
45	0x3b5168bb	0.0031953293
46	0x3ce859f5	0.028363207
47	0xbab320f8	-0.0013666442
48	0xbc4b3145	-0.0124018835
49	0x3d05bfb0	0.03265351
50	0xbcc933a2	-0.024560753
51	0x3e08fb22	0.1337705
52	0xbd19ad85	-0.037518997
53	0x3e3980b3	0.18115501
54	0xbd2d2d96	-0.042279802
55	0x3ec4315c	0.38318908
56	0x3e906f24	0.28209794
57	0x3e085191	0.13312365
58	0x3d544963	0.0518278
59	0x3edff587	0.4374201
60	0x3e2c8cab	0.16850536
61	0xbd689efd	-0.056792248
62	0xbcdc19f2	-0.02686784
63	0x3e417db8	0.18895614
64	0xbd4467cc	-0.04795055
65	0x3e0ba5f5	0.13637526
66	0x3aa9b6d6	0.0012948166
67	0x3e34ac34	0.17643815
68	0x3bcb97aa	0.006213148
69	0x3e09ab04	0.13444144
70	0x3dac1036	0.084015295
71	0x3e255419	0.16145362
72	0xbca747f4	-0.020420052
73	0xbc366493	-0.011132377
74	0x3e4c82ca	0.19971767
75	0xbd23edec	-0.04002182
76	0x3d69a661	0.057043437
77	0xbdad8b39	-0.0847382
78	0x3c7fca2b	0.015612165
79	0x3e0f4f6f	0.13995145
80	0x3e41ecaf	0.18937944
81	0x3e1f8bc3	0.15580659
82	0xbd15aaa6	-0.036539696
83	0x3c6a9170	0.014316902
84	0x3f05d81c	0.5228288
85	0x3e5d2292	0.21595219
86	0x3e51d714	0.20492202
87	0x3e454043	0.19262795
88	0xbc946d58	-0.018118545
89	0x3e19354f	0.14961742
90	0x3ebaec66	0.36508483
91	0x3e0de34c	0.13856238
92	0x3e06a4a7	0.13148747
93	0x3d3df8e1	0.046379928
94	0x3e4302b4	0.19044
95	0x3c8c794b	0.01714768
96	0xbd18fd12	-0.03735072
97	0xbd346144	-0.044038072
98	0xbc15dbec	-0.009146672
99	0x3e7242db	0.23658316
100	0xbd4b2d1d	-0.04960357
101	0xbd3a72d4	-0.045519665
102	0xbc0feea6	-0.008784926
103	0x3ddd33cb	0.10800894
104	0xbd2a2e1f	-0.04154789
105	0x3c85e506	0.016344558
106	0x3e15556b	0.14583366
107	0x3df4c1e4	0.11951044
108	0x3e28b5c2	0.16475585
109	0x3e3efff1	0.18652321
110	0x3dd43764	0.103621274
111	0x3df82fe7	0.12118512
112	0x3e1bf195	0.15228875
113	0xbd4d33bd	-0.05009817
114	0x3ec1043c	0.37698543
115	0xbbf37eec	-0.0074309018
116	0x3e44fe8b	0.19237725
117	0x3e3ea870	0.18618941
118	0x3e29dbf2	0.16587809
119	0xbbb1ca71	-0.005425744
120	0x3e7bfdac	0.24608487
121	0x3e78084d	0.24221916
122	0xbcbf7f06	-0.023376
123	0x3d301528	0.042988926
124	0x3e0cdbab	0.13755672
125	0x3e230050	0.15918088
126	0x3c922cc9	0.01784362
127	0x3e1fff07	0.15624629
128	0x3dde105f	0.10842966
129	0x3e25be44	0.16185862
130	0x3b179c27	0.0023133846
131	0x3e205f88	0.15661442
132	0x3b431ebe	0.0029772962
133	0x3e7aa3c9	0.24476542
134	0x3eb6101f	0.35559174
135	0xbc7cc86e	-0.015428646
136	0xbb9e5dec	-0.0048329737
137	0x3e180363	0.14845042
138	0xbd4aa9f6	-0.049478494
139	0x3e313131	0.17303921
140	0xbcc5e111	-0.024155172
141	0x3e1cbc18	0.15306127
142	0x3dcf782b	0.10130342
143	0x3c09e2f8	0.00841593
144	0x3e23325b	0.15937178
145	0x3e2f15b1	0.17098118
146	0xbd50cd92	-0.050977297
147	0x3d14242a	0.0361673
148	0x3bdb3566	0.006689715
149	0x3e133d1f	0.14378785
150	0x3ea451ab	0.32093558
151	0xbd414967	-0.047189143
152	0x3dd0ba55	0.1019179
153	0x3c84ea96	0.01622514
154	0x3e0a1ecc	0.1348831
155	0xbcae54d2	-0.02128068
156	0x3e3960b1	0.18103291
157	0xbd45483b	-0.048164587
158	0xbd0b7391	-0.03404576
159	0x3e57d0c0	0.21075726
160	0x3e24551f	0.16048096
161	0x3e227316	0.15864214
162	0xbd05f515	-0.03270443
163	0xbcf60a00	-0.030034065
164	0x3e339853	0.17538576
165	0x3e966d69	0.29380348
166	0x3e583aa8	0.21116126
167	0x3e611a51	0.21982695
168	0x3e7387eb	0.23782317
169	0x3e0fedad	0.1405551
170	0x3ca82fd0	0.020530611
171	0xbc705249	-0.014668056
172	0x3c8fd512	0.017557655
173	0x3e99ccf7	0.30039188
174	0x3cf4895f	0.02985066
175	0xbd3b041f	-0.045658227
176	0x3dff6a77	0.124714784
177	0x3e3d1de0	0.18468428
178	0xbd03e0fe	-0.03219699
179	0x3e17a05d	0.14807267
180	0x3e8c2a9d	0.2737626
181	0x3d083e17	0.03326234
182	0x3e7ef24e	0.2489712
183	0xbb599226	-0.0033198684
184	0x3e037fdf	0.12841748
185	0xbc197791	-0.009366886
186	0x3e0f9284	0.14020735
187	0x3e4ca6a2	0.1998544
188	0x3e48d1dc	0.19611305
189	0x3cefb7db	0.029262474
190	0xbd26e3d1	-0.040744606
191	0x3e0caa6f	0.1373689
192	0xbd5fa12f	-0.054597076
193	0xbd078f6f	-0.033095773
194	0x3e277ab1	0.16355397
195	0x3e0d64b0	0.1380794
196	0x3e1d0bb0	0.1533649
197	0x3e7a8df0	0.24468207
198	0xbb89bae9	-0.0042031896
199	0x3e71579d	0.23568578
200	0xbd42929c	-0.0475031
201	0x3e171bda	0.14756718
202	0x3e21e5b8	0.15810287
203	0x3b51db15	0.0032021452
204	0x3e3c2feb	0.18377654
205	0x3e295602	0.16536716
206	0x3e3bbb3c	0.18333143
207	0x3e734f0f	0.23760627
208	0x3e266a08	0.16251385
209	0xbceb07fc	-0.02869033
210	0xbcecf9b9	-0.02892767
211	0x3ded887f	0.115983
212	0x3dc67730	0.09690702
213	0x3e8fbe2d	0.2807478
214	0x3e319e52	0.1734555
215	0x3e03a521	0.1285596
216	0x3c0cb9b8	0.008589201
217	0x3e69c734	0.22829896
218	0xbcdd06e9	-0.026980834
219	0x3e184615	0.14870484
220	0x3e4dc6df	0.20095395
221	0x39b0d57b	0.0003372839
222	0x3e3c4c85	0.18388565
223	0x3b94360e	0.0045230454
224	0x3eaf6d94	0.3426329
225	0x3e322e71	0.17400528
226	0x3e51be8c	0.20482844
227	0x3e23cb9b	0.15995638
228	0x3d73f763	0.0595621
229	0x3e2c0c73	0.16801624
230	0x3e3ced0f	0.18449806
231	0x3e308b45	0.17240627
232	0x3e00e395	0.12586816
233	0x3bf9af24	0.0076197553
234	0xbd24d80f	-0.040245112
235	0x3e17073d	0.14748855
236	0x3ea7e1d3	0.32789478
237	0xbd7874e2	-0.060658343
238	0xbd12e2a3	-0.03586067
239	0x3ed895f7	0.42301914
240	0x3e22db36	0.15903935
241	0x3e62398d	0.22092266
242	0x3e2b80e7	0.16748391
243	0x3f04978f	0.5179376
244	0x3e6661e3	0.22498278
245	0x3e17cd3f	0.14824389
246	0x3ee65004	0.44982922
247	0x3e4b7d44	0.19872004
248	0x3d154224	0.03644003
249	0xbd37b101	-0.04484654
250	0x3e160702	0.14651111
251	0x3e334cc5	0.17509754
252	0xbce8aafc	-0.028401844
253	0xbb5081fa	-0.0031815753
254	0x3daf8423	0.08570125
255	0x3de7abd0	0.113120675

v.weight f4 [1, 300]
0	0x3f38d8f3	0.7220604
1	0x3ca4a0fb	0.020096293
2	0xbf0e6ba6	-0.5563301
3	0x3c035fed	0.008018476
4	0x3c73a229	0.014870205
5	0x3e2fbeea	0.17162672
6	0xbcc54081	-0.02407861
7	0x3e1d57da	0.15365544
8	0x3b21a239	0.0024663343
9	0xbf598176	-0.84963167
10	0xbf6a5541	-0.9153634
11	0x3c9be5a2	0.019030396
12	0xbca69eed	-0.020339454
13	0x3e4815cd	0.19539566
14	0xbd1e74d6	-0.038685642
15	0xbf993a96	-1.1971004
16	0xbf6f9440	-0.93585587
17	0xbc52e708	-0.012872465
18	0xbf8d4109	-1.1035472
19	0x3e12692c	0.14297932
20	0x3d38deb0	0.045134246
21	0x3e52d4fa	0.20589057
22	0x3e513317	0.20429645
23	0xbf5a2058	-0.852056
24	0xbf329d26	-0.6977104
25	0xbd0074dc	-0.031361446
26	0xbc1b84f5	-0.009492149
27	0x3f277746	0.6541637
28	0x3d320420	0.043460965
29	0xbedd2b86	-0.43197268
30	0x3e1e95b6	0.15486798
31	0xbf291ab2	-0.6605636
32	0x3d1bc55f	0.038030025
33	0x3dc55e44	0.0963712
34	0xbf34fa09	-0.70694023
35	0x3e2802c1	0.164073
36	0xbf96e30a	-1.1788037
37	0x3e2efce5	0.17088659
38	0x3e309e53	0.17247896
39	0x3b8c2faa	0.004278143
40	0x3d65dc53	0.05611832
41	0x3e62d0b1	0.22149922
42	0x3dea484d	0.114395715
43	0xbbc6d5bf	-0.006067961
44	0xbcdc3cf9	-0.026884543
45	0x3cc24436	0.023714166
46	0xbf57f1e7	-0.8435349
47	0xbc41dd99	-0.011832618
48	0xbc8c9b8c	-0.017164014
49	0xbd38df75	-0.04513498
50	0xbb4a14e0	-0.0030835196
51	0x3e3039ab	0.17209499
52	0xbc9fe2d8	-0.019517347
53	0x3e4b2001	0.19836427
54	0xbd273130	-0.040818393
55	0xc00ed289	-2.2316
56	0xbf6a24f8	-0.9146266
57	0x3de18c46	0.11013083
58	0xbf398434	-0.7246735
59	0xbf780050	-0.96875477
60	0x3e157aac	0.14597577
61	0xbb8aed35	-0.004239703
62	0x3ceefb38	0.029172525
63	0x3e2e8714	0.17043716
64	0x3d3fd5ee	0.04683488
65	0x3e3eb5ce	0.1862404
66	0xbd22d53f	-0.03975415
67	0x3e1353db	0.14387457
68	0xbf2e8aa9	-0.6818033
69	0xbf0919d0	-0.5355501
70	0xbf1ecfd8	-0.62035894
71	0x3e1da93b	0.15396588
72	0xbefa777e	-0.4891929
73	0x3c08520a	0.008320341
74	0x3e39a853	0.18130617
75	0xbcd51932	-0.02601299
76	0xbf105d49	-0.5639234
77	0xbe80a2e5	-0.2512428
78	0x3c5bada9	0.013408103
79	0x3e4e1a07	0.20127116
80	0xbf27e713	-0.65586966
81	0xbf89be1d	-1.0761143
82	0xbc056aef	-0.008143171
83	0xbf0f70a0	-0.5603123
84	0xc00eb96e	-2.2300677
85	0x3e5c73b6	0.21528515
86	0x3f4b736a	0.7947298
87	0x3dd0f513	0.10202994
88	0xbc3f34bb	-0.011670287
89	0xbf2a8b27	-0.6661858
90	0xbfab01ea	-1.3359959
91	0x3e131d04	0.14366537
92	0x3e27ee28	0.16399443
93	0x3aa5ce44	0.0012649973
94	0x3e05e3f9	0.13075246
95	0x3ceaf662	0.028681938
96	0x3bad0031	0.005279564
97	0x3c41b018	0.011821769
98	0x3d2fa5dc	0.042882785
99	0xbf3f079e	-0.74621
100	0x3d23f9c2	0.04003311
101	0x3c02ad87	0.007975942
102	0xbc852da4	-0.016257115
103	0xbf52acf1	-0.8229514
104	0xbf260e17	-0.6486525
105	0xbad870e7	-0.001651314
106	0x3e1a70f1	0.15082146
107	0x3e50c2c1	0.20386793
108	0x3e179d55	0.14806111
109	0x3e582944	0.21109492
110	0x3e2d62a8	0.16932166
111	0x3e43fdd9	0.19139804
112	0x3e4a8f6e	0.19781277
113	0xbd06f005	-0.032943744
114	0xbfeed20c	-1.8657851
115	0xbd152785	-0.036414642
116	0x3e1f8dbc	0.15581411
117	0x3e194a82	0.14969829
118	0x3e0f3ea3	0.13988738
119	0x3b0aa205	0.00211537
120	0xbf56701b	-0.8376481
121	0xbf37b27a	-0.7175671
122	0xbcfd2b01	-0.030904295
123	0x3d3fdd68	0.04684201
124	0xbf305bbc	-0.68889976
125	0x3e02a918	0.12759817
126	0x3b88cf41	0.004175097
127	0x3f75dee6	0.9604324
128	0xbf2d3d9d	-0.6767214
129	0x3e2488ea	0.16067854
130	0xbf0afadc	-0.5428903
131	0xbf5696c8	-0.83823824
132	0xbe4b7b97	-0.19871365
133	0xbf869f1c	-1.0517306
134	0xbfb17242	-1.3862994
135	0xbd568891	-0.052376334
136	0xbc24705b	-0.010036553
137	0x3e55ddac	0.20885342
138	0xbcb8285f	-0.022480188
139	0x3e4feb1c	0.20304531
140	0xbd2a9fbd	-0.041656245
141	0x3e657814	0.22409087
142	0x3e4724b6	0.19447598
143	0xbb79e1f1	-0.0038129056
144	0x3e754962	0.23953775
145	0x3e53040e	0.20607015
146	0x3cd73e77	0.026274903
147	0x3d50c737	0.050971236
148	0xbf38285b	-0.7193658
149	0x3e27802b	0.16357486
150	0xbf2334ae	-0.6375226
151	0x3cca12b8	0.024667129
152	0xbf01902c	-0.50610614
153	0x3ca4a6b7	0.020099027
154	0xbfb6d774	-1.4284501
155	0xbab5dbcf	-0.0013874712
156	0x3e3f7e37	0.18700491
157	0x3ca03224	0.019555159
158	0x3c90d03e	0.017677423
159	0x3e321175	0.17389472
160	0xbf2fe5e4	-0.6871016
161	0x3df5f5ea	0.12009795
162	0x3b41e64e	0.0029586735
163	0xbd2e78f8	-0.042595834
164	0xbf8456c8	-1.0338984
165	0xbf9cd76f	-1.2253245
166	0xbf24dd30	-0.64400005
167	0x3e3475a7	0.17623006
168	0xbf3105b3	-0.6914932
169	0xbf33cb0b	-0.70231694
170	0xbee57fa2	-0.4482394
171	0xbd300656	-0.042974792
172	0xbf1ab24b	-0.60428303
173	0x3f5272bd	0.82206327
174	0x3cc47dfe	0.023985859
175	0x3d1f3a5a	0.038874008
176	0xbf57df50	-0.8432512
177	0x3e117e4d	0.14208336
178	0x3d2e5abc	0.042567
179	0xbf3b5c2f	-0.73187536
180	0xbf1e5174	-0.6184304
181	0xbc247669	-0.010037997
182	0xbf20cfc4	-0.62817025
183	0xbca1a44d	-0.019731665
184	0xbf436e0d	-0.763398
185	0xbbb099c8	-0.005389426
186	0x3de2e69b	0.11079141
187	0x3e46b7b4	0.19406015
188	0xbf2102cb	-0.62894887
189	0xbb35df1e	-0.0027751396
190	0xbd0b7fd4	-0.034057453
191	0x3dbf9072	0.09353723
192	0xba719973	-0.0009216286
193	0xbbbc7b8b	-0.005752032
194	0x3e4163aa	0.18885675
195	0x3e53bfef	0.20678686
196	0xbf8034a9	-1.0016071
197	0xbf5d73ac	-0.86504626
198	0xbad9317f	-0.0016570537
199	0xbfa9bc51	-1.3260595
200	0xbc0c7aa4	-0.008574162
201	0x3e3e4f67	0.18584977
202	0x3e5a7efb	0.21337502
203	0x3d058097	0.032593336
204	0xbf88601d	-1.0654331
205	0x3e5369d9	0.20645846
206	0x3e323593	0.1740325
207	0x3f56a23e	0.8384131
208	0xbe8ea2a8	-0.27858472
209	0xbd0d26e3	-0.034460913
210	0x3d1173d4	0.035510853
211	0x3e27b710	0.16378427
212	0x3e4d1baf	0.20030092
213	0xbf2fa424	-0.68609834
214	0x3e2d135b	0.16901915
215	0x3da45856	0.08024661
216	0x3d30693a	0.043069102
217	0xbf3a3f5c	-0.7275293
218	0x3d1c8ade	0.03821837
219	0x3e389dfc	0.18029016
220	0xbfb1f407	-1.3902596
221	0xbc0d1656	-0.008611282
222	0xbf7f9654	-0.9983876
223	0xbc227432	-0.009915398
224	0xbf929491	-1.1451589
225	0x3f4d2610	0.80136204
226	0x3e5dd482	0.21663097
227	0x3e24ce0a	0.16094223
228	0xbee03eef	-0.43798015
229	0x3e37eae0	0.17960691
230	0x3e30b756	0.17257437
231	0x3e159b4c	0.14610022
232	0x3e531717	0.20614277
233	0x3d124092	0.03570611
234	0xbcff9fa0	-0.031204045
235	0xbf5621f3	-0.8364555
236	0xc015b72e	-2.3393054
237	0x3cdeb34b	0.027185103
238	0xbc6be1cb	-0.014397095
239	0xbfb168d6	-1.3860118
240	0xbf25daf9	-0.6478725
241	0xbf2ce46b	-0.6753604
242	0x3e5a8882	0.21341136
243	0xbff134d0	-1.8844242
244	0xbf81ae8d	-1.0131394
245	0x3e3ca25f	0.18421315
246	0xbfd0ccde	-1.631252
247	0xbf984d92	-1.1898673
248	0x3cca31d7	0.024681969
249	0xbc09bfeb	-0.008407573
250	0x3e3b9c10	0.18321252
251	0xbf64ca89	-0.89371544
252	0x3c7082be	0.014679609
253	0xbe99a7ca	-0.30010825
254	0xbf63eb67	-0.8903107
255	0xbefa0b78	-0.48836875
