SAC_own_hardcore/sac/critic_2_sac.pth (torch, 531386 bytes, 5 tensors)

fc1.weight f4 [400, 28]
-0.054247648 -0.20947245 0.7197967 -0.64061534 -0.26876846 -0.41792992 0.018088648 -0.33926865
0.14934243 -0.37585548 -0.010775506 -0.41013816 -0.088516146 0.183531 0.40987787 0.33087447
0.27152514 0.0028844555 -0.23556985 -0.18641107 -0.30589652 0.055455495 -0.049239315 0.06644904
-0.009212935 0.11918883 -0.228195 0.11474558 0.17126113 0.3817448 -0.38894883 -0.45977008
-1.2148685 -0.54191804 -0.7248916 -0.48456094 -0.07001467 0.5737182 0.19487219 0.673623
-0.15198189 0.0036773437 0.10189223 0.28746256 0.22582205 0.3384776 -0.091077186 -0.21130875
-0.27041385 -0.49947804 -0.2676445 -0.25237995 -0.13370019 -0.05606121 -0.2223672 0.23771545
-0.07481852 -1.0822465 0.65288544 -0.066140175 -0.099659726 -0.2945264 0.45353007 -0.025325516
0.056757607 -0.20360439 -0.015495134 -0.13073958 0.008181238 0.19362274 0.47330844 0.4226798
0.149486 -0.25023982 -0.07901814 -0.085002 -0.3674694 -0.014579528 0.013178421 -0.011232573
-0.0114266565 -0.20207049 0.081107 0.11776085 -0.0170636 -0.046350718 -0.68950874 0.7225503
-0.7038884 -0.4533916 0.33721074 0.09565709 0.37041938 0.580099 0.1009249 0.27105686
0.085766636 0.3403832 -0.59033865 -0.2994057 0.016712165 0.18330236 0.09107462 -0.12932774
-0.52963156 -0.3716046 -0.42202747 -0.010174557 -0.058348328 -0.27626362 0.20736204 0.06118308
-0.75870657 -0.7969012 -0.36931965 0.15927245 -0.104400635 -0.28231406 0.22638495 0.45429024
-0.34701788 0.48563528 0.18468738 0.16892092 0.0036449553 0.20235005 0.48833328 -0.13519591
-0.08681641 -0.11233857 -0.05747165 -0.0035252955 -0.09909031 -0.13330044 -0.10978742 -0.30135968
-0.20500395 0.32410082 0.10310278 -0.6691884 -0.5290629 -0.6359176 0.2648516 -0.58415127
0.053162288 -0.16658743 -0.40253493 -0.03905627 -0.13062462 -0.46523455 0.22308032 0.027507652
0.15157014 -0.28549728 0.077874154 -0.092562154 0.09382286 -0.039989002 0.33637533 0.21739763
0.16207653 0.15648054 0.20321813 0.13011733 0.014014657 0.1576531 -0.007035267 0.0034703552
-0.40809354 -0.8943753 0.35082614 -0.6989059 -0.3217496 -0.29981756 -0.12933202 -0.13140777
0.01154512 -0.36187986 0.3108694 -0.0015121055 0.09978047 0.2039496 0.87880826 0.87404096
0.19974127 0.11531083 -0.093722105 -0.15679714 -0.2660313 0.036965813 0.027464116 0.30448884
-0.36086386 0.22156163 -0.060324423 0.13796258 0.1054979 -0.21469392 -0.5646109 -0.3655605
-0.22776803 0.3015006 -0.04941174 0.1298013 -0.029767957 -0.08940304 -0.2823894 -0.041281227
-0.12962064 -0.1335175 0.03613826 -0.046782978 0.17848466 -0.022862129 -0.10710229 -0.19597805
-0.07711308 0.026456933 -0.33075932 0.13425829 0.18618989 0.046988074 0.07996745 0.08385332
0.06922855 -0.10522125 0.15484814 -0.37985012 -0.30724683 0.06647048 0.22903797 -0.08859366
-0.15446742 -0.06767411 -0.16679837 -0.25603002 -0.15615666 -0.26430032 0.053741716 0.17456186
0.15166219 0.00295835 -0.17903414 0.04342755 -0.20101038 -0.23271604 0.12265376 -0.10704726
0.069496915 0.21695876 -0.29726148 -0.02696818 0.66484094 0.83560026 -0.9343302 0.011905398
00000000: c832 5ebd f27f 56be 9944 383f 5eff 23bf
00000010: 059c 89be e9fa d5be a52e 943c 9fb4 adbe
00000020: 39ed 183e 2170 c0be bf8b 30bc a1fd d1be
00000030: f447 b5bd 8def 3b3e 83db d13e 6168 a93e
00000040: 5805 8b3e 2209 3d3b 3939 71be 8be2 3ebe
00000050: 789e 9cbe 4d25 633d 2aaf 49bd 6f16 883d
00000060: daf1 16bc 4619 f43d f3ab 69be bbff ea3d
00000070: 145f 2f3e 0e74 c33e 4d24 c7be fc66 ebbe
00000080: d080 9bbf 24bb 0abf 7f92 39bf 5f18 f8be
00000090: da63 8fbd 32df 123f 938c 473e 8f72 2c3f
000000a0: 24a1 1bbe 97ff 703b e0ac d03d 4b2e 933e
000000b0: e53d 673e f04c ad3e ad86 babd 5261 58be
000000c0: af73 8abe 96bb ffbe b308 89be f237 81be
000000d0: b4e8 08be 70a0 65bd 3ab4 63be ae6b 733e
000000e0: 743a 99bd 0e87 8abf 8023 273f 8074 87bd
000000f0: 661a ccbd 2acc 96be 1835 e83e 7577 cfbc
00000100: aa7a 683d ab7d 50be 4ddf 7dbc 99e0 05be
00000110: 990a 063c 0a45 463e 7c55 f23e 7d69 d83e
00000120: dc12 193e 6f1f 80be 43d4 a1bd 8715 aebd
00000130: f324 bcbe f9de 6ebc 4eea 573c d308 38bc
00000140: df36 3bbc 91eb 4ebe 6d1b a63d 9a2c f13d
00000150: f6c8 8bbc 40da 3dbd a583 30bf 0ef9 383f
00000160: 0832 34bf f222 e8be e3a6 ac3e dde7 c33d
00000170: 9ca7 bd3e 5e81 143f b7b1 ce3d f7c7 8a3e
00000180: 6ba6 af3d b546 ae3e 6f20 17bf b44b 99be
00000190: f3e7 883c 9db3 3b3e 5585 ba3d 7e6e 04be
000001a0: ef95 07bf f542 bebe fc13 d8be 2fb3 26bc
000001b0: a8fe 6ebd 6d72 8dbe b756 543e 1c9b 7a3d
000001c0: 983a 42bf b801 4cbf 7717 bdbe 5118 233e
000001d0: 00d0 d5bd 788b 90be 75d1 673e bb98 e83e
000001e0: 54ac b1be 30a5 f83e b01e 3d3e 9bf9 2c3e
000001f0: 34e0 6e3b da34 4f3e d206 fa3e cc70 0abe
00000200: cdcc b1bd c411 e6bd 6567 6bbd a508 67bb
00000210: dcef cabd e97f 08be 3ad8 e0bd d14b 9abe
00000220: 8eec 51be 8bf0 a53e 8d27 d33d ee4f 2bbf
00000230: ab70 07bf 7fcb 22bf a19a 873e f08a 15bf
00000240: b3c0 593d e595 2abe 0f19 cebe 78f9 1fbd
00000250: 76c2 05be 3933 eebe 2b6f 643e ba57 e13c
00000260: 3435 1b3e b32c 92be 7c7c 9f3d 3a91 bdbd
00000270: 3326 c03d 82cb 23bd 6339 ac3e 7c9d 5e3e
00000280: 64f7 253e 6f3c 203e 6a18 503e 7a3d 053e
00000290: bb9d 653c d06f 213e 1988 e6bb e66e 633b
000002a0: a3f1 d0be c8f5 64bf 7c9f b33e 7feb 32bf
000002b0: 5dbc a4be b081 99be 9d6f 04be c28f 06be
000002c0: be27 3d3c 5148 b9be 462a 9f3e d731 c6ba
000002d0: b459 cc3d 2ad8 503e 94f9 603f 26c1 5f3f
000002e0: fa88 4c3e 1628 ec3d 60f1 bfbd 6e8f 20be
000002f0: 4135 88be 7769 173d 6dfc e03c f6e5 9b3e
00000300: 26c3 b8be 0de1 623e be16 77bd 1046 0d3e
00000310: 480f d83d b9d8 5bbe 578a 10bf bf2a bbbe
00000320: 063c 69be 495e 9a3e f763 4abd a2ea 043e
00000330: eedb f3bc f118 b7bd 5895 90be 8116 29bd
00000340: 46bb 04be d0b8 08be b605 143d 829f 3fbd
00000350: afc4 363e 5c49 bbbc 7258 dbbd 78ae 48be
00000360: 76ed 9dbd 36bc d83c 4959 a9be 017b 093e
00000370: 90a8 3e3e 9176 403d f9c5 a33d 4abb ab3d
00000380: b3c7 8d3d 3d7e d7bd 8390 1e3e b77b c2be
00000390: 754f 9dbe ad21 883d ee88 6a3e 9870 b5bd
000003a0: b52c 1ebe b998 8abd 31cd 2abe 5e16 83be
000003b0: 88e7 1fbe 5f52 87be 4620 5c3d 58c0 323e
000003c0: 554d 1b3e e1e0 413b ba54 37be 16e1 313d
000003d0: aad5 4dbe 1d4d 6ebe e531 fb3d 983b dbbd
000003e0: 6654 8e3d 702a 5e3e a832 98be 5fec dcbc
000003f0: 0433 2a3f e6e9 553f 4430 6fbf dc0e 433c

fc1.bias f4 [400]
0.47862026 0.58185554 0.30953208 0.2342963 -0.057614353 0.02176639 0.79507345 0.21523145
0.28892562 0.03559385 0.78555834 0.14615723 0.007726086 0.23178422 0.4157343 -0.3110641
-0.21901497 -0.23243466 0.030149657 -0.03504537 -0.03251285 -0.14794229 -0.18326053 0.019670038
0.44459662 -0.09023986 -0.23424429 0.2842829 0.10201721 0.045345817 0.55130583 0.5676136
-0.3407034 -0.14373949 0.34774968 -0.4306013 0.3926308 0.303169 0.16676642 0.021667806
-0.31717256 0.12278595 -0.575218 0.47883502 0.58199537 0.3558091 -0.14603484 0.4701417
0.34148908 0.25927323 0.0024707834 -0.030099282 0.41175705 -0.028883805 -0.15029338 0.15076952
-0.004003892 0.31337065 0.015369565 -0.21532343 -0.08751325 0.027809516 -0.06193215 0.08671851
-0.38232893 0.37508172 0.38279182 0.44638574 -0.022553047 -0.31878185 -0.02656718 -0.070549585
0.0033343786 0.20402509 0.30910423 0.19500788 0.021531427 0.4655106 -0.4588171 -0.07583805
0.3547652 -0.3198271 -0.40467277 0.03630834 0.24105865 -0.12322912 0.0036627587 0.16763102
0.45586428 0.39343002 -0.44633645 0.16678038 -0.36606735 0.21957152 0.007341057 0.065227054
-0.11439696 0.13051558 0.07507447 0.14912468 0.21359281 -0.064260446 -0.1725328 -0.5683676
-0.41475868 0.28539702 -0.08794203 0.5050415 0.5568824 -0.12349452 -0.2019581 -0.047362696
0.19597878 -0.15836242 -0.12936784 -0.4457418 -0.040824857 0.18486099 -0.05496834 -0.37070686
-0.007940687 0.07271865 -0.32003814 -0.043405756 -0.14285624 -0.15767859 0.58762676 -0.007991156
0.019708898 0.06570179 0.09101187 0.11985309 0.28444442 -0.13573347 -0.35216817 0.26294976
0.24568298 0.27787453 0.0058651823 0.34114665 -0.3540042 -0.19679914 -0.025257146 0.042533055
-0.13624156 -0.118056335 0.54211384 -0.1682235 0.08836022 0.65499437 0.43272355 -0.12417342
-0.044995468 -0.054728057 0.18889037 -0.05315149 -0.15571634 -0.46054915 0.26887393 -0.2360397
0.12417105 0.25897023 -0.250756 -0.1785292 0.5144488 -0.029502885 -0.5142983 0.45305747
0.24450165 0.17677636 0.402572 0.08211251 0.24439827 -0.001847664 -0.08504865 -0.021235533
0.12305728 0.26225102 -0.1573638 0.28799966 0.12866029 -0.06967495 0.098482415 0.029324535
-0.08978276 0.49971336 0.096182905 0.37413335 0.022227028 -0.15712348 0.14708793 0.018574094
0.24628103 -0.20973177 -0.19073522 0.06542523 0.097386494 -0.09924861 0.026954168 -0.15009046
0.15153058 0.35914698 -0.07854823 -0.26002368 -0.12488675 -0.15302968 0.38487178 0.044230115
-0.23823506 -0.12729248 0.36648455 0.2349 -0.10480547 -0.0023263425 -0.29843634 0.16122541
-0.1060656 -0.22288604 -0.3784194 -0.10135987 -0.06930109 -0.05666082 -0.2269577 -0.18724331
-0.05860937 -0.4614664 0.25678822 0.47823852 0.54850656 0.24734077 -0.22476728 -0.7645125
0.14869113 0.23890789 -0.10825692 0.26046643 -0.070727035 0.30697492 0.20459823 0.009429908
0.113241106 -0.1765012 0.12862486 0.19588855 0.054074585 -0.27765372 0.1711172 0.26342812
0.52725315 -0.2774138 0.3723187 -0.13052024 0.23190022 0.44235563 -0.31989264 0.06631818
00000000: b70d f53e 7cf4 143f fd7a 9e3e 5feb 6f3e
00000010: 07fd 6bbd 6e4f b23c ef89 4b3f a265 5c3e
00000020: 0fee 933e dbca 113d 5a1a 493f 3eaa 153e
00000030: 1b2b fd3b d858 6d3e 20db d43e cb43 9fbe
00000040: 7645 60be 5a03 6ebe 6afc f63c bc8b 0fbd
00000050: 322c 05bd 2f7e 17be a6a8 3bbe 0f23 a13c
00000060: 2ba2 e33e adcf b8bd bcdd 6fbe 878d 913e
00000070: 66ee d03d 89bc 393d 6122 0d3f 204f 113f
00000080: ad70 aebe 7230 13be 3f0c b23e c677 dcbe
00000090: e706 c93e f838 9b3e d1c4 2a3e af80 b13c
000000a0: 7164 a2be 3377 fb3d 7d41 13bf dd29 f53e
000000b0: a6fd 143f 9c2c b63e 288a 15be 6ab6 f03e
000000c0: a8d7 ae3e 76bf 843e deec 213b c592 f6bc
000000d0: d2d1 d23e bb9d ecbc 82e6 19be 5363 1a3e
000000e0: 1533 83bb 1e72 a03e a1d0 7b3c bf7d 5cbe
000000f0: 263a b3bd c8d0 e33c 91ac 7dbd 7999 b13d
00000100: 9ec0 c3be b60a c03e 4afd c33e ac8c e43e
00000110: 2bc1 b8bc 6037 a3be 6aa3 d9bc 4d7c 90bd
00000120: 9785 5a3b f4eb 503e e942 9e3e 25b0 473e
00000130: ad62 b03c 6857 ee3e 13ea eabe fb50 9bbd
00000140: c9a3 b53e 61c0 a3be 4531 cfbe 0eb8 143d
00000150: 14d8 763e 8d5f fcbd e50a 703b 77a7 2b3e
00000160: 0b67 e93e a96f c93e 3686 e4be 7ac8 2a3e
00000170: 2e6d bbbe 5bd7 603e 408d f03b c395 853d
00000180: f448 eabd e0a5 053e a5c0 993d 24b4 183e
00000190: 13b8 5a3e fb9a 83bd 70ac 30be 8a80 11bf
000001a0: 405b d4be 8f1f 923e f31a b4bd 664a 013f
000001b0: d88f 0e3f b2ea fcbd 1bce 4ebe 63ff 41bd
000001c0: a9ae 483e c229 22be 0179 04be 4538 e4be
000001d0: f737 27bd 334c 3d3e 7b26 61bd 4acd bdbe
000001e0: a819 02bc 84ed 943d 0adc a3be 3cca 31bd
000001f0: e848 12be 7f76 21be b56e 163f 56ed 02bc
00000200: 8e74 a13c a98e 863d 6e64 ba3d 8975 f53d
00000210: b3a2 913e b7fd 0abe 634f b4be 5aa1 863e
00000220: 5294 7b3e 9245 8e3e b730 c03b c6aa ae3e
00000230: 0a40 b5be b785 49be 13e8 cebc 2437 2e3d
00000240: e882 0bbe 85c7 f1bd f9c7 0a3f c842 2cbe
00000250: 34f6 b43d b6ad 273f f18d dd3e a24e febd
00000260: 2b4d 38bd 872a 60bd 7a6c 413e 60b5 59bd
00000270: 1b74 1fbe 19cd ebbe d8a9 893e 64b4 71be
00000280: 644d fe3d bf97 843e 1763 80be 5cd0 36be
00000290: ebb2 033f 09b0 f1bc 0ea9 03bf 26f7 e73e
000002a0: a45e 7a3e dd04 353e eb1d ce3e 9b2a a83d
000002b0: 8a43 7a3e 512d f2ba fd2d aebd 24f6 adbc
000002c0: 7505 fc3d c445 863e fa23 21be b174 933e
000002d0: 86bf 033e bdb1 8ebd 26b1 c93d 023a f03c
000002e0: 06e0 b7bd 6eda ff3e 8bfb c43d 688e bf3e
000002f0: 7515 b63c fae4 20be 389e 163e b328 983c
00000300: 1831 7c3e edc3 56be 1850 43be aafd 853d
00000310: 9272 c73d db42 cbbd fdce dc3c 50b1 19be
00000320: d52a 1b3e 1de2 b73e e5dd a0bd d321 85be
00000330: a0c4 ffbd d0b3 1cbe ea0d c53e a32a 353d
00000340: e4f3 73be f658 02be dda3 bb3e a089 703e
00000350: 40a4 d6bd 8d75 18bb a6cc 98be 4618 253e
00000360: ec38 d9bd 3d3c 64be 30c0 c1be c395 cfbd
00000370: bbed 8dbd 2d15 68bd 9967 68be b6bc 3fbe
00000380: 6110 70bd 5345 ecbe bf79 833e aedb f43e
00000390: ed6a 0c3f e646 7d3e 6529 66be 17b7 43bf
000003a0: 7d42 183e 45a4 743e ceb5 ddbd db5b 853e
000003b0: 56d9 90bd d12b 9d3e 3382 513e e77f 1a3c
000003c0: f4ea e73d bbbc 34be 3cb6 033e 0297 483e
000003d0: 507d 5d3d a128 8ebe 5939 2f3e 0de0 863e
000003e0: 10fa 063f 2e09 8ebe 8fa0 be3e 19a7 05be
000003f0: 4077 6d3e 707c e23e f8c8 a3be d3d1 873d

fc2.weight f4 [300, 400]
-0.055786647 -0.0030831092 -0.025830537 -0.042585008 0.037183546 0.01563393 -0.00014228608 -0.05429713
-0.037887752 0.033533305 -0.009719066 -0.008573116 -0.022395855 0.049882013 -0.018758945 0.026709102
0.0138392225 0.011071334 0.009209046 -0.0034824726 0.034445956 0.0036511468 -0.024710447 -0.021785822
0.020156613 0.024878975 0.009221754 -0.009558916 0.017585294 -0.032045245 0.022749271 0.025469104
0.001309755 -0.021065913 0.0023127443 0.009668832 0.012047547 0.0023835178 -0.045489118 -0.03717809
-0.03967985 -0.039034393 0.024920594 -0.0057286327 -0.023324633 0.011277418 0.042671505 -0.05074215
0.03153398 0.04108083 -0.01963184 0.024165398 0.0013640492 -0.021571873 0.03174485 -0.011160887
-0.0070064506 -0.009641252 -0.0071752295 -0.046413213 0.011104351 0.044743728 -0.0088883145 0.011876882
0.024872612 0.030089881 -0.0007846509 -0.01191511 0.03597546 -0.030609887 -0.0295693 0.0024611421
-0.03526842 0.020607872 -0.041442912 0.018962856 0.009000303 0.03763008 -0.04869655 0.022578249
-0.060324166 -0.05556161 0.034170575 -0.012591989 -0.009586146 0.033473957 0.016497646 0.012459981
-0.014127875 -0.039575677 -0.04918014 -0.055145647 0.024054963 -0.037557248 0.014795963 0.030184906
0.01691265 -0.055318777 -0.026032247 -0.046097912 -0.04352807 0.0061335266 0.01808964 -0.04853593
-0.046186604 0.018076686 0.02724364 -0.055473845 -0.04826078 -0.016369073 -0.03187473 0.03189533
0.0036704827 -0.026770681 -0.005302942 0.034312442 -0.0048164707 0.0012100007 -0.061207063 -0.049453147
0.02056861 0.0025492746 -0.04232363 -0.05737885 0.018745894 -0.024454791 0.01905915 0.015034538
0.026691232 -0.018675297 -0.038023353 0.026394783 -0.01286525 0.036373653 -0.01665153 0.015485933
-0.03045227 0.038005233 0.0073495694 -0.038717683 -0.04490157 0.02217528 -0.002622697 -0.055568907
0.03589673 0.016509831 -0.052697107 -0.036903873 -0.06225929 -0.019694064 0.033530366 0.03079426
0.022781443 -0.03506481 0.035879485 -0.002825424 0.02447188 -0.016819753 0.01914457 0.03160189
-0.05191104 0.014283692 0.022085002 0.032536376 -0.020624414 -0.0053577423 -0.033613846 0.0015876826
0.03222503 -0.044171352 -0.03483139 -0.046107184 0.010207793 0.034764376 -0.03321853 -0.04973314
0.010509124 -0.036550336 -0.020937258 -0.03714982 -0.033986133 0.009281017 -0.049859438 -0.016846143
-0.012666812 0.020424083 0.032255642 0.0053686183 -0.0079922015 -0.055055674 0.027611014 -0.03635955
-0.00043474897 -0.0364579 -0.020393303 0.018933069 -0.029770482 -0.0074719125 -0.005834926 0.014262346
-0.03491494 -0.0068762302 0.019504106 -0.04677147 0.03571453 -0.04253017 0.017385377 0.00020068884
-0.019212658 -0.029962858 -0.010708953 0.02082145 -0.04960621 -0.036723785 0.040829267 -0.05056971
-0.027483242 -0.013208821 -0.0076712784 0.04512574 0.01206121 0.0009474158 0.006683504 0.020922376
0.03615725 -0.04786317 0.0030328373 0.016541146 -0.022001958 0.0047485754 -0.041489452 0.03265443
0.015756665 -0.0109697115 -0.052966524 0.04535272 0.021813504 -0.03465785 -0.058968134 -0.034147575
0.01025854 0.004072387 0.028342864 -0.04854036 -0.032242693 0.02306297 -0.032037314 -0.018796653
-0.036941677 -0.0011508013 -0.021593925 -0.0062918733 -0.013733416 0.002179024 0.031760093 -0.014511136
00000000: 8a80 64bd fd0d 4abb 909a d3bc 9e6d 2ebd
00000010: c64d 183d ba12 803c a132 15b9 ab66 5ebd
00000020: 3030 1bbd 385a 093d b83c 1fbc 4176 0cbc
00000030: 8377 b7bc 1551 4c3d 5cac 99bc 0ccd da3c
00000040: e8bd 623c 8a64 353c 8ae1 163c 323a 64bb
00000050: 3417 0d3d 1448 6f3b 906d cabc 2e78 b2bc
00000060: 7b1f a53c fece cb3c d716 173c 009d 1cbc
00000070: 090f 903c e041 03bd ae5c ba3c 95a4 d03c
00000080: 16ac ab3a 6c92 acbc 6991 173b 056a 1e3c
00000090: 1363 453c cb34 1c3b cc52 3abd 0e48 18bd
000000a0: 5787 22bd 87e2 1fbd 4626 cc3c 41b7 bbbb
000000b0: 4d13 bfbc ebc4 383c 51c8 2e3d 00d7 4fbd
000000c0: c629 013d 5f44 283d f4d2 a0bc 83f6 c53c
000000d0: e5c9 b23a 7fb7 b0bc e306 023d 27dc 36bc
000000e0: 5e96 e5bb 58f6 1dbc 301e ebbb c81b 3ebd
000000f0: 06ef 353c 3345 373d 4ba0 11bc 4197 423c
00000100: a6c1 cb3c 0e7f f63c 08b1 4dba 9837 43bc
00000110: 015b 133d 96c1 fabc 513b f2bc 1d4b 213b
00000120: 9e75 10bd d7d1 a83c 0bc0 29bd fe57 9b3c
00000130: 0276 133c 0022 1a3d 0976 47bd 05f6 b83c
00000140: 7916 77bd 9294 63bd 72f6 0b3d a14e 4ebc
00000150: 360f 1dbc fd1b 093d 1226 873c f324 4c3c
00000160: 9a78 67bc 1b1a 22bd 1d71 49bd 67e0 61bd
00000170: ea0e c53c a1d5 19bd c46a 723c 5646 f73c
00000180: 668c 8a3c f195 62bd 9441 d5bc 2ad1 3cbd
00000190: 7d4a 32bd c0fb c83b ba30 943c 9dcd 46bd
000001a0: 2a2e 3dbd 8f15 943c 0e2e df3c 8b38 63bd
000001b0: 18ad 45bd 6f18 86bc 148f 02bd ada4 023d
000001c0: 7b8c 703b 304e dbbc 4dc4 adbb 348b 0c3d
000001d0: 7cd3 9dbb e398 9e3a 42b4 7abd 628f 4abd
000001e0: 807f a83c bb11 273b 8b5b 2dbd 1606 6bbd
000001f0: fd90 993c 6a55 c8bc ef21 9c3c 6c53 763c
00000200: 92a7 da3c f0fc 98bc 60be 1bbd df39 d83c
00000210: c5c8 52bc 8afc 143d ca68 88bc b6b8 7d3c
00000220: 0a77 f9bc 60ab 1b3d a8d4 f03b 6f96 1ebd
00000230: b5ea 37bd efa8 b53c 8ee1 2bbb 399c 63bd
00000240: 7308 133d a03f 873c ecd8 57bd 8428 17bd
00000250: 9903 7fbd 7255 a1bc 2357 093d 3e44 fc3c
00000260: 26a0 ba3c 1ea0 0fbd 5ef6 123d c02a 39bb
00000270: 4179 c83c 94c9 89bc 13d5 9c3c fc70 013d
00000280: aca0 54bd 2606 6a3c 9beb b43c dd44 053d
00000290: 88f4 a8bc 0090 afbb acae 09bd ca19 d03a
000002a0: 65fe 033d 05ed 34bd 5cab 0ebd e3da 3cbd
000002b0: 963e 273c 1765 0e3d 2710 08bd fab4 4bbd
000002c0: 762e 2c3c ceb5 15bd 9d84 abbc 692a 18bd
000002d0: 0b35 0bbd 680f 183c 6939 4cbd ec00 8abc
000002e0: 7688 4fbc 6850 a73c 7e1e 043d 3ceb af3b
000002f0: b9f1 02bc 0f82 61bd 7e30 e23c c0ed 14bd
00000300: 05ef e3b9 e154 15bd db0f a7bc 8619 9b3c
00000310: 3ae1 f3bc f2d6 f4bb e832 bfbb 9dac 693c
00000320: f802 0fbd 0052 e1bb 13c7 9f3c 7193 3fbd
00000330: 6649 123d 1e34 2ebd c76b 8e3c 0070 5239
00000340: dd63 9dbc ab74 f5bc 9b74 2fbc bf91 aa3c
00000350: e22f 4bbd ae6b 16bd 973c 273d 2f22 4fbd
00000360: 8924 e1bc d069 58bc 595f fbbb c5d5 383d
00000370: 629c 453c 005c 783a 4c01 db3b 6765 ab3c
00000380: a019 143d 2c0c 44bd 91c2 463b 4c81 873c
00000390: 733d b4bc f099 9b3b d8f0 29bd a7c0 053d
000003a0: 1f14 813c 4eba 33bc 6df3 58bd c6c3 393d
000003b0: 3cb2 b23c 64f5 0dbd 9288 71bd 54de 0bbd
000003c0: 6f13 283c a871 853b 4b2f e83c 42d2 46bd
000003d0: ea10 04bd 8eee bc3c 8f39 03bd 70fb 99bc
000003e0: 2850 17bd 7cd6 96ba bee5 b0bc 0f2c cebb
000003f0: 1f02 61bc f5cd 0e3b df16 023d 1ec0 6dbc

fc2.bias f4 [300]
-0.037021294 0.08700482 0.2356544 0.11543686 0.046010062 0.14845785 0.15529165 0.025320452
0.12444555 0.22342461 0.15537663 0.1415266 0.1692504 0.20228367 0.19685301 0.082994916
0.18782686 0.1458403 -0.041301046 0.15957747 0.0949592 0.21266888 -0.049207706 0.1513803
-0.0029864248 0.11366189 0.015434722 0.056475915 -0.41017774 0.12189362 0.1455294 0.20172714
0.04619394 0.09167948 0.18208793 0.070960954 0.17411108 0.0011346077 0.21331519 -0.032440186
-0.025208823 -0.0989927 0.16087887 -0.021996116 0.12752275 0.01979082 0.12161479 0.026792428
0.13370639 -0.042596146 0.24081573 0.14686385 0.17142576 0.025181746 0.19404022 0.18375471
-0.034463014 0.07771808 -0.0025183326 -0.0038505965 0.1468318 0.16874897 0.18920736 0.14214574
-0.055747136 0.21125151 0.2524087 0.1874484 0.16181967 0.243262 0.24348055 0.14495829
0.1640942 0.21141443 0.16104886 0.1285452 0.15011413 -0.06167539 0.12076249 0.16935316
0.6560689 0.19286598 0.109416015 0.24137221 0.018064748 -0.009030624 0.23109104 0.16918927
0.20895977 0.00019450427 0.10775141 0.22937566 0.10671593 -0.053276397 0.16932817 0.027845252
0.012268543 0.22436605 0.08568918 -0.031121336 0.20960307 0.17169708 0.19253807 0.09204869
0.2163085 0.14308184 0.21302588 0.26367354 0.19628006 0.16457514 0.017512174 0.04017552
-0.05342654 0.20161346 0.20600046 0.006328286 0.04042582 0.14707682 0.077798426 0.293424
0.07835957 0.1949087 0.011800002 0.10733764 0.15867172 0.11353908 0.13408016 -0.02829875
0.1628933 0.09672158 0.18898487 0.12530833 0.13682853 0.19294888 0.067461744 -0.009152638
0.2225035 0.15839437 0.5254459 0.15040635 0.14136371 0.13461384 0.080951564 0.16093907
0.21375978 -0.071437426 -0.11368256 0.18225111 0.03305422 -0.02187533 0.15434365 0.10537302
0.080111526 -0.029398104 0.23589982 0.17839263 -0.058778297 0.21244071 0.1800798 0.1440267
0.13584188 0.20703043 0.055643436 -0.4040102 0.24040878 0.16787799 -0.020493511 0.12788048
0.18374938 0.16402788 -0.04574629 -0.031396087 0.19108576 0.23639187 0.15373912 0.05261611
0.18806915 0.16454937 0.17134733 0.13099922 0.16769359 0.20093818 0.16146836 0.11999653
0.23369463 0.0029240185 0.15035558 0.019643469 0.17442855 0.21419024 0.07886549 0.11919451
0.23902649 0.24785145 0.11333336 0.14296383 0.09112769 -0.036805417 -0.0027788233 0.3032395
0.23483635 0.15326305 0.15336089 -0.060926452 -0.01641334 0.21978784 0.16629797 -0.03526749
0.165717 0.19717939 0.15450995 0.1930838 0.18928465 0.11002289 0.16636744 -0.058254357
0.08952443 0.19343887 -0.06144224 0.08607799 0.1655639 0.14739369 0.034908663 0.00438598
0.04192423 -0.05048931 0.016252346 0.04194325 -0.015542657 -0.040035658 0.15692319 -0.060776137
0.22791886 -0.05588828 -0.08518889 0.17172638 -0.013108094 0.14664099 0.17041977 0.253157
0.101371825 0.14875819 -0.41776428 0.14645912 -0.0806912 -0.046479728 0.07744119 0.24014015
0.11372225 0.11908405 0.28264838 0.08551725 0.18648404 -0.054314844 0.033913523 0.033531114
00000000: a4a3 17bd 952f b23d 634f 713e 296a ec3d
00000010: 0c75 3c3d 5605 183e c604 1f3e d66c cf3c
00000020: 4fdd fe3d 6cc9 643e 0d1b 1f3e 59ec 103e
00000030: fa4f 2d3e 7323 4f3e d693 493e 3df9 a93d
00000040: af55 403e 2957 153e 492b 29bd 4768 233e
00000050: f879 c23d dfc5 593e 058e 49bd 7003 1b3e
00000060: e5b7 43bb 91c7 e83d ebe1 7c3c 4a53 673d
00000070: d102 d2be 5da3 f93d a905 153e 8f91 4e3e
00000080: db35 3d3d 74c2 bb3d 4275 3a3e fa53 913d
00000090: 2d4a 323e 1eb7 943a 4c6f 5a3e 00e0 04bd
000000a0: bc82 cebc afbc cabd 6ebd 243e 3331 b4bc
000000b0: 5395 023e 5c20 a23c 2d11 f93d cb7b db3c
000000c0: 54ea 083e 4c79 2ebd 6698 763e 7a63 163e
000000d0: 3c8a 2f3e f349 ce3c 7bb2 463e 322a 3c3e
000000e0: 1729 0dbd a82a 9f3d 9c0a 25bb 4a5a 7cbb
000000f0: 135b 163e 88cc 2c3e 93bf 413e a78e 113e
00000100: 1c57 64bd 5152 583e b73b 813e 79f2 3f3e
00000110: 0eb4 253e ac19 793e f752 793e f26f 143e
00000120: 4f08 283e 067d 583e fee9 243e 5aa1 033e
00000130: 85b7 193e 559f 7cbd 5352 f73d ea6a 2d3e
00000140: 22f4 273f a97e 453e 8115 e03d 472a 773e
00000150: 86fc 933c 2ff5 13bc 21a3 6c3e f43f 2d3e
00000160: 8df9 553e d8f3 4b39 c5ac dc3d 74e1 6a3e
00000170: e28d da3d 5a38 5abd 5d64 2d3e ba1b e43c
00000180: 0002 493c 37c0 653e cf7d af3d 2cf2 febc
00000190: 30a2 563e 5cd1 2f3e b328 453e 0684 bc3d
000001a0: fa7f 5d3e 0c84 123e 7523 5a3e 3800 873e
000001b0: a4fd 483e 6386 283e b175 8f3c 168f 243d
000001c0: cad5 5abd c273 4e3e c9f1 523e 835d cf3b
000001d0: 8b95 253d 4e9b 163e c854 9f3d ac3b 963e
000001e0: fb7a a03d 2596 473e cc54 413c d6d3 db3d
000001f0: d77a 223e 2d87 e83d 4f4c 093e c8d2 e7bc
00000200: 80cd 263e f715 c63d 4085 413e d450 003e
00000210: c71c 0c3e 6494 453e 6229 8a3d f2f4 15bc
00000220: f5d7 633e 2232 223e 9f83 063f 1f04 1a3e
00000230: a6c1 103e 36d8 093e efc9 a53d 36cd 243e
00000240: d8e3 5a3e c94d 92bd 67d2 e8bd 09a0 3a3e
00000250: dd63 073d e433 b3bc 430c 1e3e cfcd d73d
00000260: 8311 a43d 4bd4 f0bc b98f 713e 8fac 363e
00000270: 83c1 70bd 0f8a 593e d766 383e bc7b 133e
00000280: 221a 0b3e c9ff 533e 5fea 633d 6dda cebe
00000290: b82d 763e 35e8 2b3e 02e2 a7bc 1af3 023e
000002a0: cc28 3c3e edf6 273e 7660 3bbd 2f99 00bd
000002b0: fcab 433e b610 723e ca6d 1d3e fd83 573d
000002c0: 3395 403e a17f 283e ad75 2f3e a924 063e
000002d0: deb7 2b3e bdc2 4d3e f657 253e bec0 f53d
000002e0: a54d 6f3e e4a0 3f3b d0f6 193e 57eb a03c
000002f0: 669d 323e b054 5b3e 3b84 a13d 401c f43d
00000300: 5cc3 743e c5cc 7d3e 521b e83d 1c65 123e
00000310: 28a1 ba3d 47c1 16bd eb1c 36bb 3542 9b3e
00000320: f178 703e fdf0 1c3e a30a 1d3e 048e 79bd
00000330: 4575 86bc 1010 613e 044a 2a3e a574 10bd
00000340: b8b1 293e 65e9 493e db37 1e3e c2b7 453e
00000350: d6d3 413e ae53 e13d 3a5c 2a3e 1f9c 6ebd
00000360: 9658 b73d d714 463e dcaa 7bbd a849 b03d
00000370: 9589 293e 5fee 163e 63fc 0e3d 44b8 8f3b
00000380: beb8 2b3d e1cd 4ebd a423 853c afcc 2b3d
00000390: a1a6 7ebc 6efc 23bd 79b0 203e 66f0 78bd
000003a0: 9063 693e 1ceb 64bd 8377 aebd 0ad9 2f3e
000003b0: 55c3 56bc 0e29 163e 8582 2e3e cb9d 813e
000003c0: 089c cf3d 1154 183e 33e5 d5be 61f9 153e
000003d0: 6e41 a5bd 8761 3ebd 7d99 9e3d 4de7 753e
000003e0: 36e7 e83d 57e2 f33d 4ab7 903e ab23 af3d
000003f0: acf5 3e3e 3e79 5ebd e8e8 0a3d ec57 093d

q.weight f4 [1, 300]
-0.008192585 -0.44829977 0.6572665 -0.44241425 -0.39341626 -1.888012 0.5196791 -0.95879954
0.787119 0.5934084 -0.46768475 0.45633614 1.9126233 0.634248 0.8736781 -0.34757045
0.50896645 0.56294966 0.0034716318 0.53895587 0.4714037 0.5158433 0.04154188 0.5922768
0.016601844 -0.4973599 0.034733076 -0.4346388 -0.9513112 -0.4762973 -0.46600562 -2.8501253
-0.37519398 -0.41196194 0.8348252 -0.39573377 -2.7300446 0.0074586035 0.70163006 0.018489812
0.0041425414 -0.92158544 0.5896983 0.0024393345 -0.5331791 -0.33209908 -1.7644085 -0.3827364
-0.45684117 -0.19805746 -3.1851823 0.5500148 0.41247022 -0.4956999 1.1856993 -1.8861113
0.017819246 -0.40751803 0.013594611 0.0019738066 -0.46022776 0.6215865 0.677612 0.8146291
-0.0011564777 -2.3459768 -1.8805784 0.6251413 -1.7000256 0.66033506 0.6592285 0.72644824
0.6389163 0.6748183 1.0123612 0.48920125 0.6709807 -0.94956756 -0.44504818 -2.2164814
-5.540758 0.59026206 -0.39530557 -2.8635414 0.051524263 -0.0049525187 0.5692609 0.75607073
0.5582426 0.044871002 0.587197 0.66580796 0.8391162 0.01669289 0.5192239 0.021395642
-1.0873271 0.531771 -0.45932838 0.015801298 0.5416532 0.58273387 0.5573926 -0.40287536
-2.0530555 -0.4950147 0.57092196 -3.648036 0.6433475 0.61499715 3.391205 -0.4191706
-1.2085366 0.6863441 0.55527484 -0.9983913 -0.38975546 0.6085545 -0.33472076 -3.3293738
-0.4170011 0.5600086 0.00738755 -0.4276327 0.63642156 0.5222756 -0.4418089 0.049058896
-0.4884801 0.5020294 0.9677679 0.6450593 -0.49963477 0.9823017 -0.48884243 0.031432707
-3.3922822 0.7267911 -4.7438874 0.6935188 -0.44594482 -1.6429803 -0.47152442 -0.44017214
1.0162246 -0.4202181 -0.39417386 0.578183 -1.0505933 0.048399463 0.5458671 -0.75985247
-0.27809444 0.03675711 0.6945793 -1.839186 -0.46746838 0.6036621 0.62485546 -0.43018833
0.7118177 -2.2820184 -0.33625907 3.37332 0.64364237 0.607553 0.018932736 -0.46777153
0.854589 0.5675823 0.05219589 0.03143743 0.72956103 -1.8929653 -2.448934 -0.38212392
0.62830776 0.6027075 0.58394885 0.7349877 0.4978142 0.62355864 -0.47143063 -0.435217
0.6533405 -0.31782943 0.582014 -0.009087759 -0.46676156 -2.421653 -1.3579384 -0.36522707
0.67784834 -2.8982494 -0.3805372 -0.4892492 -0.43566376 -0.76696974 0.009710085 -3.2785552
0.56401396 -1.3359128 0.55234265 0.037913937 -0.93450236 1.0045894 -0.43173298 -0.02231182
0.44847602 -2.079211 -0.45066214 -3.2490003 0.49112245 -0.42684045 0.6836877 -1.1590339
-0.4512494 0.7679794 -0.00040152884 -0.2774955 0.52488726 1.4303914 -0.34890956 -0.43682364
-0.4200388 0.009912986 -0.013844554 -1.0080374 0.03473445 0.024341151 0.68848526 -0.002101941
-3.0056164 0.03660038 -1.3000044 0.38348898 0.014148306 -0.4166803 -2.0445874 0.6887306
-0.45418116 -0.45160866 3.3110752 0.5484318 -0.79411054 1.7646233 -1.3366209 0.637456
0.47295335 -0.39265224 -3.2546496 -0.3974091 0.5835616 0.015716257 0.04501663 -1.0233169
00000000: 313a 06bc 8c87 e5be 9e42 283f 1f84 e2be
00000010: db6d c9be 61aa f1bf b109 053f e373 75bf
00000020: a180 493f 9de9 173f 6074 efbe e4a4 e93e
00000030: d7d0 f43f 145e 223f 5ea9 5f3f c1f4 b1be
00000040: a04b 023f 781d 103f 5184 633b 03f9 093f
00000050: d35b f13e 4e0e 043f d227 2a3d 749f 173f
00000060: 9700 883c f5a5 febe 4544 0e3d fa88 debe
00000070: 2189 73bf 3ddd f3be 4a98 eebe 7468 36c0
00000080: 6d19 c0be adec d2be 1bb7 553f 9e9d cabe
00000090: 0db9 2ec0 4d67 f43b 079e 333f f277 973c
000000a0: 28be 873b 06ed 6bbf 78f6 163f 3edd 1f3b
000000b0: 6d7e 08bf e408 aabe 23d8 e1bf 07f6 c3be
000000c0: 16e7 e9be 93cf 4abe 07da 4bc0 c5cd 0c3f
000000d0: 4c2f d33e 61cc fdbe ffc4 973f 186c f1bf
000000e0: abf9 913c 34a6 d0be eebb 5e3c fb5a 013b
000000f0: f9a2 ebbe 4b20 1f3f fb77 2d3f 888b 503f
00000100: f494 97ba 7c24 16c0 cbb6 f0bf 4309 203f
00000110: 709a d9bf b80b 293f 33c3 283f 83f8 393f
00000120: 0590 233f e4c0 2c3f 0d95 813f 9678 fa3e
00000130: 64c5 2b3f dc16 73bf 5bdd e3be d5da 0dc0
00000140: e44d b1c0 6a1b 173f 7e65 cabe 4344 37c0
00000150: 1b0b 533d bd48 a2bb 15bb 113f da8d 413f
00000160: fde8 0e3f a8ca 373d 8b52 163f 6472 2a3f
00000170: 52d0 563f 87bf 883c dceb 043f ea45 af3c
00000180: 892d 8bbf 2522 083f 172d ebbe b971 813c
00000190: c9a9 0a3f 0c2e 153f 48b1 0e3f ae45 cebe
000001a0: 4365 03c0 9172 fdbe f127 123f 6c79 69c0
000001b0: 6cb2 243f 7470 1d3f 8109 5940 879d d6be
000001c0: 54b1 9abf 3fb4 2f3f 7e26 0e3f 9296 7fbf
000001d0: 078e c7be 3aca 1b3f 8560 abbe 7614 55c0
000001e0: 2b81 d5be b95c 0f3f 4313 f23b acf2 dabe
000001f0: 86ec 223f dbb3 053f c734 e2be fbf1 483d
00000200: 101a fabe 0085 003f a3bf 773f 9b22 253f
00000210: 21d0 ffbe 2078 7b3f 8e49 fabe 95bf 003d
00000220: 271b 59c0 fb0e 3a3f edcd 97c0 738a 313f
00000230: e152 e4be 2e4d d2bf a66b f1be 3e5e e1be
00000240: a613 823f d426 d7be 28d1 c9be cd03 143f
00000250: d779 86bf 843e 463d f2bd 0b3f b185 42bf
00000260: 6562 8ebe a08e 163d f3cf 313f 726a ebbf
00000270: 0458 efbe 9989 1a3f 87f6 1f3f a541 dcbe
00000280: af39 363f 970c 12c0 262a acbe 7ae4 5740
00000290: bfc5 243f 9888 1b3f d318 9b3c c07f efbe
000002a0: 58c6 5a3f 134d 113f 5ccb 553d 89c4 003d
000002b0: 83c4 3a3f b04c f2bf 56bb 1cc0 bfa5 c3be
000002c0: c7d8 203f 0a4b 1a3f ac7d 153f 2728 3c3f
000002d0: 81e1 fe3e 8aa1 1f3f 5b5f f1be c3d4 debe
000002e0: 5341 273f 8aba a2be dffe 143f d3e4 14bc
000002f0: 5ffb eebe 5dfc 1ac0 edd0 adbf 0bff babe
00000300: 7887 2d3f eb7c 39c0 c6d5 c2be df7e fabe
00000310: 520f dfbe 2158 44bf 0c17 1f3c d9d3 51c0
00000320: 3863 103f 31ff aabf 5466 0d3f a54b 1b3d
00000330: 8c3b 6fbf 6396 803f 1b0c ddbe 47c7 b6bc
00000340: a69e e53e cb11 05c0 30bd e6be 9fef 4fc0
00000350: 6774 fb3e d58a dabe 2806 2f3f 395b 94bf
00000360: 290a e7be 4c9a 443f 4a84 d2b9 e413 8ebe
00000370: 035f 063f 1117 b73f 46a4 b2be 59a7 dfbe
00000380: 530f d7be 146a 223c 45d4 62bc 5f07 81bf
00000390: b645 0e3d 1867 c73c 9240 303f b8c0 09bb
000003a0: 055c 40c0 48ea 153d 8b66 a6bf ab58 c43e
000003b0: 4cce 673c 1f57 d5be 85da 02c0 a650 303f
000003c0: 6f8a e8be 4039 e7be a8e8 5340 0766 0c3f
000003d0: d44a 4bbf 2ddf e13f 6516 abbf 5130 233f
000003e0: f126 f23e b709 c9be 2e4c 50c0 3579 cbbe
000003f0: 4b64 153f 61bf 803c 5c63 383d 0cfc 82bf
