SAC_own/sac_0/actor_sac.pth (torch, 300184 bytes, 8 tensors)

fc1.weight f4 [256, 24]
-0.19968948 -0.1454753 0.13945335 0.04063426 -0.038718313 -0.03933516 -0.023688585 0.071985334
0.004435703 -0.14542603 -0.12084661 0.20304626 0.010357097 0.19056237 0.01017043 -0.13111973
0.10444692 -0.14025182 0.046382815 0.091029525 0.07299933 -0.08024408 -0.029863968 0.2005414
0.15059727 -0.019877553 0.07189578 -0.09704229 0.2006127 0.09203872 0.1948719 -0.12788534
0.14170855 -0.08036156 0.1052047 0.18418902 -0.089017816 0.022031426 0.06270504 -0.10568725
-0.14859048 0.16019902 0.006198272 -0.016030222 -0.12386201 0.15529051 -0.04115641 0.17308295
0.029492512 -0.009580031 -0.18673047 0.10433379 0.119856775 0.04053916 0.15915671 -0.06491634
0.15694365 0.12906283 -0.05227025 0.03183256 0.07117391 -0.052865535 0.020545527 -0.045659542
0.1167112 0.09643975 -0.07364902 -0.16257203 -0.116382994 -0.13118604 0.17897144 0.076933384
-0.13852046 0.070225775 -0.086832255 -0.080765866 -0.20200734 -0.054066345 -0.010176003 0.09603986
-0.062397048 -0.19127797 -0.07808052 -0.13216674 -0.029316783 -0.16390215 0.010078624 -0.03560491
0.12850612 0.11384979 -0.019535244 0.14842147 0.14613494 -0.0054046363 -0.084214166 -0.18489979
-0.13841847 -0.03229393 0.1522558 -0.18626837 0.0478369 -0.15220395 -0.11185015 0.19904402
0.1620023 -0.1951866 -0.016808093 -0.06756927 0.11129853 -0.17350444 0.07177287 -0.19466779
0.17257255 -0.1542438 -0.18379217 -0.037070185 0.049146265 0.17056489 0.18582109 0.13268921
-0.025329143 0.20386264 0.15101796 0.08220631 0.17731237 0.06895128 -0.01768437 -0.038090393
0.14895386 -0.19827767 0.07241747 -0.20294036 0.06460869 -0.16712558 0.16646737 0.015783846
0.17418054 0.06260133 -0.047598585 0.1843687 0.089493155 0.18209493 0.18392947 -0.04463306
-0.04971187 -0.10198406 -0.17286769 0.18516535 -0.13852207 -0.04046093 -0.097787775 -0.13017273
-0.022180855 -0.08327377 0.09802523 0.1712713 0.045061886 0.102113515 -0.007765785 -0.021073952
0.19825697 0.18311015 -0.19833064 -0.07933758 0.054356366 -0.19767974 0.16346732 -0.16235036
-0.11064243 0.039946005 -0.04054095 0.10176021 -0.0011503696 0.1846028 -0.017298147 -0.021836653
-0.10727609 -0.11549181 0.12028369 0.18173873 -0.076446965 -0.024547994 0.096972436 0.06625539
-0.045171723 0.012123242 -0.045123845 -0.038391873 -0.104161866 0.18017116 -0.070803 -0.03079608
0.008409336 0.038930044 0.05842924 -0.04142873 -0.027708799 -0.02170737 0.06574014 0.11572611
0.08712399 0.07700664 -0.044279605 -0.1465128 0.011027873 -0.10970343 0.017391756 0.088003784
-0.14110456 0.04787886 -0.165307 0.030909553 -0.07712871 0.0057626367 -0.14454788 -0.058815762
0.13894898 -0.0035524666 -0.20327477 0.11235276 0.08631605 -0.016996369 0.05291915 -0.0743117
0.060046196 0.06526238 -0.15934473 -0.19196446 -0.065181985 -0.05287294 0.18893623 0.05651176
0.1641626 -0.091501996 -0.092088506 0.1598942 0.074315846 -0.09432239 0.02001518 0.1875487
-0.021574154 -0.14963315 0.0087355375 0.1978024 0.1048356 -0.04503624 0.14688194 -0.03308794
-0.106429696 -0.123650044 -0.18109688 -0.12171991 0.01794383 0.07990706 -0.044319153 0.2018649
00000000: 667b 4cbe 7af7 14be dccc 0e3e 1c70 263d
00000010: 1897 1ebd e81d 21bd 900e c2bc 0c6d 933d
00000020: 6059 913b 90ea 14be 6d7e f7bd 5ceb 4f3e
00000030: d0b0 293c c822 433e e0a1 263c 4044 06be
00000040: 44e8 d53d 2c9e 0fbe e8fb 3d3d b06d ba3d
00000050: ac80 953d 0257 a4bd 48a5 f4bc ba5a 4d3e
00000060: 2c36 1a3e 40d6 a2bc 183e 933d 1cbe c6bd
00000070: 6a6d 4d3e cc7e bc3d 808c 473e 60f4 02be
00000080: 0c1c 113e 9a94 a4bd 9075 d73d 0c9c 3c3e
00000090: f94e b6bd 407b b43c 806b 803d 8f72 d8bd
000000a0: 1a28 18be 360b 243e e01a cb3b d051 83bc
000000b0: 5eab fdbd 7a04 1f3e a093 28bd a83c 313e
000000c0: 489a f13c 90f5 1cbc 4636 3fbe f4ac d53d
000000d0: 7877 f53d 640c 263d faf9 223e dcf2 84bd
000000e0: d6b5 203e 0c29 043e 5419 56bd dc62 023d
000000f0: a0c3 913d 8889 58bd 184f a83c 8005 3bbd
00000100: 4806 ef3d 3482 c53d 4cd5 96bd 4879 26be
00000110: 355a eebd a255 06be 4a44 373e 408f 9d3d
00000120: 4fd8 0dbe 88d2 8f3d 1cd5 b1bd 9368 a5bd
00000130: 03db 4ebe ac74 5dbd 40b9 26bc 8cb0 c43d
00000140: 0c94 7fbd 5fde 43be aee8 9fbd b856 07be
00000150: c029 f0bc f7d5 27be d020 253c 74d6 11bd
00000160: 1c97 033e 142a e93d 6008 a0bc ccfb 173e
00000170: 66a4 153e 6019 b1bb 7a78 acbd 5f56 3dbe
00000180: 92bd 0dbe a446 04bd f2e8 1b3e 23bd 3ebe
00000190: a0f0 433d 5adb 1bbe b111 e5bd 32d2 4b3e
000001a0: eee3 253e ffde 47be 20b1 89bc c261 8abd
000001b0: 7cf0 e33d 26ab 31be a8fd 923d fe56 47be
000001c0: dcb6 303e 16f2 1dbe 0434 3cbe e8d6 17bd
000001d0: 984d 493d 90a8 2e3e e247 3e3e aedf 073e
000001e0: 107f cfbc 5ec1 503e 74a4 1a3e c85b a83d
000001f0: 6091 353e 5436 8d3d d0de 90bc ac04 1cbd
00000200: 5c87 183e 4d09 4bbe 9c4f 943d 99cf 4fbe
00000210: 9051 843d f822 2bbe 6c76 2a3e 204d 813c
00000220: 625c 323e 2035 803d bcf6 42bd 26cb 3c3e
00000230: 3048 b73d 1877 3a3e 0258 3c3e 28d1 36bd
00000240: ac9e 4bbd 05dd d0bd 3a04 31be fc9b 3d3e
00000250: bbd8 0dbe 5cba 25bd f544 c8bd 004c 05be
00000260: a0b4 b5bc 708b aabd 74c1 c83d be61 2f3e
00000270: d092 383d e420 d13d 2078 febb 48a3 acbc
00000280: e003 4b3e 3a81 3b3e 3017 4bbe be7b a2bd
00000290: c8a4 5e3d 8f6c 4abe fa63 273e 2c3f 26be
000002a0: 8098 e2bd 6c9e 233d 440e 26bd a867 d03d
000002b0: 00c8 96ba 8408 3d3e d8b4 8dbc c8e2 b2bc
000002c0: 91b3 dbbd f886 ecbd 4c57 f63d b819 3a3e
000002d0: 3a90 9cbd e018 c9bc 7c99 c63d e8b0 873d
000002e0: fc05 39bd 90a0 463c c8d3 38bd cc40 1dbd
000002f0: d152 d5bd ca7e 383e 2a01 91bd 1048 fcbc
00000300: 50c7 093c 1c75 1f3d 8053 6f3d 2cb1 29bd
00000310: 90fd e2bc a8d3 b1bc c4a2 863d d001 ed3d
00000320: 106e b23d a8b5 9d3d 885e 35bd 7407 16be
00000330: 40ae 343c 31ac e0bd 2879 8e3c 543b b43d
00000340: b77d 10be a01c 443d 3d46 29be 0836 fd3c
00000350: a8f5 9dbd 80d4 bc3b 5c04 14be cce8 70bd
00000360: a448 0e3e 80d0 68bb 4327 50be 3419 e63d
00000370: 78c6 b03d f83b 8bbc c0c1 583d bc30 98bd
00000380: 00f3 753d 48a8 853d 442b 23be 5592 44be
00000390: 227e 85bd 4c91 58bd 8078 413e e078 673d
000003a0: 3e1a 283e 6665 bbbd e698 bcbd 4ebb 233e
000003b0: e832 983d 192c c1bd e0f6 a33c c40c 403e
000003c0: 48bc b0bc 6f39 19be 801f 0f3c b68c 4a3e
000003d0: 0cb4 d63d ec77 38bd 3868 163e 3887 07bd
000003e0: d0f7 d9bd 3c3c fdbd 7671 39be 4a48 f9bd
000003f0: f0fe 923c 50a6 a33d 0088 35bd acb5 4e3e

fc1.bias f4 [256]
-0.12268461 -0.046403363 -0.1571933 0.14200264 -0.13782004 -0.18985412 0.18169177 -0.20285495
0.023583993 0.031606123 -0.08470935 -0.0070804656 0.059663236 0.09517893 -0.13221556 -0.109600835
-0.18058734 0.0997653 0.10287315 -0.08708999 0.15017891 0.058215052 -0.031153351 0.13192737
-0.1971296 -0.113646425 -0.07324979 0.135144 0.17149368 -0.19717918 -0.011270717 0.0363366
-0.07258849 0.098360896 0.07184261 0.1200569 0.12985101 -0.09942119 -0.031159997 -0.123268135
0.12368739 -0.10807792 0.009229377 0.13241732 -0.0580467 -0.19237295 -0.044185176 -0.19951549
-0.05877982 0.015383929 -0.09428942 -0.016708642 -0.0032945424 0.08222863 0.15120459 -0.053055495
-0.025295451 0.14538437 0.02884385 -0.023051783 -0.19932337 0.06941837 -0.04751171 -0.1772859
-0.20048729 -0.03530313 0.12609437 -0.1595357 0.08279595 -0.05376157 -0.016278163 0.1483509
0.0024825782 0.028733283 0.005533755 0.18396306 0.19702336 0.07585791 0.13282222 0.11513004
0.14139634 -0.18159437 0.07687801 0.14037436 -0.18673639 -0.054516196 0.0464513 -0.072934985
-0.11624702 0.18249035 -0.1555321 0.16280675 0.1397416 -0.00715594 -0.0053326786 0.0948028
-0.044223934 -0.024878278 0.04437223 0.021609724 0.124928445 0.009499073 0.058030218 0.0005352348
-0.16450669 -0.12955464 -0.052077204 0.17533007 -0.019933194 0.10490525 -0.039901063 0.19229797
-0.004106596 -0.010534644 0.022700623 0.032561406 -0.20360862 0.14395064 -0.09812309 0.14132491
0.09705299 -0.08169236 0.0013322085 -0.15783447 -0.2026157 0.047650248 0.014758244 -0.064793065
0.09913346 0.19149813 -0.10830315 -0.051650405 0.19709471 0.08039826 0.17113146 -0.08559482
0.005109936 0.05388695 0.04276067 -0.16706266 -0.081980005 0.07362446 0.17141792 -0.09143705
-0.035442412 0.04699534 -0.15212998 -0.13782258 -0.14912875 0.06376216 -0.084056966 -0.06662144
-0.16961159 -0.03307499 -0.09178702 0.06630692 0.10761508 -0.13965797 -0.029718429 0.012072697
-0.16401781 0.20390344 -0.015710413 0.104676664 0.16858745 0.03952168 0.11897293 -0.048966557
0.06413683 -0.19738609 0.04561022 0.17404872 -0.15966299 0.09371543 -0.088034935 0.02320148
0.16125 -0.12884386 0.12861368 0.16252226 -0.18782096 -0.08983233 0.18951803 -0.13758379
0.0055829287 -0.13678122 0.120963275 -0.0037342012 0.10711801 -0.07046813 -0.03198652 0.1290648
0.16381013 0.16873774 0.13621512 -0.12792878 -0.10933156 0.011594892 0.16538548 0.12891057
0.0349153 0.11301395 -0.004638359 0.111582786 0.19260922 -0.046161205 0.10214025 -0.18538815
-0.09810691 -0.03400871 0.117871165 0.032728776 0.10385144 0.08466175 0.20009753 -0.04802464
-0.17946091 0.14507285 -0.18414487 0.09684169 0.084194005 0.11960012 -0.18801129 0.15712792
0.13179702 0.15165964 0.19010678 0.042492434 0.11428025 -0.03404239 -0.113606274 -0.114299074
0.19131559 -0.113274194 0.054566503 -0.10388473 -0.1752182 -0.13072467 -0.10312107 -0.08155016
-0.1270397 0.18703082 0.18700945 0.110506296 0.017225847 0.17140827 -0.092152186 -0.018407017
0.20157924 -0.14636347 -0.03715068 -0.17998222 -0.17400469 -0.07194176 0.0069172084 0.10179597
00000000: 1242 fbbd 7411 3ebd 48f7 20be 2469 113e
00000010: b220 0dbe 1e69 42be 680d 3a3e 35b9 4fbe
00000020: 3833 c13c 6c75 013d 187c adbd 4003 e8bb
00000030: 7061 743d 2ced c23d 8463 07be 6776 e0bd
00000040: e3eb 38be c051 cc3d 28af d23d 3d5c b2bd
00000050: 80c8 193e e872 6e3d 5035 ffbc f817 073e
00000060: 58dc 49be 75bf e8bd fc03 96bd 3063 0a3e
00000070: 0a9c 2f3e 57e9 49be d0a8 38bc b0d5 143d
00000080: 46a9 94bd 7071 c93d 3822 933d 64e0 f53d
00000090: aaf7 043e 569d cbbd 4043 ffbc 0174 fcbd
000000a0: d04f fd3d f557 ddbd d036 173c 6898 073e
000000b0: 60c2 6dbd 6afd 44be 84fb 34bd ca4d 4cbe
000000c0: 1cc3 70bd e00c 7c3c d01a c1bd 90e0 88bc
000000d0: 40e9 57bb 7c67 a83d 60d5 1a3e b850 59bd
000000e0: 6838 cfbc a4df 143e f049 ec3c 18d7 bcbc
000000f0: 6d1b 4cbe 382b 8e3d a49b 42bd 6f8a 35be
00000100: 8a4c 4dbe 049a 10bd e21e 013e 545d 23be
00000110: ec90 a93d 1835 5cbd c859 85bc 4ce9 173e
00000120: c0b2 223b 1062 eb3c 8054 b53b d060 3c3e
00000130: 7ec0 493e 645b 9b3d 8c02 083e 4cc9 eb3d
00000140: 34ca 103e e0f3 39be 3872 9d3d 4cbe 0f3e
00000150: d337 3fbe 604c 5fbd b843 3e3d f05e 95bd
00000160: eb12 eebd c0de 3a3e cf43 1fbe d0b6 263e
00000170: 6c18 0f3e 607c eabb c0bd aebb f827 c23d
00000180: 2824 35bd 88cd cbbc a8bf 353d e006 b13c
00000190: 7cda ff3d 00a2 1b3c 18b1 6d3d 004f 0c3a
000001a0: 7174 28be f9a9 04be e84e 55bd ba89 333e
000001b0: f04a a3bc 90d8 d63d 4c6f 23bd c2e9 443e
000001c0: a090 86bb 8099 2cbc a8f6 b93c 1c5f 053d
000001d0: c77e 50be cc67 133e c2f4 c8bd 7ab7 103e
000001e0: b8c3 c63d 534e a7bd 809d ae3a 5c9f 21be
000001f0: 7d7a 4fbe e82c 433d 90cc 713c 3ab2 84bd
00000200: 7c06 cb3d 1618 443e 0bce ddbd 608f 53bd
00000210: 32d3 493e d8a7 a43d 163d 2f3e 564c afbd
00000220: 4071 a73b 90b8 5c3d d025 2f3d 7912 2bbe
00000230: 22e5 a7bd 6cc8 963d 2e88 2f3e 5943 bbbd
00000240: 102c 11bd 307e 403d f6c7 1bbe 5d21 0dbe
00000250: 35b5 18be bc95 823d 0f26 acbd d270 88bd
00000260: a9ae 2dbe a479 07bd d5fa bbbd eccb 873d
00000270: 4c65 dc3d 8002 0fbe 1074 f3bc 90cc 453c
00000280: 49f4 27be 10cc 503e 20b3 80bc b860 d63d
00000290: 30a2 2c3e 7ce1 213d 14a8 f33d 2891 48bd
000002a0: 2c5a 833d 941f 4abe c8d1 3a3d d439 323e
000002b0: b27e 23be e0ed bf3d a94b b4bd 0811 be3c
000002c0: b81e 253e a5ef 03be 4eb3 033e 3c6c 263e
000002d0: 2354 40be 03fa b7bd 0411 423e c4e2 0cbe
000002e0: 00f1 b63b 6010 0cbe 98bb f73d 80b9 74bb
000002f0: b060 db3d 9851 90bd 4c04 03bd 9029 043e
00000300: d8bd 273e 96c9 2c3e fa7b 0b3e c3ff 02be
00000310: 3ae9 dfbd 80f8 3d3c d05a 293e 2201 043e
00000320: 5803 0f3d dc73 e73d 60fd 97bb 8485 e43d
00000330: 5a3b 453e 8813 3dbd e82e d13d 64d6 3dbe
00000340: 47ec c8bd b84c 0bbd 7066 f13d 9c0e 063d
00000350: 10b0 d43d 2463 ad3d 5ee6 4c3e 7cb5 44bd
00000360: 9ac4 37be fa8d 143e 7990 3cbe f054 c63d
00000370: e86d ac3d e8f0 f43d 0886 40be 24e6 203e
00000380: ccf5 063e aa4c 1b3e 5aab 423e 8c0c 2e3d
00000390: c40b ea3d 0870 0bbd 68aa e8bd a215 eabd
000003a0: 3ce8 433e 4dfc e7bd 2081 5f3d 84c1 d4bd
000003b0: 666c 33be b0dc 05be 2431 d3bd c503 a7bd
000003c0: b216 02be 0285 3f3e 687f 3f3e 2051 e23d
000003d0: 381d 8d3c a685 2f3e 49ba bcbd 50ca 96bc
000003e0: ca6a 4e3e 4ee0 15be 502b 18bd 424d 38be
000003f0: 492e 32be 3456 93bd c0a9 e23b 687a d03d

fc2.weight f4 [256, 256]
-0.0004201606 0.05892349 0.034663767 -0.029984258 0.036651947 0.022790037 0.03832507 0.06086781
-0.03329572 0.0030125976 0.051593065 -0.034844093 -0.013011403 -0.045721732 0.019620985 0.024314001
-0.060273767 -0.052547507 0.02984707 0.055017494 -0.027664773 0.060564093 -0.04800479 -0.011761025
0.009482279 -0.020389035 0.03721413 -0.0067171827 0.032497942 -0.062058806 0.022853978 -0.027814686
-0.04573246 0.0019041449 -0.0282574 -0.00032408535 -0.007673636 -0.005376801 -0.028115518 0.046356656
-0.044398993 -0.05975899 -0.034757458 0.045196407 0.0044385493 0.047629617 0.024666518 0.006132148
-0.015579216 -0.0010644421 -0.046612464 -0.01005736 0.03604605 -0.025883652 -0.035909623 0.027053565
0.0031776205 0.044547707 0.054094426 -0.0046452954 0.026557066 0.017201096 -0.007976867 -0.047534376
-0.05611232 -0.0034156889 0.022730999 -0.009860136 -0.044142574 0.013169974 -0.04686585 -0.02526369
-0.044332035 -0.007708274 0.027731456 -0.02705761 -0.0048539117 0.0022728145 -0.0076957643 -0.039728627
-0.036523424 -0.02689109 -0.06023535 0.030083835 0.04660052 0.051974185 -0.036364414 0.015933365
0.01037439 -0.04969634 -0.03923113 0.015732117 0.01643169 0.04739236 -0.040018864 -0.033001788
-0.016721375 -0.030659951 0.03631623 0.0038211346 0.055530265 -0.026791185 -0.0047400966 0.05704608
0.048230678 -0.014896229 0.01797656 -0.021105915 0.0006980896 -0.053644277 0.0619957 -0.018157497
-0.046167836 -0.02987925 -0.050015748 0.021872059 0.052340128 -0.0027596653 0.057168983 -0.055792816
-0.0006385669 0.040411457 -0.016907975 -0.052441098 0.06110116 0.025565393 -0.053994104 0.012438834
-0.026533075 -0.048424065 0.020236418 0.017936766 0.06063728 -0.04737491 -0.030106641 0.033209905
0.008517303 0.012997925 0.05891373 0.046678975 -0.040788367 -0.04915864 0.047932997 0.06210582
0.02289974 -0.030116789 0.051408224 0.0122314915 -0.045556597 -0.048054203 0.05528213 -0.012350194
0.0027158037 0.002302982 0.011897579 0.03144765 -0.0033010915 0.033523865 0.061594523 -0.027013168
-0.062344044 0.001020059 -0.0077573285 -0.0055524632 0.035583436 0.051311865 -0.020260029 0.011746787
0.034376174 -0.057139173 0.021477632 -0.02752427 0.01273223 -0.015103579 0.04926817 -0.024136476
0.026028737 0.057010956 -0.050433904 0.056442983 0.041688457 -0.06084905 0.016385838 0.06038236
0.024318561 -0.0029438213 0.059096225 0.050096802 0.041051112 -0.016264811 -0.04552374 -0.023431703
-0.036442414 -0.0050577894 0.020408437 -0.036057077 0.01201652 -0.03429158 0.00465288 -0.024017982
-0.036419548 -0.0570189 -0.05054971 -0.016353153 0.047611065 -0.0008344725 -0.054382943 0.041649394
0.015411891 -0.050253168 0.041560024 0.04405775 0.040165752 0.022642493 -0.015926883 0.032258227
0.025995672 -0.023467936 -0.02173967 0.0054718703 0.05333399 -0.016849227 -0.005907409 -0.018478446
0.016535245 0.030643038 0.03764393 0.0028234199 0.019280322 0.02556295 -0.033818267 -0.059952162
0.0353878 0.0468553 0.03504689 0.03314724 0.05715148 0.061859466 0.019881077 -0.028474025
-0.0058467165 -0.005134873 -0.023733735 0.009702176 -0.031940557 -0.04946109 0.052702717 -0.060483657
-0.04216198 -0.035286725 0.035835564 0.043277003 -0.052366205 -0.02033583 0.029442742 -0.05544889
00000000: 0049 dcb9 c259 713d 98fb 0d3d 8ca1 f5bc
00000010: 5a20 163d 2cb2 ba3c c0fa 1c3d 8650 793d
00000020: 1861 08bd 006f 453b 4053 533d aeb8 0ebd
00000030: c82d 55bc b646 3bbd 30bc a03c 282e c73c
00000040: a0e1 76bd 0e3c 57bd d881 f43c 065a 613d
00000050: 3ca1 e2bc 0e12 783d aca0 44bd 50b1 40bc
00000060: 905b 1b3c e806 a7bc d86d 183d d01b dcbb
00000070: 901c 053d 6031 7ebd 4438 bb3c a0db e3bc
00000080: f651 3bbd 8094 f93a 107c e7bc 00ea a9b9
00000090: 2073 fbbb e02f b0bb 8452 e6bc 7ae0 3d3d
000000a0: b8db 35bd d8c5 74bd d65d 0ebd de1f 393d
000000b0: 4071 913b 4617 433d 7011 ca3c 30f0 c83b
000000c0: f83f 7fbc c084 8bba b6ec 3ebd a0c7 24bc
000000d0: 06a5 133d f409 d4bc f815 13bd 709f dd3c
000000e0: a03f 503b a877 363d 1e92 5d3d 9037 98bb
000000f0: 348e d93c 50e9 8c3c 68b1 02bc 68b3 42bd
00000100: 08d6 65bd c0d9 5fbb 5c36 ba3c 688c 21bc
00000110: d8ce 34bd e0c6 573c 68f6 3fbd ccf5 cebc
00000120: 8295 35bd b095 fcbb 142d e33c eca7 ddbc
00000130: 900d 9fbb 80f3 143b c02c fcbb 7cba 22bd
00000140: 9699 15bd b44a dcbc 58b9 76bd 6072 f63c
00000150: 30e0 3e3d e2e2 543d daf2 14bd b086 823c
00000160: 58f9 293c 648e 4bbd d2b0 20bd a4e0 803c
00000170: c09b 863c 7e1e 423d d2ea 23bd e22c 07bd
00000180: 44fb 88bc 942a fbbc 54c0 143d 006c 7a3b
00000190: b473 633d 3079 dbbc d052 9bbb 26a9 693d
000001a0: 888d 453d 500f 74bc 9443 933c 50e6 acbc
000001b0: 0000 373a 1aba 5bbd 34ef 7d3d 08bf 94bc
000001c0: 7c1a 3dbd 54c5 f4bc 50dd 4cbd 082d b33c
000001d0: 9a62 563d 80db 34bb 062a 6a3d 0287 64bd
000001e0: 8065 27ba 7c86 253d 9882 8abc 7acc 56bd
000001f0: 3645 7a3d 846e d13c ec28 5dbd 40cc 4b3c
00000200: e45b d9bc 5058 46bd d8c6 a53c 20f0 923c
00000210: cc5e 783d 320c 42bd 34a2 f6bc 1c07 083d
00000220: 288c 0b3c 40f5 543c 864f 713d 7432 3f3d
00000230: b411 27bd 925a 49bd 6455 443d ac62 7e3d
00000240: 3c98 bb3c 7cb7 f6bc 6e91 523d 9866 483c
00000250: 8e99 3abd 7cd4 44bd 846f 623d 7858 4abc
00000260: a0fb 313b a0ed 163b 10ee 423c 40cf 003d
00000270: 2057 58bb 5250 093d 8a4a 7c3d b84a ddbc
00000280: 785c 7fbd 80b3 853a 3031 febb 70f1 b5bb
00000290: f0bf 113d 642c 523d 5cf8 a5bc 9875 403c
000002a0: 08ce 0c3d c40a 6abd dcf1 af3c 947a e1bc
000002b0: d89a 503c 0075 77bc 6ccd 493d dcb9 c5bc
000002c0: 383a d53c 5284 693d c893 4ebd c230 673d
000002d0: 84c1 2a3d da3c 79bd 983b 863c 7e53 773d
000002e0: b837 c73c 20ed 40bb e20e 723d 4e32 4d3d
000002f0: 3625 283d c83d 85bc 1a77 3abd d8f3 bfbc
00000300: a444 15bd d0bb a5bb 982f a73c 96b0 13bd
00000310: f0e0 443c 5475 0cbd 3077 983b 5cc1 c4bc
00000320: aa2c 15bd a68c 69bd 360d 4fbd 0cf7 85bc
00000330: d203 433d 80c0 5aba a6c0 5ebd 8e98 2a3d
00000340: 2882 7c3c 44d6 4dbd d83a 2a3d e675 343d
00000350: d884 243d c07c b93c 1879 82bc 3421 043d
00000360: e0f4 d43c d43f c0bc 6417 b2bc 604d b33b
00000370: be74 5a3d 6407 8abc f092 c1bb 1c60 97bc
00000380: ec74 873c 1c07 fb3c 8630 1a3d 2009 393b
00000390: c4f1 9d3c 6469 d13c 0685 0abd 6690 75bd
000003a0: ccf2 103d 58eb 3f3d 548d 0f3d 66c5 073d
000003b0: ac17 6a3d 5a60 7d3d a4dd a23c 5c42 e9bc
000003c0: d095 bfbb 7042 a8bb 406d c2bc e0f5 1e3c
000003d0: 1ad4 02bd b697 4abd cede 573d b6bd 77bd
000003e0: 0ab2 2cbd d088 10bd 50c8 123d 3a43 313d
000003f0: f27d 56bd 5497 a6bc e831 f13c 601e 63bd

fc2.bias f4 [256]
0.060139015 0.045172133 0.011080936 -0.040998004 0.006837681 -0.030491687 -0.06117969 -0.003152877
-0.05557449 -0.037603043 0.040169768 -0.03176538 -0.049537852 -0.030680984 0.05161739 -0.022651725
0.02587808 -0.013586029 0.007757403 0.058384165 0.05304008 0.057453305 -0.05720079 -0.0063476264
0.03093084 -0.051121235 0.01957611 0.023804806 -0.035610624 -0.04027228 0.056794472 -0.008935988
-0.060435466 0.03894621 -0.050766513 0.03491564 -0.052431732 0.05434002 0.026519798 -0.02406852
-0.040147424 0.05020176 -0.016192108 -0.009610727 -0.027562387 -0.03821913 0.019851573 -0.009443365
0.01301302 -0.039721556 -0.025813907 0.00997106 0.055938452 0.024022691 0.03685435 0.040934585
0.02974639 0.0043010265 -0.016979776 0.05623188 -0.006877288 0.05540309 -0.044922285 -0.047270365
-0.04747753 0.011921108 0.021557719 0.0069921166 -0.0065619275 0.060710363 -0.04337818 0.024292894
0.025452666 0.058704786 -0.054106154 -0.026243664 -0.010925971 -0.03506603 -0.035240896 0.01747214
-0.019564003 -0.0344162 -0.032810435 0.03294275 0.03157565 0.023789369 0.008625686 0.03474333
-0.04427907 -0.009718075 0.047914907 0.030916698 -0.040351637 0.032896623 0.04817275 -0.03607341
0.014268234 -0.016431496 -0.009783708 -0.032656252 -0.05015643 0.03425107 -0.03923992 0.034862176
-0.04705032 -0.055064216 -0.029351905 -0.06083872 -0.01817327 0.027009428 -0.010835357 -0.052641585
-0.018952973 0.05535467 -0.0025439635 -0.04247065 -0.023183078 0.016887285 0.06043251 0.0016731173
-0.0568379 -0.011968352 -0.05246845 -0.030091591 0.0125055015 0.060157463 0.026079021 0.039441496
-0.019258685 0.016314872 -0.030581474 -0.003056489 -0.018764473 0.011407062 -0.004282683 0.040031627
-0.011152387 0.030702218 -0.028883003 0.007522829 0.052078754 -0.0147219375 -0.008175932 -0.0498102
-0.023752138 -0.0037010312 0.033729896 -0.05224941 -0.061425127 -0.054899648 0.0023065954 -0.049711496
0.0029533803 -0.049933657 -0.028922357 -0.058633193 0.012408331 0.062134996 -0.015502624 -0.053916827
-0.019757919 0.062378712 0.051628 0.054129623 0.050269328 -0.031999648 0.032559425 -0.04733061
-0.039642386 -0.04918231 -0.010647751 0.01350037 -0.016468383 0.0553331 0.04047458 -0.026364349
-0.009811424 -0.014574029 -0.005295396 -0.015138462 0.002982445 0.02304276 -0.014055081 -0.041212276
0.0019997805 0.013103515 -0.022808798 -0.008081853 0.01073122 0.050516307 0.050241396 -0.021059029
0.027076185 -0.0061174184 -0.03484051 0.012613498 0.031438157 0.049981743 -0.028288424 0.013492316
0.0055098385 0.03404876 -0.03124497 0.040519223 0.034278758 0.039678648 -0.02878026 -0.040019996
0.043108277 -0.04466325 -0.023103796 0.026840538 0.012937069 0.016433977 -0.0069758594 0.0016618371
0.038220823 0.011354066 0.03855791 -0.029880755 -0.02938436 0.0039549917 0.031091444 -0.015759148
-0.015909046 -0.0007629469 0.02880387 0.06243121 0.041294105 -0.02437263 0.016170219 -0.061205357
0.003907338 -0.02666951 -0.04406836 -0.01631035 0.017125465 0.01871667 -0.05916301 -0.019101314
0.04997938 -0.030774444 -0.03905537 -0.01153747 -0.0128821805 -0.020330966 -0.022686996 0.018604487
-0.038841404 -0.03279891 0.027318142 -0.034633942 0.032697424 -0.0030295253 0.017726697 -0.055939965
00000000: 5454 763d 6a06 393d d08c 353c 86ed 27bd
00000010: a00e e03b b4c9 f9bc 8e97 7abd 80a0 4ebb
00000020: 14a2 63bd a605 1abd 0e89 243d 6a1c 02bd
00000030: 34e8 4abd b056 fbbc c26c 533d 1c90 b9bc
00000040: 44fe d33c f097 5ebc d031 fe3b 3c24 6f3d
00000050: 8e40 593d 2854 6b3d 604b 6abd c0ff cfbb
00000060: ac62 fd3c 8064 51bd 145e a03c 4c02 c33c
00000070: 72dc 11bd 8cf4 24bd 52a1 683d 4068 12bc
00000080: 2e8b 77bd 1086 1f3d 8cf0 4fbd b403 0f3d
00000090: a8c2 56bd a493 5e3d 0c40 d93c 582b c5bc
000000a0: a071 24bd 5ca0 4d3d 50a5 84bc 5076 1dbc
000000b0: 84ca e1bc aa8b 1cbd c49f a23c 58b8 1abc
000000c0: 9034 553c 12b3 22bd b077 d3bc a85d 233c
000000d0: b81f 653d 3ccb c43c 96f4 163d 06ab 273d
000000e0: b4ae f33c a0ef 8c3b 2c19 8bbc 6653 663d
000000f0: e05a e1bb 5aee 623d 6e00 38bd 929e 41bd
00000100: cc77 42bd c050 433c d099 b03c 201e e53b
00000110: 7005 d7bb 6eab 783d 52ad 31bd e401 c73c
00000120: 1c82 d03c 6e74 703d 6a9e 5dbd f4fc d6bc
00000130: d802 33bc 66a1 0fbd c258 10bd bc21 8f3c
00000140: b044 a0bc 00f8 0cbd 3c64 06bd faee 063d
00000150: 7855 013d ece1 c23c c052 0d3c 064f 0e3d
00000160: f85d 35bd 9038 1fbc 6c42 443d 0445 fd3c
00000170: c247 25bd 9cbe 063d ca50 453d b6c1 13bd
00000180: 50c5 693c 589b 86bc d84b 20bc 90c2 05bd
00000190: d470 4dbd da4a 0c3d 0aba 20bd a4cb 0e3d
000001a0: d6b7 40bd 048b 61bd 6873 f0bc 0632 79bd
000001b0: 1ce0 94bc e042 dd3c c886 31bc b49e 57bd
000001c0: 4443 9bbc 94bb 623d a0b8 26bb b4f5 2dbd
000001d0: 70ea bdbc 3457 8a3c 1488 773d 804c db3a
000001e0: dcce 68bd e816 44bc 28e9 56bd a482 f6bc
000001f0: e0e3 4c3c ac67 763d aca3 d53c 688d 213d
00000200: 64c4 9dbc c4a6 853c 0086 fabc 604f 48bb
00000210: f4b7 99bc b0e4 3a3c c055 8cbb 34f8 233d
00000220: 80b8 36bc 3883 fb3c 0c9c ecbc 1082 f63b
00000230: 8850 553d 4834 71bc 58f4 05bc c805 4cbd
00000240: d893 c2bc 008d 72bb 5c28 0a3d 7a03 56bd
00000250: ea98 7bbd 74de 60bd 402a 173b 489e 4bbd
00000260: 808d 413b 3c87 4cbd 94ee ecbc 5c29 70bd
00000270: 504c 4b3c 4481 7e3d b8fe 7dbc e4d7 5cbd
00000280: 5cdb a1bc d280 7f3d e277 533d 06b7 5d3d
00000290: 36e7 4d3d 1012 03bd 085d 053d bedd 41bd
000002a0: 0e60 22bd 6473 49bd e873 2ebc a830 5d3c
000002b0: b4e8 86bc f6a4 623d acc8 253d 0cfa d7bc
000002c0: 18c0 20bc e8c7 6ebc 0085 adbb 5007 78bc
000002d0: 2075 433b 2cc4 bc3c 4847 66bc 34ce 28bd
000002e0: c00e 033b 20b0 563c 84d9 babc c069 04bc
000002f0: 00d2 2f3c 30ea 4e3d ecc9 4d3d fc83 acbc
00000300: e0ce dd3c a074 c8bb ecb4 0ebd d8a8 4e3c
00000310: 4cc5 003d a8b9 4c3d 20bd e7bc e00e 5d3c
00000320: e08b b43b b676 0b3d 74f5 ffbc 7cf7 253d
00000330: e267 0c3d 1486 223d 94c4 ebbc 02ec 23bd
00000340: 4e92 303d d0f0 36bd 2c44 bdbc b0e0 db3c
00000350: 00f6 533c 8ca0 863c c095 e4bb 00d2 d93a
00000360: 708d 1c3d 6806 3a3c e6ee 1d3d 7cc8 f4bc
00000370: 78b7 f0bc e098 813b 7cb3 fe3c 5419 81bc
00000380: b053 82bc 8000 48ba 18f6 eb3c deb7 7f3d
00000390: 0224 293d 1ca9 c7bc 6877 843c 78b2 7abd
000003a0: 2009 803b 047a dabc 0681 34bd 489d 85bc
000003b0: b44a 8c3c b453 993c ea54 72bd 5c7a 9cbc
000003c0: 2eb7 4c3d b01a fcbc 86f8 1fbd a807 3dbc
000003d0: c80f 53bc 208d a6bc 14da b9bc 7068 983c
000003e0: 2a18 1fbd 2658 06bd 4cca df3c 52dc 0dbd
000003f0: bced 053d 008b 46bb 9437 913c 4e21 65bd

mu.weight f4 [4, 256]
0.05256334 -0.048226297 0.053243347 -0.05247259 -0.05158084 0.035936616 0.04345732 0.052165225
-0.021501012 0.02345603 0.032173365 -0.047708735 -0.058766045 0.0077330694 -0.032734334 0.046915255
0.05123733 0.011353157 0.022583328 -0.022222884 0.0362985 -0.060913116 0.03876736 -0.034574546
-0.0071202964 0.026704513 -0.019747801 0.03526365 0.014782168 0.0074216723 -0.03227587 -0.035181753
0.014566921 -0.01238513 -0.002320893 -0.02897662 0.0421665 -0.013192683 0.040795937 -0.044540606
-0.027014747 0.0075413883 0.028516263 -0.0067713484 0.00314074 -0.03435052 0.020180978 -0.057428427
-0.02021192 -0.029966958 0.032626756 -0.05513431 0.04979536 -0.034229957 0.03309489 0.061111853
-0.04467705 0.054831542 0.051070496 0.00544931 -0.04422138 -0.0054773837 -0.021086216 0.009709746
0.03817533 0.019433923 0.016767435 0.03586685 0.02858194 -0.0564704 0.008070737 -0.05801566
-0.041716173 -0.018312119 -0.04744952 -0.003100343 0.031084731 -0.012748599 -0.047656946 0.018101126
0.00828407 -0.04131046 0.036399364 -0.047771 0.031382993 -0.004156865 -0.046420775 0.023560807
-0.01964347 -0.01674655 -0.02070716 -0.009534828 0.0065646097 -0.05419866 -0.055806912 0.012052044
0.03804587 0.013393052 0.016036183 -0.035270907 -0.046035886 0.032992654 -0.010260828 -0.057421952
0.04943695 -0.022230498 0.03695181 0.033664778 0.048471823 0.019469164 0.039598353 0.0054185316
0.060975827 -0.014225595 0.0321735 0.034244902 0.046928003 -0.029236443 -0.04778502 -0.00030457228
0.0030199066 -0.053339206 -0.036612228 0.041565597 0.039165184 -3.5226345e-05 -0.0068969056 -0.03603021
-0.038601227 -0.0036554337 0.025735185 -0.02857133 0.025988951 -0.034795515 -0.019896194 0.039039925
-0.061264142 -0.0022063032 0.009424508 0.03901995 0.05736319 -0.0019118562 0.053636715 0.022289686
-0.055111825 0.021048822 -0.036640413 0.0101775825 -0.031058617 0.007975772 -0.058535345 -0.02956193
-0.044683523 0.060367443 0.05314503 0.0104630515 0.01745826 -0.04218924 0.050847687 -0.010068037
0.021929942 0.0283074 -0.0007521361 0.06117268 0.013160557 -0.054772995 0.028752133 -0.05977945
-0.031183071 0.042829722 -0.04946754 0.034874037 -0.028000496 -0.01780051 -0.056030735 0.023093686
0.0147771835 -0.01416523 -0.003989294 -0.027518399 0.046827093 -0.049244784 -0.033915006 0.049658284
0.00066968054 -0.02681131 0.04409647 0.0116434395 0.00073534995 -0.051261365 -0.030785955 -0.03960859
0.0054932684 0.026384518 0.053170316 0.023610502 0.051596843 0.024810307 0.0148130655 -0.030585349
-0.014243059 -0.061162606 -0.0071017593 0.036404833 -0.005106285 -0.030563578 -0.062028386 -0.041385755
-0.060061887 3.5017729e-06 -0.040918194 -0.015696414 -0.0041553453 -0.03644515 -0.046878986 0.024334803
0.024818495 -0.030539028 0.017342523 -0.024995886 0.048133187 -0.03369888 -0.043347575 -0.02158843
0.049981073 0.040184677 0.035242617 0.041344278 -0.04290197 0.0026269704 -0.0065818503 -0.0037606806
-0.060150146 -0.026976474 -0.0062665865 -0.012724571 -0.0017435476 0.043979086 0.036701694 0.044409253
-0.012969919 0.047109753 0.012894876 0.0005040318 0.025671795 -0.054288417 -0.037237026 -0.04518865
0.008697584 0.041807614 0.00917507 -0.0023684725 0.0032938197 -0.005209595 -0.030902013 -0.052037075
00000000: a84c 573d f088 45bd b215 5a3d 80ed 56bd
00000010: 6e46 53bd 4632 133d 4e00 323d 34ab 553d
00000020: e422 b0bc dc26 c03c 38c8 033d 3c6a 43bd
00000030: aab4 70bd b065 fd3b 7014 06bd 362a 403d
00000040: 3cde 513d 9802 3a3c ac00 b93c c40c b6bc
00000050: bcad 143d 0880 79bd 86ca 1e3d 0a9e 0dbd
00000060: 6051 e9bb 6cc3 da3c 24c6 a1bc 9e70 103d
00000070: e830 723c 8031 f33b b433 04bd be1a 10bd
00000080: 18aa 6e3c 00eb 4abc 201a 18bb 6060 edbc
00000090: c8b6 2c3d 2026 58bc a419 273d 3670 36bd
000000a0: 084e ddbc c01d f73b f09a e93c 30e2 ddbb
000000b0: e0d4 4d3b 22b3 0cbd 9452 a53c 123a 6bbd
000000c0: 7893 a5bc 447d f5bc a2a3 053d 84d4 61bd
000000d0: 38f6 4b3d b634 0cbd 828e 073d 6c50 7a3d
000000e0: 48ff 36bd 0a97 603d 4c2f 513d 2090 b23b
000000f0: 7a21 35bd a07b b3bb 00bd acbc a015 1f3c
00000100: bc5d 1c3d e433 9f3c dc5b 893c 1ee9 123d
00000110: ac24 ea3c 824d 67bd 203b 043c d4a1 6dbd
00000120: 94de 2abd 4c03 96bc 6e5a 42bd 202f 4bbb
00000130: 68a5 fe3c 80df 50bc ee33 43bd d048 943c
00000140: e8b9 073c 2835 29bd 8017 153d 86ab 43bd
00000150: 748b 003d 5036 88bb b623 3ebd 9802 c13c
00000160: 58eb a0bc 1030 89bc 10a2 a9bc f837 1cbc
00000170: f01b d73b 6aff 5dbd ca95 64bd f075 453c
00000180: fcd5 1b3d 886e 5b3c 505e 833c 3a78 10bd
00000190: 2090 3cbd 4e23 073d 081d 28bc 4833 6bbd
000001a0: 667e 4a3d bc1c b6bc c85a 173d 14e4 093d
000001b0: 648a 463d cc7d 9f3c e231 223d f08d b13b
000001c0: cac1 793d 7812 69bc 5cc8 033d 6244 0c3d
000001d0: 9437 403d 4481 efbc 3aba 43bd 00af 9fb9
000001e0: a0e9 453b 367a 5abd b4f6 15bd b040 2a3d
000001f0: ac6b 203d 00c0 13b8 70ff e1bb 6a94 13bd
00000200: 521c 1ebd 0090 6fbb 98d2 d23c 6c0e eabc
00000210: c8e6 d43c be85 0ebd 58fd a2bc 54e8 1f3d
00000220: 1cf0 7abd a097 10bb 4069 1a3c 62d3 1f3d
00000230: aaf5 6a3d 4097 faba 2cb2 5b3d dc98 b63c
00000240: f0bc 61bd 946e ac3c 4214 16bd e0bf 263c
00000250: a46e febc d0ac 023c c2c2 6fbd dc2b f2bc
00000260: 1206 37bd da43 773d 9aae 593d 386d 2b3c
00000270: a004 8f3c a0ce 2cbd aa45 503d 68f4 24bc
00000280: 6ca6 b33c ece4 e73c 002b 45ba 3490 7a3d
00000290: 609f 573c a659 60bd 9889 eb3c 4cdb 74bd
000002a0: a473 ffbc 386e 2f3d 7a9e 4abd 14d8 0e3d
000002b0: 4c61 e5bc 60d2 91bc 7c80 65bd f82e bd3c
000002c0: 001c 723c 4815 68bc a0b8 82bb 446e e1bc
000002d0: c4cd 3f3d e6b4 49bd 76ea 0abd 7c66 4b3d
000002e0: 808d 2f3a 64a3 dbbc 809e 343d 20c4 3e3c
000002f0: 80c4 403a 70f7 51bd d432 fcbc 9e3c 22bd
00000300: e000 b43b 5824 d83c 1ec9 593d d06a c13c
00000310: 3657 533d fc3e cb3c 80b2 723c 208e fabc
00000320: b85b 69bc a485 7abd e0b5 e8bb 3c1d 153d
00000330: a052 a7bb 7860 fabc 7a11 7ebd 1c84 29bd
00000340: 7403 76bd 0000 6b36 d699 27bd c495 80bc
00000350: 9029 88bb 8247 15bd 2e04 40bd c859 c73c
00000360: 2850 cb3c fc2c fabc e811 8e3c 2cc4 ccbc
00000370: 4e27 453d d607 0abd 3a8d 31bd 38da b0bc
00000380: f4b8 4c3d b098 243d 905a 103d 9e58 293d
00000390: fab9 2fbd 4029 2c3b 90ac d7bb c075 76bb
000003a0: 0060 76bd c4fd dcbc f057 cdbb b87a 50bc
000003b0: c087 e4ba 6a23 343d 8454 163d 7ae6 353d
000003c0: c87f 54bc 28f6 403d 0845 533c 0021 043a
000003d0: a84d d23c 885d 5ebd da85 18bd bc17 39bd
000003e0: 5080 0e3c 763e 2b3d 0853 163c 6038 1bbb
000003f0: 20dd 573b 40b5 aabb 3826 fdbc d424 55bd

mu.bias f4 [4]
-0.0004415214 -0.044998355 -0.059703723 0.031482868
00000000: 007c e7b9 3250 38bd e48b 74bd 2ef4 003d

sigma.weight f4 [4, 256]
0.007540047 0.016675986 0.015489474 -0.047256917 -0.037921697 -0.050311483 -0.023355603 -0.012713276
0.04658016 -0.03108327 0.040211447 -0.02994281 0.022448093 0.035405032 0.0057241917 -0.04412786
-0.051899247 -0.016865171 0.011430487 -0.01215633 -0.020213582 -0.004270643 -0.03469131 0.035268605
0.024522342 0.005238302 -0.0041399375 0.03544657 0.036144495 -0.0016483739 0.054887228 0.024130918
0.03268694 0.047298156 0.046522647 -0.018538266 -0.022575222 0.03968367 0.055303372 -0.042119056
-0.0033553615 -0.028115973 -0.021687716 -0.042700753 0.014603503 -0.05761306 0.031032383 0.037918568
-0.022768997 -0.0039795786 0.04965557 0.05155632 -0.047487 0.039789513 0.012722164 -0.05093781
-0.062378615 -0.020774864 -0.048634134 -0.0490854 -0.020338736 0.0026997328 -0.031769454 0.023874111
-0.017171152 0.012920216 -0.016445413 0.007122591 0.061779983 0.052303053 0.03358051 -0.060117193
-0.049649104 0.015929379 -0.04168365 0.024758123 0.029018499 0.03412891 -0.028152063 -0.023535214
0.047099717 0.028355502 -0.046712533 0.010256581 -0.025391929 -0.03533592 0.020506874 0.02404926
-0.014565691 0.039480157 -0.05419202 -0.0028022677 -0.020820871 -0.0026674792 -0.043093674 0.0071107373
0.007685527 -0.035315655 0.030237377 -0.0531677 -0.013840154 0.038046904 -0.035083324 -0.014096893
-0.01941701 -0.006223269 0.03973966 0.011890791 0.05279284 0.04556848 0.034211032 0.052671485
0.04875093 0.0125916675 -0.05592309 -0.024189346 0.04271222 -0.0622779 -0.05771386 -0.020830877
-0.02595146 0.021127053 -0.05688332 -0.043391816 -0.025610216 -0.047230326 -0.022437483 0.04179363
0.0052510574 0.036897615 -0.045350343 -0.023292355 0.041270904 0.03608028 -0.0609603 -0.008397937
0.0047427714 -0.020966 -0.05117213 0.01827328 0.053790107 0.0007484481 -0.037862323 -0.029630333
-0.056608893 -0.0067215264 0.049193308 0.0037590265 0.02032008 0.05650212 -0.011601187 -0.031378925
0.0134476945 -0.027294196 0.057098724 -0.02114617 -0.02916672 -0.04403644 0.03222791 -0.036154345
0.03188017 -0.04591813 0.017560676 0.054583788 0.027915113 0.024457112 -0.006726563 -0.00019840151
-0.020475894 -0.044826098 0.055226088 -0.026086465 -0.023103118 -0.009849839 -0.043639608 -0.020795614
0.023235932 0.057148904 -0.052145176 0.0086183995 -0.044345014 0.059539407 -0.012783296 -0.061713405
-0.026053019 0.032782555 -0.03374727 -0.026761867 0.057124726 -0.050280675 -0.011138134 -0.019471817
-0.042738847 -0.05241806 0.028272793 -0.052837126 -0.026752867 0.042090498 -0.00465668 0.043599546
0.04459794 0.047189467 0.049058475 -0.036485806 0.030389115 -0.024288878 -0.03588526 0.049323298
0.05527383 -0.0031029657 -0.042746663 0.022477105 -0.03831353 0.037108533 -0.0055442527 -0.046643823
0.0326906 0.0064679384 -0.030288279 0.022999205 0.059625253 -0.019401908 0.0026703253 -0.046356022
0.022166677 -0.0231743 -0.021481112 0.057723477 0.036499776 0.050123014 0.022092812 0.060912713
-0.0026837364 0.024852261 -0.03960138 0.002546072 -0.009159461 0.047079816 -0.01415883 0.05272369
-0.03155727 0.0035388246 -0.021948911 0.023090504 0.0052153394 0.013419047 -0.059938848 -0.007425882
0.056499302 -0.0624732 0.026176311 -0.049557664 0.006687686 0.03392359 0.042012677 0.0536889
00000000: 8012 f73b 149c 883c 90c7 7d3c 7890 41bd
00000010: c853 1bbd 6a13 4ebd 4054 bfbc 584b 50bc
00000020: d6ca 3e3d 58a2 febc c2b4 243d a04a f5bc
00000030: 10e5 b73c de04 113d 0092 bb3b 6abf 34bd
00000040: 4e94 54bd d428 8abc f046 3b3c 582b 47bc
00000050: f496 a5bc c0f0 8bbb 7a18 0ebd d075 103d
00000060: 14e3 c83c 10a6 ab3b 50a8 87bb 6c30 113d
00000070: 400c 143d 400e d8ba 6ed1 603d 34ae c53c
00000080: bee2 053d b6bb 413d 888e 3e3d 90dd 97bc
00000090: acef b8bc 588b 223d ca85 623d 0885 2cbd
000000a0: a0e5 5bbb 7853 e6bc 70aa b1bc fce6 2ebd
000000b0: 8843 6f3c acfb 6bbd a037 fe3c 8050 1b3d
000000c0: 0c86 babc 2067 82bb a463 4b3d b82c 533d
000000d0: ba81 42bd 54fa 223d a070 503c 2aa4 50bd
000000e0: b880 7fbd 0c30 aabc 9634 47bd c60d 49bd
000000f0: 6c9d a6bc 00ee 303b b020 02bd a493 c33c
00000100: 84aa 8cbc 50af 533c 88b8 86bc a064 e93b
00000110: 020d 7d3d ba3b 563d b88b 093d 723d 76bd
00000120: dc5c 4bbd 547e 823c 7abc 2abd 8cd1 ca3c
00000130: 34b8 ed3c c2ca 0b3d 289f e6bc eccc c0bc
00000140: a2eb 403d cc49 e83c a455 3fbd 380b 283c
00000150: bc02 d0bc 66bc 10bd 08fe a73c f402 c53c
00000160: f0a4 6ebc f2b5 213d 74f8 5dbd 40a6 37bb
00000170: 8890 aabc e0d0 2ebb fe82 30bd 3001 e93b
00000180: e0d6 fb3b 26a7 10bd 60b4 f73c 60c6 59bd
00000190: d0c1 62bc 12d7 1b3d 88b3 0fbd a8f6 66bc
000001a0: 6c10 9fbc 90ec cbbb 0ec6 223d 98d1 423c
000001b0: 4e3d 583d 04a6 3a3d de20 0c3d 0ebe 573d
000001c0: 0eaf 473d 484d 4e3c 9c0f 65bd bc28 c6bc
000001d0: 02f3 2e3d 1c17 7fbd 5e65 6cbd 84a5 aabc
000001e0: 2898 d4bc a412 ad3c 7cfe 68bd 9ebb 31bd
000001f0: 84cc d1bc 9674 41bd d0ce b7bc cc2f 2b3d
00000200: 1011 ac3b f421 173d 48c1 39bd 9ccf bebc
00000210: ae0b 293d eac8 133d 82b1 79bd 8097 09bc
00000220: 4069 9b3b e4c0 abbc de99 51bd d8b1 953c
00000230: 0453 5c3d 8033 443a 8615 1bbd 50bb f2bc
00000240: bade 67bd 4040 dcbb ec7e 493d 005a 763b
00000250: 4c76 a63c c46e 673d e812 3ebc 3087 00bd
00000260: b853 5c3c 1498 dfbc 5ae0 693d bc3a adbc
00000270: 0cef eebc 8e5f 34bd 6a01 043d 9416 14bd
00000280: c894 023d a614 3cbd 68db 8f3c 4093 5f3d
00000290: 3cae e43c 485a c83c 806a dcbb 000a 50b9
000002a0: 10bd a7bc 929b 37bd c034 623d 48b3 d5bc
000002b0: c042 bdbc 3861 21bc 72bf 32bd 905b aabc
000002c0: 4859 be3c f814 6a3d 2e96 55bd 3034 0d3c
000002d0: 1ea3 35bd 98df 733d 0871 51bc 32c7 7cbd
000002e0: 246d d5bc 0047 063d 943a 0abd b43b dbbc
000002f0: 9efb 693d 1cf3 4dbd b87c 36bc 5c83 9fbc
00000300: ee0e 2fbd 52b4 56bd 589c e73c be6b 58bd
00000310: d428 dbbc 1667 2c3d 1097 98bb 7095 323d
00000320: 54ac 363d be49 413d 8af1 483d 2472 15bd
00000330: 98f2 f83c 78f9 c6bc 6cfc 12bd 3a07 4a3d
00000340: d066 623d 205b 4bbb 2017 2fbd e821 b83c
00000350: a6ee 1cbd 1eff 173d 90ac b5bb 980d 3fbd
00000360: 94e6 053d 00f1 d33b 201f f8bc d468 bc3c
00000370: 9c39 743d c0f0 9ebc a000 2f3b d0df 3dbd
00000380: e496 b53c 08d8 bdbc 28f9 afbc 746f 6c3d
00000390: ca80 153d ca4d 4d3d fcfb b43c 9c7f 793d
000003a0: a0e1 2fbb f896 cb3c 0e35 22bd 00dc 263b
000003b0: 9011 16bc c4d6 403d 70fa 67bc ccf4 573d
000003c0: 3242 01bd a0eb 673b 34ce b3bc 4c28 bd3c
000003d0: 70e5 aa3b 90db 5b3c 7082 75bd d054 f3bb
000003e0: d06b 673d e6e3 7fbd b46f d63c fafc 4abd
000003f0: 6024 db3b 76f3 0a3d 7c15 2c3d e4e8 5b3d

sigma.bias f4 [4]
0.031809628 -0.016024068 -0.048165314 0.021115877
00000000: d04a 023d e844 83bc fe48 45bd 34fb ac3c
