SAC_own/sac_0/critic_2_sac.pth (torch, 296570 bytes, 5 tensors)

fc1.weight f4 [256, 28]
-0.068979174 0.08773138 0.14995946 0.052502766 -0.046355844 -0.033657953 -0.07095872 -0.13610575
0.010198876 -0.029598206 0.020838201 0.018036336 0.06685574 0.048801124 0.11759533 -0.17060049
-0.14260364 -0.1692238 -0.17007351 0.1879149 -0.075177535 0.055202767 -0.004784614 -0.034786746
0.1341723 -0.015751496 0.012694836 -0.042001203 0.0068679005 -0.047301903 0.09316917 -0.013180286
-0.16379467 -0.13261051 0.1483651 0.11920275 0.17964421 0.18501218 0.1755162 -0.11127029
-0.040952176 0.026517734 -0.020643234 0.0063721985 0.169356 0.16669498 -0.09621015 0.16384815
-0.035869434 -0.12228499 -0.047594428 0.035659134 -0.048324272 0.007876664 0.018424705 -0.037921876
-0.18465616 -0.04852873 -0.11797665 0.03226973 0.07132332 0.14772607 0.09807585 -0.14741713
0.011790127 0.17685159 0.15329994 -0.14561522 -0.09007852 0.06626187 0.17153896 -0.09013063
0.1078649 0.14489682 0.14255796 0.112445876 -0.13598609 0.062766686 -0.02658853 0.13388805
0.15761794 -0.08571588 0.17958559 -0.07370672 0.06303726 0.06465922 -0.041993037 0.15103982
0.03134881 -0.14554788 -0.09678363 -0.12152479 0.0050686 -0.034969673 0.13319619 0.030424088
0.14477937 -0.08717363 -0.015313521 -0.074335374 0.1648732 -0.11627479 0.050107032 -0.097897865
-0.009373024 0.17017089 -0.036793217 -0.083058655 -0.12971768 0.043085948 -0.12543279 0.06781815
0.050109103 0.18676396 -0.030413568 0.024929762 -0.06775822 0.08254193 0.12173344 0.006345138
0.06594904 -0.1603258 -0.13249227 -0.16673623 -0.111860566 -0.092686884 0.101743326 0.08385615
0.11138193 0.024060443 0.07272987 -0.11935679 0.10449098 -0.10185479 0.020895824 0.10835959
-0.069525756 0.05715719 0.15266128 -0.019989282 0.08122863 0.043010682 0.13024996 0.1134292
0.02044481 0.14980714 -0.030073866 -0.18728605 0.015720055 0.02991508 0.02812408 0.05290465
0.16277547 -0.1235834 -0.08353835 0.1508842 0.13571997 -0.121472955 -0.11119595 -0.14485669
0.09219967 -0.14140192 0.17218386 -0.10569293 0.08307065 0.09615667 -0.1462811 0.15002732
0.08897306 -0.045864955 0.17303814 -0.17367767 0.13096537 -0.0763024 0.038191557 0.018154636
0.07018541 -0.17547533 -0.09335627 -0.032757744 -0.14280984 0.08456783 0.083572164 0.08245422
0.12604906 0.15293469 0.1358812 0.14375438 -0.13668352 0.13632132 0.054873437 0.10077153
-0.17562324 0.16412778 0.047595337 -0.046961695 -0.040926754 0.015295014 0.081637874 -0.10983208
0.0983028 -0.17022733 0.14663284 -0.15492932 -0.056901515 -0.027722701 -0.048742726 0.05052933
0.040684044 0.1395251 0.07158218 0.026806965 -0.06395897 -0.00070521235 -0.1505765 0.16846864
0.17887993 0.0790558 -0.04927808 0.07718356 0.03292948 0.12265028 -0.060946047 -0.022802219
-0.049732164 -0.046008855 0.13139991 -0.13409248 0.12441416 0.0005555749 -0.12042531 -0.18144323
0.012297347 0.1451195 0.13219933 -0.08884743 0.03978695 -0.14037749 0.010454878 0.0678346
0.10439555 -0.18347515 0.089818016 0.17331932 0.13512646 -0.11486591 -0.036534727 0.1014459
0.12096538 -0.048846707 -0.006399423 0.15600143 -0.011914477 0.06131868 0.063801095 0.14308186
00000000: f444 8dbd 82ac b33d f98e 193e 240d 573d
00000010: a0df 3dbd ecdc 09bd ce52 91bd 4e5f 0bbe
00000020: 3019 273c f077 f2bc e0b4 aa3c f0c0 933c
00000030: aaeb 883d b0e3 473d d2d5 f03d e5b1 2ebe
00000040: b006 12be 0149 2dbe c027 2ebe c36c 403e
00000050: aef6 99bd 4c1c 623d 40c8 9cbb 8c7c 0ebd
00000060: 7764 093e 4809 81bc 00fe 4f3c 7409 2cbd
00000070: 200c e13b a4bf 41bd 7acf be3d 20f2 57bc
00000080: cab9 27be 0dcb 07be 05ed 173e 9220 f43d
00000090: a7f4 373e d573 3d3e 85ba 333e aee1 e3bd
000000a0: 78bd 27bd b83b d93c 001c a9bc e0cd d03b
000000b0: a96b 2d3e 17b2 2a3e d409 c5bd cfc7 273e
000000c0: d4eb 12bd 8e70 fabd 60f2 42bd 500f 123d
000000d0: acef 45bd 200d 013c 68ef 963c f853 1bbd
000000e0: 8116 3dbe 10c6 46bd be9d f1bd 442d 043d
000000f0: f611 923d 8145 173e fedb c83d 84f4 16be
00000100: 602b 413c 9518 353e a9fa 1c3e 281c 15be
00000110: 167b b8bd 4eb4 873d e9a7 2f3e 6896 b8bd
00000120: 46e8 dc3d d55f 143e b7fa 113e 064a e63d
00000130: f03f 0bbe d28b 803d 30d0 d9bc f319 093e
00000140: 9966 213e cf8b afbd 49e5 373e 8cf3 96bd
00000150: ae19 813d 0e6c 843d e400 2cbd 2faa 1a3e
00000160: 9c67 003d 810a 15be 7f36 c6bd fde1 f8bd
00000170: 8016 a63b 5c3c 0fbd 9564 083e f03b f93c
00000180: 0b41 143e 1788 b2bd 90e5 7abc 253d 98bd
00000190: 85d4 283e 7a21 eebd 083d 4d3d ad7e c8bd
000001a0: 5091 19bc 4741 2e3e 7cb4 16bd a81a aabd
000001b0: b6d4 04be e47a 303d 7471 00be 3ee4 8a3d
000001c0: 343f 4d3d 0d3f 3f3e e025 f9bc 8039 cc3c
000001d0: d2c4 8abd be0b a93d 624f f93d e0ea cf3b
000001e0: 4a10 873d 722c 24be 0eac 07be e7bc 2abe
000001f0: 2717 e5bd 9fd2 bdbd ce5e d03d c6bc ab3d
00000200: 361c e43d 681a c53c 66f3 943d 5571 f4bd
00000210: 5eff d53d 3e99 d0bd b82d ab3c a2eb dd3d
00000220: 8563 8ebd a81d 6a3d 3d53 1c3e 90c0 a3bc
00000230: 325b a63d f82b 303d 3f60 053e 924d e83d
00000240: e07b a73c 0b67 193e 785d f6bc eac7 3fbe
00000250: 58c7 803c 7810 f53c 7864 e63c 8cb2 583d
00000260: 9dae 263e 4b19 fdbd 2816 abbd 6381 1a3e
00000270: 2dfa 0a3e d0c6 f8bd b4ba e3bd 5055 14be
00000280: 2ed3 bc3d aacb 10be f750 303e 8975 d8bd
00000290: f220 aa3d caed c43d b6ca 15be c3a0 193e
000002a0: 8237 b63d e4dc 3bbd e930 313e 8fd8 31be
000002b0: c91b 063e 6f44 9cbd c06e 1c3d 08b9 943c
000002c0: 5ebd 8f3d ceaf 33be 9231 bfbd fc2c 06bd
000002d0: be3c 12be e631 ad3d e227 ab3d c2dd a83d
000002e0: 0113 013e e99a 1c3e 7124 0b3e 5934 133e
000002f0: c4f6 0bbe d197 0b3e f8c2 603d 4e61 ce3d
00000300: 94d6 33be 1d11 283e 54f3 423d e85a 40bd
00000310: d0a2 27bd f097 7a3c c231 a73d a4ef e0bd
00000320: fa52 c93d 1350 2ebe eb26 163e cba5 1ebe
00000330: 9011 69bd b81a e3bc 74a6 47bd d8f7 4e3d
00000340: 50a4 263d abdf 0e3e ae99 923d 489a db3c
00000350: ecfc 82bd 00de 38ba ba30 1abe 0b83 2c3e
00000360: 4d2c 373e 02e8 a13d d0d7 49bd 6a12 9e3d
00000370: 10e1 063d 1230 fb3d 90a2 79bd b8cb babc
00000380: f4b3 4bbd c873 3cbd b38d 063e 8a4f 09be
00000390: dacc fe3d 00a4 113a 8ca1 f6bd 41cc 39be
000003a0: d07a 493c 359a 143e 435f 073e a4f5 b5bd
000003b0: a4f7 223d 1ebf 0fbe f04a 2b3c deec 8a3d
000003c0: 56cd d53d e9e0 3bbe 82f2 b73d 9f7a 313e
000003d0: 975e 0a3e d13e ebbd 70a5 15bd dec2 cf3d
000003e0: b2bc f73d 7c13 48bd 40b2 d1bb d7be 1f3e
000003f0: f034 43bc 4c29 7b3d 26aa 823d 0d84 123e

fc1.bias f4 [256]
-0.05149226 0.15903519 0.049002126 0.07486071 -0.0975585 0.026802108 0.05915387 0.15748666
-0.17894918 0.17630015 0.0740224 0.1317132 0.13354282 -0.15323699 0.033711582 0.15533994
0.11168085 -0.0909177 0.17537604 -0.17448962 -0.05513148 0.0036206543 -0.051330954 0.040310174
0.18393092 -0.020557895 0.09325223 0.1357127 -0.17125684 0.022451907 0.054799005 -0.17420948
0.0037212223 -0.13930301 -0.03803855 0.13340767 0.07101683 -0.17890958 -0.16494432 0.09037112
0.16276853 0.004700318 -0.12310086 -0.10800133 0.07086529 -0.0037820786 -0.07411876 -0.021861956
0.12953438 -0.07873209 0.049148902 -0.103557825 0.10075967 0.07005651 -0.10688331 -0.058208212
0.09580238 0.17613237 -0.028515816 -0.00526765 0.121397 -0.025378346 -0.11579608 -0.10960371
0.17130502 0.028449908 -0.18480653 -0.14216635 -0.10450325 0.17139502 0.038690567 -0.071439475
0.16005369 0.081597224 0.04500732 0.14679594 0.08151628 -0.00048591197 0.17348783 0.05277008
0.08406772 0.18114693 -0.106113136 -0.09843749 -0.18054624 -0.11276024 0.036586538 -0.06867983
0.04204181 0.100045726 -0.041235134 -0.13014212 0.05166562 0.12937538 0.07245313 0.05968538
-0.11766157 0.046509773 -0.12851101 0.1556892 -0.12254875 0.044116944 -0.042906195 0.013187692
-0.038868025 -0.16028783 -0.00031764805 0.15574385 0.030121014 0.103496805 -0.040362 0.18646233
-0.062240347 -0.15467083 0.17556511 -0.041399658 -0.16794056 0.14733453 0.12460561 0.06281279
-0.11141975 -0.15254912 -0.05581671 -0.0755337 0.1447397 -0.02754572 -0.16221568 0.0626003
-0.14187032 -0.11796676 0.0034845024 -0.10517446 0.008390069 0.053782538 -0.058991194 -0.04500711
-0.11519923 0.16013645 -0.08017227 -0.017373458 0.037188753 -0.06987837 -0.1194519 0.040033802
-0.08994501 -0.07827296 0.16343467 -0.14265943 -0.0030575097 0.14048813 -0.07081553 0.094560966
0.17449357 0.18626074 -0.120493755 -0.15123522 -0.16221616 0.13497604 -0.13719122 -0.17724936
0.07096048 -0.1423308 -0.0505538 -0.13077685 -0.10606765 0.01407142 0.045924157 0.020998716
-0.06157741 -0.049090773 0.09943439 0.03171718 0.118921146 0.17151745 0.12559758 -0.1429633
0.00953947 0.054423004 0.17114569 -0.026364535 0.10331948 0.10311033 -0.1680395 0.1035579
-0.118033946 0.11078487 0.025041029 -0.064662516 -0.03777069 0.1393864 0.13212867 0.12178476
-0.1131266 0.16570373 0.039463386 -0.05709064 0.057843268 -0.12838104 -0.028867647 0.113596454
0.16360055 0.084422156 0.17066036 -0.030999333 0.1582186 -0.019054934 -0.02628623 -0.17230129
0.14099939 -0.10290729 -0.15127492 0.11831464 -0.093968414 0.14841531 0.12015562 0.16577865
0.075203404 0.15143971 0.17616488 0.09404592 0.117697224 -0.11916737 -0.061238065 -0.02418372
0.064367965 0.16920437 0.018044963 0.18106793 0.03986357 0.08067916 -0.025730073 -0.072317235
0.13459639 -0.1272503 -0.1469758 0.09341298 0.030524641 -0.114365235 -0.12118337 -0.017804697
-0.106226966 -0.02441004 0.12659971 0.14286892 -0.14352857 0.120036915 0.050321057 0.05916238
-0.09164708 -0.010837749 -0.11193878 -0.17411791 0.14450221 0.05271317 0.17768054 0.18562166
00000000: 8ce9 52bd 1fda 223e 74b6 483d 9250 993d
00000010: c0cc c7bd 1890 db3c 544b 723d 2f44 213e
00000020: 743e 37be 0788 343e 0e99 973d d3df 063e
00000030: 73bf 083e 28ea 1cbe 2815 0a3d 6f11 1f3e
00000040: eeb8 e43d 0f33 babd c795 333e 68ad 32be
00000050: 8cd1 61bd 8048 6d3b 6840 52bd 481c 253d
00000060: 6358 3c3e 0869 a8bc 06fb be3d 45f8 0a3e
00000070: f45d 2fbe 10ed b73c ec74 603d f863 32be
00000080: c0df 733b 73a5 0ebe 50ce 1bbd 059c 083e
00000090: 4671 913d 1334 37be 2ae7 28be 7e14 b93d
000000a0: cbac 263e 2005 9a3b 4e1c fcbd cd2f ddbd
000000b0: d221 913d c0dc 77bb 94cb 97bd d817 b3bc
000000c0: a9a4 043e 4a3e a1bd 5c50 493d 2016 d4bd
000000d0: 165b ce3d ca79 8f3d a3e5 dabd bc6b 6ebd
000000e0: 0a34 c43d 0b5c 343e 009a e9bc 409c acbb
000000f0: fe9e f83d 40e6 cfbc 7f26 edbd e977 e0bd
00000100: 956a 2f3e c80f e93c ec3d 3dbe 0e94 11be
00000110: cd05 d6bd 2d82 2f3e 007a 1e3d dc4e 92bd
00000120: 1de5 233e 721c a73d 9859 383d ad51 163e
00000130: 02f2 a63d 00c2 feb9 cba6 313e 7025 583d
00000140: b22b ac3d 957e 393e d851 d9bd 9899 c9bd
00000150: 1de1 38be d7ee e6bd c4db 153d 03a8 8cbd
00000160: 0834 2c3d c6e4 cc3d 2ce6 28bd fa43 05be
00000170: 549f 533d fb7a 043e 4e62 943d a878 743d
00000180: 8df8 f0bd 0881 3e3d 6498 03be fd6c 1f3e
00000190: d7fa fabd f8b3 343d 68be 2fbd 3011 583c
000001a0: 1434 1fbd 7e22 24be 008a a6b9 517b 1f3e
000001b0: 58c0 f63c 22f6 d33d a052 25bd fbef 3e3e
000001c0: bcef 7ebd 0862 1ebe 57c7 333e b092 29bd
000001d0: 9cf8 2bbe ddde 163e 3a31 ff3d fea3 803d
000001e0: 0a30 e4bd d635 1cbe 10a0 64bd 6ab1 9abd
000001f0: a536 143e 90a7 e1bc de1b 26be 9634 803d
00000200: 7446 11be 8f98 f1bd 405c 643b b565 d7bd
00000210: 8076 093c 144b 5c3d c0a0 71bd 6059 38bd
00000220: 93ed ebbd cffa 233e 5c31 a4bd c852 8ebc
00000230: 3c53 183d 641c 8fbd 33a3 f4bd 7cfa 233d
00000240: 1735 b8bd 934d a0bd 6b5b 273e 5015 12be
00000250: 8060 48bb 1fdc 0f3e bc07 91bd 2ea9 c13d
00000260: 71ae 323e 23bb 3e3e 6ec5 f6bd 68dd 1abe
00000270: fe1b 26be 2937 0a3e db7b 0cbe db80 35be
00000280: ba53 913d 2abf 11be 8011 4fbd 5eea 05be
00000290: ff39 d9bd d08b 663c f81a 3c3d 8005 ac3c
000002a0: 9838 7cbd 6813 49bd 42a4 cb3d e0e9 013d
000002b0: ee8c f33d 45a2 2f3e a79c 003e f964 12be
000002c0: 704b 1c3c a8ea 5e3d d140 2f3e 70fa d7bc
000002d0: 2a99 d33d 822b d33d 8c12 2cbe 2a16 d43d
000002e0: c8bb f1bd 2ee3 e23d d822 cd3c c86d 84bd
000002f0: 70b5 1abd 4fbb 0e3e bd4c 073e 4a6a f93d
00000300: ebae e7bd 3dae 293e 5ca4 213d e0d7 69bd
00000310: 10ed 6c3d 5276 03be d87b ecbc 42a5 e83d
00000320: e786 273e 86e5 ac3d 97c1 2e3e 50f2 fdbc
00000330: 0f04 223e 1819 9cbc 3856 d7bc c06f 30be
00000340: 2562 103e 0fc1 d2bd d0e7 1abe f24e f23d
00000350: 8372 c0bd 2ffa 173e 2614 f63d e1c1 293e
00000360: 3e04 9a3d 0313 1b3e 9164 343e 269b c03d
00000370: 3e0b f13d 060e f4bd c4d4 7abd f01c c6bc
00000380: 5ad3 833d e943 2d3e 08d3 933c df69 393e
00000390: fc47 233d 1e3b a53d e0c7 d2bc 0f1b 94bd
000003a0: a3d3 093e e74d 02be d380 16be 4e4f bf3d
000003b0: d00e fa3c 5238 eabd fd2e f8bd 28db 91bc
000003c0: 868d d9bd 90f7 c7bc 5ba3 013e 3b4c 123e
000003d0: 27f9 12be ead5 f53d 741d 4e3d 4054 723d
000003e0: 77b1 bbbd d090 31bc 2940 e5bd f74b 32be
000003f0: 63f8 133e c4e9 573d e3f1 353e 9b13 3e3e

fc2.weight f4 [256, 256]
0.053594686 0.04821848 -0.057678513 -0.0100521 -0.03137052 -0.023323178 -0.010304339 0.024065845
-0.043855093 0.020982817 0.027093135 0.060632862 -0.038402207 -0.04066109 -0.040837735 -0.015892752
-0.011201844 -0.009372808 0.05109576 0.055218056 0.020914972 0.0038355216 0.057387687 -0.005996175
0.0037740394 0.060661845 -0.0102479905 -0.013572745 0.056222625 0.035914928 -0.022026196 0.0021101087
0.008915462 -0.059297487 -0.027509607 0.010688812 0.05528392 0.02228944 0.012423307 -0.0029129758
-0.062003702 -0.027146764 0.039930396 -0.0072957054 -0.053561263 0.01052393 0.0072175935 -0.01877144
0.056342088 0.021188155 -0.014224604 -0.061679125 0.058193848 0.033939354 0.028775103 -0.029095754
0.04982508 -0.012849428 -0.06157641 -0.020225525 0.00829234 -0.05688996 0.018742926 0.004383385
-0.018515356 -0.0006197989 -0.011872046 -0.006057076 -0.05687684 -0.020437494 0.03322885 0.039294362
-0.04390599 -0.033854946 -0.04855813 -0.039315104 -0.044703268 0.022847481 0.049598955 0.008452751
0.024219602 0.032950066 -0.04281257 -0.004233502 0.015182272 -0.021890111 0.062335655 0.0036064237
-0.0107565 0.058158264 -0.05870019 0.03647162 -0.05521086 0.036191836 0.024624102 0.012873903
0.0012406632 0.03276813 0.032853544 -0.036778994 0.061078943 -0.03524158 -0.05858943 0.019455157
-0.007420093 0.031725086 -0.031822927 -0.0036352128 -0.008584395 0.05428455 0.02405414 0.03489296
0.011635326 0.04210782 0.0013267845 -0.023767874 0.04090356 0.039203003 0.008977808 0.01856941
-0.04779812 0.017542087 0.027079374 -0.057587586 -0.040335655 -0.024386227 -0.000292629 -0.046464935
0.011873096 -0.010043472 -0.020884492 -0.05457683 -0.02446375 0.020039774 0.029594429 -0.040520266
0.01838854 -0.044316784 -0.057495564 -0.024240486 0.053592883 0.04912447 0.030225039 0.030673198
0.024782062 -0.039187714 0.01753728 -0.038178563 -0.017776929 -0.0016613826 -0.0004793778 0.025563784
0.03555555 -0.052778676 0.025004089 0.046972297 0.022570036 0.01917594 -0.05852837 -0.005585082
-0.012352645 0.01431901 -0.027109168 -0.041800685 -0.04563582 0.013518013 0.049957693 -0.041101135
0.022007957 -0.031955637 0.056956016 -0.023363352 0.032562315 0.051447727 -0.014352679 0.0025714189
0.051268876 0.057639077 -0.055592887 -0.01365263 0.035527423 0.060871676 0.042725198 0.02764038
0.03961266 -0.0038071796 0.020252332 0.012235135 -0.026350707 0.020723477 -0.048483923 0.031688385
-0.06136377 0.0029015392 0.017292574 0.03624668 -0.02793286 -0.034361735 0.028104708 0.03125526
-0.001567483 0.022423089 0.0057054386 -0.020402469 0.053084664 0.045755647 -0.034230195 -0.054588884
0.033727042 -0.020654127 0.04038661 0.057931058 0.04756184 0.050385214 -0.04861866 0.014275953
-0.003966883 0.032684244 -0.0030685216 0.03584274 0.009272061 -0.022784725 0.054506876 0.060593978
-0.06218429 -0.020341761 0.03856799 -0.0075046346 0.0067623705 0.03266228 0.05412776 -0.0028729364
0.050344147 0.004506916 0.0007923022 -0.06130916 -0.022530124 0.022416003 0.05681672 -0.0043645874
0.018737994 -0.041406386 -0.05091749 -0.044372194 0.013470188 0.02350466 -0.018092237 -0.028568573
-0.04370726 -0.035172 0.027432881 0.050926477 0.058212765 -0.061471134 0.028663725 -0.054468103
00000000: 1a86 5b3d be80 453d 4e40 6cbd 90b1 24bc
00000010: 607e 00bd 4010 bfbc 88d3 28bc bc25 c53c
00000020: 66a1 33bd 28e4 ab3c 6cf2 dd3c 2a5a 783d
00000030: a24b 1dbd 3e8c 26bd 7845 27bd 8431 82bc
00000040: f087 37bc 6890 19bc ca49 513d 542c 623d
00000050: e055 ab3c 605d 7b3b 5a0f 6b3d 907b c4bb
00000060: e055 773b 8e78 783d 30e7 27bc 3860 5ebc
00000070: b249 663d 881b 133d 4870 b4bc c049 0a3b
00000080: 2812 123c ece1 72bd d45b e1bc 2020 2f3c
00000090: 6471 623d 5898 b63c 208b 4b3c a0e7 3ebb
000000a0: 98f7 7dbd e462 debc 0e8e 233d d010 efbb
000000b0: 0e63 5bbd 906c 2c3c 9081 ec3b 90c6 99bc
000000c0: f6c6 663d c892 ad3c 500e 69bc 40a3 7cbd
000000d0: ac5c 6e3d fe03 0b3d c4b9 eb3c 385a eebc
000000e0: 6215 4c3d 6886 52bc 8c37 7cbd 00b0 a5bc
000000f0: 98dc 073c 7205 69bd c48a 993c 80a2 8f3b
00000100: 84ad 97bc 007a 22ba f882 42bc 707a c6bb
00000110: b0f7 68bd 886c a7bc fa1a 083d 20f3 203d
00000120: c4d6 33bd 7cab 0abd e4e4 46bd e008 21bd
00000130: c61a 37bd a42a bb3c 4628 4b3d 687d 0a3c
00000140: 3068 c63c a6f6 063d 3c5c 2fbd 30b9 8abb
00000150: 10bf 783c e452 b3bc ac53 7f3d c059 6c3b
00000160: 083c 30bc 5c37 6e3d 9c6f 70bd 4463 153d
00000170: c824 62bd e43d 143d 7cb8 c93c 10ed 523c
00000180: c09d a23a e037 063d 7091 063d 92a5 16bd
00000190: ea2d 7a3d 7a59 10bd 78fb 6fbd 6c60 9f3c
000001a0: 4024 f3bb 2af2 013d c258 02bd c03c 6ebb
000001b0: 90a5 0cbc 7a59 5e3d 300d c53c eceb 0e3d
000001c0: 18a2 3e3c 4079 2c3d 80e7 ad3a d8b4 c2bc
000001d0: 7e8a 273d 5493 203d a817 133c e01e 983c
000001e0: f6c7 43bd 6cb4 8f3c 90d5 dd3c f6e0 6bbd
000001f0: 0037 25bd a0c5 c7bc 006c 99b9 0452 3ebd
00000200: 6087 423c 608d 24bc f415 abbc f48b 5fbd
00000210: 3468 c8bc 742a a43c 0470 f23c 94f8 25bd
00000220: 90a3 963c 8485 35bd 7880 6bbd fc93 c6bc
00000230: 3684 5b3d be36 493d 809a f73c 5c46 fb3c
00000240: c003 cb3c 4c83 20bd 58aa 8f3c 2061 1cbd
00000250: eca0 91bc c0c2 d9ba 0055 fbb9 246b d13c
00000260: b2a2 113d 742e 58bd 60d5 cc3c 0666 403d
00000270: cce4 b83c dc16 9d3c 72bb 6fbd 1003 b7bb
00000280: c062 4abc 489a 6a3c 0c14 debc 3237 2bbd
00000290: a0ec 3abd a87a 5d3c 70a0 4c3d aa59 28bd
000002a0: 084a b43c eae3 02bd b64a 693d 8064 bfbc
000002b0: 1060 053d daba 523d 8027 6bbc 4085 283b
000002c0: 50ff 513d f416 6c3d 5eb5 63bd 48af 5fbc
000002d0: 3485 113d 9454 793d 9e00 2f3d 146e e23c
000002e0: e240 223d e081 79bb 38e8 a53c e075 483c
000002f0: 70dd d7bc 48c4 a93c 1497 46bd aecb 013d
00000300: 9458 7bbd c027 3e3b 28a9 8d3c 6677 143d
00000310: 74d3 e4bc e4be 0cbd d83b e63c 8405 003d
00000320: 0074 cdba a0b0 b73c b0f4 ba3b 1423 a7bc
00000330: 4e6f 593d 466a 3b3d f634 0cbd 9898 5fbd
00000340: 5e25 0a3d d832 a9bc 6e6c 253d 1e49 6d3d
00000350: 34d0 423d ba60 4e3d 5c24 47bd b0e5 693c
00000360: a0fc 81bb eadf 053d 4019 49bb d6cf 123d
00000370: d8e9 173c 08a7 babc 9a42 5f3d 6431 783d
00000380: f4b4 7ebd c4a3 a6bc 78f9 1d3d 70e9 f5bb
00000390: e096 dd3b e2c8 053d 12b5 5d3d e047 3cbb
000003a0: aa35 4e3d c0ae 933b 80b2 4f3a 501f 7bbd
000003b0: 1891 b8bc c4a1 b73c a6b8 683d d004 8fbb
000003c0: 6c80 993c be99 29bd dc8e 50bd 9ebf 35bd
000003d0: 10b2 5c3c d88c c03c 2c36 94bc a408 eabc
000003e0: 6206 33bd 8410 10bd ecba e03c 4898 503d
000003f0: 8270 6e3d 28c9 7bbd 30d0 ea3c f219 5fbd

fc2.bias f4 [256]
-0.025360435 -0.0097728 0.044979997 -0.032297857 -0.043258063 0.03889101 0.02971951 0.025974803
-0.010130227 -0.005256638 -0.04224872 -0.013980649 -0.032147326 0.017841138 0.0077929273 0.040951103
0.0034033656 -0.015941441 0.042754754 -0.011063278 -0.04919108 -0.04276766 0.042421766 0.042087927
-0.046395056 -0.0060681105 0.041142486 -0.03197264 -0.055317566 0.0016149357 -0.007843904 0.026728675
0.03649032 -0.03430681 0.041812047 -0.020019352 -0.055571146 0.0064547285 0.03743182 -0.057803847
-0.06153854 -0.01629883 0.058600627 0.03218527 0.0036250502 -0.04374343 -0.045572758 -0.03347262
0.036909178 -0.05215255 -0.024495244 0.0027013123 -0.044058293 -0.027660899 0.03132741 0.0011291951
0.0025514215 0.048610628 -0.04040487 -0.060710475 -0.002363354 -0.03651584 0.05731725 0.011245251
-0.057453252 0.019053437 0.0096067935 -0.0367857 -0.01588419 0.023961842 0.05324988 0.030536845
-0.017984949 -0.052954353 -0.03606244 0.021090075 0.016949378 -0.023801371 -0.050838493 0.037653804
-0.05439712 0.04617905 -0.01970949 -0.03366466 -0.03628517 0.040103376 -0.05952315 -0.04862041
-0.0011510402 -0.046783417 0.05661036 0.029442556 0.055107012 0.009905338 -0.060758114 0.02167122
-0.053140596 -0.05428637 0.022377692 0.0010572374 -0.04756192 -0.029535584 -0.014165595 -0.01014559
0.05643802 -0.014837474 0.055058904 -0.04205825 -0.05537054 -0.060900643 0.0002456084 0.06014374
-0.03438562 -0.016497195 -0.059081115 -0.037185363 -0.005885668 -0.012420565 0.0037328452 0.050481856
-0.02927076 -0.034784794 -0.04892043 -0.062050767 0.02050151 -0.050768137 -0.024427004 0.047147855
0.017632373 -0.005470969 -0.06070829 -0.060244918 -0.00010582805 0.039869793 -0.025053531 -0.021989144
0.050520264 -0.039970577 -0.031334482 0.046530806 0.01105281 0.06112452 -0.036952063 -0.022370584
0.02568455 0.03726232 0.015948273 0.011388801 -0.032889985 -0.05314161 0.059351876 0.026367381
-0.045108333 0.01299531 0.008264631 -0.01436796 -0.050646544 -0.026707992 0.030281521 -0.020307727
0.044923022 -0.058655813 0.012885794 -0.054545686 0.049884178 -0.014933191 -0.033439405 -0.01366742
-0.058310546 -0.02816172 0.056702875 0.05262152 -0.028230868 -0.049185395 -0.007492937 0.0037683994
-0.0041933283 -0.028866395 0.00513687 0.04703115 -0.0059752017 0.0030510277 -0.013573542 0.0068845972
-0.00067891926 0.031327583 -0.04357689 0.047299802 0.0014552847 -0.01511848 0.015389718 0.04108534
-0.037075274 -0.011212997 0.0016441643 -0.041428976 -0.05318986 0.04339096 -0.049290217 -0.030206516
0.056129046 -0.005560629 -0.048295446 0.016238414 0.044590123 -0.047363654 0.026204608 0.052322544
-0.0017323792 0.0065528974 -0.041209444 0.037349097 -0.030880406 0.009345092 -0.031763047 0.004817039
0.033947013 0.05052965 -0.04422351 0.0036831126 -0.040370405 0.007378727 -0.025578521 -0.056350544
-0.012294106 -0.008370966 -0.027671099 -0.054031387 -0.040067628 0.051690526 0.017796874 0.04522066
0.023167275 -0.052077606 -0.0247441 0.009949364 0.01363001 0.031435773 -0.017680049 0.021419704
0.057008415 0.021240853 -0.052998684 0.05402884 -0.026072629 -0.021722883 -0.04744804 0.03547389
-0.0392417 -0.04664866 0.0042310357 0.021476611 -0.017896771 0.039800063 -0.010788217 0.050557353
00000000: b0c0 cfbc 181e 20bc f23c 383d c24a 04bd
00000010: 5e2f 31bd 2e4c 1f3d 5476 f33c 1cc9 d43c
00000020: 40f9 25bc e03f acbb fe0c 2dbd 180f 65bc
00000030: eaac 03bd 9427 923c d05b ff3b 58bc 273d
00000040: 000b 5f3b a097 82bc 9c1f 2f3d c042 35bc
00000050: 967c 49bd 242d 2fbd 72c2 2d3d 6464 2c3d
00000060: be08 3ebd 00d7 c6bb 0685 283d bef5 02bd
00000070: ac94 62bd 40ac d33a b883 00bc 18f6 da3c
00000080: e076 153d 4c85 0cbd 1c43 2b3d a0ff a3bc
00000090: 929e 63bd 3082 d33b 1c52 193d bac3 6cbd
000000a0: d60f 7cbd 2085 85bc 3607 703d b4d4 033d
000000b0: 4092 6d3b 502c 33bd 80aa 3abd 961a 09bd
000000c0: 142e 173d ea9d 55bd 40aa c8bc 8008 313b
000000d0: 7876 34bd 1c99 e2bc 2c51 003d 8001 943a
000000e0: c035 273b f01b 473d 947f 25bd 8cab 78bd
000000f0: 80e2 1abb a291 15bd 7ec5 6a3d 003e 383c
00000100: 1a54 6bbd f415 9c3c d065 1d3c 9aac 16bd
00000110: 901f 82bc a04b c43c 8c1c 5a3d 6828 fa3c
00000120: 2c55 93bc aae6 58bd 36b6 13bd 18c5 ac3c
00000130: 6cd9 8a3c 18fb c2bc 063c 50bd e03a 1a3d
00000140: 84cf 5ebd 3e26 3d3d cc75 a1bc f4e3 09bd
00000150: c29f 14bd 7043 243d 8cce 73bd 3226 47bd
00000160: 80de 96ba f89f 3fbd 44e0 673d 8431 f13c
00000170: e4b7 613d 004a 223c 80dd 78bd d887 b13c
00000180: f4a9 59bd 625b 5ebd 6c51 b73c 0093 8a3a
00000190: 4ad0 42bd 9cf4 f1bc d016 68bc b039 26bc
000001a0: 8e2b 673d e018 73bc 7285 613d 4645 2cbd
000001b0: 38cc 62bd f472 79bd 00c5 8039 4859 763d
000001c0: f0d7 0cbd 2025 87bc 0aff 71bd ae4f 18bd
000001d0: 90dc c0bb a07f 4bbc c0a2 743b 10c6 4e3d
000001e0: 3cc9 efbc 807a 0ebd ca60 48bd f228 7ebd
000001f0: c8f2 a73c 40f2 4fbd 241b c8bc 1c1e 413d
00000200: c471 903c d045 b3bb 42a9 78bd 60c3 76bd
00000210: 00f0 ddb8 824e 233d 103d cdbc 9422 b4bc
00000220: 56ee 4e3d 30b8 23bd 9658 00bd 1697 3e3d
00000230: d816 353c b45d 7a3d 0c5b 17bd 8442 b7bc
00000240: 6868 d23c 60a0 183d f4a5 823c 1898 3a3c
00000250: a6b7 06bd 04ab 59bd f41a 733d 6800 d83c
00000260: 84c3 38bd 48ea 543c 6068 073c 9867 6bbc
00000270: c072 4fbd b8ca dabc f410 f83c 645c a6bc
00000280: 3401 383d 1441 70bd f01e 533c 4c6b 5fbd
00000290: 5a53 4c3d 58aa 74bc c2f7 08bd 50ed 5fbc
000002a0: 0ad7 6ebd 68b3 e6bc 4641 683d aa89 573d
000002b0: 6c44 e7bc a076 49bd 5087 f5bb 40f7 763b
000002c0: 3068 89bb 3879 ecbc 3053 a83b bca3 403d
000002d0: a0cb c3bb c0f3 473b 9063 5ebc 3098 e13b
000002e0: 80f9 31ba 5a51 003d ae7d 32bd 70bd 413d
000002f0: 40bf be3a 80b3 77bc 2825 7c3c 1a49 283d
00000300: 3edc 17bd b8b6 37bc 0081 d73a 6eb1 29bd
00000310: 9cdd 59bd b8ba 313d 8ae4 49bd a873 f7bc
00000320: 92e7 653d f035 b6bb 72d1 45bd 6c06 853c
00000330: 22a4 363d 6400 42bd 0cab d63c 2a50 563d
00000340: 0011 e3ba b0b9 d63b 3ccb 28bd 5efb 183d
00000350: e8f8 fcbc 281c 193c f819 02bd 40d8 9d3b
00000360: 060c 0b3d 2ef8 4e3d b623 35bd 6060 713b
00000370: 705b 25bd 40c9 f13b 0c8a d1bc d4cf 66bd
00000380: 386d 49bc 6026 09bc 80ae e2bc 0450 5dbd
00000390: f41d 24bd 72b9 533d c0ca 913c 4c39 393d
000003a0: 4cc9 bd3c 544f 55bd 24b4 cabc a802 233c
000003b0: 6850 5f3c ccc2 003d c0d5 90bc 6078 af3c
000003c0: a881 693d 4c01 ae3c 2615 59bd 584d 5d3d
000003d0: 4496 d5bc 30f4 b1bc e058 42bd 124d 113d
000003e0: e8bb 20bd aa12 3fbd 80a4 8a3b b8ef af3c
000003f0: 409c 92bc 6405 233d 10c1 30bc 3a15 4f3d

q.weight f4 [1, 256]
-0.052960515 -0.01630184 0.058758818 0.011856981 -0.0024615452 0.046103053 0.05611082 -0.027361847
0.056953795 0.0435303 -0.060330264 0.059805922 0.0077068135 0.022976741 -0.039670482 -7.5630844e-05
0.061933182 0.040063687 0.007064417 -0.024363682 0.014060698 0.060458302 -0.022101432 0.005542308
-0.008480988 0.05607488 0.03786479 0.026511572 0.04229848 0.03484182 -0.014487155 0.04387495
-0.03069172 0.041752696 -0.002165638 -0.021621637 -0.04834915 0.05547192 -0.0516909 0.023535073
-0.05287209 0.041235223 -0.02078148 0.011553995 -0.04611861 -0.021163791 -0.0084815845 -0.058499917
0.027685061 0.05089297 -0.05265577 -0.028274924 -0.0007467717 -0.0066327676 -0.011397541 -0.03389193
0.0034674928 0.05164908 -0.0010844767 -0.03896931 0.028917164 0.027444132 0.035903305 -0.039810047
0.057158314 -0.048467256 -0.052102514 -0.0064642206 -0.059492186 -0.0028831959 -0.032373518 -0.023685567
0.026268117 -0.040666737 0.02592893 -0.008501224 -0.013286836 0.042690597 -0.012460262 0.04622142
0.04433579 0.03245797 0.02872958 0.0051299706 -0.037761204 -0.0457953 -0.050093733 -0.018608257
-0.0032018945 -0.051461674 -0.019024305 0.023306713 -0.056428656 -0.04235878 0.007318154 0.006107725
0.0016327724 0.0063960627 0.0041038916 -0.014584653 -0.029822387 -0.043584265 0.0045256615 0.0046953782
0.047856197 0.01790446 -0.020401545 -0.05626139 -0.05506596 0.050714776 0.049653247 -0.023806289
-0.043351397 0.050413266 -0.03995826 -0.062363915 0.02348452 -0.016566582 0.01689636 -0.027483225
0.05635657 -0.05623877 -0.0075643286 0.032303013 0.049686432 0.02063436 -0.029806122 0.018215574
-0.035548143 -0.060471006 0.06054593 -0.03001196 -0.0029360205 0.06167742 0.031182148 -0.03909038
-0.05227442 -0.020200007 0.010594815 0.042601213 0.03216835 0.037842803 -0.015460283 0.02787377
0.03426379 -0.030576713 0.0106185 0.045019254 0.0597993 -0.044235207 -0.0575798 -0.0014304817
0.011891 0.011711501 0.03944973 -0.050428808 -0.05804734 0.038619332 0.0069026574 0.02038633
0.027572453 0.03116215 -0.0029247329 -0.029335558 0.0062629133 -0.02446708 0.020907119 -0.004860565
0.0019218102 0.0067312717 0.024375193 0.031206973 -0.05855196 -0.02856747 0.040288612 -0.022296354
0.047875084 -0.042666502 -0.0039799586 0.05327703 -0.0011011511 0.0061607584 0.038600378 -0.050953776
-0.04981114 0.047260948 -0.005733639 0.01475586 0.018082075 0.03230212 -0.033153005 -0.044656448
-0.04768665 0.037551112 0.022692889 -0.03885238 0.060406186 0.041211314 0.02869092 0.005209632
-0.036103234 0.04194551 0.044566795 0.034022704 0.023518242 0.013463721 0.025733158 -0.055080548
0.054938577 0.002015911 0.051533997 0.021074854 0.05011136 -0.0071634054 -0.043575935 0.03614904
0.0022803172 0.060899615 -0.058535814 0.046881735 0.004832454 -0.005561486 -0.009596236 -0.028185695
0.028266445 -0.05409331 -0.0122645125 -0.031942807 -0.006971881 -0.009212077 0.008250006 -0.062306784
-0.0042440444 -0.05275806 0.059315443 -0.04592964 -0.038152233 -0.010265708 -0.057624735 -0.016628101
0.0048716366 0.0027843863 -0.041437164 0.013524249 -0.012457095 0.039872766 0.0023103133 0.0062362775
0.0042002127 -0.032563083 -0.05119291 -0.049508013 -0.013302654 -0.0030173436 -0.010691784 -0.022840366
00000000: 20ed 58bd 708b 85bc 16ad 703d c843 423c
00000010: e051 21bb 8ed6 3c3d 76d4 653d f425 e0bc
00000020: 6248 693d d44c 323d de1c 77bd 0ef7 743d
00000030: 7089 fc3b b839 bc3c 847d 22bd 009c 9eb8
00000040: a6ad 7d3d d219 243d a07c e73b 5896 c7bc
00000050: d85e 663c 20a3 773d 100e b5bc 409c b53b
00000060: d8f3 0abc c6ae 653d 1c18 1b3d cc2e d93c
00000070: 2c41 2d3d 4cb6 0e3d 885b 6dbc 38b6 333d
00000080: 346d fbbc e004 2b3d 60ed 0dbb dc1f b1bc
00000090: c209 46bd 8636 633d d6b9 53bd a0cc c03c
000000a0: 6890 58bd 44e6 283d ec3d aabc f84c 3d3c
000000b0: dee6 3cbd b05f adbc 58f6 0abc 9c9d 6fbd
000000c0: c8cb e23c 2675 503d 94ad 57bd d0a0 e7bc
000000d0: 00c3 43ba b057 d9bb c0bc 3abc 44d2 0abd
000000e0: e03e 633b fc8d 533d 0025 8eba 489e 1fbd
000000f0: b0e3 ec3c 84d2 e03c 580f 133d dc0f 23bd
00000100: d61e 6a3d 9a85 46bd 7269 55bd d0d1 d3bb
00000110: 14ae 73bd 00f4 3cbb 189a 04bd 3c08 c2bc
00000120: 3c30 d73c 2a92 26bd e868 d43c b848 0bbc
00000130: 08b1 59bc 56dc 2e3d 2026 4cbc ac52 3d3d
00000140: 7299 353d a6f2 043d 4c5a eb3c 5019 a83b
00000150: 7eab 1abd da93 3bbd 162f 4dbd 5870 98bc
00000160: e0d6 51bb 7ac9 52bd dcd8 9bbc b8ed be3c
00000170: bc21 67bd 6680 2dbd 20cd ef3b 5023 c83b
00000180: c002 d63a 1096 d13b f079 863b 78f4 6ebc
00000190: 144e f4bc 6a85 32bd 004c 943b b0db 993b
000001a0: dc04 443d 60ac 923c 2421 a7bc 5872 66bd
000001b0: d88c 61bd 4cba 4f3d 3461 4b3d 6805 c3bc
000001c0: 3c91 31bd 247e 4e3d 46ab 23bd 4e71 7fbd
000001d0: 9c62 c03c a4b6 87bc 3c6a 8a3c 8024 e1bc
000001e0: 26d6 663d a05a 66bd 30de f7bb 2a50 043d
000001f0: 0084 4b3d 6409 a93c f82b f4bc d438 953c
00000200: ee9a 11bd 72b0 77bd 02ff 773d a4db f5bc
00000210: 406a 40bb 76a1 7c3d b471 ff3c 3c1d 20bd
00000220: b41d 56bd 7c7a a5bc e095 2d3c 9c7e 2e3d
00000230: f6c2 033d 0e01 1b3d 204d 7dbc 8857 e43c
00000240: 3058 0c3d 047c fabc 38f9 2d3c 1c66 383d
00000250: 1cf0 743d fa2f 35bd ccd8 6bbd 007f bbba
00000260: 78d2 423c 98e1 3f3c 0a96 213d 708e 4ebd
00000270: 0cc3 6dbd 4e2f 1e3d b02f e23b 3c01 a73c
00000280: a0df e13c c447 ff3c e0ac 3fbb 2051 f0bc
00000290: 2039 cd3b 306f c8bc 6845 ab3c 6045 9fbb
000002a0: 40e5 fb3a 0092 dc3b 7cae c73c c4a5 ff3c
000002b0: 2ed4 6fbd 5406 eabc ac05 253d d8a6 b6bc
000002c0: aa18 443d 12c3 2ebd 506a 82bb 0439 5a3d
000002d0: 8054 90ba 30e0 c93b 6e1b 1e3d e8b4 50bd
000002e0: c406 4cbd b294 413d 40e1 bbbb 90c2 713c
000002f0: dc20 943c 3a4f 043d 72cb 07bd aee9 36bd
00000300: 1453 43bd 32cf 193d 70e6 b93c ac23 1fbd
00000310: 7a6c 773d 32cd 283d 3809 eb3c 90b5 aa3b
00000320: fce0 13bd 0ecf 2b3d ac8b 363d 645b 0b3d
00000330: 54a9 c03c f096 5c3c 58ce d23c 249c 61bd
00000340: 4607 613d 601d 043b 5015 533d 2ca5 ac3c
00000350: 9241 4d3d 00bb eabb ae7c 32bd 0411 143d
00000360: 6071 153b e071 793d 40c3 6fbd 1007 403d
00000370: 9059 9e3b 203d b6bb 8839 1dbc b0e5 e6bc
00000380: 088f e73c f290 5dbd 18f1 48bc 76d6 02bd
00000390: 6074 e4bb 40ee 16bc 082b 073c 6635 7fbd
000003a0: a011 8bbb d618 58bd c0f4 723d b820 3cbd
000003b0: 8445 1cbd 8031 28bc ea07 6cbd a837 88bc
000003c0: 40a2 9f3b 407a 363b 04ba 29bd d094 5d3c
000003d0: d818 4cbc a051 233d a068 173b b059 cc3b
000003e0: f0a1 893b de60 05bd a8af 51bd eac8 4abd
000003f0: 60f3 59bc a0be 45bb 982c 2fbc b81b bbbc
