SAC_own/sac_0/critic_1_sac.pth (torch, 296570 bytes, 5 tensors)

fc1.weight f4 [256, 28]
0	0xbde78a44	-0.11305669
1	0x3e29759d	0.16548772
2	0xbdf8af27	-0.12142783
3	0xbdfb628f	-0.12274658
4	0xbdd84629	-0.10560257
5	0x3d8e1ab6	0.069386885
6	0xbe0e69c4	-0.13907534
7	0x3d34ff40	0.044188738
8	0x3e107afb	0.14109413
9	0xbbd4be40	-0.006492406
10	0xbd23a0d4	-0.0399483
11	0xbdb358cf	-0.08757173
12	0xbe40eeec	-0.18841141
13	0x3db37156	0.087618515
14	0xbda80daa	-0.08205731
15	0xbe32e106	-0.17468652
16	0x3e0123c5	0.12611301
17	0x3d08a1f8	0.03335759
18	0xbe396212	-0.18103817
19	0x3e24df3b	0.1610078
20	0x3dd58c82	0.1042719
21	0x3dd6b07e	0.10482882
22	0xbd2daa60	-0.04239881
23	0x3e1947eb	0.14968841
24	0x3e315e35	0.17321093
25	0xbe2300f4	-0.15918332
26	0xbe07aacd	-0.13248749
27	0x3c0ddfd0	0.008659318
28	0xbdb86086	-0.090027854
29	0x3d9f7ea2	0.07787825
30	0x3c7467b0	0.014917299
31	0xbe10f1f2	-0.14154795
32	0x3e07b6b5	0.13253291
33	0x3e120d55	0.14262898
34	0x3cf9bde8	0.030486062
35	0xbe3c3820	-0.18380785
36	0xbdb4f4ee	-0.08835779
37	0xbddb11d3	-0.10696759
38	0x3d583970	0.05278915
39	0x3c71e280	0.014763474
40	0x3ddabf0a	0.10680969
41	0x3e0a30b1	0.13495137
42	0x3d158cbc	0.036511168
43	0x3bd64120	0.006538525
44	0xbdc2b236	-0.09506647
45	0xbe1574ce	-0.14595339
46	0x3e146073	0.14489917
47	0xbda263a9	-0.07929165
48	0xbdbf86d1	-0.09351886
49	0xbd1d26d4	-0.038367108
50	0xbc86d970	-0.016461104
51	0xbdcbb2f7	-0.09946244
52	0x3d6a0bf8	0.05714032
53	0x3e2e1147	0.16998778
54	0xbe32eef6	-0.17473969
55	0xbe1deda9	-0.15422691
56	0xbe1baba1	-0.1520219
57	0x3e17e96b	0.14835136
58	0xbd98d641	-0.07462741
59	0xbe1bf587	-0.1523038
60	0xbdf5d4f6	-0.1200351
61	0x3e1868dd	0.14883752
62	0xbe102344	-0.14075953
63	0xbe0aa730	-0.1354034
64	0x3e28e925	0.16495188
65	0x3e2245ed	0.15846987
66	0xbc9167e0	-0.017749727
67	0xbd36e900	-0.0446558
68	0xbdf5f048	-0.12008721
69	0xbdd9b717	-0.10630625
70	0x3d4b2a7c	0.049601063
71	0x3bcb2e80	0.0062006116
72	0xbe033a43	-0.12815194
73	0xbdb36150	-0.08758795
74	0x3e2d863d	0.16945739
75	0x3d0268fc	0.031838402
76	0xbe3cf223	-0.18451743
77	0x3db3ef96	0.08785932
78	0x3d994312	0.07483496
79	0xbdd38e24	-0.103298455
80	0x3e0ff3e3	0.14057879
81	0x3e326d13	0.17424421
82	0xbbd477c0	-0.006484002
83	0x3d973eb6	0.07385008
84	0x3e10475d	0.14089723
85	0xbe10f166	-0.14154586
86	0xbe0ef08f	-0.13958953
87	0x3c24e2e0	0.010063857
88	0x3e061b71	0.13096406
89	0x3bd97420	0.0066361576
90	0xbe1b2b87	-0.15153323
91	0x3dc52f06	0.0962811
92	0xbdd28ca3	-0.102807306
93	0xbd40bd90	-0.04705578
94	0xbe21614a	-0.15759769
95	0x3e3815bf	0.17977045
96	0x3e26583d	0.16244598
97	0x3d89b602	0.06724168
98	0x3da6880e	0.08131419
99	0x3c8ec200	0.01742649
100	0xbe36b343	-0.1784182
101	0x3d9462e6	0.07245426
102	0x3e2dca91	0.16971804
103	0xbe2af696	-0.16695628
104	0x3c51f2c0	0.012814224
105	0x3a3d4300	0.00072197616
106	0x3dbeb46e	0.09311758
107	0xbdfd94f5	-0.12381927
108	0x3c7311d0	0.01483579
109	0x3dccae0a	0.09994133
110	0x3c4f2680	0.012643456
111	0xbdc71af7	-0.0972194
112	0xbadab100	-0.001668483
113	0xbddc8961	-0.107683904
114	0xbe24cf6b	-0.16094749
115	0xbe2f217a	-0.17102614
116	0xbe01e33c	-0.1268434
117	0x3d4dc2a4	0.050234452
118	0xbe24e13e	-0.16101548
119	0xbda8f004	-0.08248904
120	0xbe104040	-0.1408701
121	0xbe30c9a9	-0.17264427
122	0xbd44bc8c	-0.048031375
123	0x3ad4ae00	0.0016226172
124	0x3ded52f2	0.11588086
125	0xbdcde891	-0.10054124
126	0xbe1c3126	-0.15253124
127	0x3c8f4ef0	0.017493695
128	0xbe323410	-0.17402673
129	0x3d1103a4	0.035403863
130	0x3e08bb25	0.1335264
131	0xbe1931ce	-0.14960405
132	0xbd6a0554	-0.057133988
133	0x3db8191e	0.08989166
134	0xbe11676f	-0.14199613
135	0x3d1f7b9c	0.038936242
136	0xbd0f8708	-0.035040885
137	0x3ded75a6	0.11594705
138	0xbd765b4c	-0.06014566
139	0xbddb2ecc	-0.10702285
140	0xbdf1bb52	-0.11803307
141	0x3e1a3ddd	0.15062661
142	0xbc629f10	-0.013831869
143	0xbdf0be15	-0.11755005
144	0xbdada1b5	-0.08478109
145	0xbc9fc850	-0.019504696
146	0xbe084126	-0.13306102
147	0xbbe6fec0	-0.0070494115
148	0x3e26bd8d	0.16283245
149	0x3af80480	0.001892224
150	0x3e18d79d	0.14926
151	0xbe356bbc	-0.17716879
152	0xbcfff060	-0.03124255
153	0xbdaf7870	-0.085678935
154	0x3d482bdc	0.048869953
155	0x3e353217	0.17694889
156	0x3e19cf39	0.15020455
157	0x3dcfd43e	0.10147904
158	0x3dc74d8e	0.09731589
159	0x3b06c6c0	0.0020565242
160	0xbdac6625	-0.0841792
161	0x3e316991	0.17325427
162	0x3c9b4510	0.01895383
163	0x3de8a3f6	0.11359398
164	0xbe3230cb	-0.17401426
165	0x3d9a6252	0.07538284
166	0x3de5d496	0.11222188
167	0x3de7f0a2	0.11325194
168	0x3e1c5071	0.15265061
169	0x3de2f366	0.11081581
170	0xbe12065e	-0.14260241
171	0xbc09cf80	-0.008411288
172	0x3dce945e	0.100868925
173	0x3d2a857c	0.041631207
174	0xbd93f148	-0.07223755
175	0xbce01138	-0.02735196
176	0x3d5fd45c	0.05464588
177	0x3e362d63	0.17790751
178	0x3dce22ba	0.10065217
179	0xbe29d115	-0.16583665
180	0x3e320409	0.17384352
181	0x3e0f0517	0.13966785
182	0xbc8d0000	-0.017211914
183	0xbdf91d00	-0.121637344
184	0xbb939ce0	-0.004504785
185	0x3e22512b	0.15851276
186	0x3c250a60	0.010073274
187	0xbdcf28cf	-0.101152055
188	0xba846b00	-0.0010102689
189	0x3dad73f6	0.084693834
190	0xbd12fc34	-0.03588505
191	0xbccb3520	-0.024805605
192	0xbe109d65	-0.14122541
193	0xbdadd2d5	-0.08487479
194	0x3c108a50	0.008822039
195	0xbd8b3f5d	-0.06799195
196	0xbd61ba90	-0.05510956
197	0xbdfe56b0	-0.12418878
198	0xbdf6f0df	-0.12057661
199	0x3c9b6258	0.018967792
200	0x3d054294	0.032534197
201	0x3dd6c0da	0.10486002
202	0xbda7065d	-0.081555106
203	0x3dbd554a	0.09244783
204	0x3d2207e0	0.03955829
205	0x3db3ccce	0.08779298
206	0x3e393e5f	0.18090199
207	0x3dd9a22e	0.106266364
208	0x3df68256	0.12036578
209	0x3da2315a	0.07919569
210	0xbdfdbe7c	-0.12389848
211	0x3b18a5c0	0.0023292154
212	0x3e18e769	0.14932026
213	0x3e049e23	0.1295095
214	0x3d3c4260	0.045961738
215	0xbd146388	-0.036227733
216	0x3c168040	0.009185851
217	0x3d423a0c	0.04741864
218	0x3e1681f1	0.14698006
219	0x3d6f0120	0.058350682
220	0xbdb197f7	-0.08671563
221	0xbd3fd2c8	-0.046831876
222	0x3e09b443	0.1344767
223	0x3ddbf012	0.10739149
224	0x3d94cd6a	0.07265742
225	0x3de8441e	0.11341117
226	0x3d6ab05c	0.057297096
227	0x3c642460	0.013924688
228	0x3d3a79dc	0.04552637
229	0xbde0d62a	-0.109783486
230	0x3c7ce930	0.015436456
231	0x3dfc881a	0.12330647
232	0xbc12aa50	-0.0089517385
233	0xbda05237	-0.07828181
234	0xbd7bd53c	-0.061482653
235	0x3df23a62	0.11827542
236	0xbdc2628e	-0.09491454
237	0xbe405ee0	-0.18786192
238	0x3d3331d4	0.04374869
239	0xbda43263	-0.08017423
240	0x3e00bf21	0.1257291
241	0xbca3a9c8	-0.019978419
242	0x3e37e823	0.17959647
243	0x3dc4976a	0.095991924
244	0xbdde69c6	-0.108600184
245	0xbe3c4b43	-0.18388085
246	0xbdf5c914	-0.12001243
247	0x3de6b48e	0.11264907
248	0xbd2e20fc	-0.042511925
249	0x3e1136d1	0.14181067
250	0x3e340499	0.17579879
251	0x3e0ed447	0.13948165
252	0x3d76a074	0.060211614
253	0xbe30af54	-0.17254382
254	0xbde98aae	-0.11403404
255	0x3d66ee9c	0.0563799

fc1.bias f4 [256]
0	0x3e22cec1	0.15899183
1	0xbd9ce90c	-0.07661638
2	0x3d92472a	0.0714248
3	0x3de8495e	0.11342119
4	0xbe07b55c	-0.13252777
5	0x3d18e0bc	0.0373237
6	0x3d262474	0.04056211
7	0x3c50c6d0	0.012742713
8	0x3e35bf8b	0.17748849
9	0xbc8535c8	-0.016260996
10	0xbd62f4e4	-0.055409327
11	0xbe191ab8	-0.14951599
12	0xbcdd0e68	-0.026984408
13	0xbdf48472	-0.119393244
14	0xbe18f13c	-0.14935774
15	0x3da486aa	0.08033498
16	0x3ca98810	0.020694762
17	0xbd53e394	-0.051730707
18	0x3cb6f228	0.022332266
19	0xbe0aab50	-0.13541913
20	0xbe2f1560	-0.17097998
21	0xbc97cc90	-0.01853016
22	0xbdd97bff	-0.106193535
23	0x3dd650a2	0.10464598
24	0x3e147871	0.1449907
25	0xbd0b6a5c	-0.03403698
26	0x3e2d90cd	0.16949768
27	0xbdef31f7	-0.11679452
28	0x3e0470bd	0.12933631
29	0x3d6d6238	0.057954997
30	0x3cc9ffb0	0.024658054
31	0x39be5a00	0.0003630668
32	0xbcf22380	-0.029557943
33	0x3e353341	0.17695333
34	0xbe110b20	-0.141644
35	0xbddee671	-0.10883797
36	0x3e237aa3	0.15964751
37	0x3d7f28d4	0.062294796
38	0xbd833991	-0.06407464
39	0xbd860993	-0.06544795
40	0x3d850862	0.064957395
41	0xbddd841d	-0.10816214
42	0xbdcadc3f	-0.0990529
43	0x39b03c00	0.0003361404
44	0x3e22efd9	0.15911807
45	0x3cebfd00	0.028807163
46	0xbceb22f0	-0.028703183
47	0x3dd98bae	0.10622345
48	0xbe374eb1	-0.17901112
49	0xbd62bb8c	-0.05535464
50	0x3d9e4ff2	0.07730092
51	0xbe3a25a0	-0.18178415
52	0xbd27a6e8	-0.04093066
53	0xbd7b3cf8	-0.06133744
54	0xbde7e032	-0.11322059
55	0x3d0e20a8	0.034699112
56	0xbddd5e26	-0.10808973
57	0x3dd5ecfa	0.1044559
58	0xbce1c510	-0.027559787
59	0xbe2a5244	-0.16632944
60	0xbe4018e1	-0.1875949
61	0xbd91609d	-0.07098506
62	0x3e19b9eb	0.15012328
63	0x3d1bb22c	0.038011715
64	0xbe3acc8f	-0.18242095
65	0x3cb81c58	0.022474453
66	0xbe185688	-0.14876759
67	0x3d943ba2	0.072379366
68	0xbcca7870	-0.024715632
69	0x3d5bb8dc	0.053643093
70	0x3e2261bf	0.158576
71	0x3e337a07	0.17527018
72	0x3c5f1110	0.013614908
73	0xbd8bd467	-0.06827622
74	0xbce93f50	-0.028472573
75	0xbda3174a	-0.079634264
76	0x3e10563f	0.140954
77	0xbc715160	-0.014728874
78	0x3d9da912	0.07698263
79	0x3dedfd32	0.11620559
80	0xbe3b2ace	-0.18278047
81	0xbd019068	-0.031631857
82	0x3dbdc9ee	0.09267031
83	0x3d326494	0.04355295
84	0xbdc61f04	-0.096738845
85	0x3e1eea57	0.15519081
86	0xbdc8421f	-0.097782366
87	0xbe001ab8	-0.12510192
88	0xbd62de18	-0.055387586
89	0xbd34d7e0	-0.044151187
90	0xbe0b98e5	-0.13632543
91	0x3db5c406	0.08875279
92	0xbdb97dd9	-0.09057207
93	0xbdf4c48e	-0.11951552
94	0xbe0e8c46	-0.13920698
95	0xbdb08865	-0.08619765
96	0x3e196cd9	0.14982928
97	0x3e08c1f3	0.13355236
98	0xbd9f1f98	-0.07769698
99	0xbe0560d8	-0.13025224
100	0xbc848108	-0.016174808
101	0xbd816560	-0.06318164
102	0xbe3b59a7	-0.18295918
103	0x3ccb17a0	0.024791539
104	0xbe413bb0	-0.18870425
105	0xbd905966	-0.070483014
106	0xbcf362a0	-0.029710114
107	0xbe242fdd	-0.16033883
108	0xbdc48a7a	-0.09596725
109	0xbe1c045c	-0.15236038
110	0x3cac8b00	0.021062374
111	0xbe31f997	-0.17380367
112	0xbdd395fb	-0.10331341
113	0x3d630518	0.05542478
114	0xbe2aa68b	-0.16665094
115	0xbd3a9e98	-0.045561403
116	0x3e10201f	0.14074753
117	0x3df07bf6	0.11742394
118	0x3d81b1fa	0.063327745
119	0xbe1c189e	-0.15243766
120	0x3d896ede	0.06710599
121	0x3e392909	0.1808206
122	0x3d270f7c	0.04078625
123	0x3e3b5af7	0.18296419
124	0xbd57b09c	-0.052658662
125	0xbd09d914	-0.033654287
126	0x3d81edf6	0.063442156
127	0xbe24ca51	-0.16092803
128	0xbdc60aa1	-0.09669996
129	0x3be05300	0.006845832
130	0xbdd5125e	-0.10403894
131	0x3d9a71ea	0.07541259
132	0xbd70cb7c	-0.058787808
133	0xbdb98b4d	-0.09059773
134	0xbd06ce28	-0.03291145
135	0xbe2a075b	-0.16604368
136	0xbe0dd710	-0.13851571
137	0xbb468c40	-0.0030295998
138	0x3e32dfcd	0.17468186
139	0xbd9b96ad	-0.075970985
140	0xbd62b838	-0.055351466
141	0x3df02d4e	0.11727391
142	0x3e352e55	0.17693456
143	0xbcdbe500	-0.026842594
144	0xbe2bddb0	-0.16783786
145	0xbd983f94	-0.074340016
146	0xbe34641d	-0.17616315
147	0xbd2a754c	-0.04161577
148	0x3e30d5c5	0.17269047
149	0xbda9c815	-0.08290116
150	0x3e2dc791	0.1697066
151	0x3e08452d	0.13307638
152	0xbbec6f60	-0.0072154254
153	0x3d0f3c28	0.03496948
154	0x3cdfa980	0.027302504
155	0x3b8d4180	0.0043107867
156	0x3dbe54be	0.09293507
157	0xbe0d18a1	-0.13778926
158	0x3c547390	0.012967005
159	0x3e200079	0.1562518
160	0x3e184e8d	0.14873715
161	0x3d202bb8	0.039104193
162	0xbdda4552	-0.10657753
163	0x3e4007ef	0.18753026
164	0x3e178ded	0.14800234
165	0x3e1652b5	0.14679988
166	0xbde43e85	-0.11144737
167	0x3da7a5fa	0.081859544
168	0xbd26ea40	-0.040750742
169	0x3ce92bc0	0.028463244
170	0x3d8244ee	0.063608035
171	0xbe28295e	-0.1642203
172	0xbd93fa36	-0.07225458
173	0xbd5b746c	-0.053577825
174	0x3da46e52	0.080288544
175	0xbe0cc7fb	-0.13748161
176	0xbc92a340	-0.01790011
177	0xbdb88587	-0.09009843
178	0x3d1bfa44	0.03808047
179	0xbe1d81cb	-0.15381543
180	0x3e1fbf43	0.15600304
181	0x3deff492	0.1171657
182	0x3d3b8ca4	0.045788422
183	0xbdeece77	-0.11660474
184	0x3d756f40	0.05992055
185	0xbe3c299c	-0.18375248
186	0xbdf66f3e	-0.120329365
187	0x3d15f0b4	0.036606506
188	0xbde9f1ec	-0.11423096
189	0x3e0b5011	0.13604762
190	0xbde644b2	-0.11243571
191	0x3dbe4a2e	0.092914924
192	0xbe34c7f0	-0.17654395
193	0x3ddc4136	0.107546255
194	0xbe3401bc	-0.17578787
195	0xbdadc25e	-0.08484338
196	0x3b6a6240	0.0035764128
197	0xbe132db2	-0.143729
198	0xbd8e8a0c	-0.06959924
199	0x3e145313	0.14484815
200	0xbe1c4339	-0.15260018
201	0x3e3b33eb	0.18281524
202	0xbdcc892d	-0.09987102
203	0xbd68c670	-0.05682987
204	0x3e0224a9	0.12709297
205	0x3de128de	0.10994123
206	0xbe0cdb56	-0.13755545
207	0x3d1565b0	0.03647393
208	0x3bb6bce0	0.005576715
209	0xbe23908c	-0.15973109
210	0x3dcc3fb6	0.099730894
211	0x3d1630e8	0.036667734
212	0xbc0b2cf0	-0.008494601
213	0x3e161d8d	0.1465971
214	0xbdec91e2	-0.115512624
215	0xbd0ae918	-0.0339137
216	0xbd688c6c	-0.05677454
217	0x3da2b1a6	0.0794404
218	0xbe0d865a	-0.13820782
219	0xbe289b54	-0.16465503
220	0xbd6b5090	-0.057449877
221	0xbbe4c380	-0.006981313
222	0xbe2cfa98	-0.16892469
223	0x3dd67a1a	0.10472508
224	0x3e2ca0c1	0.16858198
225	0x3e1f2887	0.15542804
226	0x3d707fac	0.058715507
227	0xbd55b5c4	-0.0521753
228	0xbdea8566	-0.11451225
229	0x3e1d6585	0.15370758
230	0x3d050080	0.03247118
231	0xbe2ba946	-0.16763791
232	0x3e06432f	0.13111566
233	0x3e21bffd	0.15795894
234	0x3df6afb2	0.1204523
235	0xbe145b62	-0.14487985
236	0x3ddd5c72	0.10808648
237	0x3d82c80a	0.06385811
238	0xbe29ce0b	-0.16582505
239	0xbd4a152c	-0.049336597
240	0x3e01cd61	0.12676002
241	0x3e3a91e1	0.18219711
242	0xbdc67660	-0.09690547
243	0xbd20f354	-0.039294556
244	0x3dd002d6	0.10156791
245	0x3defafde	0.11703466
246	0xbdabf828	-0.083969414
247	0x3c4526f0	0.012033209
248	0x3e250f87	0.16119204
249	0xbd3dabd8	-0.04630646
250	0xbd71390c	-0.058892295
251	0xbdac1310	-0.084020734
252	0xbd9f0737	-0.07765048
253	0x3db9cb96	0.09072034
254	0xbda23d68	-0.079218686
255	0x3e3903e5	0.18067892

fc2.weight f4 [256, 256]
0	0x3d3033c2	0.04301811
1	0x3b9cb310	0.004782088
2	0x3c5b12d8	0.013371192
3	0x3cc192e0	0.023629606
4	0x3cecedc8	0.028921977
5	0xbd0a2b3a	-0.03373263
6	0xbbc63d10	-0.0060497597
7	0xbd022ea6	-0.03178277
8	0x3b3ec820	0.0029110983
9	0xbc91929c	-0.017770104
10	0x3d097262	0.03355635
11	0x3be31b40	0.0069307387
12	0xbc41c5e0	-0.011826962
13	0x3c825e50	0.015914112
14	0x3d02c252	0.0319236
15	0x3d18ad00	0.03727436
16	0x3d164a8e	0.036692195
17	0x3cee8f00	0.029120922
18	0x3ce06408	0.027391449
19	0x3d2ac73a	0.041693904
20	0x3d2283f0	0.039676607
21	0x3d11ac34	0.035564616
22	0xbcbd4418	-0.023103759
23	0xbc9e2360	-0.019303977
24	0xbbd942f0	-0.006630294
25	0x3d467e84	0.0484605
26	0xbcdbc620	-0.026827872
27	0x3d3cfc28	0.046138912
28	0x3d071190	0.032975733
29	0x3a582180	0.0008244738
30	0xbba591c0	-0.005052775
31	0x3d7eea70	0.062235296
32	0x3d5fada8	0.05460897
33	0xbcef8204	-0.029236801
34	0xbcef7b34	-0.029233553
35	0x3d5025aa	0.05081717
36	0x3d79b0c4	0.060959592
37	0xbcff5c8c	-0.03117206
38	0xbd28cf58	-0.041213363
39	0xbd374600	-0.04474449
40	0xba509380	-0.00079565495
41	0xbd4fb06e	-0.050705366
42	0xbcc62294	-0.02418641
43	0x3caedf18	0.021346614
44	0x3d65cb62	0.056102164
45	0xbb8bd950	-0.004267849
46	0x3cee5e50	0.029097706
47	0xbd687304	-0.056750312
48	0xbd16c944	-0.036813036
49	0x3d1c38ae	0.03813999
50	0xbd6e8e86	-0.05824139
51	0x3c463050	0.01209648
52	0xbd0ebb44	-0.03484656
53	0x3d0b9c86	0.03408482
54	0x3c87bf50	0.016570717
55	0x3ced0400	0.028932571
56	0x3d2c7b18	0.04210958
57	0xbd5786e8	-0.05261889
58	0xbd5608ca	-0.052254476
59	0xbc382660	-0.011239618
60	0xbc3ca3b8	-0.011513643
61	0x3d0a221a	0.033723928
62	0xbce491bc	-0.027901523
63	0x3c4ecd18	0.01262214
64	0x3d430bf4	0.04761882
65	0x3c5b6668	0.013391115
66	0x3d2eb6aa	0.04265467
67	0xbc6af680	-0.014340997
68	0x3c5d19a0	0.013494879
69	0x3cbd858c	0.02313497
70	0x395c5800	0.00021013618
71	0x3c433fa8	0.011917032
72	0x3c580ba8	0.013186373
73	0xbc87b370	-0.016565055
74	0xbd74c390	-0.059756815
75	0xbd414f22	-0.047194608
76	0xbd17b9c8	-0.03704241
77	0x3d15570e	0.036459975
78	0x3d32abb6	0.043620788
79	0xbc82332c	-0.015893541
80	0xbd6ce362	-0.057834037
81	0xbd6e7bae	-0.05822342
82	0x3d3aabfc	0.045574173
83	0x3d0bd920	0.034142613
84	0xbcc9f4c0	-0.024652839
85	0xbd169ec2	-0.036772497
86	0x3d006a48	0.031351358
87	0xbcf45254	-0.029824413
88	0x3d3e9184	0.046525493
89	0x3b125a20	0.002233155
90	0x3d2fe930	0.042946994
91	0x3c84ac50	0.016195446
92	0x3d0ad076	0.03389021
93	0x3d366e66	0.044538878
94	0x3bf0dcb0	0.0073505268
95	0xbb596060	-0.0033169016
96	0xbcec0ee8	-0.028815702
97	0xbd5ba128	-0.053620487
98	0x3ca83ea4	0.020537682
99	0x3c310018	0.010803245
100	0x3cf09ca4	0.029371567
101	0xbd11bc1c	-0.035579786
102	0xbd3e289c	-0.046425447
103	0x3d27727a	0.040880658
104	0x3d3693d6	0.04457458
105	0xbcebdc3c	-0.02879154
106	0xbd5678f0	-0.05236143
107	0x3cda8a24	0.026677199
108	0xbcf79f70	-0.030227393
109	0xbd36c30e	-0.044619612
110	0x39b1c900	0.00033909827
111	0x3d2f4cb0	0.042797744
112	0x3cbe6644	0.023242123
113	0xbd11eac2	-0.035624273
114	0x3cecc6d0	0.028903395
115	0xbd0c6d60	-0.034283996
116	0x3cff035c	0.031129532
117	0xbc482200	-0.0122151375
118	0x3d058580	0.03259802
119	0xbcb37654	-0.02190701
120	0x3ce0be08	0.027434364
121	0x3ba5d3e0	0.005060658
122	0xbc1296e0	-0.008947104
123	0x3d0f0ca6	0.034924172
124	0xbd642cdc	-0.055706844
125	0xbba72710	-0.005101092
126	0x3ce26aa0	0.027638733
127	0x3ca8d2dc	0.020608358
128	0xbcf0497c	-0.029331915
129	0xbbbfd9d0	-0.0058548227
130	0xbd54c1b0	-0.051942527
131	0xbaf92900	-0.0019009411
132	0xbd41fbea	-0.047359385
133	0xbd1be3ec	-0.03805916
134	0x3d5f1984	0.054467693
135	0x3d5b0878	0.053474873
136	0x3d7274fc	0.059193596
137	0x3a76fd80	0.000942193
138	0xba770480	-0.0009422973
139	0x3cc26784	0.023731
140	0x3d212b5c	0.03934799
141	0xbca48f08	-0.020087734
142	0x3c6ea8f0	0.014566645
143	0xbcb2eb44	-0.021840699
144	0xbc0e9568	-0.008702613
145	0x3d3ad00e	0.045608573
146	0x3c897360	0.016778648
147	0x3d165662	0.036703475
148	0xbc73fad0	-0.014891341
149	0x3b6ea5a0	0.0036414638
150	0xbd5440da	-0.05181966
151	0x3d7ae9e6	0.06125822
152	0x3d7295f0	0.059225023
153	0x3c22a600	0.009927273
154	0x3c9ffac8	0.019528762
155	0xbc419a58	-0.011816584
156	0x3d0ab49c	0.03386365
157	0xbc26eab0	-0.01018779
158	0x3c89c684	0.016818292
159	0x3d398cda	0.045300342
160	0xbd0b81a8	-0.034059197
161	0x3c740898	0.014894627
162	0x3c483760	0.012220234
163	0xbc0b92b8	-0.008518867
164	0xbd2fda46	-0.04293277
165	0x3d781576	0.06056734
166	0x3d4bde42	0.04977251
167	0xbb580ee0	-0.003296785
168	0xbce5ebd8	-0.02806656
169	0x3ca85ec4	0.020553
170	0xbcb71a48	-0.022351399
171	0xbcb79c0c	-0.022413276
172	0x3d1d623a	0.038423754
173	0x3d50ec74	0.05100675
174	0xbc44f818	-0.012022041
175	0x3d16e0d0	0.03683549
176	0x3d613cd8	0.054989666
177	0x3d62cb02	0.055369385
178	0xbcc6e620	-0.024279654
179	0xbcc5a3e4	-0.024126
180	0xbc27d998	-0.0102447495
181	0x3c839dcc	0.016066454
182	0xbd74a7aa	-0.05973021
183	0xbb74bb40	-0.0037343055
184	0x3b89fc80	0.0042110085
185	0x3d0c55aa	0.034261383
186	0xbd290542	-0.04126478
187	0x3ca96a14	0.020680465
188	0x3d7e9266	0.062151335
189	0xbd4c5cae	-0.049893074
190	0x3ca0a4d4	0.019609846
191	0xbd349e5e	-0.044096343
192	0xbd39ff7a	-0.045409657
193	0x3c238550	0.009980515
194	0xbd1206ac	-0.035650894
195	0xbc90cb74	-0.017675139
196	0xbc3f49f8	-0.01167535
197	0x3c8ac730	0.016940683
198	0x3d6e22a2	0.058138497
199	0x3c444c20	0.01198104
200	0x3d4513cc	0.048114583
201	0xbd36d6a2	-0.044638284
202	0x3d30c034	0.04315205
203	0x3d0becac	0.034161255
204	0x3c9f1710	0.019420177
205	0x3d66756c	0.056264326
206	0x3d09e3e6	0.033664607
207	0x3d39d1ae	0.04536598
208	0xbd41423c	-0.047182307
209	0x3d4e6e6e	0.050398283
210	0xbd33f9e6	-0.043939494
211	0xbd0fdf70	-0.035125196
212	0xbcd7accc	-0.026327513
213	0x3d6cab34	0.05778046
214	0x3d408740	0.047003984
215	0x3cd0cf2c	0.025489412
216	0xbd121ab8	-0.035670012
217	0xbd1e19d0	-0.038598835
218	0x3d429cd4	0.047512844
219	0x3d47d99a	0.048791505
220	0x3d01f512	0.031727858
221	0xbca2631c	-0.01982265
222	0x3d6a8186	0.05725243
223	0x3cc0d488	0.023538843
224	0xbd40d792	-0.047080584
225	0xbd6f133c	-0.058367953
226	0x3d223380	0.039599895
227	0xbd3b5c40	-0.045742273
228	0x3d0e3776	0.03472086
229	0xbd7b5138	-0.061356753
230	0xbca957d4	-0.020671763
231	0x3c707690	0.014676705
232	0xbce2f78c	-0.02770593
233	0x3d513fa6	0.05108609
234	0xbd6050b4	-0.054764464
235	0xbd6b07d2	-0.057380505
236	0xbd5ac960	-0.053414702
237	0x3d1fe454	0.03903611
238	0xbceb1814	-0.028698005
239	0x3d06ac72	0.0328793
240	0xbaf1fe40	-0.0018462613
241	0xbbd7c6c0	-0.006584972
242	0x3bc46310	0.0059932545
243	0xbcd7d744	-0.026347764
244	0xbcd93ad8	-0.026517317
245	0xbd190b1c	-0.03736411
246	0x3cb035f8	0.02151011
247	0xbd508176	-0.050904714
248	0x3d629f4a	0.05532769
249	0x3cab6dd4	0.020926394
250	0x3d20c246	0.039247774
251	0xbc6e3f98	-0.014541529
252	0xbb0ba4a0	-0.002130784
253	0x3d0ccd5e	0.03437554
254	0xbcb13a18	-0.021634147
255	0xbce1e2fc	-0.027574055

fc2.bias f4 [256]
0	0x3cded128	0.027199343
1	0xbd2b17ee	-0.041770868
2	0xbceef170	-0.02916786
3	0x3d4fb050	0.050705254
4	0xbbe11700	-0.006869197
5	0xb9cae600	-0.00038699806
6	0xbb76dbe0	-0.0037667677
7	0xbd5a6f36	-0.053328715
8	0xbb926490	-0.0044675544
9	0x3ca47c14	0.020078696
10	0x3c9f560c	0.01945021
11	0xbd5e66c0	-0.05429721
12	0xbd16e91c	-0.036843404
13	0x3d30ce8e	0.043165736
14	0xbcaacfac	-0.020850979
15	0x3c81069c	0.015750222
16	0x3c30ea10	0.010797992
17	0xbd73096a	-0.05933515
18	0xbd6eddc4	-0.05831696
19	0xbd7dfa52	-0.062006302
20	0xb97ee000	-0.00024306774
21	0xbd775cfc	-0.06039141
22	0x3cc65708	0.024211422
23	0x3ba55200	0.0050451756
24	0xbd22ae46	-0.03971698
25	0x3b7dba80	0.00387159
26	0xbcb25050	-0.021766812
27	0xbb6e84e0	-0.0036395118
28	0x3c881758	0.016612694
29	0x3d07d7d2	0.033164807
30	0x3c500208	0.012695797
31	0xbd1f4bfa	-0.038890816
32	0xbbe2fe40	-0.0069272816
33	0x3acd6d80	0.0015672892
34	0xbca4568c	-0.0200608
35	0xbcb9f2dc	-0.022698812
36	0x3ce42578	0.027849898
37	0xbc72dc60	-0.014823049
38	0xbd2cc306	-0.042178176
39	0xbd5d56c4	-0.054037824
40	0x3cc43b20	0.023953974
41	0x3c868bac	0.016424023
42	0x3d192952	0.03739292
43	0x3cd7bacc	0.026334189
44	0xbd1cc492	-0.0382734
45	0x3d6b3b34	0.057429507
46	0x3be89060	0.007097289
47	0x3cf661d4	0.030075945
48	0xb88cb400	-6.709248e-05
49	0x3d59155a	0.052998878
50	0x3d671cfe	0.056424133
51	0xbc6e6a28	-0.014551677
52	0x3be1d180	0.0068914294
53	0xbd768492	-0.060185023
54	0xbce7c87c	-0.02829384
55	0x3cbb4c34	0.022863485
56	0xbd0e880a	-0.034797706
57	0xbd3710c8	-0.04469374
58	0x3d693298	0.056933016
59	0x3d03b28c	0.032152697
60	0x3b59e820	0.003324993
61	0xbd4925e4	-0.0491084
62	0xbc363788	-0.011121638
63	0xbd247ca2	-0.04015792
64	0xbd06b7a2	-0.03288997
65	0x3cbee004	0.023300178
66	0xbd0576ac	-0.032583877
67	0x3d462c74	0.048382238
68	0x3b0d2d40	0.0021541864
69	0x3c880e04	0.016608246
70	0x3a14e300	0.00056795776
71	0xbbf79140	-0.007555157
72	0xbd53048e	-0.051518016
73	0x3d50038c	0.050784633
74	0xbd725068	-0.059158713
75	0xbccb417c	-0.024811499
76	0xbd5b45da	-0.053533413
77	0x3ca0ea1c	0.019642882
78	0xbd78d052	-0.060745545
79	0x3d3147a2	0.043281205
80	0xbccb6860	-0.024830043
81	0xbd3c3eba	-0.04595826
82	0xbc1086d8	-0.008821212
83	0xbd367e9a	-0.04455433
84	0xbd64c01e	-0.05584728
85	0xbc419da0	-0.011817366
86	0x3d345f24	0.044036046
87	0x3d67996e	0.056542806
88	0xbcecd458	-0.028909847
89	0x3d03e1e2	0.03219784
90	0x3cc0ad34	0.02352009
91	0x3d118ffe	0.035537712
92	0x3cc1b30c	0.023644947
93	0x3d2f3696	0.042776667
94	0xbcffe194	-0.031235494
95	0xbd05e0da	-0.03268514
96	0x3c323bc0	0.010878503
97	0xbaadca40	-0.0013259128
98	0x3bf8c500	0.0075918436
99	0x3d712766	0.058875464
100	0xbbf5d0b0	-0.007501684
101	0xbc2812d0	-0.0102583915
102	0xbd18cae4	-0.037302867
103	0xbd514d46	-0.051099084
104	0x3d229bc2	0.039699323
105	0xbbe296d0	-0.006914951
106	0xbca58ab8	-0.020207748
107	0x3d076094	0.03305109
108	0x3d7c85c4	0.061651006
109	0x3b8607e0	0.0040902942
110	0x3ccd2bf8	0.02504538
111	0x3d1f8b00	0.03895092
112	0xbcef752c	-0.029230677
113	0x3d30e876	0.043190442
114	0x3cb5cb74	0.02219174
115	0xbc1f4818	-0.009721778
116	0xbcc20fe8	-0.023689225
117	0xbcee0a54	-0.02905766
118	0x3c8d2630	0.017230123
119	0xbc5f3d28	-0.013625421
120	0x3d71b00a	0.059005775
121	0xbcbf47a4	-0.02334959
122	0xbbe10f20	-0.006868258
123	0xbc9f6264	-0.019456096
124	0xbd22cd56	-0.039746605
125	0xbc8aa9d0	-0.016926676
126	0x3d1c9dc6	0.038236402
127	0x3cc1e3a8	0.023668125
128	0xbd3677a8	-0.044547707
129	0x3d431b66	0.04763355
130	0xbc6b7808	-0.014371879
131	0xbcc78590	-0.02435568
132	0xbcd1b6e8	-0.025599912
133	0xbd4f7898	-0.050652117
134	0x3c595458	0.013264738
135	0xbd52ed26	-0.051495694
136	0xbceee5a0	-0.029162228
137	0xbd7a6706	-0.061133407
138	0x3d58e4ce	0.05295258
139	0x3d7c20d0	0.06155473
140	0x3c305f98	0.010764979
141	0xbc934798	-0.017978474
142	0xbc4908c0	-0.012270153
143	0xbc8aec84	-0.016958483
144	0x3d5976ae	0.053091697
145	0xbd4f9b36	-0.05068513
146	0xbc4a0ab8	-0.012331657
147	0xb84f4800	-4.94197e-05
148	0xba28c200	-0.00064375997
149	0x3d0f1de0	0.0349406
150	0x3d578c1a	0.052623846
151	0x3d1689ce	0.036752515
152	0x3d226e8a	0.0396562
153	0x3d4acede	0.04951369
154	0xbd0c3958	-0.034234375
155	0x3be6b490	0.0070405677
156	0x3d656e2c	0.05601327
157	0x3cfbaa40	0.03072083
158	0x3c7dbcb0	0.015486881
159	0x3d5a81a0	0.053346276
160	0x3d1c06a8	0.038092285
161	0xbd113b0c	-0.035456702
162	0xbd495fb4	-0.049163535
163	0x3c6014d0	0.013676837
164	0xbcb6b1f0	-0.022301644
165	0xbbdf0860	-0.0068064183
166	0xbcf002e8	-0.02929826
167	0x3d5d6c06	0.054058097
168	0x3b72f8e0	0.003707461
169	0xbd282cc4	-0.041058317
170	0xbc753518	-0.014966272
171	0x3d67eb3a	0.056620814
172	0xbd6ddac6	-0.058069967
173	0x3d65ba82	0.05608607
174	0xbc9cfec0	-0.019164443
175	0xbcdec2e0	-0.027192533
176	0x3c0f7318	0.008755468
177	0xbc2c1110	-0.010502115
178	0x3ca40e74	0.020026423
179	0x3ca4aa48	0.020100728
180	0xbd025bb2	-0.03182573
181	0x3d393662	0.04521788
182	0xbd435d74	-0.047696546
183	0xbd0505a8	-0.032476097
184	0x3cf9b79c	0.03048306
185	0xbd44bee6	-0.048033617
186	0xbd31430e	-0.04327684
187	0x3bf3ec30	0.007443927
188	0x3ca563d8	0.02018921
189	0xbcfabdfc	-0.03060817
190	0x3d4c6dd4	0.049909428
191	0xbae43200	-0.0017409921
192	0x3b79aae0	0.0038096234
193	0x3d4fb2ce	0.05070763
194	0x3d0d2606	0.03446009
195	0x3d03fc14	0.032222822
196	0xbd53c1a2	-0.051698335
197	0xbd45d27a	-0.04829643
198	0x3d3e238a	0.04642061
199	0x3abfba80	0.0014627725
200	0x3aa44800	0.0012533665
201	0x3d77f962	0.060540564
202	0x3ca40a78	0.020024523
203	0xbbfb0ab0	-0.007661186
204	0xbc3f2490	-0.011666432
205	0xbca88210	-0.020569831
206	0xbd3e996e	-0.04653304
207	0xbd772580	-0.060338497
208	0x3d64c1f2	0.055849023
209	0x3be65bf0	0.007030003
210	0x3d134e66	0.03596344
211	0x3d51c9d0	0.051217854
212	0xbd3bb28c	-0.045824572
213	0x3c9e1134	0.019295312
214	0xbd282db0	-0.041059196
215	0xbc4313d8	-0.011906587
216	0xbd69f806	-0.0571213
217	0xbd37912a	-0.044816174
218	0xbd346194	-0.04403837
219	0x3d32548e	0.04353767
220	0x3d3cc0ea	0.046082415
221	0xbc9bb5d8	-0.019007608
222	0x3c1ba598	0.00949993
223	0xbd7add48	-0.061246186
224	0xbc5e6d30	-0.013575837
225	0xbd643eda	-0.055724002
226	0x3d41fec0	0.04736209
227	0x3b52c3a0	0.0032160059
228	0xbb9d4d90	-0.004800506
229	0x3d750cfe	0.059826843
230	0x3c8c01c4	0.017090686
231	0x3cb18a30	0.021672338
232	0xbc0c3990	-0.008558646
233	0x3be53c00	0.006995678
234	0x3c29b208	0.010357387
235	0xbd241cce	-0.040066533
236	0x3d682a14	0.056680754
237	0xbd40f3c6	-0.04710748
238	0xbd5281b2	-0.05139322
239	0x3d2d21f0	0.042268693
240	0x3beaa370	0.0071605965
241	0x3d756af4	0.05991645
242	0xbcccba20	-0.024991095
243	0x3b197a00	0.0023418665
244	0xbd69af36	-0.05705186
245	0x3ca81494	0.020517625
246	0xbd6d350c	-0.057911918
247	0x3d273660	0.04082334
248	0x3caad464	0.020853229
249	0x3d5ce5e2	0.05393017
250	0x3c4f0060	0.012634367
251	0xbd3cd732	-0.046103664
252	0xb989f600	-0.0002631396
253	0xbd592568	-0.05301419
254	0xbd0de43e	-0.034641497
255	0xbbf1bc60	-0.0073771924

q.weight f4 [1, 256]
0	0xbc164230	-0.009171054
1	0x3c036dd0	0.008021787
2	0xbd594a16	-0.05304917
3	0x3ca32ad4	0.019917883
4	0x3d31c5e8	0.04340163
5	0x3c86638c	0.01640489
6	0xbd75e6ae	-0.060034446
7	0x3c2df988	0.010618575
8	0x3bd63e00	0.0065381527
9	0x3d7a52ca	0.06111411
10	0xbd4a5bb0	-0.049403846
11	0x3c1fe8c8	0.009760089
12	0x3cfc24cc	0.030779265
13	0xbcabb360	-0.020959556
14	0xbd65fca4	-0.05614914
15	0xbd19adfa	-0.037519433
16	0x3cd06794	0.025440015
17	0xbd013d1a	-0.03155241
18	0x3d09e674	0.033667043
19	0xbd5cd04c	-0.053909585
20	0x3d5ff8b4	0.05468054
21	0xbcae2388	-0.021257177
22	0x3d77bade	0.060480945
23	0xbb9d2680	-0.0047958493
24	0xbd4251be	-0.047441237
25	0x3d1d6438	0.038425654
26	0xbd122094	-0.0356756
27	0xbd41d5b8	-0.04732296
28	0x3d373406	0.044727348
29	0x3d262192	0.04055936
30	0x3d470e58	0.048597664
31	0xbc506fe8	-0.012721993
32	0x3c1e3e90	0.009658471
33	0xbd04d5c6	-0.032430433
34	0xbc220390	-0.009888545
35	0xbc7a1ca8	-0.015265621
36	0x3d640502	0.05566884
37	0xbd40b2c2	-0.047045477
38	0xbbd61860	-0.0065336674
39	0x3d45b5ee	0.048269205
40	0xbbf4b7b0	-0.0074681863
41	0xbd23f920	-0.040032506
42	0xbd4af7be	-0.04955267
43	0x3d59ce90	0.05317551
44	0xbd2a9d66	-0.041654013
45	0xbd63a58e	-0.055577807
46	0xbd52dcda	-0.05148015
47	0xbc0fc598	-0.008775137
48	0x3c99f0e8	0.01879163
49	0xbd178534	-0.036992267
50	0x3d22f88e	0.03978782
51	0x3cde2304	0.027116306
52	0xbc513018	-0.012767814
53	0x3cb6a3c8	0.022294894
54	0xbd57427c	-0.05255364
55	0xbd3cadc8	-0.04606417
56	0x3d75559e	0.059896104
57	0xbd0aa75c	-0.033851013
58	0x3bdacc90	0.006677218
59	0x3820a800	3.8303435e-05
60	0xb9f30200	-0.00046350062
61	0x3cb1a7d0	0.021686465
62	0xbd5b79b6	-0.05358287
63	0xbd5ef004	-0.054428115
64	0xbc7ea700	-0.015542746
65	0x3d5a3014	0.053268507
66	0x3b1a8da0	0.002358295
67	0x3d254b56	0.04035505
68	0x3c935304	0.01798392
69	0xbce9540c	-0.02848246
70	0xbd3301e2	-0.043702967
71	0x3d651974	0.055932477
72	0x3cb46eec	0.022025548
73	0x3c8695ac	0.016428791
74	0x3d1f44ae	0.038883857
75	0x3d38c800	0.04511261
76	0x3cbd50dc	0.023109846
77	0x3c92af18	0.017905757
78	0xbd269a9c	-0.04067479
79	0x3d02a64e	0.03189688
80	0xbd491002	-0.049087532
81	0x3c6519f8	0.013983242
82	0x3d5d265a	0.053991653
83	0xbd06a15c	-0.032868728
84	0xbcb4f2d0	-0.022088438
85	0x3ba526b0	0.0050400123
86	0x3d6e7592	0.058217593
87	0x3d63a86e	0.05558055
88	0x3cbe89d4	0.023259081
89	0xbc43ee68	-0.011958696
90	0x3d1020b6	0.035187446
91	0xbcc33ab0	-0.023831695
92	0xbd7c42a8	-0.061587006
93	0xbcc4dcc8	-0.024031058
94	0xbb29fc80	-0.0025937855
95	0x3d7d5500	0.06184864
96	0xbcc95220	-0.024575293
97	0xbb1dd4c0	-0.0024083108
98	0x3d7e80f4	0.062134698
99	0x3c0e57b0	0.0086878985
100	0xbba4f3f0	-0.0050339624
101	0xbcbcdad0	-0.023053557
102	0xba2ae180	-0.00065185875
103	0xbd160f44	-0.036635652
104	0xbd5d4d22	-0.054028638
105	0x3d6db796	0.05803641
106	0xbca5a400	-0.020219803
107	0xbce34f24	-0.027747698
108	0xbd2574e2	-0.04039467
109	0x3d3d8c1c	0.046276197
110	0xbb06d560	-0.0020573959
111	0x3c74a9f8	0.014933102
112	0xbd7782ec	-0.06042759
113	0x3d2ed142	0.042680033
114	0xba83d600	-0.0010058284
115	0x3d67ee02	0.056623466
116	0x3c95ddac	0.018294178
117	0x3c39ee98	0.011348389
118	0xbd231178	-0.03981158
119	0x3d66c162	0.056336768
120	0x3d1053c8	0.03523615
121	0x3d41ff3e	0.04736256
122	0x3c3bbc40	0.0114584565
123	0x3d564344	0.052310243
124	0x3cbc38a8	0.022976235
125	0x3d2f52ee	0.042803697
126	0x3c8c3a80	0.017117739
127	0x3d29ba6e	0.04143756
128	0x3c973430	0.018457502
129	0xbcc807d0	-0.024417788
130	0xbc444eb8	-0.011981659
131	0xbd57a9ea	-0.052652277
132	0xbc865b44	-0.01640094
133	0x3d57ba16	0.0526677
134	0x3cdeb148	0.027184144
135	0x3cf08aac	0.029362999
136	0xbd172a3a	-0.036905505
137	0x3d008202	0.031373985
138	0x3d6979d2	0.057000943
139	0xbd558466	-0.052128218
140	0xbd0c923e	-0.034319155
141	0x3d5e500e	0.054275565
142	0xbd3d4892	-0.046211787
143	0xbd58fba6	-0.052974366
144	0x3d254a00	0.040353775
145	0xbd032294	-0.0320154
146	0x3bcfea40	0.0063450634
147	0xbd222766	-0.039588355
148	0xbd166e48	-0.036726266
149	0xbd78bb38	-0.06072542
150	0x3ca3a454	0.019975819
151	0x3c884a48	0.016636983
152	0x3d167798	0.036735147
153	0x3d4e8e4a	0.050428666
154	0xbd4d5c36	-0.050136767
155	0xba9dd280	-0.0012040883
156	0xbb1fa620	-0.0024360493
157	0xbcb82974	-0.022480704
158	0xbc2e0018	-0.01062014
159	0xbc972734	-0.01845131
160	0xbc2c8510	-0.010529771
161	0xbc8bff74	-0.017089583
162	0x3d1a6526	0.03769412
163	0x3c215ec8	0.009849258
164	0xbc915290	-0.017739564
165	0x3c9700bc	0.018432967
166	0xbb219980	-0.0024658144
167	0x3d08a596	0.03336104
168	0xbc8decec	-0.017324887
169	0x3cfedd68	0.031111434
170	0xbd2da220	-0.042390943
171	0xbce7d070	-0.028297633
172	0x3d417884	0.047234073
173	0x3d104cb8	0.035229415
174	0xbd227c0a	-0.039669074
175	0xbbf01900	-0.007327199
176	0x3b91d0f0	0.004449956
177	0xbd710cf6	-0.05885025
178	0x3d42cb34	0.04755707
179	0xbc8b7104	-0.017021663
180	0x3d15f232	0.03660793
181	0x3a376b80	0.0006996915
182	0xbcaefb28	-0.021359995
183	0xbd371df4	-0.0447063
184	0x3cd0aedc	0.025474004
185	0x3d6085c8	0.054815084
186	0x3b85dce0	0.0040851682
187	0xbd6a3dc8	-0.057187825
188	0x3c7deb08	0.01549793
189	0x3cac04ac	0.020998321
190	0xbd7427c0	-0.05960822
191	0x3d291b1c	0.04128562
192	0xbc50c058	-0.012741171
193	0x3d4a19fc	0.049341187
194	0xbd6eb296	-0.05827578
195	0x3d3a83fe	0.045536034
196	0x3bdf3370	0.0068115517
197	0x3d059096	0.03260859
198	0xbc02c668	-0.007981874
199	0x3d0aa7a2	0.033851273
200	0xbd170628	-0.036871105
201	0x3c964e7c	0.018347971
202	0x3d2d59f0	0.0423221
203	0xbcce7510	-0.025202304
204	0x3ce973b4	0.028497554
205	0xbd575ff8	-0.052581757
206	0x3c6c8f08	0.014438398
207	0x3b8be5c0	0.0042693317
208	0xbc047ff8	-0.008087151
209	0x3c8a8ad0	0.016911894
210	0x3cb2d54c	0.021830224
211	0xbd0a311a	-0.033738233
212	0xbd7d3fb2	-0.061828323
213	0xbcec3df0	-0.028838128
214	0x3d252c94	0.040325716
215	0xbd1552b0	-0.03645581
216	0x3bf97230	0.007612489
217	0xbd236942	-0.039895304
218	0xbca93a14	-0.020657577
219	0xbcdbd534	-0.026835062
220	0xbc809d08	-0.015699878
221	0x3c8d5770	0.017253608
222	0xbcfc29ac	-0.03078159
223	0xbd095210	-0.033525527
224	0x3d4a40ce	0.04937821
225	0xba33a580	-0.00068529695
226	0x3cb72da0	0.022360623
227	0xbd07c6ee	-0.0331487
228	0xbc1a7540	-0.009427369
229	0x3d3513a4	0.044208184
230	0x3ccbd218	0.024880454
231	0x3d777a90	0.06041962
232	0xbca12f64	-0.019675918
233	0x3c87c848	0.016574994
234	0xbd067d6e	-0.032834463
235	0x3d6de3a6	0.05807843
236	0xbd05f8d0	-0.03270799
237	0xbd62e264	-0.055391684
238	0x3cffd8c0	0.031231284
239	0xbd584446	-0.052799486
240	0xbd24f0c6	-0.040268682
241	0xbd0091fe	-0.03138923
242	0x3cc38758	0.023868248
243	0x3d345af8	0.044032067
244	0xbb825720	-0.0039776713
245	0x3caf8b28	0.02142866
246	0xbd4da1fa	-0.0502033
247	0xbd6ff514	-0.058583334
248	0x3c934610	0.017977744
249	0x3d05a030	0.03262347
250	0xbd2c649a	-0.04208813
251	0x3d7eb210	0.062181532
252	0xbc9f32d8	-0.019433424
253	0xbd6f6314	-0.058444098
254	0xbb381fa0	-0.0028095022
255	0x3c6d4018	0.014480613
