SAC_own/sac_0/value_sac.pth (torch, 292444 bytes, 5 tensors)

fc1.weight f4 [256, 24]
0	0x3ca59de0	0.020216882
1	0xbd81ffca	-0.06347616
2	0xbd47c4b4	-0.048771575
3	0xbdf3cc39	-0.11904187
4	0xbd84350c	-0.064554304
5	0xbdd70a4e	-0.10500012
6	0x3e37c492	0.1794608
7	0x3e343998	0.17600095
8	0x3e1d2578	0.15346324
9	0xbe1cf11d	-0.15326352
10	0x3e2f2102	0.17102435
11	0xbdc322aa	-0.09528096
12	0xbd59042c	-0.052982494
13	0xbdc5e03e	-0.096619114
14	0xbe42cef0	-0.19024253
15	0x3d9e72f0	0.07736766
16	0x3e0a18ae	0.13485977
17	0x3d99f5d4	0.07517591
18	0x3c669d50	0.014075592
19	0x3dda69c4	0.106647044
20	0x3e4439d8	0.1916269
21	0xbdd5df9f	-0.10443043
22	0x3da76e6c	0.08175358
23	0x3bf3d0e0	0.0074406713
24	0x3d0c4a08	0.03425029
25	0x3e371694	0.17879707
26	0xbca81978	-0.020519957
27	0xbdd6b924	-0.104845315
28	0xbdcae388	-0.099066794
29	0x3e41d3c8	0.18928444
30	0xbe1350a5	-0.14386232
31	0xbe25b783	-0.16183285
32	0x3e3070ec	0.17230576
33	0x3dc24f74	0.09487811
34	0x3dec19ac	0.11528334
35	0x3e2a6d56	0.16643271
36	0xbdfd0f34	-0.123564154
37	0xbe1ec994	-0.15506583
38	0x3e264334	0.16236573
39	0x3df197f4	0.11796561
40	0xbc3631f0	-0.011120304
41	0xbd19ff98	-0.03759727
42	0x3e2de844	0.16983134
43	0x3e20c3ee	0.15699741
44	0x3e04f122	0.1298261
45	0x3e45141c	0.19245952
46	0x3d4ebd58	0.05047354
47	0xbe318ae7	-0.17338143
48	0xbe0fc82f	-0.14041208
49	0xbd45f410	-0.04832846
50	0xbe40b801	-0.18820192
51	0xbe295222	-0.16535237
52	0xbe4f640b	-0.20253007
53	0x3e0c0f4c	0.1367771
54	0xbd041f44	-0.03225638
55	0xbdf85e2c	-0.12127337
56	0xbdb0f189	-0.08639819
57	0x3e067eca	0.13134304
58	0x3d723930	0.05913657
59	0xbe4c98d9	-0.19980182
60	0x3e29ae0a	0.16570297
61	0x3e24e054	0.161012
62	0x3df52dc0	0.11971617
63	0xbd429510	-0.04750544
64	0x3def1f98	0.11675948
65	0xbe450cd8	-0.19243181
66	0xbe29a6c0	-0.16567516
67	0xbc2f5390	-0.010701075
68	0x3d347f94	0.04406698
69	0xbe2f0f06	-0.17095575
70	0x3dd8dda4	0.105891496
71	0xbe20b10d	-0.1569254
72	0x3dbfeed8	0.09371728
73	0xbe2fb5d6	-0.17159209
74	0x3e10f83e	0.14157197
75	0x3d2c5fa8	0.042083412
76	0xbdb04470	-0.086068034
77	0x3d338d6c	0.043836042
78	0xbde76e38	-0.113003194
79	0xbc957898	-0.01824598
80	0xbe234494	-0.15944129
81	0x3dfab3a8	0.12241298
82	0xbe0ba0c3	-0.13635544
83	0x3d89c780	0.06727505
84	0x3bf01ae0	0.0073274225
85	0x3d751818	0.05983743
86	0xbd00d5c4	-0.031453863
87	0x3e23e030	0.1600349
88	0xbe357f29	-0.17724289
89	0xbe095974	-0.1341303
90	0xbe413c57	-0.18870674
91	0x3deb6908	0.114946425
92	0xbe381e94	-0.17980415
93	0xbe386f07	-0.18011104
94	0xbd4b4290	-0.049624026
95	0x3e121d3a	0.14268962
96	0xbd101dc8	-0.03518465
97	0xbe0fb6ae	-0.1403453
98	0x3d5c2318	0.053744406
99	0xbd009714	-0.03139408
100	0x3dfcc8ec	0.1234301
101	0xbb5717c0	-0.0032820553
102	0x3d98740c	0.07444009
103	0xbe335458	-0.17512643
104	0x3e1f6e38	0.15569389
105	0xbd152924	-0.036416188
106	0x3e1a1478	0.1504687
107	0x3e4cd632	0.20003584
108	0x3da60150	0.08105719
109	0xbe00d054	-0.12579471
110	0xbe497e86	-0.19677171
111	0xbe0a2ccc	-0.13493651
112	0xbd3f75d4	-0.04674323
113	0xbe395feb	-0.18102996
114	0xbc9ef1a8	-0.01940234
115	0x3c1709a0	0.009218603
116	0xbdd11817	-0.10209673
117	0xbdbb6066	-0.09149246
118	0x38e0f000	0.00010725856
119	0xbd566b90	-0.052348673
120	0x3e34a2bc	0.17640203
121	0xbd0d306c	-0.034470007
122	0xbe0c7b5c	-0.13718933
123	0xbcc1d240	-0.023659825
124	0xbd8171d2	-0.063205376
125	0xbd9e8f80	-0.07742214
126	0x3df790dc	0.120881766
127	0x3d880f40	0.06643534
128	0x3d278eb8	0.04090759
129	0x3ddb3a0c	0.10704431
130	0xbce67278	-0.028130755
131	0xbe113b4d	-0.14182778
132	0xbdebf1e8	-0.11520749
133	0x3e39e404	0.18153387
134	0x3db357b4	0.087569624
135	0xbc3cf240	-0.011532366
136	0x3d4dec98	0.05027446
137	0x3d415930	0.047204196
138	0xbe17b02c	-0.14813298
139	0x3e266d2c	0.16252583
140	0xbd82bf62	-0.063841596
141	0x3c95b4b8	0.01827465
142	0x3dc7a9f8	0.09749216
143	0x3e00331a	0.12519494
144	0x3df98bac	0.121848434
145	0xbdb9161d	-0.09037421
146	0xbd1bb294	-0.038012102
147	0x3e09c6de	0.13454768
148	0xbe07beca	-0.13256374
149	0xbda1c26c	-0.07898411
150	0xbd77fe5c	-0.06054531
151	0xbdb8f472	-0.09030999
152	0x3cb44fa0	0.022010624
153	0xbe0b462b	-0.13600986
154	0xbe23211c	-0.15930599
155	0xbd9d0bf6	-0.07668297
156	0xbd7fa1f4	-0.06241031
157	0xbda3e2ed	-0.08002267
158	0xbd8c73c4	-0.06858018
159	0xbe0579b8	-0.13034713
160	0x3e18acec	0.14909714
161	0x3e1883ac	0.14893979
162	0x3da443d8	0.08020753
163	0x3de81014	0.11331192
164	0xbe0b518c	-0.13605326
165	0xbe44a51e	-0.19203612
166	0xbd433ec4	-0.04766728
167	0xbdf261a6	-0.11835031
168	0xbdef9a91	-0.11699403
169	0x3ded92c0	0.11600256
170	0x3e437d30	0.19090724
171	0x3d566c50	0.05234939
172	0x3df11808	0.11772162
173	0xbe2e9782	-0.17049983
174	0x3d3d2518	0.046177953
175	0xbda679d8	-0.081287086
176	0xbe364406	-0.17799386
177	0x3df1f7ec	0.118148655
178	0xbe4c8c76	-0.19975457
179	0x3e36791e	0.1781964
180	0x3c878748	0.016544
181	0xbd5953f4	-0.05305858
182	0x3d309dac	0.043119118
183	0x3dbcb240	0.09213686
184	0x3cec4de0	0.028845727
185	0x3dbb45d8	0.09144181
186	0xbe3cd9a0	-0.18442392
187	0x3e149a4c	0.14511985
188	0x3d1fa218	0.038972944
189	0x3e38ef5c	0.18060058
190	0xbdb027f6	-0.08601372
191	0xbe2d1148	-0.16901124
192	0x3de534b8	0.11191696
193	0x3e3d86d0	0.18508458
194	0xbd726444	-0.059177652
195	0x3e49a484	0.19691664
196	0xbe301085	-0.17193802
197	0xbe3214b1	-0.17390706
198	0xbce47c98	-0.027891442
199	0xbda22fcc	-0.07919273
200	0x3d450698	0.04810199
201	0x3cc935f8	0.024561867
202	0x3dff3c54	0.124626786
203	0xbb94fe60	-0.0045469254
204	0xbdbfbd40	-0.093622684
205	0xbd84f20e	-0.06491481
206	0xbd2a04e8	-0.041508585
207	0xbe20f965	-0.15720136
208	0x3dfae84c	0.12251338
209	0x3dbddd04	0.09270671
210	0xbe27426c	-0.16333932
211	0x3b2f3cc0	0.002673909
212	0x3e0e8558	0.13918054
213	0x3dafcde8	0.085841954
214	0x3e22e3aa	0.1590716
215	0x3e3dfe8c	0.18554133
216	0xbdb5f389	-0.08884341
217	0xbda540bb	-0.08068987
218	0xbc95e660	-0.018298328
219	0x3e37601e	0.1790776
220	0x3e46ef38	0.19427192
221	0xbe2481d6	-0.16065153
222	0x3ce3e818	0.027820632
223	0x3c457400	0.012051582
224	0x3b74f440	0.003737703
225	0x3e05c7c0	0.1306448
226	0x3cc4fa00	0.02404499
227	0xbe018fa6	-0.12652454
228	0xbd30c70c	-0.043158576
229	0xbe3ef82a	-0.18649355
230	0xbdfc043b	-0.123054944
231	0xbe2e88b8	-0.17044342
232	0x3d067e00	0.032835007
233	0xbe3a2403	-0.181778
234	0x3d588a10	0.05286604
235	0xbe2ac1f9	-0.16675557
236	0xbde98e70	-0.11404121
237	0x3e1581b2	0.14600256
238	0x3d83d174	0.064364344
239	0xbe3084b3	-0.1723812
240	0xbe0f5284	-0.13996321
241	0xbe393a6e	-0.18088695
242	0x3e05036a	0.12989584
243	0x3d989220	0.07449746
244	0xbd2be07c	-0.04196213
245	0x3e0ade98	0.13561475
246	0x3e35c04a	0.17749134
247	0x3d545070	0.051834524
248	0xbc086d70	-0.008326873
249	0xbdc46d94	-0.09591213
250	0xbe189aae	-0.14902756
251	0xbcdd8730	-0.027042001
252	0x3d1757a0	0.0369488
253	0xbe2a9fae	-0.16662475
254	0xbdf4fff1	-0.119628794
255	0xbcd3cf98	-0.025855824

fc1.bias f4 [256]
0	0x3e1a74c8	0.15083611
1	0xbcfb6b40	-0.03069079
2	0x3e351faa	0.1768786
3	0xbe2625e1	-0.16225387
4	0xbbb1a740	-0.005421549
5	0xbb95aec0	-0.004567951
6	0x3d9321e4	0.071841985
7	0xbe3ae18f	-0.18250106
8	0xbc439b70	-0.011938915
9	0x3df2ad4c	0.1184946
10	0x3d4734f8	0.0486345
11	0xbca1edb0	-0.019766659
12	0xbe1cb202	-0.1530228
13	0xbd661cc0	-0.056179762
14	0x3bcbdb60	0.00622122
15	0xbe14762b	-0.14498203
16	0x3d65df18	0.056120962
17	0xbd1bf9e8	-0.038080126
18	0x3d740448	0.059574395
19	0x3df9f7b4	0.12205449
20	0x3dc285b0	0.09498155
21	0xbe4736ce	-0.194545
22	0x3d363260	0.044481635
23	0xbcaa9e98	-0.020827577
24	0x3dcba938	0.09944385
25	0x3dfa6b30	0.12227476
26	0x3e495102	0.19659808
27	0x3d06f19c	0.03294526
28	0x3e4ce5d0	0.20009542
29	0xbe4897b4	-0.1958912
30	0xbd0181e0	-0.031618
31	0x3c655d90	0.013999358
32	0xbdfbf18b	-0.1230193
33	0xbd894e7c	-0.06704423
34	0xbcce9d88	-0.025221601
35	0x3da8d0d0	0.08242953
36	0xbd4d2608	-0.050085098
37	0xbe24d622	-0.1609731
38	0xbe155694	-0.14583808
39	0xbd969f68	-0.07354623
40	0xbdb1c1f2	-0.0867957
41	0xbdccd78c	-0.1000205
42	0xbbc07300	-0.005873084
43	0x3e09d86e	0.13461468
44	0xbc0d0320	-0.008606702
45	0xbdec41f6	-0.115360186
46	0xbe4c296a	-0.19937673
47	0xbbfb26a0	-0.0076645166
48	0xbe2b0704	-0.16701895
49	0x3dff3b1c	0.12462446
50	0xbd11bc68	-0.03558007
51	0xbe3eb5e8	-0.18624079
52	0xbe312384	-0.17298704
53	0xbdd9afcf	-0.10629236
54	0xbe0f0af9	-0.1396903
55	0x3d96d1d0	0.07364237
56	0xbe095f1f	-0.13415192
57	0xba994800	-0.0011694431
58	0xbe3e3d08	-0.18577969
59	0x3ceef6f0	0.029170483
60	0xbe27450e	-0.16334936
61	0xbd50783c	-0.050895914
62	0x3dab40b8	0.083619535
63	0xbe3e4978	-0.18582714
64	0x3d94f7dc	0.07273838
65	0xbe4b9a39	-0.1988305
66	0x3e3fc6ba	0.18728152
67	0x3e07bf8a	0.1325666
68	0xbe052cf2	-0.13005427
69	0x3e1c90d6	0.15289626
70	0xbe1bd0c5	-0.15216358
71	0x3e241baa	0.16026178
72	0xbcb2bbd8	-0.021818087
73	0xbd7bce08	-0.061475784
74	0xbe2b15c7	-0.16707526
75	0xbd6a674c	-0.057227418
76	0x3c8a7b88	0.016904607
77	0xbced5340	-0.02897036
78	0xbde3f6f4	-0.11131087
79	0xbdf39822	-0.118942514
80	0xbdbc9519	-0.092081256
81	0x3c2e6ce0	0.010646075
82	0xbbdd1d80	-0.0067479014
83	0xbe31c93b	-0.1736192
84	0x3e1f71b8	0.15570724
85	0x3e44a2a2	0.19202664
86	0x3dd7443c	0.105110615
87	0xbca71800	-0.020397186
88	0x3d7b6988	0.06137994
89	0x3d42c340	0.047549486
90	0xbd3066d0	-0.0430668
91	0x3e4edcf2	0.20201471
92	0x3dcda524	0.10041264
93	0x3e4be272	0.19910601
94	0xbdfa8386	-0.12232117
95	0x3e1c40ae	0.15259048
96	0xbe49dc34	-0.19712907
97	0xbe2443e7	-0.16041528
98	0xbde7dcee	-0.11321436
99	0xbe2f6385	-0.17127807
100	0xbdaea2d3	-0.0852715
101	0xbe152680	-0.14565468
102	0xbe3f1d1d	-0.1866345
103	0xbd6ea93c	-0.058266863
104	0x3a784e00	0.0009472072
105	0xbe32c7aa	-0.17458978
106	0x3db45654	0.08805528
107	0x3e0f06aa	0.13967386
108	0xbe24a29b	-0.16077654
109	0xbdbf8c7d	-0.09352968
110	0x3d8254b0	0.06363809
111	0xbd278a70	-0.04090351
112	0x3e0463ec	0.12928742
113	0x3e07c068	0.13256991
114	0x3d4981b8	0.049195975
115	0xbe3c69a2	-0.1839967
116	0x3e4bfd06	0.1992074
117	0x3e327cf6	0.17430481
118	0xbe500a79	-0.20316495
119	0xbc95f528	-0.018305376
120	0xbe148806	-0.14505014
121	0x3e33a0ec	0.17541856
122	0xbdd68143	-0.104738735
123	0x3b586d00	0.0033023953
124	0xbe47e40d	-0.19520588
125	0x3e406e5e	0.18792102
126	0x3dc57974	0.09642306
127	0x3d9a6984	0.07539657
128	0xbe32c6f2	-0.17458704
129	0x3c116830	0.008874938
130	0xbdb678ef	-0.08909785
131	0xbe0f23dc	-0.13978523
132	0xbdf84d9a	-0.12124176
133	0x3bfa57a0	0.0076398402
134	0xbe1d7ff1	-0.15380837
135	0x3c780d30	0.015139863
136	0x3dad6f34	0.08468476
137	0x3e2c259e	0.16811225
138	0x3d6672a0	0.05626166
139	0xbc6aa8b0	-0.014322445
140	0xbe4004bf	-0.1875181
141	0x3e0ef806	0.13961801
142	0x3dd7078c	0.10499486
143	0xbde57f27	-0.11205893
144	0x3e2e3bae	0.17014953
145	0x3e1fc282	0.15601543
146	0xbd035c28	-0.03207031
147	0x3db241b4	0.08703938
148	0x3e507030	0.20355296
149	0xbde6a774	-0.11262408
150	0xbe0fa6be	-0.14028451
151	0xbdbd9bf5	-0.09258262
152	0xbe095b22	-0.1341367
153	0x3d63c860	0.055611014
154	0x3da2a21c	0.07941076
155	0xbde34194	-0.110964924
156	0xbe105150	-0.14093518
157	0xbe2e0475	-0.16993888
158	0xbd157d80	-0.03649664
159	0x3d928ff8	0.07156366
160	0x3d136b28	0.035990864
161	0xbd8f9314	-0.07010475
162	0xbe0636e2	-0.13106874
163	0x3ceac120	0.028656542
164	0xbe4eaeef	-0.2018392
165	0xbc85d6d8	-0.016337797
166	0x3d14855c	0.036259994
167	0x3df96e0c	0.12179193
168	0x3d53b208	0.051683456
169	0xbdbe610d	-0.09295855
170	0x3e355bae	0.17710754
171	0xbe27ebb0	-0.16398501
172	0xbe39dacc	-0.1814987
173	0xbe0b03d4	-0.13575679
174	0x3d8bc8bc	0.068253964
175	0xbd552890	-0.052040637
176	0x3e28dde0	0.16490889
177	0x3da39c68	0.079888165
178	0x3dbbb230	0.09164846
179	0xbdd07daf	-0.10180222
180	0x3bde93e0	0.0067925304
181	0xbda91fa0	-0.08257985
182	0x3d1b0e08	0.037855178
183	0x3d8f6d78	0.070033014
184	0xbe1fbb10	-0.15598702
185	0x3cd56658	0.026049778
186	0x3b6fec40	0.0036609322
187	0xbe0b1565	-0.1358238
188	0xbd50e498	-0.050999254
189	0x3e0cf08e	0.1376364
190	0xbc14e3b0	-0.009087488
191	0x3e153d0e	0.14574072
192	0x3e25c2bc	0.16187567
193	0x3d9fcfdc	0.07803318
194	0xbd5a0ce4	-0.05323495
195	0x3e28bee8	0.16479075
196	0x3e412a4c	0.18863791
197	0xbe263265	-0.16230161
198	0xbe3b9241	-0.1831751
199	0xbe43b9f4	-0.19113904
200	0x3ddb72b8	0.1071524
201	0xbd725984	-0.0591674
202	0x3e3a81ba	0.1821355
203	0xbd63a690	-0.05557877
204	0xbcc9c480	-0.024629831
205	0xbc94a840	-0.018146634
206	0xbd1c7a80	-0.038202763
207	0x3e353a46	0.17698011
208	0x3dd247b0	0.102675796
209	0xbe3a1bcf	-0.1817467
210	0xbd6d2654	-0.05789788
211	0x3e442fe6	0.19158897
212	0x3dbd56a0	0.09245038
213	0x3de096d4	0.10966268
214	0x3d404350	0.046939194
215	0xbdd6ea0b	-0.10493859
216	0x3dfb32c8	0.12265545
217	0x3d8183b0	0.063239455
218	0xbd756328	-0.059909016
219	0xbca4a690	-0.020098954
220	0xbe2d3f72	-0.16918734
221	0x3c04b2e0	0.008099288
222	0xbd86b2f0	-0.06577098
223	0xbe211443	-0.15730385
224	0x3da4831c	0.0803282
225	0xbd002660	-0.031286597
226	0xbdc0ad6e	-0.09408079
227	0xbcd9b678	-0.026576266
228	0xbe462ce4	-0.19353062
229	0x3e3bbf74	0.18334752
230	0xbba0d260	-0.004907891
231	0xbe36dd4c	-0.17857856
232	0x3e0058de	0.125339
233	0x3e3ba654	0.18325168
234	0x3da9c63c	0.08289763
235	0x3d2446e8	0.040106684
236	0xbdcf2f29	-0.10116417
237	0xbb811c00	-0.0039401054
238	0x3da86790	0.08222878
239	0xbd951e1a	-0.07281132
240	0xbcbb7a20	-0.022885382
241	0xbd809e5c	-0.06280205
242	0x3d2189ac	0.039437935
243	0xbe48fb4b	-0.1962711
244	0xbdfb8096	-0.12280385
245	0x3e1dd3fe	0.154129
246	0x3de10098	0.109864414
247	0xbd38461c	-0.044988737
248	0xbbba7640	-0.005690366
249	0x3ce54580	0.027987242
250	0xbc2b09a0	-0.0104393065
251	0xbdd200e1	-0.10254074
252	0x3e2bca6e	0.1677644
253	0xbc21d480	-0.009877324
254	0xbe431f96	-0.19055018
255	0xbdbbd2a8	-0.09171039

fc2.weight f4 [256, 256]
0	0x3cf92570	0.03041336
1	0x3d5083b4	0.050906852
2	0x3bc374d0	0.005964853
3	0xbd322696	-0.04349383
4	0x3d5c323c	0.053758845
5	0x3cab4d3c	0.020910852
6	0x3cc284cc	0.023744963
7	0x3d74feea	0.059813417
8	0xbc993bf4	-0.018705346
9	0xbc0071d0	-0.007839635
10	0x3d318874	0.043343022
11	0x3d289bac	0.041164085
12	0x3c87041c	0.016481452
13	0x3cf3b9dc	0.02975171
14	0xbd5af0aa	-0.05345217
15	0x3cb33114	0.021873988
16	0xbd4e2cb6	-0.05033561
17	0xbd5f75fa	-0.05455587
18	0xbd2a773e	-0.041617624
19	0x3d5489e4	0.051889315
20	0xbd6ed660	-0.058309913
21	0x3b03ae40	0.0020092875
22	0x3c4f3eb8	0.012649231
23	0x3cb92608	0.022601143
24	0xbca38804	-0.019962318
25	0xbceb0e0c	-0.028693222
26	0xbd35271c	-0.04422675
27	0xbd3b4e16	-0.045728765
28	0xbd08b0e4	-0.03337182
29	0x3d0120b4	0.03152533
30	0xbd7986b0	-0.060919464
31	0x3d2eac04	0.042644516
32	0xbc26daf0	-0.010184035
33	0xbca30b48	-0.01990284
34	0x3d023d66	0.031796835
35	0x3c5b3678	0.013379686
36	0xbd7b9494	-0.061420992
37	0x3d78b3f0	0.060718477
38	0xbd2cf296	-0.042223535
39	0xbc8c55d4	-0.01713077
40	0xbd4d6dca	-0.05015353
41	0xbd3ef52a	-0.046620525
42	0x3b66f240	0.0035239607
43	0xbd2e7c46	-0.042598985
44	0xbc99e888	-0.018787637
45	0x3d1dd58e	0.03853374
46	0x3b141a20	0.002259858
47	0xbc725b90	-0.014792338
48	0xbcdaad8c	-0.026694082
49	0xbd2d02c6	-0.042238973
50	0x39d43b00	0.0004047975
51	0xbd7c81fe	-0.061647408
52	0xbb750f20	-0.0037393048
53	0xbca8ef10	-0.020621806
54	0x3b815fe0	0.003948197
55	0xbc803ef8	-0.015655026
56	0xbd71a0f6	-0.058991395
57	0x3d6199d4	0.055078343
58	0x3c8fc900	0.017551899
59	0x3d47e1d6	0.04879936
60	0xbccc06f8	-0.024905667
61	0x3be96390	0.0071224645
62	0x3c830030	0.0159913
63	0x3d6299ba	0.055322386
64	0x3b3277e0	0.0027232096
65	0x3d5fc88e	0.054634623
66	0xbc463210	-0.012096897
67	0xbd193f40	-0.037413836
68	0xba523200	-0.0008018315
69	0xbd229626	-0.039693974
70	0xbc50b200	-0.012737751
71	0xbcb5470c	-0.022128604
72	0xbcbf5f58	-0.023360893
73	0xbd6225b2	-0.05521173
74	0x3bfe59c0	0.007762164
75	0x3ce108a0	0.027469933
76	0x3d2c41ce	0.042054944
77	0xbd4da5c2	-0.050206907
78	0xbc3b45f8	-0.011430256
79	0x3c836df0	0.016043633
80	0xbd5560f2	-0.052094407
81	0xbc8fb730	-0.017543405
82	0xbd72579c	-0.059165582
83	0xba101d80	-0.000549756
84	0x3b401be0	0.002931349
85	0x3ce9edcc	0.028555773
86	0x3bde9f40	0.0067938864
87	0x3ca174fc	0.019709103
88	0x3c93053c	0.017946832
89	0x3cb89ad8	0.022534773
90	0x3cd76ad4	0.026296057
91	0xbb009c40	-0.0019624382
92	0x3d2a7d9a	0.04162369
93	0xbbe311a0	-0.0069295913
94	0xbd11874c	-0.03552942
95	0x3d75a408	0.059970886
96	0x3cd9ff2c	0.026610933
97	0xbd416f6e	-0.04722541
98	0xbb12f5a0	-0.0022424236
99	0x3d5ce79a	0.05393181
100	0xbd7c9ee6	-0.061674975
101	0xbc8f7988	-0.017514005
102	0x3c0ac100	0.008468866
103	0xbc8534dc	-0.016260557
104	0xbc6bcb28	-0.014391698
105	0xbc7774e8	-0.015103556
106	0xbd22c848	-0.039741784
107	0xbd3a2ad6	-0.045451008
108	0xbd0eee4a	-0.03489522
109	0x3d73ab70	0.059489667
110	0xbbd55be0	-0.0065111965
111	0x3cce9680	0.025218248
112	0x3c32c150	0.010910347
113	0xbd0b8032	-0.034057803
114	0x3d5f0106	0.054444335
115	0xbcc40524	-0.023928232
116	0xbcbd29a0	-0.023091137
117	0xbd3a2060	-0.04544103
118	0x3b87cd20	0.004144326
119	0xbd573b90	-0.052547038
120	0xbceae440	-0.028673291
121	0x3d49862c	0.049200222
122	0x3d5e1430	0.05421847
123	0x3d4a8916	0.04944714
124	0x3d34ddc4	0.044156805
125	0xbd779364	-0.060443297
126	0xbd7658d8	-0.06014332
127	0x3d697edc	0.05700575
128	0xbc01ed98	-0.007930182
129	0xbcd3b2ac	-0.025842033
130	0x3cc654fc	0.024210446
131	0x3d70a412	0.05875022
132	0x3ca61fa0	0.020278752
133	0x3d072b00	0.032999992
134	0xbd7b975c	-0.061423644
135	0x39d89d00	0.00041315705
136	0x3d23703c	0.039901957
137	0xbd623242	-0.05522371
138	0x3bb65820	0.0055647045
139	0x3b26a280	0.0025426447
140	0x3ce35080	0.027748346
141	0x3ccf601c	0.025314383
142	0x3c7b33c8	0.01533217
143	0x3ccd8574	0.02508805
144	0xbd6b4da4	-0.05744709
145	0x3d0b831a	0.034060575
146	0xbd5e2304	-0.054232612
147	0xbcc41708	-0.023936763
148	0x3ca4e874	0.020130374
149	0x3ccb3680	0.024806261
150	0xbcfea418	-0.031084105
151	0x3d7bdeb6	0.06149169
152	0x3d4f8316	0.050662123
153	0xbc214080	-0.009842038
154	0xbd4c1016	-0.04982003
155	0x3d4cdc3e	0.050014727
156	0xbd573084	-0.052536502
157	0xbd5f4942	-0.054513223
158	0xbd49371c	-0.049124822
159	0x3d6793e2	0.056537516
160	0x3d00158c	0.03127055
161	0xbd211652	-0.039327927
162	0xbc83e35c	-0.016099624
163	0x3c556d88	0.013026603
164	0xba63f880	-0.0008696392
165	0x3d2c4bda	0.042064525
166	0xbbf44490	-0.0074544623
167	0xbd458d80	-0.048230648
168	0x39988900	0.00029093772
169	0x3c15caa8	0.009142555
170	0xbbe58360	-0.0070041865
171	0xbcef0120	-0.029175341
172	0x3d716f6e	0.05894416
173	0x3d3ebeac	0.046568558
174	0x3cca70d8	0.024712011
175	0xbc80781c	-0.015682273
176	0x3c1dfd78	0.009642951
177	0xbd3eb1aa	-0.046556152
178	0xbcb1b034	-0.021690466
179	0x3d7458ce	0.059655003
180	0xbd0b0818	-0.033943266
181	0xbc9299cc	-0.017895602
182	0x3d360392	0.044437
183	0xbc9f6ab8	-0.019460067
184	0xbd5dcd4a	-0.054150857
185	0x3bea91b0	0.0071584806
186	0x3d4e0ea2	0.050306924
187	0xbd326730	-0.04355544
188	0x3d3e9092	0.04652459
189	0xbb79ba00	-0.003810525
190	0xbb498040	-0.003074661
191	0x3d363e32	0.044492908
192	0x3d05a906	0.032631896
193	0xbcfc3e58	-0.030791447
194	0x3d43f294	0.047838762
195	0x3cd4cf30	0.025977701
196	0xbd109c8e	-0.035305552
197	0x3d53227e	0.051546566
198	0x3c8a0b28	0.016851023
199	0x3ca5f724	0.020259447
200	0x3d0364cc	0.03207855
201	0xbd58cf66	-0.052932166
202	0x3d3c893a	0.046029307
203	0x3d6946b4	0.056952193
204	0xbd1a2290	-0.037630618
205	0x3d52980e	0.051414542
206	0x3bbc5d90	0.005748458
207	0xbd1015e4	-0.035177127
208	0xbd19529e	-0.037432306
209	0x3ce80258	0.02832143
210	0x3cbfb808	0.023403183
211	0x3d240f78	0.040053815
212	0xbcf1a978	-0.029499754
213	0x3d36a726	0.044593
214	0x3d6aa524	0.057286397
215	0xbc0895b0	-0.0083364695
216	0xbd59bade	-0.053156726
217	0x3d60f330	0.05491942
218	0x3d238f6a	0.039931692
219	0x3d17c3a4	0.03705181
220	0x3c425800	0.011861801
221	0x3cb99f6c	0.022659026
222	0xbbad2270	-0.0052836463
223	0x3d551f04	0.052031532
224	0xbd113744	-0.035453096
225	0xbc972104	-0.01844836
226	0xbb44a4e0	-0.00300055
227	0xbcb7d6b8	-0.022441253
228	0xbd391ab0	-0.045191467
229	0x3ce778b8	0.028255805
230	0xbd243376	-0.04008814
231	0xbd5055fa	-0.050863244
232	0x3c95a8f8	0.018269047
233	0x3d03809c	0.032105073
234	0xbcc53928	-0.024075106
235	0x3d2e5042	0.04255701
236	0xbd43ae2c	-0.047773525
237	0xbd39d828	-0.04537216
238	0x3d6b2332	0.05740661
239	0x3d6916b6	0.056906424
240	0x3d3430e2	0.04399193
241	0xbb9f9b70	-0.0048708245
242	0x3d467390	0.048450053
243	0x3cc8b5a8	0.024500683
244	0xbc8914f0	-0.016733617
245	0x3d557068	0.052109152
246	0x3d404cb4	0.04694815
247	0xbc7763d0	-0.015099481
248	0x3d139568	0.036031157
249	0x3c5dc448	0.013535567
250	0x3cc48784	0.0239904
251	0xbb92dee0	-0.004482135
252	0xbd34ddf4	-0.044156983
253	0xbd78aa78	-0.060709447
254	0xbce54adc	-0.027989797
255	0x3d17384e	0.03691893

fc2.bias f4 [256]
0	0x3cba7c9c	0.022764497
1	0xbd466a8c	-0.048441455
2	0xbd727b34	-0.059199527
3	0xbcdd0274	-0.026978709
4	0xbd648474	-0.05579038
5	0xbd044e7e	-0.03230142
6	0x3d0442b8	0.03229019
7	0xbd7b54ae	-0.061360054
8	0x3d7942f4	0.060854867
9	0xbd23fdda	-0.040037014
10	0xbd53977a	-0.05165813
11	0x3cc0ff30	0.023559183
12	0xbd7d48b6	-0.06183692
13	0x3ceaa218	0.028641745
14	0x3b7fb180	0.003901571
15	0x3a294380	0.00064568967
16	0x3d6dd92c	0.05806844
17	0x3d3eebcc	0.046611592
18	0x3d690212	0.05688674
19	0x3cf94168	0.030426696
20	0xbd6afb56	-0.0573686
21	0x3c6632a0	0.014050156
22	0xbc946a70	-0.01811716
23	0x3d2b26c8	0.04178503
24	0x3d788abc	0.060679182
25	0x3d696d0a	0.056988753
26	0xbcb1fa90	-0.021725923
27	0xbd205bea	-0.039150156
28	0xbd2b454e	-0.04181414
29	0x3c368188	0.011139281
30	0xbd08d20c	-0.03340344
31	0x3c872bb0	0.016500324
32	0x3ce1d5a4	0.027567692
33	0xbbf21dd0	-0.007388808
34	0xbd318e96	-0.04334887
35	0xbd05d74a	-0.03267602
36	0xbd3c4e20	-0.045972943
37	0x3d7ca6e8	0.06168261
38	0xbc544730	-0.012956426
39	0xbc920328	-0.01782377
40	0xbcc4e480	-0.024034739
41	0xbc8a2028	-0.016861036
42	0x3beb8290	0.007187195
43	0xbcdd3fd4	-0.027007975
44	0xbc83a434	-0.01606951
45	0x3d625e00	0.055265427
46	0x3d2bf724	0.04198374
47	0x3d7096bc	0.0587375
48	0xbd02f41c	-0.031971082
49	0xbd412028	-0.047149807
50	0x3d2ca668	0.042150885
51	0x3d1d2ed8	0.03837475
52	0x3d6e478a	0.058173694
53	0xbc0992f8	-0.0083968565
54	0x3cabf3ec	0.020990334
55	0x3d0f36a6	0.034964226
56	0x3d1c2bf4	0.038127854
57	0xbd5caff8	-0.053878754
58	0x3d0da068	0.034576803
59	0xbb2c0860	-0.002625011
60	0x3ce8d83c	0.028423421
61	0xbc05cdd8	-0.008166753
62	0x3caf4a98	0.021397874
63	0xbc19e840	-0.009393752
64	0x3d5c9c56	0.05386003
65	0x3d3bd57a	0.045857884
66	0x3d30952a	0.043111004
67	0x3d63bee2	0.055601962
68	0x3d2f77d0	0.04283887
69	0x3bc2bdc0	0.00594303
70	0x3d7c87de	0.06165301
71	0x3c822a7c	0.015889399
72	0x3d094a68	0.033518225
73	0xbd31eb4a	-0.04343728
74	0x3d638534	0.055546954
75	0x3c7eaa68	0.015543558
76	0xbb0b3920	-0.0021243766
77	0xbd7c3dd0	-0.061582386
78	0x3d4f5cc8	0.050625592
79	0x3b20c960	0.0024534091
80	0x3a9423c0	0.0011302158
81	0xbb3e0f00	-0.002900064
82	0xbd310296	-0.043215357
83	0x3bdffcb0	0.0068355426
84	0x3d5bd71e	0.05367195
85	0x3d037c8c	0.0321012
86	0xbc69fb48	-0.0142811015
87	0x3d18979e	0.03725397
88	0xbb738b40	-0.0037161857
89	0xbc709448	-0.0146837905
90	0xbadc6400	-0.001681447
91	0x3ad82240	0.00164897
92	0xbc381fb0	-0.011238024
93	0xbd7ee03e	-0.062225573
94	0xbd61f09a	-0.055161096
95	0x3cd676c8	0.026179686
96	0xbbfb5bd0	-0.007670857
97	0xbd17e62a	-0.037084736
98	0xbc58e890	-0.013239041
99	0xbd2f8802	-0.042854317
100	0x3ceb98e8	0.028759435
101	0xbc8ab90c	-0.01693394
102	0x3d37a4fc	0.044835076
103	0xbb2a90e0	-0.0026026294
104	0x3cc7f0c4	0.024406798
105	0x3c301138	0.010746293
106	0x3d23540c	0.039875075
107	0xbcc40654	-0.023928799
108	0x3d0c5486	0.034260295
109	0x3d46c404	0.04852678
110	0xbd5145f0	-0.05109209
111	0xbd0f5d32	-0.035000987
112	0x3cee6f88	0.029105917
113	0x3bdbd690	0.0067089275
114	0xbc5ff898	-0.013670109
115	0xbd57be20	-0.05267155
116	0x3cabd0d8	0.020973608
117	0x3c6b6b18	0.014368795
118	0xbd352c6a	-0.04423181
119	0x3be793d0	0.007067181
120	0x3c282448	0.010262556
121	0x3d176320	0.036959767
122	0x3d25a952	0.04044468
123	0x3cf658fc	0.030071728
124	0x3d5c3b02	0.05376721
125	0x3d79ee5e	0.06101834
126	0x3d3edd16	0.046597563
127	0x3ab22f80	0.0013594478
128	0xbd5d3ca4	-0.05401291
129	0x3bd8fa10	0.0066216066
130	0xbd1a6f30	-0.037703693
131	0xbbb1be10	-0.0054242685
132	0xbcc6dce4	-0.02427525
133	0xbc5c23d0	-0.013436273
134	0xbb2e48a0	-0.002659358
135	0xbd585bdc	-0.05282198
136	0x3d5e714c	0.054307267
137	0xbd136bbe	-0.035991423
138	0xbd59f990	-0.053216517
139	0x3c3011b8	0.010746412
140	0x3928ce00	0.0001609847
141	0xbd5a48be	-0.05329203
142	0x3d05a8c2	0.032631643
143	0x3d22bef2	0.03973288
144	0xbd63203e	-0.05545067
145	0x3ca2101c	0.019783072
146	0x3ba6b060	0.0050869435
147	0x3b79ca40	0.0038114935
148	0xbc54bc10	-0.012984291
149	0x3d7380c2	0.059448965
150	0x3d0ed9e2	0.034875758
151	0x3ce22638	0.027606115
152	0x3be40bc0	0.0069594085
153	0xbd499e80	-0.049223423
154	0xbd34d14c	-0.044144914
155	0x3cbc4764	0.02298326
156	0xbd215c40	-0.039394617
157	0xbd164eee	-0.036696367
158	0xbd44ab72	-0.048015065
159	0xbca5d94c	-0.020245217
160	0x3d128154	0.03576787
161	0xbd2498aa	-0.040184654
162	0xbd48e04a	-0.049042024
163	0x3c751fc0	0.014961183
164	0xbc9e2358	-0.019303963
165	0xbc95f2c8	-0.018304244
166	0xbd330124	-0.04370226
167	0x3d30dbd0	0.04317838
168	0x3b9874d0	0.004652597
169	0xbd59d86e	-0.05318492
170	0xbcba597c	-0.022747748
171	0x3d203dba	0.039121367
172	0x3a0e8d80	0.0005437955
173	0x3d2f0264	0.04272689
174	0xbbffe5e0	-0.0078093857
175	0xbcd48748	-0.025943413
176	0x3d693f12	0.056944914
177	0xbcbf7da8	-0.023375347
178	0xbc44be40	-0.01200825
179	0xbd5074fa	-0.050892808
180	0xbd00f2ca	-0.03148154
181	0xbce7c7e4	-0.028293557
182	0x3b943840	0.004523307
183	0x3d139480	0.036030293
184	0xbd53924c	-0.05165319
185	0xbcd159d4	-0.025555529
186	0xbc83e684	-0.01610113
187	0x3d6d54ae	0.057942085
188	0x3d0dc926	0.03461566
189	0xbd643e0a	-0.055723228
190	0x3aa223c0	0.0012370273
191	0xbd103c20	-0.03521359
192	0x3c8ac7f8	0.016941056
193	0x3d7d8ff2	0.061904855
194	0xbd3a138a	-0.04542879
195	0xbcba1688	-0.022715822
196	0xbd145bf4	-0.036220506
197	0xbd4c3690	-0.049856722
198	0x3d2ce8a8	0.042214066
199	0x3caccaa4	0.02109272
200	0xbd3b9ffe	-0.045806877
201	0xbca7b1a4	-0.020470448
202	0xbd73fc6e	-0.059566908
203	0x3cafaf1c	0.021445803
204	0xbbad6170	-0.0052911565
205	0xbd118ccc	-0.035534665
206	0xbcd5c7b0	-0.026096195
207	0x3c9b0d28	0.018927172
208	0x3b242a60	0.0025049672
209	0x3d4de85c	0.050270423
210	0x3d78d244	0.0607474
211	0x3c3a25a8	0.011361517
212	0xbc0bc6d8	-0.008531295
213	0xbb208300	-0.0024492145
214	0xbc4875c0	-0.012235105
215	0x3cb5a0ac	0.02217134
216	0x3cb2dae8	0.021832898
217	0xbba00cd0	-0.00488434
218	0x3d6f8042	0.058471926
219	0x3d2355c8	0.03987673
220	0xbd5353de	-0.051593654
221	0x3d2083b2	0.039188094
222	0xbcb0e36c	-0.021592818
223	0x3d5530fc	0.05204867
224	0x3d147eec	0.036253855
225	0x3c98b6a8	0.018641785
226	0x3d4a1d38	0.04934427
227	0xbcff6510	-0.03117612
228	0xbd2867c8	-0.0411146
229	0xbd657546	-0.056020044
230	0xbd30895e	-0.043099754
231	0x3ce12a6c	0.027486049
232	0x3cfc9ed8	0.030837461
233	0xbc505af8	-0.012717001
234	0x3d1c3c68	0.038143545
235	0xbca07fb8	-0.019592151
236	0xbd7291e2	-0.059221156
237	0xbd04e92c	-0.032448933
238	0x3bcf86f0	0.0063332245
239	0xbd61c41e	-0.055118673
240	0xbbd1eea0	-0.00640662
241	0x3c3cfc70	0.011534795
242	0x3d7c6a60	0.061624885
243	0x3b6d0fc0	0.0036172718
244	0x3cde42a8	0.027131394
245	0x3d02ea7a	0.031961896
246	0xbd27fbb6	-0.041011535
247	0xbd688376	-0.056765996
248	0xbd60ba0a	-0.05486492
249	0x3d78d8ce	0.060753636
250	0xbd095ca2	-0.033535607
251	0x3cc52c44	0.024068959
252	0x3bc60e50	0.0060441867
253	0x3c86a394	0.016435422
254	0x3cace03c	0.021103017
255	0x3b273fa0	0.0025520101

v.weight f4 [1, 256]
0	0x3cfaa800	0.030597687
1	0xbcc5dd80	-0.024153471
2	0x3cf4633c	0.029832475
3	0xb835a000	-4.3302774e-05
4	0xbd475226	-0.048662327
5	0x3d350d8a	0.044202365
6	0x3c338e50	0.010959223
7	0xbd61f2cc	-0.05516319
8	0xbd20bb52	-0.039241143
9	0xbd7d9b0a	-0.061915435
10	0xbd4be902	-0.04978276
11	0x3cfff128	0.031242922
12	0xbc102aa8	-0.008799233
13	0xbccf5968	-0.025311187
14	0x3d53c2ce	0.051699452
15	0x3d5849e8	0.052804857
16	0xbca7fc84	-0.020506151
17	0x3d5b80cc	0.053589627
18	0x3c9e6600	0.019335747
19	0x3d09df28	0.033660084
20	0x3ce9e4cc	0.028551482
21	0xbd266604	-0.040624633
22	0x3d3caaba	0.046061255
23	0xbcdd8db8	-0.027045116
24	0xbcc9fa14	-0.02465538
25	0x3d5b13b8	0.053485602
26	0xbd44609e	-0.047943704
27	0xbd4c4b38	-0.04987642
28	0x3be27490	0.006910868
29	0xbd763f30	-0.060118854
30	0xbcd25848	-0.025676861
31	0xba010d00	-0.00049228966
32	0xbce2d6d4	-0.027690329
33	0x3d34cc5a	0.044140197
34	0x3cd29678	0.025706515
35	0x3d2d3f9a	0.042296983
36	0xbd183268	-0.037157446
37	0x3d39077a	0.045173146
38	0xbd0fe032	-0.03512592
39	0x3d068cba	0.03284905
40	0xbaf79fc0	-0.0018892214
41	0xbd71bb2c	-0.05901639
42	0xbc33e888	-0.010980733
43	0x3d51380a	0.051078834
44	0xbd7adecc	-0.061247632
45	0xbd7d70d6	-0.061875187
46	0x3c8a15b0	0.016856045
47	0xbcd9aaf0	-0.026570767
48	0xbcbdd288	-0.023171678
49	0xbc363768	-0.011121608
50	0x3c871010	0.016487151
51	0xbce581cc	-0.028015994
52	0x3d0c2a98	0.034220308
53	0xbd232e7e	-0.03983926
54	0x3c775de8	0.015098073
55	0xbb314220	-0.002704747
56	0x3cab146c	0.020883761
57	0xbcb1ff7c	-0.02172827
58	0x3d4ca1a4	0.04995884
59	0x3c97a790	0.018512517
60	0xbd6a034c	-0.05713205
61	0xbc89fba8	-0.016843632
62	0xbd1ae7b6	-0.037818633
63	0xbc77c138	-0.0151217505
64	0xbb2b4840	-0.0026135594
65	0x3d791fd6	0.060821377
66	0xbd1fec6e	-0.039043836
67	0xbd030856	-0.03199037
68	0xbc050e60	-0.008121103
69	0x3d697b5a	0.057002403
70	0x3d1519c6	0.036401533
71	0xbd5a2d5a	-0.053265907
72	0x3bf0a930	0.0073443875
73	0x3d7fdcfe	0.062466614
74	0x3cebec5c	0.028799228
75	0xbc005808	-0.007833488
76	0xbce2dc90	-0.027693063
77	0xbd6af884	-0.05736591
78	0xbb4fec00	-0.003172636
79	0x3d361668	0.044454962
80	0xbd511786	-0.051047824
81	0xbca8243c	-0.02052509
82	0xbc4aed38	-0.012385659
83	0xbca350f8	-0.01993607
84	0x3c1d3d90	0.009597197
85	0x3d16ed8a	0.03684763
86	0x3d347f26	0.04406657
87	0xbd634dfa	-0.055494286
88	0xbc6cd8c8	-0.014455982
89	0xbce164dc	-0.027513914
90	0xbd00fc0a	-0.031490363
91	0x3c9333cc	0.017969035
92	0x3c9fdb7c	0.019513838
93	0xbca6e8c8	-0.02037467
94	0xbbf8af50	-0.0075892583
95	0xbd547daa	-0.051877655
96	0xbd31f0bc	-0.043442473
97	0xbba05db0	-0.004893981
98	0xbca30c94	-0.019903459
99	0x3d74b4f0	0.059742868
100	0x3cc5b7e8	0.024135545
101	0xbd405aaa	-0.046961464
102	0x3ccaafb0	0.024741977
103	0xbd4b9f94	-0.049712732
104	0x3c3b46c8	0.01143045
105	0xbc5890f0	-0.01321815
106	0x3d1f1506	0.03883841
107	0xbd65cdc8	-0.05610445
108	0xbd000dbe	-0.031263106
109	0xbd1d203a	-0.03836081
110	0xbc4c96b8	-0.012487106
111	0x3c4b95d8	0.012425862
112	0x3d2adfd2	0.041717358
113	0xbc980044	-0.018554814
114	0x3ca5d934	0.020245172
115	0x3c2a7420	0.010403663
116	0x3d61469e	0.054998986
117	0x3c93c260	0.018037021
118	0x3d12fca4	0.035885468
119	0xbd655f9c	-0.055999383
120	0xbd6e373c	-0.058158144
121	0x3c24d960	0.010061592
122	0x3d5028ce	0.050820164
123	0x3c171ac0	0.009222686
124	0xbcb95420	-0.022623122
125	0x3cda4a74	0.02664683
126	0x3d5a3aa0	0.053278565
127	0xbd30fa28	-0.043207318
128	0xbd44aaac	-0.048014328
129	0x3cc0de04	0.023543365
130	0xbc49b208	-0.012310512
131	0x3d7a35d4	0.06108649
132	0x3ce45180	0.027870893
133	0x3c5163e8	0.012780167
134	0x3d416d6e	0.0472235
135	0xbce92830	-0.028461546
136	0x3cde4028	0.027130201
137	0x3d397d2a	0.04528538
138	0xbd5fedc4	-0.05467011
139	0x3d0f6aa4	0.03501381
140	0x3d65a7b6	0.056068145
141	0x3ca1e90c	0.019764446
142	0xbc8fe288	-0.017564073
143	0xbd028314	-0.031863287
144	0x3d2b9632	0.041891284
145	0x3cfb2a24	0.030659743
146	0x3d45bfee	0.04827874
147	0xbc44a748	-0.012002774
148	0x3b1fc780	0.0024380386
149	0xbd42d654	-0.04756768
150	0xbd6c4322	-0.05768121
151	0x3d4110c6	0.047135137
152	0xbd1b1a48	-0.03786686
153	0xbd52eb4e	-0.051493935
154	0xbc841984	-0.016125448
155	0xbbd5c1e0	-0.006523356
156	0x3c7944c8	0.015214153
157	0xbd26bf1c	-0.0407096
158	0xbd0a89e2	-0.0338229
159	0xbba14b50	-0.004922308
160	0x38f49000	0.00011661649
161	0x3cbcc1bc	0.023041598
162	0xbb0b7ae0	-0.0021282956
163	0xbd274b42	-0.040843256
164	0xbcdbc1a0	-0.026825726
165	0xbc2f3358	-0.010693394
166	0x3cb37434	0.021905996
167	0x3d3c532e	0.045977764
168	0x3d2b81bc	0.04187177
169	0x3d7cf7b0	0.06175965
170	0x3cf2ee7c	0.029654734
171	0xbc638530	-0.013886735
172	0x3ccad754	0.02476088
173	0xbd614038	-0.054992884
174	0xbcee9e50	-0.029128224
175	0xbd2906aa	-0.04126612
176	0xbd60e77c	-0.05490826
177	0x3cf3cdd4	0.029761232
178	0xbd76d1ce	-0.06025868
179	0x3cdc7868	0.026912883
180	0xbc205198	-0.0097850785
181	0xbd6fbc76	-0.05852934
182	0x3d582ece	0.05277901
183	0xbc13b868	-0.009016134
184	0xbca11e1c	-0.019667678
185	0xbd315bf8	-0.0433006
186	0xbd7f77f8	-0.06237027
187	0xbd6c60ea	-0.057709612
188	0x3d2e6694	0.042578295
189	0x3d277aec	0.04088871
190	0x3b4fdd60	0.0031717643
191	0x3d38c1a2	0.045106538
192	0x3c186b38	0.009302907
193	0x3d4d093c	0.050057635
194	0x3d22b422	0.03972257
195	0xbc0ebb20	-0.008711606
196	0x3cc00c38	0.023443326
197	0x3ceaa5f0	0.028643578
198	0xbd7bc656	-0.061468445
199	0xbcdab3c4	-0.026697047
200	0x3d26f302	0.040759094
201	0xbd4861c0	-0.048921347
202	0xbc975694	-0.0184739
203	0x3cfe865c	0.031069927
204	0xbba53a40	-0.0050423443
205	0x3d295b74	0.041346982
206	0x3c8b865c	0.017031841
207	0x3cbdfb5c	0.023191147
208	0xbc7f1408	-0.015568741
209	0xbd4edee8	-0.05050555
210	0xbd3e9598	-0.046529382
211	0x3d3deee6	0.04637041
212	0xbcb61fd8	-0.022231981
213	0x3c8a74fc	0.016901486
214	0xbd0fdb76	-0.035121404
215	0x3d624f16	0.055251203
216	0x3d77376a	0.06035558
217	0xbd56b228	-0.052415997
218	0x3c593cf0	0.013259158
219	0xbd7dc914	-0.06195934
220	0xbc9d4804	-0.019199379
221	0x3cd1f08c	0.025627397
222	0xbd47208e	-0.04861503
223	0xbd545dec	-0.051847383
224	0x3c4f27a0	0.012643725
225	0x3bfcdc10	0.007716663
226	0xbae303c0	-0.0017319843
227	0xbd0d8a9c	-0.034556016
228	0xbc45deb0	-0.012077019
229	0xbcf93bcc	-0.030424021
230	0x3d29f014	0.041488722
231	0x3cbe8e10	0.0232611
232	0xbcd89af4	-0.026441075
233	0x3d224f00	0.03962612
234	0xbb275600	-0.0025533438
235	0xbd44ecd2	-0.048077412
236	0xbd4fa1ae	-0.0506913
237	0x3d40ff72	0.04711861
238	0x3d013594	0.031545237
239	0x3d67ea28	0.056619793
240	0x3bafc580	0.00536412
241	0x3be957d0	0.007121064
242	0x3c44b380	0.012005687
243	0x3d0dc924	0.03461565
244	0xbd76034a	-0.06006173
245	0x3ce756e0	0.028239667
246	0x3c8b8e24	0.017035551
247	0xbd34e4e0	-0.044163585
248	0x3ccc7e04	0.024962433
249	0x3d05e750	0.0326913
250	0xbd5e321c	-0.054247007
251	0x3cc5ccb4	0.024145462
252	0x3d486f14	0.048934057
253	0xbc869978	-0.016430601
254	0xbbc1b090	-0.0059109405
255	0x3d2680a2	0.040650018
