SAC_own_hardcore/sac_200/actor_sac.pth (torch, 533976 bytes, 8 tensors)

fc1.weight f4 [400, 24]
0	0xbf109eb0	-0.5649214
1	0xbd915a6d	-0.070973255
2	0x3e7b6652	0.24550751
3	0x3f44f4a4	0.7693579
4	0xbe9a7a88	-0.3017161
5	0x3cad3763	0.021144575
6	0xbe093a57	-0.13401161
7	0xbd11ef44	-0.035628572
8	0x3e0e951a	0.13924065
9	0x3c9c4a65	0.019078443
10	0xbc9a0b09	-0.01880409
11	0xbeb2bb95	-0.3490874
12	0xbc8971ef	-0.01677796
13	0xbd5bf062	-0.053696044
14	0x3d977328	0.07395011
15	0x3c877eaf	0.0165399
16	0x3e1c9f29	0.1529509
17	0x3df8c449	0.121468134
18	0x3df80ff4	0.12112418
19	0xbd818e9d	-0.063260294
20	0x3d84a9f8	0.064777315
21	0x3e338b8c	0.17533702
22	0xbd57df92	-0.052703448
23	0xbe356c51	-0.177171
24	0x3ceffc32	0.02929506
25	0x3f48987f	0.7835769
26	0xbf77b040	-0.9675331
27	0x3e47de9e	0.19518515
28	0xbe0927e6	-0.13394126
29	0x3ed98750	0.42486048
30	0xbd0c0c26	-0.034191273
31	0x3ebd54aa	0.36978656
32	0xbe580062	-0.21093896
33	0xbe5cbe69	-0.2155701
34	0xbe795274	-0.2434786
35	0x3e868596	0.26273793
36	0x3e5bf2c9	0.21479334
37	0x3e9b22a5	0.3029987
38	0xbe6f120f	-0.23346733
39	0xbd91fad7	-0.07127922
40	0x3b9ddfbc	0.004817931
41	0xbe5a5667	-0.21322022
42	0xbeb4ef7d	-0.35338965
43	0xbccf3c7a	-0.025297392
44	0x3dd5e5c0	0.10444212
45	0xbd1d0ead	-0.038344074
46	0xbe099f34	-0.13439637
47	0xbdc9b2b6	-0.098485395
48	0x3e147a33	0.1449974
49	0xbd535be9	-0.051601324
50	0xbf355050	-0.7082567
51	0xbf6565b4	-0.8960831
52	0xbe5b9f37	-0.21447454
53	0x3eac0703	0.335991
54	0x3e4f1e13	0.20226316
55	0x3e8a947a	0.27066404
56	0xbe777289	-0.24164785
57	0xbe6071c7	-0.21918403
58	0x3e14b58a	0.14522377
59	0xbeb17407	-0.34658834
60	0x3d428e42	0.04749895
61	0xbe9f9682	-0.31169516
62	0x3e10fdd8	0.14159334
63	0xbe2950be	-0.16534707
64	0xbe706417	-0.23475681
65	0xbed96367	-0.4245865
66	0x3e1ecd84	0.15508085
67	0xbd13fd8f	-0.036130484
68	0x3ddc9ed8	0.107724845
69	0x3da84d9b	0.08217927
70	0xbebfaf9e	-0.37438673
71	0xbd1b500f	-0.037918147
72	0xbe980278	-0.29689384
73	0x3ee4f4c2	0.44717985
74	0x3ee1c3d7	0.44094726
75	0x3e70b37e	0.23505971
76	0xbdc5cf52	-0.09658684
77	0xbf05ef06	-0.52317846
78	0xbdbd969a	-0.092572406
79	0xbeb555cd	-0.35417023
80	0xbd69dde6	-0.057096384
81	0xbe97c713	-0.2964407
82	0xbea89386	-0.3292505
83	0x3c2d2411	0.010567681
84	0xbd2e0106	-0.042481445
85	0xbde0b7d0	-0.109725595
86	0xbd678952	-0.056527443
87	0x3e6111bb	0.2197942
88	0xbdaf50fe	-0.0856037
89	0xbd3e7894	-0.04650171
90	0xbd80ee8c	-0.06295499
91	0xbdd0d347	-0.10196548
92	0x3a32e19d	0.000682378
93	0xbd078731	-0.033087913
94	0xbe8e75f5	-0.2782437
95	0xbe498d09	-0.19682707
96	0x3e83b05f	0.25720498
97	0xbebd3ea6	-0.3696186
98	0x3e3b9fca	0.18322673
99	0x3e5b61c9	0.21424021
100	0x3e40277f	0.18765067
101	0x3e57ef08	0.21087277
102	0xbedf0dff	-0.43565366
103	0x3deb2def	0.114833705
104	0x3e6f0eee	0.23345539
105	0xbf2a23bb	-0.6646077
106	0x3dd4ac80	0.10384464
107	0xbdd27801	-0.10276795
108	0xbd302584	-0.043004528
109	0x3de702f7	0.112798624
110	0xbd708b43	-0.05872656
111	0xbe6eb194	-0.23309928
112	0xbe159c20	-0.14610338
113	0xbd196959	-0.037453983
114	0xbe4d3187	-0.20038424
115	0xbda0070d	-0.07813845
116	0xbe8cf823	-0.27533063
117	0xbe0fa751	-0.1402867
118	0xbd5cf193	-0.05394132
119	0xbe1e9900	-0.15488052
120	0x3e71cbd9	0.23612918
121	0x3f7d4a86	0.9894184
122	0x3eff97f8	0.4992063
123	0xbdc23ce5	-0.09484271
124	0x3e38471b	0.17995875
125	0xbe3b3c56	-0.18284735
126	0xbe5a2a95	-0.21305306
127	0xbe329b0f	-0.17441963
128	0xbe8d05af	-0.275434
129	0x3cb5aac4	0.022176154
130	0xbc9772b9	-0.018487321
131	0x3e766c89	0.2406484
132	0xbd8ac180	-0.067751884
133	0xbeafb62d	-0.34318677
134	0x3df7855e	0.12085985
135	0x3e29ec0e	0.16593954
136	0x3d873657	0.066021614
137	0xbe0a1f17	-0.13488422
138	0x3d0b4236	0.03399869
139	0x3c2a8593	0.010407823
140	0x3e3f47db	0.18679754
141	0xbcd404e1	-0.025881233
142	0x3d62199f	0.055200215
143	0xbd8752f9	-0.06607623
144	0x3ed6f94e	0.4198708
145	0x3f1ef939	0.62099034
146	0xbef36092	-0.47534615
147	0xbdf87b75	-0.121329226
148	0x3e95f14b	0.29285654
149	0xbe2d9181	-0.16950037
150	0x3cb84f55	0.022498766
151	0xbd35a15b	-0.044343334
152	0x3ea29c87	0.31760046
153	0x3d4f8ee4	0.05067338
154	0x3ec20126	0.378915
155	0xbe36779a	-0.17819062
156	0x3e26e154	0.16296893
157	0xbeaeabbd	-0.341154
158	0xbdb8fc72	-0.09032525
159	0x3d0f8c6b	0.035046022
160	0xbe05a204	-0.13050085
161	0xbb687cfd	-0.003547489
162	0xbe29437e	-0.16529652
163	0xbe13bd04	-0.14427572
164	0xbc9a68b9	-0.018848764
165	0xbcc7a659	-0.024371313
166	0xbe1b8510	-0.15187478
167	0xbe09f27f	-0.13471411
168	0x3c6e3127	0.014538086
169	0x3ed9cde5	0.42539898
170	0xbd953250	-0.07284987
171	0xbf17f184	-0.593529
172	0x3e465129	0.19366898
173	0xbdbb4540	-0.09144068
174	0x3db19860	0.08671641
175	0x3eb9254d	0.3616127
176	0x3d728112	0.059205122
177	0x3f0ba327	0.54545826
178	0x3d8ed424	0.06974056
179	0x3d59d8d8	0.053185314
180	0x3e3f4854	0.18679935
181	0xbde8ac68	-0.11361009
182	0xbd3974f4	-0.04527755
183	0x3d05e420	0.03268826
184	0xbcb3e0f3	-0.02195785
185	0xbe9bda00	-0.30439758
186	0xbe08c804	-0.1335755
187	0xbe3f5391	-0.18684222
188	0xbe35f69a	-0.17769852
189	0x39eafcc6	0.0004482029
190	0x3d2b5077	0.041824784
191	0xbe8c8160	-0.27442455
192	0xbe19975b	-0.14999144
193	0x3eebb93d	0.46039763
194	0xbf32c16f	-0.69826406
195	0x3d78869b	0.060675245
196	0x3ca25321	0.01981503
197	0x3e3dcd2e	0.18535301
198	0xbe779938	-0.24179542
199	0xbe1896cf	-0.14901279
200	0xbead1577	-0.3380544
201	0x3ee90cf9	0.4551771
202	0xbe4d10be	-0.20025918
203	0xbedcc7b5	-0.43121114
204	0x3e78439d	0.24244542
205	0xbe3c39c8	-0.18381417
206	0xbe17c5ff	-0.14821623
207	0xbc03fbae	-0.008055611
208	0x3e3b3bc7	0.18284522
209	0x3e03d078	0.12872493
210	0xbdac2ca4	-0.08406952
211	0x3dc914d2	0.09818424
212	0xbe5dbaaa	-0.21653238
213	0xbdbe233a	-0.09284063
214	0x3ce74832	0.028232668
215	0xbe4bfe93	-0.19921331
216	0x3ea08926	0.31354636
217	0xbf12abfc	-0.5729368
218	0x3f850638	1.0392523
219	0x3ebb0fb7	0.36535427
220	0xbcecadfb	-0.028891554
221	0xbd1582b3	-0.036501598
222	0xbf1a83cc	-0.60357356
223	0x3eb89dba	0.36057836
224	0x3e64282b	0.22280948
225	0xbe8251b4	-0.2545296
226	0x3e9741b9	0.2954233
227	0x3ddce9d8	0.1078679
228	0xbc933166	-0.017967891
229	0xbde5f55d	-0.1122844
230	0xbe2300e3	-0.15918307
231	0xbe21546e	-0.15754864
232	0xbe70f8c8	-0.23532403
233	0x3d442c86	0.047894023
234	0xbe1dc3e6	-0.1540676
235	0xbe501383	-0.20319943
236	0x3c9b1430	0.018930525
237	0x3d13a27e	0.036043637
238	0xbe115033	-0.1419075
239	0x3e14cda1	0.14531566
240	0xbe24530d	-0.16047306
241	0xbcf9ae8b	-0.030478736
242	0xbf9ab594	-1.2086663
243	0xbe1d9566	-0.15389022
244	0xbe0d0e63	-0.1377502
245	0x3d604579	0.054753754
246	0x3d93c0c0	0.072144985
247	0x3e167128	0.14691603
248	0x3e5b7975	0.21433051
249	0xbe92f64d	-0.28703538
250	0xbdc4ff80	-0.09619045
251	0xbccdfb14	-0.025144137
252	0xbe073128	-0.13202345
253	0xbe586f53	-0.21136217
254	0x3db563a6	0.08856897
255	0x3e4c946b	0.19978492

fc1.bias f4 [400]
0	0x3d834805	0.06410221
1	0x3bd6ca41	0.0065548723
2	0x3e1fb02f	0.15594552
3	0x3e522c59	0.2052473
4	0xbda8aa20	-0.08235574
5	0xbeb46af0	-0.35237837
6	0xbe6ec015	-0.23315461
7	0x3bf810b6	0.0075703515
8	0xbcdcbd60	-0.02694577
9	0xbe2d581d	-0.16928144
10	0xbe8b2286	-0.27174777
11	0xbe6edb20	-0.23325777
12	0xbe127a8c	-0.1430456
13	0xbb1e7e3f	-0.0024184135
14	0x3daea3a9	0.085273094
15	0xbe7487bb	-0.23879902
16	0xbe4bd9d6	-0.19907317
17	0xbeba7db0	-0.36424017
18	0xbdff8382	-0.12476255
19	0xbdfcdd85	-0.12346939
20	0xbeaa630d	-0.33278695
21	0x3c99e26b	0.018784722
22	0xbcfb0ba2	-0.030645195
23	0xbe6f154a	-0.23347965
24	0x3d7765df	0.060399886
25	0xbe324bef	-0.17411779
26	0xbe94d257	-0.29066727
27	0xbe13457b	-0.14381973
28	0xbe9a0a60	-0.3008604
29	0x3dd6c8e3	0.10487535
30	0xbde26282	-0.11053945
31	0x3de068e5	0.10957507
32	0xbe53ee72	-0.20696428
33	0xbe441162	-0.19147256
34	0xbe9771e6	-0.29579085
35	0xbe1ba6de	-0.15200374
36	0xbe4cacc9	-0.19987787
37	0xbe4cec3a	-0.20011988
38	0xbd055954	-0.032555893
39	0xbe879a95	-0.26485124
40	0xbe5051fb	-0.20343773
41	0xbe4fa894	-0.20279151
42	0xbe2d7375	-0.16938575
43	0xbe174dff	-0.14775847
44	0xbe2138fc	-0.15744394
45	0xbd8e83a3	-0.069587015
46	0xbc8772cd	-0.016534233
47	0xbd875b4e	-0.06609212
48	0xbd3533ca	-0.044238843
49	0x3e1e31dc	0.15448707
50	0x3d8f1e7d	0.06988237
51	0x3b3378c2	0.002738521
52	0xbe9c873a	-0.3057192
53	0xbea347f9	-0.31890848
54	0xbdfa5fc3	-0.12225296
55	0xbdee75f8	-0.116435945
56	0xbdab203b	-0.08355757
57	0x3e868bfe	0.2627868
58	0x3e53d813	0.20687895
59	0xbdc03cfd	-0.093866326
60	0xbe3c9e82	-0.18419841
61	0x3e194ef0	0.14971519
62	0xbca1d582	-0.019755129
63	0xbea35245	-0.31898704
64	0xbe09c049	-0.13452257
65	0xbe7fc431	-0.24977185
66	0xbd4e8379	-0.05041835
67	0xbd4560b5	-0.04818793
68	0xbdbdec88	-0.092736304
69	0x3db00a20	0.08595681
70	0xbe81efd9	-0.25378302
71	0x3d8a68c2	0.06758262
72	0xbeaeb8ef	-0.34125468
73	0xbe6191d8	-0.22028291
74	0xbed9a134	-0.425058
75	0x3db98e28	0.09060317
76	0x3cf9f450	0.030512005
77	0x3d96fd84	0.07372573
78	0x3e07e82b	0.13272159
79	0xbd35a361	-0.044345263
80	0x3e33eae6	0.17570075
81	0xbe2dd1c7	-0.16974555
82	0xbdd2ed29	-0.10299141
83	0xbe607428	-0.2191931
84	0xbe862292	-0.2619825
85	0xbe3593b8	-0.17732131
86	0x3e5a188d	0.21298428
87	0x3d913fe8	0.07092267
88	0xbe5e90ce	-0.21734926
89	0x3de93427	0.113869004
90	0xbdeef005	-0.11666874
91	0xbe699ab2	-0.22812918
92	0xbe3d4be4	-0.18485981
93	0xbc565fe1	-0.013084383
94	0x3dfd3242	0.123631015
95	0x3c2838fb	0.010267491
96	0xbbc9174f	-0.006136812
97	0xbe0438bc	-0.12912267
98	0xbe96465f	-0.29350564
99	0x3bc61019	0.0060443995
100	0x3e037847	0.12838851
101	0xbcdce3c5	-0.026964078
102	0xbdcf8f8e	-0.10134803
103	0xbe0d5ee6	-0.13805732
104	0xbe046545	-0.12929256
105	0xbe757a88	-0.23972523
106	0xbe97ec42	-0.29672438
107	0xbe113e11	-0.14183833
108	0xbe3b6492	-0.18300083
109	0xbbfee2a9	-0.007778485
110	0x3e5c7c04	0.21531683
111	0xbe59627b	-0.21228974
112	0xbe1190e6	-0.1421543
113	0x3ea29f42	0.3176213
114	0x3d83fb00	0.06444359
115	0xbc58f28a	-0.01324142
116	0xbdef17a1	-0.11674429
117	0xbebc0281	-0.3672066
118	0xbe88c0b4	-0.2670952
119	0xbe3678b6	-0.17819485
120	0x3d93316a	0.07187159
121	0x3df9a596	0.12189786
122	0x3da43a07	0.0801888
123	0x3e4e757c	0.20162004
124	0x3dbf5cee	0.09343897
125	0x3d106772	0.035254903
126	0xbe402e42	-0.18767646
127	0xbe87d415	-0.26528993
128	0xbe1b8e0c	-0.15190905
129	0xbe64377a	-0.22286788
130	0xbc88b648	-0.016688481
131	0xbebf129a	-0.3731888
132	0xbe4968ee	-0.19668934
133	0x3cec68b6	0.028858524
134	0xbe67f296	-0.22651133
135	0xbe3778e9	-0.17917217
136	0xbde515a8	-0.11185771
137	0xbdb3b9fb	-0.08775707
138	0xbe5b9bc2	-0.21446136
139	0xbe829dfc	-0.25511158
140	0x3c6c345d	0.014416781
141	0xbe113c28	-0.14183104
142	0x3c20f8af	0.009824916
143	0xbdd2faa0	-0.10301709
144	0xbc90623a	-0.017624963
145	0xbe55d8f0	-0.20883536
146	0x3e1793f4	0.14802533
147	0xbd395655	-0.04524835
148	0x3dcefc16	0.10106675
149	0x3dad20ec	0.08453545
150	0xbc97ab99	-0.018514441
151	0x3e48da36	0.19614491
152	0xbe6ef8e0	-0.23337126
153	0xbec8b505	-0.39200607
154	0xbdbe4b57	-0.09291714
155	0xbe864197	-0.26221916
156	0xbd4c0a20	-0.049814343
157	0xbd380454	-0.044926003
158	0xbe7afdf4	-0.24510938
159	0x3d31e71b	0.04343329
160	0xbe0c8976	-0.13724312
161	0xbccf8ad5	-0.025334755
162	0x3dd22bc9	0.102622576
163	0x3c5b43c7	0.013382859
164	0xbc679036	-0.014133504
165	0xbd4b93c8	-0.049701482
166	0xbe14a500	-0.14516068
167	0x3c4c097c	0.012453433
168	0xbe82392d	-0.25434247
169	0x3da5ea47	0.081013255
170	0x3ba4b2e3	0.005026208
171	0xbe14c0ec	-0.14526719
172	0x3dafa973	0.08577242
173	0x3dbcaf2c	0.09213099
174	0xbcfd4619	-0.030917214
175	0xbe42e278	-0.19031703
176	0x3d82db65	0.063895024
177	0xbea2ffde	-0.31835836
178	0xbdb8ef5c	-0.09030029
179	0xbe3852f3	-0.18000393
180	0xbe90684f	-0.2820458
181	0x3e54886c	0.20755166
182	0xbec7463c	-0.38920772
183	0xbd49d5ca	-0.04927615
184	0xbe791152	-0.24323013
185	0xbdeedb92	-0.116629735
186	0x3d274913	0.040841173
187	0x3d35c292	0.04437501
188	0x3de8a4b3	0.11359539
189	0xbdf32a04	-0.11873248
190	0xbec02bdc	-0.37533462
191	0x3e4b6bae	0.19865295
192	0x3dd895b3	0.10575428
193	0xbe65ed3a	-0.22453776
194	0xbdfcabec	-0.12337479
195	0xbe8afadd	-0.27144518
196	0x3d88bca4	0.06676605
197	0xbd59e5d4	-0.053197697
198	0xbdd9ad7b	-0.10628792
199	0xbd0b58c0	-0.034020185
200	0xbe7154f9	-0.23567571
201	0xbe683a24	-0.22678429
202	0xbe3bcfc6	-0.18340978
203	0x3e373150	0.17889905
204	0xbe3e6333	-0.18592529
205	0x3c9517a7	0.018199755
206	0xbe5a6748	-0.21328461
207	0x3e72e0b0	0.23718524
208	0xbe40734a	-0.1879398
209	0xbe36e17b	-0.17859451
210	0xbde74c49	-0.11293847
211	0xbe541394	-0.20710593
212	0xbebf897c	-0.3740958
213	0xbe30418e	-0.17212507
214	0x3ea1c954	0.31598914
215	0xbbab0917	-0.0052195895
216	0xbe87ff62	-0.2656203
217	0x3e2630b5	0.16229518
218	0xbe1736e1	-0.14767028
219	0xbdf48f7e	-0.119414315
220	0xbe8c5864	-0.27411187
221	0xbe250f0e	-0.16119024
222	0xbe900338	-0.28127456
223	0xbe7340ce	-0.2375519
224	0xbd99e53a	-0.075144246
225	0xbe29c4cc	-0.16578978
226	0x3d8c20c2	0.068421856
227	0xbd104328	-0.035220295
228	0x3d5283b7	0.051395144
229	0xbda78aee	-0.081807956
230	0x3de3aee0	0.11117339
231	0x3d240509	0.040043864
232	0x3e70ec8a	0.23527732
233	0x3d614146	0.05499389
234	0xbe4ddcb6	-0.20103726
235	0x3e0d2826	0.13784847
236	0xbc9287de	-0.017887052
237	0xbd1ea11d	-0.03872787
238	0x3d9881f5	0.07446662
239	0xbead74bf	-0.33878133
240	0xbe125e7c	-0.14293855
241	0xbe0ff0f5	-0.14056762
242	0xbe82fd0b	-0.2558368
243	0xbd50093f	-0.050790068
244	0xbdcfdade	-0.101491675
245	0xbe144106	-0.1447793
246	0x3e439915	0.19101365
247	0xbe2b9f7a	-0.16760054
248	0x3cfd459d	0.030916983
249	0xbd6ea0ba	-0.05825875
250	0xbe9a3839	-0.3012102
251	0x3cfab2c7	0.030602826
252	0xbe877d1e	-0.26462644
253	0x3d01c7d4	0.03168471
254	0xbe818514	-0.25296843
255	0xbe16b7b7	-0.14718519

fc2.weight f4 [300, 400]
0	0xbc82c4da	-0.015963007
1	0xbd1bec03	-0.038066875
2	0x3ccf39e3	0.025296157
3	0xbc2b2477	-0.010445706
4	0xbd586cc2	-0.052838095
5	0x3d1c05ec	0.038091585
6	0xbd2d8c30	-0.04237002
7	0x3cf02066	0.029312324
8	0xbdc250b8	-0.09488052
9	0x3d237bcd	0.039912988
10	0x3c7b2c08	0.015330322
11	0x3c97d7d3	0.01853553
12	0x3d526b6f	0.051371988
13	0xbc83d306	-0.016091835
14	0x3dca4f03	0.098783515
15	0x3d09e3e9	0.033664618
16	0x3c0b1ab3	0.008490252
17	0xbcdb2236	-0.026749711
18	0xbdc62df3	-0.09676733
19	0x3cf79610	0.030222923
20	0xbd37f6f0	-0.044913232
21	0x3da824d3	0.08210149
22	0x3cf44066	0.029815864
23	0xbcbfbb1d	-0.023404652
24	0x3d44ceac	0.04804866
25	0xbd606c04	-0.05479051
26	0x3c84137e	0.016122576
27	0x3d3a1ca0	0.045437455
28	0xbd9e41f2	-0.07727422
29	0x3d77cd7b	0.060498696
30	0xbbb9ecd5	-0.0056739845
31	0xbcd974a7	-0.026544882
32	0xbdefb239	-0.11703915
33	0xbcf66e24	-0.030081816
34	0x3d39a215	0.04532059
35	0x3d9b224f	0.07574903
36	0xbd1b06b8	-0.037848204
37	0x3d7454be	0.05965113
38	0x3d0e57d9	0.034751747
39	0xbd73a565	-0.059483904
40	0xbda22e31	-0.079189666
41	0xbd2fd558	-0.04292807
42	0x3d270035	0.04077168
43	0x3c830b49	0.015996592
44	0x3d73d6fe	0.059531204
45	0xbd4ea8b7	-0.050453868
46	0x3c618f06	0.01376701
47	0xbc873eb8	-0.016509399
48	0x3d62e0b7	0.055390086
49	0xbced3f27	-0.028960777
50	0x3d2b8fbb	0.04188512
51	0xbd810126	-0.06299047
52	0x3cffd2d6	0.031228464
53	0x3da137c1	0.07871962
54	0x3cf0f0f5	0.029411772
55	0x3ba69969	0.005084206
56	0x3c33b942	0.010969462
57	0xbc2a70ff	-0.010402917
58	0xbd2fb082	-0.04289294
59	0x3d7d47bb	0.061835986
60	0xbd8dbb55	-0.069204964
61	0x3d098bd8	0.03358063
62	0xbca2068b	-0.01977851
63	0x3c1a4510	0.00941588
64	0x3d0d9bf6	0.034572564
65	0xbd4c2b24	-0.04984583
66	0x3c88cc40	0.016698956
67	0x3d65cf62	0.05610598
68	0xbdd71532	-0.105020896
69	0xbc5ded4a	-0.013545344
70	0x3c1bba33	0.009504843
71	0x3cee576a	0.029094417
72	0xbca3a00f	-0.019973783
73	0x3da90464	0.082527906
74	0xbd34aa93	-0.044107985
75	0xbd8a04dd	-0.06739209
76	0xbde4d80c	-0.1117402
77	0x3cc39ce6	0.023878526
78	0xbc9be3cc	-0.01902952
79	0x3dbd699f	0.09248661
80	0xbd8fb4cc	-0.07016906
81	0x3da68afc	0.08131978
82	0xbd38eb1e	-0.0451461
83	0x3d1f64da	0.03891454
84	0xbc9841ee	-0.018586125
85	0xbcce0850	-0.025150448
86	0xbdad1543	-0.08451321
87	0xbd0ae48d	-0.03390937
88	0xbd16fb1d	-0.036860574
89	0xbd18642d	-0.03720491
90	0x3ca65af6	0.020307045
91	0x3d0a03ca	0.03369502
92	0x3c8d5ae5	0.017255256
93	0x3c81ed14	0.015860118
94	0xbd0173fd	-0.031604756
95	0x3cc0081d	0.023441369
96	0xbdd4c594	-0.103892475
97	0x3c8d9b12	0.017285857
98	0x3da91460	0.08255839
99	0x3ccfcc7c	0.02536606
100	0xbdab6063	-0.08367994
101	0x3c299286	0.010349875
102	0x3d35a72a	0.044348873
103	0xbdbe3ea1	-0.09289289
104	0x3c95b07c	0.01827263
105	0xbdcae44e	-0.09906827
106	0xbd8ada7f	-0.06779956
107	0xbcd63fa0	-0.026153386
108	0xbd6fd8c4	-0.058556333
109	0xbc7d9a2c	-0.015478652
110	0xbc6e97e6	-0.014562583
111	0x3cf4da68	0.0298893
112	0xbcdf10ac	-0.02722963
113	0xbd7412c1	-0.059588198
114	0xbe015bfa	-0.12632743
115	0xbd014f69	-0.031569872
116	0xbd21cbd8	-0.03950104
117	0x3b806fe1	0.003919587
118	0xbd8a5f35	-0.067564406
119	0xbd34be29	-0.044126663
120	0xbcc78ed4	-0.024360098
121	0x3cebf778	0.028804526
122	0xba24d4f4	-0.0006287836
123	0xbd12725f	-0.035753604
124	0xbd24386f	-0.04009288
125	0xbda9b242	-0.08285953
126	0x3c56bd77	0.013106695
127	0xbd1d46e7	-0.038397696
128	0x3c2b4d97	0.010455511
129	0xbd97140f	-0.07376873
130	0x3c20f6e5	0.009824489
131	0xbd34c03f	-0.044128653
132	0x3d35e211	0.044405047
133	0x3dfab938	0.12242359
134	0x3c65b212	0.014019506
135	0x3dd700b5	0.10498182
136	0xbd801acf	-0.06255113
137	0xbda9697b	-0.08272072
138	0xbd2957ed	-0.04134362
139	0x3c9f66e6	0.019458245
140	0xbd61dcc8	-0.055142194
141	0x3b9a7bf5	0.004714484
142	0xbd242690	-0.04007584
143	0xbceec002	-0.02914429
144	0x3d34171b	0.043967348
145	0xbd35c40a	-0.04437641
146	0xbb4b746c	-0.0031044735
147	0xbd852776	-0.06501667
148	0xbcdf29cf	-0.027241616
149	0xbc935ac3	-0.017987614
150	0x3cd57aa4	0.026059456
151	0xbd4c41c4	-0.049867406
152	0xbdb35e78	-0.08758253
153	0xbd7f0620	-0.0622617
154	0xbd57c836	-0.05268117
155	0x3d3cbbe2	0.046077617
156	0xbd8f3d49	-0.06994111
157	0xbd09664a	-0.033544816
158	0xbd128151	-0.035767857
159	0xbcde88af	-0.027164785
160	0xbd8dae56	-0.069180176
161	0xbd6d937c	-0.05800198
162	0xbc1aff7e	-0.009460328
163	0xbd7c6c15	-0.061626513
164	0xbdc35bbe	-0.09538983
165	0xba9505f8	-0.0011369577
166	0x3ceb9a0e	0.028759982
167	0x3d05fb94	0.032710627
168	0x3c65da60	0.014029115
169	0x3cb3b9be	0.021939155
170	0xbcfa7477	-0.030573113
171	0x3c29a967	0.01035533
172	0xbd6c3feb	-0.057678144
173	0xbd5f0707	-0.05445006
174	0xbc1b8b72	-0.009493696
175	0xbcbf4eab	-0.023352941
176	0xbd4a6a5e	-0.049417846
177	0xbe17aacf	-0.14811252
178	0xbca4630f	-0.020066766
179	0x3da2538b	0.07926091
180	0xbd8dbbac	-0.06920561
181	0xbcb56b71	-0.022145959
182	0xbca18dd5	-0.019720951
183	0xbbe45e68	-0.006969262
184	0xbca3ef20	-0.020011485
185	0x3d8c3092	0.068452016
186	0x3d0c02b2	0.034182258
187	0xbc6b4a5e	-0.014360992
188	0x3d8d22e9	0.06891424
189	0x3a5415cf	0.0008090408
190	0x3cafc07a	0.021454085
191	0xbd4c2ee6	-0.049849413
192	0xbb833d60	-0.004005119
193	0xb89d82e3	-7.510723e-05
194	0xbdab3355	-0.083594
195	0xba905527	-0.0011011706
196	0xbce26e0d	-0.027640367
197	0xbd672ab7	-0.05643722
198	0x3cf2de4b	0.029647013
199	0x3b6a0aaf	0.0035711934
200	0xbd2a767a	-0.041616894
201	0x3d48498d	0.04889827
202	0x3d243cef	0.040097173
203	0xbdb08951	-0.08619941
204	0xbd5c15c1	-0.053731684
205	0x3d4239d7	0.04741844
206	0xbd810f46	-0.06301741
207	0x3c53d8b5	0.012930085
208	0xbd846f81	-0.0646658
209	0xba9bd443	-0.001188882
210	0x3d7c793b	0.061639052
211	0xbd9d2b5a	-0.07674284
212	0x3b877ee3	0.004134999
213	0x3c0fb8e8	0.008772112
214	0xbcac9493	-0.02106694
215	0xbd13a106	-0.036042236
216	0xbb9683ef	-0.0045933644
217	0xbd0b48a4	-0.034004822
218	0xbc013940	-0.007887185
219	0x3d170745	0.036872167
220	0x3ba379b0	0.0049888715
221	0x3d209342	0.039202936
222	0xbd093f71	-0.033507768
223	0xbc468b3c	-0.012118157
224	0xbd4eaef4	-0.050459817
225	0x3dc06357	0.093939476
226	0xbcbc70d9	-0.023003029
227	0x3bd14477	0.0063863355
228	0xbe237b1c	-0.15964931
229	0xbd850d16	-0.064966366
230	0xbd4d498f	-0.05011898
231	0xbcbf1c6e	-0.023328986
232	0x3d253f61	0.040343646
233	0x3c0051ae	0.007831974
234	0xbd00f673	-0.031485032
235	0xbd515270	-0.05110401
236	0x3c9452ae	0.018105831
237	0x3d19aa38	0.03751585
238	0xbd6dfd64	-0.05810298
239	0x3caa6bb0	0.020803303
240	0x3d1e08f9	0.038582776
241	0xbc3c1712	-0.01148011
242	0xbcd507b9	-0.026004659
243	0x3da879ea	0.08226378
244	0xbda61ab1	-0.0811056
245	0xbd0df95a	-0.03466163
246	0x3cbceee6	0.023063134
247	0xbd6491c5	-0.05580308
248	0xbe0c8ea2	-0.13726285
249	0x3ba86c31	0.0051398505
250	0xbd6c8f37	-0.057753768
251	0xbd076452	-0.033054657
252	0xbd32a98b	-0.04361872
253	0xbd19683f	-0.037452932
254	0xbc66b078	-0.014080159
255	0xbc1ca943	-0.0095618395

fc2.bias f4 [300]
0	0xbd80cd65	-0.06289176
1	0x3e3f218f	0.18665145
2	0xbde55f08	-0.111997664
3	0xbd41d1da	-0.04731927
4	0xbe528463	-0.20558314
5	0xbc30105c	-0.010746088
6	0xbe2a0d7c	-0.16606706
7	0xbd09f009	-0.03367618
8	0x3deaf011	0.1147157
9	0xbc40dff9	-0.011772149
10	0xbd39ffc3	-0.04540993
11	0x3b7be73a	0.0038437382
12	0xbd313df5	-0.043271977
13	0x3dba01f2	0.09082402
14	0x3dd44d2c	0.10366282
15	0x3d9fef86	0.07809357
16	0x3e03b17a	0.1286067
17	0x3bd9861e	0.0066383025
18	0x3d2248a4	0.039620057
19	0x3dc49a2f	0.09599721
20	0xbccb4fbf	-0.0248183
21	0x3b98e924	0.0046664644
22	0xbf119456	-0.5686697
23	0x3d1bc919	0.03803358
24	0x3dccd96c	0.100024074
25	0x39df882e	0.00042635336
26	0xbe20d5db	-0.1570658
27	0xbcb49e50	-0.022048146
28	0xbd1c45ec	-0.03815262
29	0x3da28e52	0.07937302
30	0xbda5192e	-0.08061443
31	0x3e0bd8eb	0.13656966
32	0x3e9d4876	0.30719346
33	0x3a1731a4	0.000576759
34	0xbe840db8	-0.25791717
35	0x3dd794a9	0.105264015
36	0xbe51511a	-0.20441094
37	0xbe4464c9	-0.19179071
38	0xbd30903b	-0.0431063
39	0xbcdde6e8	-0.027087644
40	0xbe048569	-0.12941517
41	0xbcfc20dd	-0.03077739
42	0xbd7ddef6	-0.06198021
43	0xbda2c424	-0.07947567
44	0x3db63802	0.088974014
45	0xbd7807d2	-0.060554333
46	0x3c0e02d2	0.008667665
47	0xbd27168d	-0.04079299
48	0xbd37073a	-0.044684626
49	0xbe4b4e6f	-0.19854139
50	0xbdff183e	-0.12455796
51	0xbd64b3b7	-0.055835452
52	0xbe1c4b93	-0.15263204
53	0x3cb54840	0.022129178
54	0x3d8158d9	0.063157745
55	0xbdf410c4	-0.1191726
56	0xbd8e0d64	-0.06936148
57	0x3d793cb9	0.060848925
58	0x3e3a0aa4	0.18168122
59	0x3e293347	0.16523467
60	0xbd97a435	-0.07404367
61	0x3e2a91bb	0.16657154
62	0xbc92bfb9	-0.017913686
63	0xbc875e94	-0.01652459
64	0xbdf49480	-0.119423866
65	0x3dd76299	0.10516853
66	0xbcba6b12	-0.022756133
67	0xbddbaa39	-0.10725827
68	0xbcdd6c8c	-0.027029298
69	0xbcb25d68	-0.021773055
70	0x3e85e29e	0.26149458
71	0x3db23192	0.08700861
72	0x3d3406c2	0.043951757
73	0x3d18e130	0.03732413
74	0xbd523dfe	-0.05132865
75	0xbe0216d0	-0.12704015
76	0x3da84489	0.08216197
77	0xbe782332	-0.24232176
78	0xbcda9871	-0.026684018
79	0xba6005e5	-0.00085458
80	0xbe200376	-0.1562632
81	0xbd8b240a	-0.06793983
82	0x3e339904	0.1753884
83	0x3cb538f8	0.022121891
84	0x3e1b2e0e	0.15154287
85	0xbd83274f	-0.06403982
86	0x3df2b481	0.11850835
87	0x3ca1d677	0.019755585
88	0xbd579bc9	-0.052638803
89	0x3e262e08	0.16228497
90	0xbd5c72d2	-0.05382044
91	0xbc2db1be	-0.010601459
92	0xbd9ad100	-0.07559395
93	0x3d56fb31	0.05248565
94	0x3de02eca	0.10946424
95	0xbdaee037	-0.08538859
96	0x3dab8c3b	0.08376356
97	0x3e434e96	0.19072947
98	0xbcc79458	-0.024362728
99	0xbcffb209	-0.031212823
100	0xbd9714d9	-0.07377023
101	0x3d177cbc	0.03698419
102	0x3e27ac08	0.16374218
103	0xbc9f72e3	-0.019463962
104	0xbddd2e5e	-0.107998595
105	0xbd7b7dc0	-0.06139922
106	0xbd2f0738	-0.042731494
107	0xbccc1e92	-0.02491692
108	0x3db6590e	0.089037046
109	0x3dd7ad1f	0.10531067
110	0x3c813bcb	0.015775582
111	0x3be0d6f7	0.0068615633
112	0xbd5fc488	-0.054630786
113	0xbcec288c	-0.028827928
114	0xbe2d69cf	-0.16934894
115	0xbdc5c04e	-0.0965582
116	0xbd7fe5b3	-0.062474918
117	0x3d88f2f3	0.06686964
118	0x3c237e5f	0.00997886
119	0x3e33424b	0.17505758
120	0x3daa19f2	0.0830573
121	0xbd9ac95a	-0.07557936
122	0xbd4ba520	-0.049718022
123	0xbde1f0f4	-0.11032286
124	0xbdcc5f8f	-0.09979164
125	0xbdf3ba44	-0.11900762
126	0x3adb6cbf	0.0016740783
127	0xbe6de506	-0.23231897
128	0xbe116290	-0.14197755
129	0x3e4902f4	0.19630033
130	0x3e0422f0	0.12903953
131	0x3e4999f3	0.19687633
132	0xbdaca631	-0.08430136
133	0xbd28cf28	-0.041213185
134	0x3d9a8f28	0.07546836
135	0xbc19a27a	-0.009377116
136	0xbd0bf5f0	-0.03417009
137	0xbd0ad44b	-0.033893865
138	0xbc701be8	-0.014655091
139	0xbc0539a3	-0.008131417
140	0xbe34139a	-0.17585602
141	0xbcf16282	-0.029465917
142	0xbd9d0cf0	-0.07668483
143	0xbdcf7215	-0.10129181
144	0xbe434d1a	-0.1907238
145	0xbc88c00f	-0.016693143
146	0xbd6e82a2	-0.05823005
147	0xbd75de57	-0.060026493
148	0xbdb0da89	-0.08635432
149	0xbe000ad7	-0.12504135
150	0xbe4b3da4	-0.19847733
151	0xbbacf831	-0.00527861
152	0x3ddb99a3	0.10722663
153	0x3c0f3f94	0.008743186
154	0x3d5a4a0a	0.053293265
155	0xbdb7430c	-0.08948335
156	0xbd3e4c4e	-0.04645949
157	0x3d7bf8c1	0.061516527
158	0xbc987dd2	-0.018614683
159	0xbdad7b9c	-0.08470842
160	0xbcb50179	-0.022095429
161	0xbd22e10c	-0.039765403
162	0x3e1beaa2	0.15226224
163	0xbd8f31d8	-0.06991929
164	0xbde6becc	-0.1126686
165	0xbe187185	-0.14887054
166	0xbdc59de7	-0.09649258
167	0x3bef7c85	0.007308545
168	0xbde36ae9	-0.11104376
169	0xbc8d98c3	-0.017284757
170	0xbc98667f	-0.018603561
171	0xbdef3009	-0.11679084
172	0x3e431346	0.19050321
173	0x3d26ea1b	0.040750604
174	0xbd1004c9	-0.035160813
175	0xbd95c842	-0.07313587
176	0xbd417ef5	-0.047240216
177	0xbdbd830c	-0.09253511
178	0xbcbb8db4	-0.022894718
179	0xbd0c6ac7	-0.03428152
180	0x3e31963d	0.17342468
181	0xbd1a5dbd	-0.037687052
182	0x3d6d74fc	0.057972893
183	0xbc9465d6	-0.018114965
184	0x3ddaa82d	0.10676608
185	0x3da4d0a9	0.08047611
186	0xbd89b1a4	-0.067233354
187	0xbdbec46e	-0.0931481
188	0x3cb6da15	0.022320786
189	0x3d6959ce	0.05697041
190	0xbcc47b9a	-0.023984719
191	0x3d41fb49	0.047358785
192	0x3d93850a	0.072031096
193	0xbe1cc3b9	-0.15309037
194	0x3de40fbc	0.111358136
195	0xbd82d838	-0.06388897
196	0xbd8affdf	-0.06787085
197	0x3d5bcdf4	0.05366321
198	0xbe0e5f66	-0.13903579
199	0xbd4e85bb	-0.050420504
200	0x3d06c403	0.032901775
201	0x3d3c97a1	0.046043042
202	0xbe5b2a70	-0.21402907
203	0xbdb59ac6	-0.08867411
204	0xbd871c15	-0.06597153
205	0xbcfe6693	-0.03105477
206	0xbc0d9bdd	-0.008643118
207	0xbc5fb9aa	-0.013655106
208	0xbd24c49e	-0.04022657
209	0xbe3dd51e	-0.18538329
210	0xbd8a8494	-0.067635685
211	0xbdac77e5	-0.084213056
212	0x3c19b409	0.009381303
213	0x3ace1b15	0.0015724624
214	0xbd83aab7	-0.06429046
215	0x3d90de58	0.07073659
216	0xbdb9b54a	-0.09067781
217	0x3e264531	0.16237332
218	0x3ded0986	0.11574082
219	0x3bc42033	0.0059852838
220	0x3c5a807a	0.013336295
221	0xbdcb9c40	-0.09941912
222	0x3c4e84e8	0.0126049295
223	0x3d8df011	0.06930555
224	0x3c381ef2	0.011237847
225	0xbce6a736	-0.028155904
226	0xbcc615b5	-0.024180273
227	0xbe0a1049	-0.13482775
228	0xbdde79bd	-0.108630635
229	0x3e507fed	0.203613
230	0xbdd13a80	-0.10216236
231	0x3c4576e0	0.012052268
232	0xbd5a1cea	-0.05325023
233	0xbd9cd2a8	-0.07657367
234	0xbd33ee39	-0.04392836
235	0x3d9ed671	0.07755745
236	0x3de581fe	0.11206435
237	0x38b2c6d8	8.524739e-05
238	0x3d64b7ca	0.055839337
239	0xbd1038fd	-0.0352106
240	0xbd69d91f	-0.05709183
241	0x3e81f1ce	0.25379795
242	0x3e0e8f99	0.13921966
243	0x3c4db4d1	0.012555317
244	0xbd75d687	-0.060019042
245	0x3da6ebd3	0.08150449
246	0x3ded11c4	0.11575654
247	0x3c579f15	0.013160487
248	0xbd472690	-0.04862076
249	0xbc72c7c0	-0.014818132
250	0xbbdc8536	-0.006729747
251	0xbe06d40d	-0.13166828
252	0x3d2e12c0	0.04249835
253	0x3c22ebd6	0.009943923
254	0xbccf479f	-0.025302706
255	0xbe476a49	-0.19474138

mu.weight f4 [4, 300]
0	0xbd12aa43	-0.035806905
1	0xbb175e8f	-0.0023097133
2	0xbdfecc7c	-0.12441346
3	0xbcb1106e	-0.02161428
4	0xbdc78e98	-0.097439945
5	0x3c1675f1	0.009183393
6	0x3c81b909	0.015835302
7	0x3d1b242f	0.037876304
8	0xbc94ed7d	-0.01817965
9	0x3de779d3	0.11302533
10	0x3b22dc44	0.0024850527
11	0x3c34adaf	0.0110277375
12	0xbc85084d	-0.01623931
13	0x3e659707	0.22420894
14	0x3daea803	0.085281394
15	0xbe8c8bdb	-0.2745045
16	0x3dadd5d8	0.08488053
17	0x3d38c637	0.045110907
18	0x3e92d138	0.28675246
19	0xbe053d0d	-0.1301157
20	0xbd4117d6	-0.047141872
21	0xbd5861b7	-0.052827563
22	0x3eaa2a0f	0.33235213
23	0xbe519a87	-0.20469104
24	0x3f260ece	0.6486634
25	0xbd5d303f	-0.05400109
26	0xbf3edc33	-0.7455475
27	0xbeef3fc8	-0.4672835
28	0xbb1fb32f	-0.0024368276
29	0x3e9574c0	0.29190636
30	0xbe3e0697	-0.18557201
31	0x3e3c336f	0.18378995
32	0x3cf1d234	0.029519178
33	0xbcd11ef0	-0.025527447
34	0xbd77d093	-0.060501646
35	0xbc66a07e	-0.01407635
36	0x3f810eff	1.0082701
37	0x3e39ec48	0.1815654
38	0x3f132d3c	0.574909
39	0x3e339917	0.17538868
40	0x3ecf1358	0.40444446
41	0x3d90be37	0.070675306
42	0xbd7a66fb	-0.061133366
43	0x3d814991	0.0631286
44	0xbd949610	-0.07255185
45	0xb923ed60	-0.0001563332
46	0x3f315b18	0.69279623
47	0x3d1f2c63	0.03886069
48	0x3c252cce	0.010081483
49	0xbd85f47b	-0.065407716
50	0x3e1dac78	0.15397823
51	0x3bbdcf79	0.005792555
52	0x3e019538	0.12654579
53	0xbdd9d808	-0.10636908
54	0x3e79009a	0.24316636
55	0xbeda94be	-0.42691606
56	0xbc8890cc	-0.016670607
57	0xbeb34f32	-0.3502136
58	0x3e7153e8	0.23567164
59	0x3e57108a	0.21002403
60	0x3e6cea21	0.23136188
61	0xbe3f37ae	-0.18673584
62	0xbdb4121f	-0.08792519
63	0xbbcc0d99	-0.006227207
64	0x3e611e11	0.21984126
65	0x3ea1eb12	0.31624657
66	0x3e3d15b3	0.18465309
67	0xbd4c37dd	-0.049857963
68	0xbdc6df55	-0.09710566
69	0xbd6790f1	-0.05653471
70	0x3df620bb	0.120179616
71	0xbd3a3784	-0.0454631
72	0xbe9ff31b	-0.31240162
73	0xbece41cc	-0.40284574
74	0xbd2ca652	-0.042150803
75	0xbd9acfa4	-0.075591356
76	0x3da81130	0.08206403
77	0xbd4ea393	-0.050448965
78	0xbbd87d3b	-0.0066067255
79	0xbc321df2	-0.010871397
80	0x3e2e19ea	0.17002073
81	0xbd6ef711	-0.05834109
82	0xbdf59881	-0.119919784
83	0xbe265617	-0.16243778
84	0x3e10ac95	0.14128335
85	0x3bdc686e	0.006726316
86	0xbe5d1bb4	-0.21592599
87	0xbf063dcc	-0.52438045
88	0xbdad285f	-0.08454966
89	0x3f0f3b7a	0.5595013
90	0xbe6bb3d5	-0.23017819
91	0xbb034158	-0.0020027962
92	0x3d849800	0.06474304
93	0x3e927f54	0.2861277
94	0x3f560857	0.83606476
95	0x3d9754e5	0.07389239
96	0x3ea7575e	0.32683843
97	0xbdfd87ac	-0.12379393
98	0x3e9b184f	0.30291983
99	0xbcd9d056	-0.0265886
100	0x3f49fe97	0.789041
101	0xbf485d3b	-0.7826726
102	0xbe37f7ea	-0.17965665
103	0xbcdb37eb	-0.026760062
104	0x3c858474	0.01629851
105	0x3db4c39e	0.088263735
106	0xbba0551e	-0.0048929593
107	0xbc1287b0	-0.008943483
108	0xbeb757b4	-0.358091
109	0x3eadcad8	0.3394382
110	0x3e696c90	0.2279532
111	0x3e08f65e	0.13375232
112	0xbcb21b37	-0.021741493
113	0x3d815e02	0.06316759
114	0x3d5d6541	0.05405164
115	0xbeef8e15	-0.46788087
116	0x3d0bdd52	0.034146614
117	0xbe162278	-0.14661586
118	0x3eb1dae5	0.34737316
119	0xbddbab14	-0.1072599
120	0x3c8d4345	0.01724399
121	0xbc9c41c6	-0.019074332
122	0x3d327c0e	0.04357534
123	0xbe7a0b70	-0.24418426
124	0x3d96ef8b	0.07369908
125	0x3f46bd90	0.77633
126	0xbed6717a	-0.4188345
127	0xbc874097	-0.016510291
128	0x3f0c502c	0.5480983
129	0x3ebb3daf	0.36570498
130	0xbe476d6d	-0.19475336
131	0xbe5dc55a	-0.21657315
132	0x3e487c1b	0.19578592
133	0xbe521e7b	-0.2051944
134	0x3cb1c2fa	0.021699417
135	0xba46bfb8	-0.0007581669
136	0xbd6afeab	-0.057371777
137	0xbd1b160b	-0.03786282
138	0xbe9e3048	-0.3089621
139	0x3e89b784	0.26897824
140	0x3e69e773	0.22842197
141	0xbe2cba06	-0.16867837
142	0xbd815844	-0.063156635
143	0x3e92af4a	0.2864936
144	0xbcb709b1	-0.022343488
145	0xbcc08d96	-0.023505013
146	0xbe93fa99	-0.28902128
147	0x3e005d52	0.12535599
148	0xbeba4a16	-0.36384648
149	0x3e915af7	0.28389713
150	0x3d7b481b	0.061348062
151	0x3d71123c	0.05885528
152	0xbb56238c	-0.0032674996
153	0x3e5de4f6	0.21669373
154	0x3e03cc9d	0.12871023
155	0xbe2513e0	-0.16120863
156	0x3d00a2d9	0.031405304
157	0xbe1ab15c	-0.1510672
158	0x3bc7c092	0.006095954
159	0x3e4e01f1	0.20117928
160	0x3d14b5fc	0.036306366
161	0xbcc8d922	-0.0245176
162	0x3d503005	0.050827045
163	0xbd5d9a78	-0.05410239
164	0x3e5f303c	0.21795744
165	0xbda60bec	-0.08107743
166	0xbc09338c	-0.008374106
167	0xbe507e05	-0.20360573
168	0x3e246c0f	0.16056846
169	0x3e44b4fe	0.19209668
170	0x3d3508b9	0.04419777
171	0x3e3ffa97	0.18747936
172	0xbeb1ab42	-0.34700972
173	0xbd06ef47	-0.032943036
174	0x3eaa897d	0.3330802
175	0xbda30bf9	-0.07961268
176	0xbd7103a2	-0.058841355
177	0xbe2bfc7f	-0.16795538
178	0xbc081362	-0.0083054025
179	0xbc555f37	-0.013023189
180	0xbf056142	-0.5210153
181	0x3d58d6e8	0.052939326
182	0x3e7c609e	0.24646232
183	0xbcdca738	-0.026935205
184	0x3e282826	0.16421565
185	0x3cc54dde	0.024084982
186	0x3d835e20	0.06414437
187	0x3cccb313	0.024987733
188	0xbe6c894e	-0.23099253
189	0x3ee9b0e7	0.45642778
190	0xbd772ca5	-0.06034531
191	0xbe5dedd5	-0.21672757
192	0xbd93d3dc	-0.07218143
193	0xbdf1b2fc	-0.11801717
194	0xbe29a914	-0.16568404
195	0xbefbc055	-0.49170175
196	0x3d8a6ebb	0.067594014
197	0x3cb9d270	0.022683352
198	0x3c7da0f2	0.015480267
199	0x3e2a134f	0.16608928
200	0xbe16d88f	-0.14731048
201	0x3dcb344a	0.09922083
202	0x3d93a5b4	0.0720934
203	0xbe3158d5	-0.17319043
204	0xbe0d0786	-0.13772401
205	0xbd92af20	-0.07162309
206	0x3e9dab41	0.3079472
207	0xbe2c4eb1	-0.16826893
208	0xbb234e79	-0.00249186
209	0xbc8f0eb8	-0.017463073
210	0xbe467b51	-0.19382979
211	0xbe348fd8	-0.17632997
212	0xbe86bdc2	-0.2631665
213	0xbe7dab52	-0.24772385
214	0x3d82b04c	0.06381282
215	0xbf032220	-0.51223946
216	0x3dbb2196	0.091372654
217	0x3d4bb380	0.04973173
218	0xbe1578e5	-0.14596899
219	0x3eba721d	0.36415187
220	0x3e4406bc	0.19143194
221	0x3dd2e10d	0.10296831
222	0x3d0cc288	0.034365207
223	0xbdd8dcb6	-0.10588972
224	0x3cf053ef	0.029336898
225	0x3e0df730	0.13863826
226	0x3e794491	0.24342562
227	0x3da3ba18	0.07994479
228	0xbd48d2dd	-0.04902922
229	0xbcc5b363	-0.02413339
230	0x3d2224c7	0.039585855
231	0x3c858e3e	0.016303178
232	0xbc575b71	-0.01314436
233	0x3e8321d3	0.25611743
234	0xbead6f02	-0.33873755
235	0xbeb1dc0c	-0.34738195
236	0xbd95ec71	-0.07320488
237	0xbc224d4f	-0.009906127
238	0xbf242bc9	-0.6412931
239	0x3e62fe33	0.22167282
240	0xbc171ea9	-0.009223619
241	0x3c903680	0.017604113
242	0x3e514fcc	0.20440596
243	0xbf2a5cee	-0.6654805
244	0x3e13e6e9	0.14443554
245	0xbcab4d39	-0.020910846
246	0x3cc99e17	0.024611516
247	0xbd09e16f	-0.033662256
248	0x3e8a6d9b	0.27036747
249	0x3c219bf9	0.009863847
250	0xbd071077	-0.032974686
251	0xbd00d27a	-0.031450726
252	0xbd1fb125	-0.038987298
253	0x3e4cd0bd	0.20001502
254	0x3c8b89da	0.017033506
255	0x3eb00070	0.34375334

mu.bias f4 [4]
0	0x3d3d59af	0.046228107
1	0x3d61ace8	0.055096537
2	0xbd8280bb	-0.0637221
3	0x3d706820	0.05869305

sigma.weight f4 [4, 300]
0	0x3cc8999f	0.024487315
1	0x3e375a66	0.17905578
2	0x3c417061	0.011806578
3	0xbcdf3f4b	-0.02725186
4	0xbcfb6733	-0.030688858
5	0x3ccdeb69	0.025136666
6	0x3d034751	0.032050434
7	0x3cc8d23d	0.024514312
8	0x3e92fd9f	0.28709123
9	0xbd870969	-0.06593592
10	0xba22196a	-0.00061835966
11	0xbcb4f4fd	-0.022089476
12	0xbc308595	-0.010774036
13	0x3d8a0aa7	0.06740313
14	0xbc8009d9	-0.015629696
15	0xbd1189bb	-0.03553174
16	0x3ccf7fc0	0.02532947
17	0xbd3b4d97	-0.045728292
18	0x3a057d11	0.0005092184
19	0xbd2a8796	-0.04163321
20	0x3b6e1d9e	0.0036333571
21	0xbd20c054	-0.03924592
22	0x3d297a09	0.041376147
23	0x3d6d6f65	0.057967562
24	0x3d781fb4	0.06057711
25	0x3deb91d4	0.11502424
26	0x3d30a135	0.04312249
27	0x3c332cf8	0.010936014
28	0xba987756	-0.0011632245
29	0xba624117	-0.0008630915
30	0xbca5e107	-0.020248903
31	0x3ba716ca	0.005099152
32	0x3e93f4a4	0.28897583
33	0x3cc412bc	0.023934714
34	0xbd09588f	-0.03353172
35	0xbcdf9780	-0.02729392
36	0x3c8b07cd	0.016971493
37	0x3c8b3dee	0.016997304
38	0x3da40651	0.08009017
39	0xbd4def0c	-0.0502768
40	0xbd0345eb	-0.0320491
41	0xbd4c4122	-0.049866803
42	0xbd307742	-0.043082483
43	0x3b363ef0	0.002780851
44	0x3d23e5a9	0.040013943
45	0xbd18085d	-0.03711735
46	0x3d8a67c5	0.06758074
47	0xbc36475d	-0.011125413
48	0x3cbfbb9d	0.02340489
49	0x39eaeb8c	0.00044807454
50	0xbc45ff88	-0.012084849
51	0x3d9a7282	0.07541372
52	0x3ba3fd41	0.0050045555
53	0x3b2355fd	0.002492308
54	0xbd15b17f	-0.036546227
55	0x3d0e3b08	0.034724265
56	0xbc0de4a7	-0.008660472
57	0x3d832067	0.06402665
58	0xbd329515	-0.043599207
59	0x3e0fb1be	0.14032647
60	0xbc41ef2a	-0.011836806
61	0xbcc33c2f	-0.023832409
62	0x3ce03a1f	0.027371464
63	0x3d596e5c	0.053083763
64	0xbd5ba4f3	-0.053624105
65	0x3c938f0e	0.01801255
66	0xbd83f578	-0.06443304
67	0xbc9d6911	-0.019215139
68	0xbcb83502	-0.022486214
69	0x3d77157e	0.06032323
70	0x3e11aa49	0.14225115
71	0xbcfb8049	-0.03070082
72	0x3d84f95d	0.06492875
73	0x3dac9534	0.08426896
74	0xbc254d7e	-0.010089276
75	0xbd06a98f	-0.032876547
76	0xbb9ed657	-0.0048473286
77	0xbc86787c	-0.016414873
78	0x3ca83cf4	0.020536877
79	0x3d3b2362	0.04568804
80	0xbcab85ff	-0.020937918
81	0x3ca552cf	0.020181088
82	0x3c237f22	0.009979041
83	0xbd97d915	-0.07414452
84	0xbd436c65	-0.047710795
85	0xbd23812e	-0.039918117
86	0x3e10ffe1	0.1416011
87	0x3bc635e9	0.006048907
88	0x3d73469e	0.059393518
89	0x3dee5935	0.11638109
90	0x3ce15070	0.027504176
91	0x3b853f06	0.004066351
92	0x3d0c1fb9	0.03420994
93	0xbd365938	-0.04451868
94	0x3d2b47d9	0.041816566
95	0xbd0c834b	-0.0343049
96	0x3db16bf6	0.0866317
97	0xbd75102c	-0.059829876
98	0xbd56e261	-0.052461985
99	0x3cac7ba5	0.021055052
100	0x3def1ea9	0.1167577
101	0x3ddf0741	0.108900554
102	0xbcc0975e	-0.023509677
103	0xbc9fdd96	-0.01951484
104	0xbba52cf5	-0.0050407597
105	0x3b574212	0.0032845777
106	0x3dec3527	0.115335755
107	0xbbf234f5	-0.007391567
108	0xbc3bed56	-0.0114701595
109	0x3da0c5f4	0.078502566
110	0x3ddc6edc	0.10763332
111	0x3d7dd7eb	0.061973494
112	0x3bc1e349	0.005916987
113	0x3c222dd4	0.009898622
114	0xbcbbf23a	-0.022942651
115	0x3e23fab8	0.1601361
116	0x3d5ec368	0.054385573
117	0xbcdf7b78	-0.027280554
118	0x3d49b2b0	0.049242675
119	0x3c0f1c1c	0.008734729
120	0xba351d19	-0.0006908938
121	0xba02af74	-0.0004985251
122	0xbc0cab31	-0.008585737
123	0xbcf3be32	-0.029753778
124	0xbc8454c4	-0.0161537
125	0x3c91448f	0.017732887
126	0x3d81cd73	0.063380145
127	0xbd04213c	-0.032258257
128	0x3d99cd1f	0.07509827
129	0x3ca13b27	0.019681526
130	0x3c129015	0.008945485
131	0xbc686c1d	-0.014185932
132	0x3df38710	0.118909955
133	0xbd4eb33a	-0.050463893
134	0x3bedca8a	0.0072568106
135	0x3d0b46ab	0.03400294
136	0x3c970040	0.018432736
137	0xbcd808c6	-0.026371371
138	0xbd64dee9	-0.055876646
139	0xbc12a0ef	-0.008949502
140	0xbbce0c27	-0.0062880698
141	0xbde7eac3	-0.11324074
142	0xbc6e02d3	-0.0145270405
143	0x3daf592d	0.08561931
144	0xbc964a17	-0.018345876
145	0x3cef2c4c	0.029195927
146	0x3c4c9718	0.012487195
147	0xbd18af95	-0.037276823
148	0x3ca692f8	0.020333752
149	0x3c3e628a	0.011620173
150	0x3deaff93	0.11474528
151	0x3bcddbc0	0.0062822998
152	0xbd4785c4	-0.048711553
153	0xbcecf69e	-0.02892619
154	0x3cde3bb0	0.02712807
155	0x3d0e6437	0.03476354
156	0x3d44ce9b	0.048048597
157	0x3d175d2f	0.0369541
158	0xbbc0cbac	-0.0058836546
159	0xbc880fce	-0.016609099
160	0x3d758d14	0.059948996
161	0x3ce7df1b	0.028304627
162	0x3d4f0ea4	0.05055107
163	0xbc0c2aeb	-0.008555154
164	0xbce9f6ca	-0.028560061
165	0x3d439810	0.04775244
166	0xbd7e2284	-0.062044635
167	0x3cae97db	0.021312645
168	0x3bb378a6	0.005477029
169	0xbd2aaff3	-0.041671705
170	0x3dafac13	0.085777424
171	0xbd1c7e25	-0.03820624
172	0x3d46772d	0.0484535
173	0xbaf2ab9e	-0.0018514281
174	0x3d86fbd0	0.06590998
175	0xbbd7cddf	-0.006585821
176	0x3d2cbbc4	0.042171255
177	0x3afe7636	0.0019413892
178	0x3d821cf6	0.0635318
179	0xba2e90ed	-0.0006659169
180	0x3cf3ae55	0.029746214
181	0xbb068b42	-0.0020529781
182	0xba8c96ae	-0.0010726058
183	0xbce8a74d	-0.028400088
184	0x3beaeb09	0.0071691317
185	0xbc69ce5a	-0.014270389
186	0x3be30c47	0.006928954
187	0xbb02e1ff	-0.001997113
188	0xbdaef2cf	-0.08542406
189	0x3d75b504	0.059987083
190	0xbc766451	-0.015038566
191	0xbd5c55e2	-0.05379284
192	0xbc85f6b8	-0.016352996
193	0x3d7c902c	0.06166093
194	0xba811435	-0.0009847941
195	0x3cd8a45f	0.026445566
196	0xbdfde405	-0.12397007
197	0x3c73fade	0.014891354
198	0x3bb95a05	0.005656483
199	0x3cb116fa	0.021617401
200	0x3c4787ec	0.012178402
201	0x3d6a9e6e	0.057279997
202	0x3cdd4c9e	0.027014073
203	0xbcffaad4	-0.031209387
204	0xbceb74f4	-0.028742291
205	0xbbb79e38	-0.005603578
206	0x3ba83d7f	0.005134284
207	0xbcb1bdfd	-0.021697039
208	0x3ccedc19	0.025251435
209	0x3c054b62	0.008135648
210	0x3d02bf3c	0.031920657
211	0x3d077046	0.033066057
212	0xbd712a79	-0.058878396
213	0xbca1de2f	-0.019759266
214	0x3c05ed77	0.008174292
215	0xbd473402	-0.048633583
216	0x3d2fa48d	0.042881537
217	0x3dc6300f	0.09677135
218	0x3da74f9c	0.08169481
219	0x3e002783	0.12515073
220	0x3c96165a	0.018321205
221	0x3cc650f1	0.024208518
222	0x3c4a817f	0.012359976
223	0xbc173756	-0.009229502
224	0xbd3c16ad	-0.045920063
225	0x3dae3226	0.08505659
226	0xbd2b46a9	-0.041815434
227	0xbc3e4cea	-0.011615017
228	0x3d1bb942	0.038018472
229	0xbcbbb1e6	-0.022911977
230	0x3c923a12	0.017849956
231	0x3b8ea379	0.0043529836
232	0xbd11ed00	-0.03562641
233	0xbd6ae4cb	-0.0573471
234	0xbd890ef9	-0.06692309
235	0x3aa39995	0.0012481684
236	0xbcac36aa	-0.02102216
237	0x3d640e87	0.055677917
238	0x3d8498f3	0.06474485
239	0xbc88dade	-0.016705927
240	0x3ce2321e	0.027611788
241	0x3c82e48e	0.015978124
242	0xbb067060	-0.0020513758
243	0x3d227e77	0.039671388
244	0x3aa50e77	0.0012592812
245	0xbd0f7b3b	-0.03502963
246	0xbc26b9a0	-0.010176092
247	0x3cc95453	0.024576342
248	0x3cf33856	0.029689949
249	0xbbb44a23	-0.005502002
250	0xbcc1e3f6	-0.02366827
251	0xba866b64	-0.0010255394
252	0x3d7b454e	0.06134539
253	0xbd4bd460	-0.049763083
254	0x3d426d01	0.047467235
255	0x3d3f57fd	0.04671477

sigma.bias f4 [4]
0	0x3eba38fd	0.36371604
1	0x3ec82bbc	0.39095867
2	0x3ecb863a	0.39750844
3	0x3ebc39e4	0.36762917
