SAC_own_hardcore/sac_200/critic_1_sac.pth (torch, 531386 bytes, 5 tensors)

fc1.weight f4 [400, 28]
00000000: 7f38 81bd 4806 a2bf 37a5 833f adfa 8fbe
00000010: 416d 03bf 9a73 52bd 7ff9 00bf a9d4 213f
00000020: ed4b cf3d ac42 0c3f edc2 743d 8e2b c63e
00000030: c0d1 78bb 58d8 e63d 57a0 0f3f 434f e43d
00000040: f43c f93d 751f de3c 75f3 4abd db54 013c
00000050: f80b 133c 151f 183d 6cb8 613b b7b5 4e3c
00000060: 20c8 153e cbf5 8c3e 7441 2abe e35f 46bd
00000070: e8c4 563d 0f0f e4be 0263 f73e 7294 05be
00000080: c8cd 253d ee05 383e e8c0 563e 2060 f4be
00000090: 46c0 093e bb9b 643d db0a 8a3c 267e 5e3d
000000a0: abce eb3d b7dd 3dbe 56b7 793d 637e 233e
000000b0: 9339 0b3e 374a 803e 6c0c 253e a012 1ebe
000000c0: 4103 7e3d 5ec3 583e e06d a73d b045 2d3d
000000d0: 0677 92bd db63 ae3d e7ee 34be f691 ae3e
000000e0: 8110 1a3e ceba bebe ce2c 7b3d 4192 2fbe
000000f0: 105c 673e fc8a 0bbf 2803 9dbd a694 7c3c
00000100: 9148 023c 2db5 4e3d 77cc e9be 4345 6b3e
00000110: e213 013c cd31 c9bd bc50 2c3d 96fc 783e
00000120: 609c 123e 8ae2 5f3d 1e39 713e f6cc 293e
00000130: f838 713e 574b 783e 7e6a 073e 7ead a43e
00000140: 126d 183e f866 203d e8a8 13be 9161 d1bd
00000150: 2641 1ebe 8192 60be 6159 b53d ba38 573f
00000160: 564c 823e 860b e3be 10ff afbe 3137 dc3e
00000170: b4a7 7dbe 3d86 eebb 9fbb 2e3d 5f7b 65bd
00000180: 0c13 9d3e e6f0 733e 733e 60be 755a 093e
00000190: 0643 8bbd d471 0a3e d910 503e 50d1 d53a
000001a0: c7fd ac3d 767e ecbc 2927 f2bd 44fb 0abd
000001b0: 5b8b f5be b7d8 0bbe 4830 f63e 45b6 e43d
000001c0: aa29 9ebd 9bec 4bbf 4193 a13d eb1d ab3e
000001d0: e542 e33c 9a09 983e 59a7 be3d a1a5 543d
000001e0: 75b4 7e3e ce26 1ebd 6d0f f43c 4e81 97be
000001f0: 1787 9abc 835e 293e 263d 873e 4972 3f3d
00000200: 1e8b 4ebd 07db d13d 9302 4bbc 7c82 853e
00000210: a372 193e 04e8 5e3e ba95 063e e379 283d
00000220: b249 8ebd 7cf9 abbe aef0 5b3e a892 25bc
00000230: 5dd9 95bf 0be1 5bbe efc6 65be 32f9 a13e
00000240: 3a7b 0a3f 5647 ea3e a349 a0be 51f4 753e
00000250: 872d 0dbd c9b8 153f a5d6 573c 36f4 02bd
00000260: 8707 e33d bba6 2cbd 6795 dc3e 43d2 2c3f
00000270: b578 423f 3243 113f 227e 88bd a7f1 acbe
00000280: 01b9 01bf e157 48bf af9d 2fbf 85c6 0abf
00000290: b01e 403b 7b54 98bb 544b 8f3d 708b b2bd
000002a0: 5c36 5e3e 2d48 443f 9b4d 0ebf a899 d23e
000002b0: db98 a13e edd8 df3b 87d2 10be b89e a3bd
000002c0: 90b1 3d3e e242 75be e2af 243c 0d0b 54be
000002d0: a4a2 07be a0ef 17bc e67c 833e 5dac f33d
000002e0: 7bd5 b3bc 61b4 5b3a cf06 a5bd ec2d 563e
000002f0: 5724 b63d 1037 c83d 1d6e 923e daac b93d
00000300: 2eb0 8f3d 5a83 3abe 739e 623e 5b1f 843e
00000310: 3447 2bbd 79eb cabe ec69 2d3f 2894 69bf
00000320: f659 dbbe 79f4 9ebe d0e0 f63d b348 623c
00000330: 4921 0fbe b246 0b3e c3ee a0be 51c0 3c3d
00000340: c6f9 ab3e b352 43bf 63eb fe3e c0f7 0d3e
00000350: 8ed1 823e 0396 c03d d781 dd3d 4f52 513d
00000360: 12da b53e 45cd f53d a8ab 8dbd 29bc 093e
00000370: 8738 e73e c46b a33e 2fc0 3abf e8f7 e43d
00000380: d0b8 7fbe a57f 3abf 75d8 953e bbbd 12bf
00000390: eeb5 abbd a315 603e 68cc a33e 371a 78be
000003a0: 9dfa 6c3e e36a 2abf 941a 593e f679 15bd
000003b0: 7379 e53d 2798 9b3e 5e49 043e 6c6f bbbc
000003c0: 9433 71be 5bbc 93be ed28 a1bd 580d 903d
000003d0: 5423 a23c d968 eebd 0405 5d3d e8e3 6abd
000003e0: 33d1 9cbd 2bac 9c3d 65de 593d c280 dcbe
000003f0: 9def a63e 4d0f d33f 4821 42be 8a29 dcbe
-0.06309604 -1.2658167 1.0284795 -0.28120938 -0.51338583 -0.051379777 -0.503807 0.6321512
0.101219036 0.54789233 0.05975621 0.38705105 -0.0037966818 0.11271733 0.56104034 0.111479305
0.12169829 0.02711461 -0.049548585 0.007893766 0.008975022 0.037139017 0.00344422 0.012616566
0.14627123 0.27531275 -0.16626531 -0.04843129 0.05243388 -0.4454274 0.48317724 -0.13044909
0.04047945 0.17971012 0.20972025 -0.47729588 0.13452253 0.05581258 0.01685088 0.054319523
0.11514028 -0.18541609 0.06096586 0.15966181 0.13596182 0.2505662 0.1611802 -0.15436792
0.062014822 0.21168277 0.08175254 0.042302787 -0.07151608 0.0851514 -0.17669259 0.34095734
0.15045358 -0.37251896 0.061322026 -0.17145635 0.22593713 -0.5450895 -0.07666618 0.0154163
0.0079518715 0.05046575 -0.45663807 0.2297564 0.007878276 -0.09823952 0.04206918 0.24315104
0.14317465 0.054659404 0.23556945 0.16582093 0.23556888 0.2424749 0.13224217 0.32163614
0.14885357 0.0391607 -0.14419901 -0.102236874 -0.1545454 -0.21930887 0.08854938 0.8407093
0.25448865 -0.4434473 -0.34374285 0.43010858 -0.24771005 -0.007279186 0.0426594 -0.05602586
0.30678594 0.23822364 -0.21898822 0.13413413 -0.06799893 0.13519984 0.20318927 0.001631299
0.08446842 -0.028868895 -0.118238755 -0.03393103 -0.47957882 -0.13656889 0.4808371 0.11167578
-0.077227905 -0.79657906 0.078894146 0.33421263 0.027741859 0.29694825 0.09309263 0.05191577
0.24873526 -0.038611226 0.029792512 -0.2959084 -0.018863244 0.1653996 0.2641384 0.04673985
-0.05042564 0.10246854 -0.01239075 0.26076114 0.14985137 0.21768194 0.13143054 0.041131865
-0.0694765 -0.3358878 0.21478531 -0.010105766 -1.1706959 -0.21472566 -0.22439168 0.31635433
0.5409428 0.4575755 -0.3130618 0.2401898 -0.034467246 0.58485085 0.013173734 -0.03197118
0.1108542 -0.042151194 0.43082735 0.67508334 0.75965434 0.56743157 -0.06664683 -0.33778116
-0.5067292 -0.7825909 -0.6859998 -0.54209167 0.0029315166 -0.0046487427 0.069967896 -0.08718002
0.21700424 0.7667263 -0.55587167 0.41132855 0.31561932 0.0068312795 -0.1414281 -0.079892576
0.18524766 -0.23951295 0.010051699 -0.2070734 -0.13245636 -0.00927344 0.25681227 0.1189811
-0.021952381 0.00083810656 -0.08057939 0.20915955 0.0889365 0.09776127 0.28599635 0.09066172
0.070160255 -0.18214169 0.22130756 0.25805172 -0.04181595 -0.39632776 0.6773975 -0.91241693
-0.42842072 -0.31045893 0.12054598 0.013811278 -0.13977541 0.13601187 -0.3143216 0.046081845
0.33589 -0.76298064 0.4978896 0.1386404 0.25550503 0.094036125 0.108157806 0.051103886
0.35517937 0.12002043 -0.069175065 0.13450684 0.45160314 0.31918156 -0.729495 0.11180097
-0.24972844 -0.7285102 0.29266706 -0.57320756 -0.0838431 0.21883254 0.31991887 -0.2422875
0.23142476 -0.66569346 0.21201545 -0.036493264 0.11204805 0.3038952 0.12918612 -0.022880279
-0.23554832 -0.2885464 -0.07869134 0.07033795 0.019792236 -0.11641092 0.05395986 -0.057346255
-0.07657089 0.07650026 0.053190608 -0.43066984 0.32604685 1.6489044 -0.18958008 -0.43000442

fc1.bias f4 [400]
00000000: 84e1 683e f4a3 893e ecf7 a53d 1539 e43d
00000010: 25a9 263e 1cb4 72be 6fe0 d53d 27bf 033e
00000020: adb5 cf3c 7a75 2ebe 2972 8fbc d927 1f3c
00000030: e449 213e cf78 603f ade4 1abe 43c7 653e
00000040: 24ad c93e a331 f9bd 49e0 833e 77d9 ba3e
00000050: 7c44 323e 2b15 3abd 688a 6a3e b2b0 0b3f
00000060: c4c6 36be 507e f93d 9850 403e f92f c33e
00000070: cfe0 613e b168 0c3f 2f5e 063e 8d39 5f3e
00000080: 4c62 4c3d 1f6e 0a3e 293b 01be 008d 2cbe
00000090: 8fed 30be 701c a3bd e389 433e 2e3d 713e
000000a0: f37b 97be 7a0a 26bd a54a b53e 1f2e 40be
000000b0: e8bd 4bbd 116d 82bd 6747 cbbd 29a1 473e
000000c0: 4b83 bd3e 17f5 013f 5e6e 4a3e 4683 463e
000000d0: e893 383d af42 bf3e 10cc acbc d3e3 2ebe
000000e0: 1643 2dbd e7ba 253e 3093 9ebc 72ac 173e
000000f0: e7f8 123e a259 95bb a0aa 3d3e 04e0 1fbd
00000100: 3b46 da3e ba95 26be d734 b33e 52df ccbd
00000110: c90a 15bd c36a ab3c 3b71 463e e12f 083d
00000120: b6ac b63b 2ed1 d639 e8f6 513e 17d8 c03d
00000130: b9ea 403f d409 ddbb 4f6c 09be 2e5f ff3d
00000140: 0d6e d6bc 5358 793e 2958 a7bd d3f8 a6bd
00000150: d027 55be 6ea1 323f c89b f23d 3c98 193f
00000160: 6168 073f c6b9 4a3e 0046 23bb a120 c23c
00000170: 6300 303e 3e26 38be 150f 153e afef 063d
00000180: 070c bbbe 369f e83c 2e75 993c 2def f6bd
00000190: f4d3 28bd 7d13 473d 9862 753d cebf 793e
000001a0: 734f 293e fe5a 93be e553 adbe 695a d1bd
000001b0: 5bed 953e f5cb c83e 44b5 233c eef4 523d
000001c0: aee8 253f 88ac 823e f609 e93d 53f2 3e3e
000001d0: 98e0 b7bb 36f6 75be 54b7 dcbe 589c aa3d
000001e0: a0c3 e13e e1fd 433e e3b0 18bc 8684 93be
000001f0: 8ae3 2c3f f385 32be 7756 b23e 0f5f a43d
00000200: 7676 2bbe 3932 703e 7d08 ca3e 7f47 3fbd
00000210: e887 fabd fc67 933d b91f e03e f0b4 623c
00000220: 350a 31be 1260 86bd 7f50 52bd cef3 6ebe
00000230: 0358 e43d 5222 5a3b 54cd afbd 947d bbbb
00000240: e1bc 9dbb 4c46 523c 0c6a 443f eed8 3c3e
00000250: 5c8c c03d 8a54 f2bd cf81 b93e f13c 663d
00000260: 67ca 5e3e bc1d 80bd 16aa 693e fbe6 573d
00000270: 8e6b 1c3e 64a7 513e 45ba a2be d2a7 113c
00000280: 15cf 273e b845 e0bd 460b 25bc 883a a43d
00000290: 7eb0 203d 8063 e3bd d27a a0bc c114 a23d
000002a0: 81dc 153f d3ff ba3e 2f75 633e 1211 d6bd
000002b0: 9c89 863e 785d 98bc f799 0fbe 6d89 603e
000002c0: 3854 f43d c4f6 84bc 87ce 84be 844e 553e
000002d0: a07c 263e e49a 023e 3491 023f 123c 163c
000002e0: cee4 e1bc 4192 54bc fbeb 663e 9c6d 52bd
000002f0: 862e a1bd 5a62 173c 315e 063e 4fd5 233f
00000300: 4cec f33d 261b e43e b5d1 1b3e f353 f23d
00000310: 9172 57bd a164 1f3e c998 393e 66d5 8e3c
00000320: e370 ddbd 310c 643e 8cff 683e 3c90 c1bc
00000330: 0fa6 af3c 94b2 94be 019a 5c3d 3b12 413e
00000340: 4ada 0dbf fba8 e03d 5b31 6d3e 44a1 cfbd
00000350: 2144 2b3e cfa1 703c 88e3 2f3a 2418 5dbe
00000360: 6390 91bd 3ec5 283f 73bd 223f 3beb 413c
00000370: 7707 40be 7ba7 05be fba2 763c 75fa 023f
00000380: 8e2a a23e d6d9 423e 067b 5e3e 4aeb 603c
00000390: d6cd 023e 560b ae3e c730 da3d 5c86 093e
000003a0: 83b7 0bbe 2d81 d53e 477a 78bd 0c7f 053e
000003b0: e391 5ebc 8969 1b3e 3637 16be 624a eb3d
000003c0: b4d5 023e 81a5 d13d 8887 4d3e 2845 56bd
000003d0: c004 c4bd 0517 f23e a093 27bd 6225 e13d
000003e0: 6423 183e 7986 f73e a9a9 a5bb 8f56 913e
000003f0: c0ea e5bd ff20 1d3f 63fd 2e3f 5dfd 603e
0.22742277 0.268829 0.08103928 0.111437 0.16275461 -0.23701519 0.10443198 0.12865888
0.025355184 -0.17037001 -0.01751049 0.00971409 0.15750843 0.8768434 -0.15126295 0.22439294
0.39389908 -0.121676706 0.25757053 0.36494038 0.17408937 -0.045430344 0.2290436 0.5456649
-0.1784926 0.12182295 0.18780744 0.38122538 0.22058414 0.54847246 0.13121866 0.21799298
0.04989843 0.1351857 -0.12620224 -0.16850662 -0.17278121 -0.079644084 0.19095568 0.23558494
-0.29586753 -0.040537335 0.35408512 -0.18767594 -0.049741656 -0.06368459 -0.09925728 0.19495071
0.3701423 0.507646 0.19768664 0.19386014 0.04506293 0.37355563 -0.021093398 -0.17079096
-0.042300306 0.16184579 -0.019357294 0.14811876 0.14352761 -0.004557804 0.1852212 -0.039031997
0.42631707 -0.16268054 0.3500125 -0.100035325 -0.03638724 0.020924931 0.19379131 0.033248786
0.005574788 0.00040973112 0.20504344 0.09416216 0.7535816 -0.0067455564 -0.13420223 0.12469326
-0.026175523 0.243501 -0.08171112 -0.08152928 -0.20815969 0.6977757 0.11846119 0.59997916
0.52893645 0.1979743 -0.002491355 0.0236972 0.17187648 -0.17983338 0.14556535 0.032943424
-0.36532614 0.02839623 0.018732633 -0.12057338 -0.04121776 0.04860257 0.05990848 0.24389574
0.16534214 -0.2878036 -0.3385307 -0.102223225 0.2928265 0.39218107 0.009991948 0.051503114
0.64808166 0.25522256 0.11378853 0.18647127 -0.0056114905 -0.24019703 -0.43108618 0.083306015
0.44094563 0.19139816 -0.009319517 -0.28812045 0.675347 -0.1743391 0.34831592 0.080259435
-0.16744408 0.23456658 0.394596 -0.046699043 -0.12232953 0.07197568 0.43774202 0.013837084
-0.1728905 -0.06561293 -0.0513463 -0.23335192 0.111495994 0.0033284617 -0.08584085 -0.005721757
-0.004813776 0.012834143 0.76724315 0.18442127 0.094017714 -0.11832531 0.3623185 0.056210462
0.21756898 -0.062556714 0.22818789 0.052710515 0.15275404 0.2047401 -0.31782737 0.008890109
0.1638759 -0.10950798 -0.010073489 0.080189764 0.039230816 -0.111029625 -0.019589815 0.07914115
0.5853959 0.36523303 0.2221267 -0.10452475 0.26276863 -0.018599257 -0.14023577 0.21927424
0.11930126 -0.016230948 -0.25938818 0.20830733 0.16258478 0.12754399 0.5100281 0.009169595
-0.027574923 -0.012974323 0.22550957 -0.051374063 -0.07870202 0.009239757 0.13121869 0.6399736
0.119103044 0.44551963 0.15216716 0.11832418 -0.052599493 0.1556573 0.18124689 0.01743574
-0.10812547 0.22270276 0.22753733 -0.023628347 0.021441488 -0.29042494 0.053857807 0.1885461
-0.5541121 0.109697305 0.23163359 -0.10138181 0.16725208 0.014687016 0.0006709625 -0.2159124
-0.07107618 0.6592597 0.63570327 0.0118358685 -0.18752848 -0.1305217 0.015053506 0.5116342
0.31673092 0.1902841 0.21726617 0.013727972 0.12773833 0.33993024 0.10653835 0.1343016
-0.13644223 0.41700116 -0.060663488 0.13036746 -0.013584587 0.15176977 -0.14669499 0.11488797
0.12776834 0.102366455 0.20071232 -0.052312046 -0.095712185 0.47283188 -0.04091227 0.10993458
0.1485725 0.48344782 -0.0050556255 0.2838635 -0.11226416 0.61378473 0.6835539 0.2197165

fc2.weight f4 [300, 400]
00000000: 8261 30bd a048 02bc 9ac3 44bd 03f1 76ba
00000010: 905a 823c d1eb 04bc cef3 d43b ad53 273d
00000020: bef2 70bc ad46 203d 96eb b43c a65a f83c
00000030: 6896 14bd c330 043d 2cb1 50bc 1334 f9bc
00000040: a836 043c 6cf8 27bc b6c0 58bc 866a 85bc
00000050: c29f 17bb 4a35 13bd bbb9 343d 5443 23bd
00000060: b276 063d b047 51bb c0a6 1d3a 97e0 183d
00000070: b0ba 7f3b 1d54 183d 80d8 23ba d604 633c
00000080: 60ae 4abd 2378 c2bc dddb 1d3d 10f9 3abd
00000090: ec5f 293c 935d 49bc b251 be3c 25fb 4dbd
000000a0: 2efa bd3c e57a cabb 30d9 1abb 98a1 f03b
000000b0: 58df 13bc d65a 46bc 98ff b03b f3fc 2c3c
000000c0: 8a8a b1bc dba4 9b3a 5812 363c c923 d53c
000000d0: 46f0 8f3c a38f 123d b2b7 e83c 5836 a13b
000000e0: a401 733c 57c1 a43c 4e81 b7bb 88bf ed3c
000000f0: de97 09bd ac55 51bd 5d1d b93c 87d3 40bd
00000100: 8947 a23b 3d8f b4bc 40b0 5fbd b72e c5bc
00000110: 4c35 783c a816 973b 840f 503c 8067 3cbd
00000120: e60b 1f3c 3e0c 45ba 5b51 1cbc b26c 8f3c
00000130: 750c 813c e9d4 303d 317f 443d 2d2a 203d
00000140: 4073 37bd d1c1 18bd 673f ebbc d3cc 09bc
00000150: 6692 f63c a715 52bd 8d81 dbbc cc6e 9cbb
00000160: 8e03 81bc 988f 65bc 3d6e dbbc cf35 b3bb
00000170: d869 5fbd af41 443b 8c98 36bc 6b82 32bc
00000180: 3afc 27bd 87e8 eb3c 1e27 a73c bd62 fbbc
00000190: 2cc4 533c 681e 3bbd c491 133d 1715 c0bc
000001a0: 095b 053d 96e8 81bc 2742 cfbc 4edd 0f3c
000001b0: 16d6 f9ba 7b41 53bd 27f1 f6bc b967 34bd
000001c0: c5ff 1cbd 1fc3 253d a8b6 49bd c6c1 02bd
000001d0: 782d 15bc 8057 2dbd 32df ba3c 8aca 953c
000001e0: 0240 39bd f22f e3bc c802 25bc 208a 15bc
000001f0: 74a3 f1bc f3af d13c adb5 4ebc ec1a 313d
00000200: 00bb 2cb9 5f58 a4bc 9ce7 47bd 8253 00bd
00000210: 053e 53bd 3843 36bd 21e2 d4bb 6dda 353d
00000220: b0c7 9abb 9d6c 2fbd b080 c3bc 7e31 b6bc
00000230: 82a9 603c 8796 53bd d6d3 9f3c cd09 a0bc
00000240: 9554 02bd 8076 e63b a1fb fe3b c526 d73c
00000250: 9275 193d c721 3bbd 73b5 513c caee 993c
00000260: f787 4abd 98de 393c 75ae 5fbc b318 3fbc
00000270: 9fd5 273d 6e33 03bd f65b 29bd f324 e4bc
00000280: b713 a5bc 63ab 16bd fb94 ccbc df0a 8c3c
00000290: 0a5c d43c 1a4e b03c 3822 c6bb 0cf1 4c3c
000002a0: 1846 513c f2e4 a33c 3089 353c 0048 7d3a
000002b0: 30c5 233b 0de0 0d3d 6f19 2ebd 9e4d df3c
000002c0: de53 083c 9680 eabb c3c2 423d cdd3 d03c
000002d0: 42fa 0c3d e63e 06bd 4059 46ba 0e8e ccbc
000002e0: a337 e23c a7b5 99bc 032c 47bd 326b e8bb
000002f0: 60dd 14bc 80c6 173d e0aa 28bd 34cb ca3c
00000300: 9435 153c 79f5 0d3d 4847 c93c 5bfe 093d
00000310: c1ac 23bc b4ac 453c 31b9 2d3c 51b1 0c3d
00000320: 138b 32bd 472a 3c3d 5928 15bd 8f1c 39bd
00000330: 959d 13bd 8a01 d73c e589 2f3d 4d93 11bd
00000340: 98ed bb3b 88a6 53bc 38b5 0bbd 5370 e1bc
00000350: 6a8d 253d 174f 30bd 509d 7e3b 04c8 7c3c
00000360: 98ba 0dbd 6d64 29bd 34b4 36bd df91 463d
00000370: 4529 183d 702b b3bb 6397 23bd 3ae0 b73c
00000380: d5e4 46bd 6266 e03c 4fa0 093d c0a1 8b3c
00000390: 47d5 ccbc f90b 0c3d a22e f13c bf11 333c
000003a0: ba29 983c 0fb2 31bd f463 69bc 3130 46bd
000003b0: 35ba 07bd 238c 203d 5fa7 8cbc afe6 1c3d
000003c0: d03f 1abd a4d6 123d 0947 5dbd 50cb df3b
000003d0: 8af4 3abd 8147 fc3b 35a2 24bd 206d 9dbc
000003e0: 0e82 373d fdd6 a93c c357 90bc 426f a53c
000003f0: b332 00bd caa4 30bd bb49 e4bc 673b a7bc
-0.04306174 -0.007951885 -0.048038103 -0.0009420069 0.015912324 -0.008112864 0.0064987903 0.040851284
-0.014706312 0.0391299 0.022084992 0.030316662 -0.03627625 0.032273065 -0.012737554 -0.030420339
0.008069672 -0.0102520995 -0.01322954 -0.016286146 -0.0023135995 -0.035939492 0.04412244 -0.03985913
0.03282804 -0.0031933598 0.00060139224 0.03732356 0.0039021187 0.03718959 -0.00062502176 0.013856133
-0.049482703 -0.023738926 0.038539756 -0.04564768 0.010337811 -0.012290376 0.023232315 -0.05028834
0.023190584 -0.006179201 -0.002362799 0.007343482 -0.009025417 -0.012106618 0.005401563 0.010558355
-0.021672506 0.0011874692 0.011112772 0.02601804 0.017570626 0.035781514 0.028407905 0.0049198084
0.014831934 0.020111723 -0.005600131 0.029021993 -0.033592097 -0.051107094 0.02259701 -0.04707673
0.0049523753 -0.022040958 -0.054611444 -0.024070127 0.015149426 0.004610855 0.012699012 -0.045997143
0.009707427 -0.0007516778 -0.009540881 0.017507885 0.01575301 0.043171797 0.04797286 0.039102722
-0.044787645 -0.037294213 -0.028716756 -0.00841065 0.030099105 -0.05129018 -0.026795173 -0.00477395
-0.015748765 -0.014011286 -0.026785964 -0.005469061 -0.0545443 0.0029946377 -0.011144768 -0.010895352
-0.041012026 0.028797401 0.020404395 -0.03068673 0.012925189 -0.045683295 0.036027685 -0.023447556
0.03255752 -0.015857976 -0.025300099 0.0087807905 -0.0019060995 -0.05157612 -0.030144287 -0.04404423
-0.03832986 0.040469285 -0.04924646 -0.031923078 -0.009105079 -0.042319775 0.022811506 0.018285055
-0.04522706 -0.027732823 -0.010071464 -0.00912717 -0.029496886 0.025596594 -0.012616557 0.043238565
-0.00016472861 -0.02006167 -0.048804864 -0.03132964 -0.05157282 -0.0444977 -0.006496683 0.04439776
-0.0047235116 -0.04282819 -0.023865074 -0.022240397 0.013712289 -0.051657226 0.019510191 -0.019535923
-0.031818945 0.0070331693 0.0077814613 0.026263604 0.03746564 -0.04568651 0.0127996085 0.018790621
-0.049446072 0.011344574 -0.013652434 -0.011663604 0.04097521 -0.03203147 -0.041347466 -0.02784965
-0.020151002 -0.03678454 -0.024973383 0.017095027 0.025922794 0.021521617 -0.0060465597 0.012508642
0.012773059 0.02000663 0.011080071 0.0009661913 0.002498936 0.0346375 -0.042504724 0.02725869
0.008320777 -0.007156442 0.04754902 0.02549162 0.034418352 -0.03277483 -0.00075664 -0.02497008
0.02761442 -0.018763376 -0.048625957 -0.007092857 -0.009085983 0.03705454 -0.041178584 0.024755098
0.009107012 0.03465793 0.024570122 0.033689838 -0.009989918 0.012065101 0.010603235 0.03434879
-0.043589663 0.045938756 -0.03641543 -0.04519325 -0.036038954 0.026245851 0.042856116 -0.035540868
0.0057351105 -0.012918122 -0.03410837 -0.02751938 0.040418066 -0.043044176 0.003885109 0.015428547
-0.034601778 -0.04135554 -0.04460545 0.048478957 0.037148733 -0.0054678246 -0.039939296 0.022445787
-0.048558075 0.02739257 0.033600148 0.017044902 -0.025004042 0.034191106 0.029441182 0.010929524
0.018574584 -0.0433827 -0.014245022 -0.048385803 -0.033136565 0.039196145 -0.017169653 0.038305935
-0.037658513 0.03584923 -0.054022823 0.0068296567 -0.045643367 0.0076989536 -0.040193755 -0.019217074
0.044801764 0.020732397 -0.017619973 0.020194653 -0.03129835 -0.043125905 -0.027867189 -0.020414067

fc2.bias f4 [300]
00000000: 2370 4bbd 6530 7b3e 5ec0 3d3e 4dc4 2e3e
00000010: 84cd 4a3e 968b 9b3c db7e 793d 6faf d03d
00000020: 17e5 b03c 4422 303e c5ea 3b3e b55f 3f3e
00000030: 8316 18bd 8bbc 283e 766a 2b3e c051 053b
00000040: 41b8 3e3e d008 213d ee15 443e b609 373e
00000050: 4b21 033e 90bf bdbb 72db 16bd 0bf7 1e3e
00000060: f5e0 093e c55a 08bd cbbe 3f3e 633c 3d3e
00000070: 3818 143e e24d 2d3e f22a 4f3d f202 2e3e
00000080: 28c5 763e 9bb9 213e e2b3 b63d db07 7a3d
00000090: 17d8 bb3c 3287 87bd 7aa6 803c b07b 2b3e
000000a0: 57dc 623e e880 7b3d 9236 f73d 9287 913d
000000b0: 2043 1a3d 3bb3 eb3d e202 293e 3dbf b83d
000000c0: 9f6b 813d 3a00 fdbc 7e07 d93d d270 8c3d
000000d0: f9aa 773d 30b2 3c3e 4a16 4f3e f624 a7bb
000000e0: 7f83 dd3d 4fb6 043e 8dc0 463e 14a9 253e
000000f0: 71a6 d23d c3dd 303d 8df4 0e3f 1408 d33d
00000100: d720 6dbd c309 333d e37c 873d bf3a 023d
00000110: 2329 603e 4ee2 1f3e b8bf 5f3e 8ada 443d
00000120: a6af 3a3e ef18 a3bc e75f ee3c 9483 473e
00000130: 4e8d f63d a452 f23d 28cf 2e3e ef07 803e
00000140: 2a29 4e3d a5f9 3f3e d2ef f63d e598 af3d
00000150: d986 2d3e 5e95 213d 708b db3d a368 fcbd
00000160: 52a5 013d 23db a83d b6ba 903d 3b05 163e
00000170: fd11 2e3c aa83 be3d c058 433e c63f 00bd
00000180: 5d95 783e 800b 0b3e bad4 0dbd d4a1 2a3e
00000190: dbef 5dbd 0239 273e 00d1 013e c145 e43d
000001a0: cd11 4b3e 4155 1e3e aaca 003e 29a1 033e
000001b0: 5b7e e5bd 8f5e e03d c36e e0bb 3d70 2f3e
000001c0: a854 4f3e 74ad 0b3e d94a de3d 6f07 e13d
000001d0: b041 ddbc dd65 5f3d 7f29 1f3e 839e 4e3d
000001e0: afc2 433e fec0 533e 2c6b 383e 1452 16bc
000001f0: d2fa 323e ad80 c13d bb31 af3d 6496 2f3e
00000200: ba46 4a3e 4d22 193e ab8f 293e 8f7c 4d3e
00000210: d14e 253e 2318 65bd 3ba1 41bc ebe3 9e3c
00000220: bb96 c8bc ce26 d43d f8ef 783c 4b12 1b3e
00000230: 1f21 e23d 4a6e fc3d 0177 473e f7fb 083d
00000240: affb c23d 8881 c83d ccb5 423e 1c22 463e
00000250: 166e 20bd 4515 47bd 86f2 66bd c26f 483e
00000260: 887e ad3b 2a01 373d 6542 c63c e633 483e
00000270: e02e 01bd 82be 1bbd 33ae f93d f70f 5fbd
00000280: 6760 1e3e 777a 4e3e 4815 de3d 5a15 703d
00000290: 350e 20bd 6743 1f3e cfb1 fcbc 1d1a f43d
000002a0: 9098 d13d 692b f53d abc0 3a3e 296d da3d
000002b0: 6e89 3b3d df08 363e 48c2 88bc f7cb 0abc
000002c0: 5508 2c3e 9857 7b3e 6f17 723e 2673 643e
000002d0: 4a2f fcbc b4d9 a63d 0782 0abd 8947 4cbc
000002e0: 6668 f53d 0a96 f53d 3712 79bc 48c9 c3bb
000002f0: 348f 273e f3cd f73d 9535 833e 0677 ad3d
00000300: 0516 283e 513f 5e3e fafc 80bc aa9d 223e
00000310: c888 a93d 0c92 3a3e 3be2 f33d f6af f53d
00000320: 7ab2 483e f64b 203e d366 f83d ef16 a43d
00000330: 9215 483e a3c3 e73d 4c72 313e 4174 ba3a
00000340: d352 253e e709 ec3d 5d02 173e 832f c9bd
00000350: b0ae 3b3e c21a a3be cb06 123e 9c33 263e
00000360: 16b3 6e3d 468c 363d 33f4 4b3e 2d43 403e
00000370: 8e0d f9bd c3d7 253b 719e 913c 2388 313e
00000380: 4731 cb3d 9f34 24bc 8219 313e ea4b d43d
00000390: b315 08bd 3565 833e 4bb7 173e 1d43 6b3e
000003a0: 5b1c 393e 404e 5a3d c6ae 273e 4daf 243e
000003b0: 6c77 9f3d 059a 963d 2554 333e ac7f 393e
000003c0: 860e 483e a48e 89bd 7795 e33d f52e 1f3e
000003d0: 88f6 e73c d291 c7bc c189 09bd e056 8e3b
000003e0: 9da4 ed3d 06cd fdba 1388 8b3c 033a 3dbc
000003f0: 08ae 243e f900 b43c 893f df3b e8d8 0e3e
-0.04966749 0.2453018 0.18530414 0.1706707 0.1980496 0.018987458 0.060911994 0.10189711
0.021593614 0.17200571 0.18351276 0.18688853 -0.037130844 0.16478173 0.1673983 0.0020342916
0.18624975 0.039315045 0.1914899 0.17874798 0.12805669 -0.0057906583 -0.036830373 0.15523927
0.1346472 -0.03328969 0.18725125 0.18480067 0.14462364 0.16924241 0.050578065 0.16993311
0.24098647 0.15793459 0.08921029 0.061042648 0.022930188 -0.06617583 0.015704382 0.16746402
0.22154365 0.06140223 0.12070955 0.07105936 0.03766167 0.11508795 0.16505006 0.09020851
0.06319355 -0.030883897 0.10597132 0.06857456 0.060465787 0.18427348 0.20223346 -0.0051008416
0.108160965 0.1296017 0.1940939 0.1617778 0.102856524 0.04318024 0.55841905 0.10304275
-0.057892647 0.04371048 0.06615617 0.031794306 0.21890692 0.15613672 0.21850479 0.048059978
0.18231067 -0.01990935 0.029098464 0.19483787 0.120386705 0.11832169 0.17071211 0.25006053
0.050332226 0.18747576 0.12057461 0.08574084 0.16945972 0.03944909 0.10719955 -0.12324645
0.031651802 0.08244922 0.07066862 0.14650433 0.010624406 0.09302457 0.19076824 -0.03131082
0.24275728 0.13578606 -0.0346267 0.16663295 -0.054183822 0.1633034 0.12677383 0.11146117
0.19831009 0.1546221 0.1257731 0.12854446 -0.11205741 0.109555356 -0.0068491413 0.1713266
0.20247138 0.13640386 0.1085412 0.10987746 -0.027008861 0.054540504 0.15543173 0.050444137
0.19117235 0.2067909 0.18009633 -0.009174842 0.17478493 0.09448371 0.08554407 0.17147213
0.19753543 0.14954491 0.16558711 0.20067047 0.16143347 -0.05593122 -0.0118182255 0.01939579
-0.024485936 0.10358964 0.015193932 0.15143697 0.110414736 0.123257235 0.1947899 0.033443417
0.09520661 0.09790331 0.19014663 0.19348949 -0.039167486 -0.04860427 -0.056383632 0.19573882
0.0052946247 0.044678845 0.024201581 0.19551048 -0.031538844 -0.03802348 0.12191429 -0.054458585
0.15466462 0.20163904 0.10843903 0.058614112 -0.03907605 0.15553056 -0.030846504 0.11919043
0.10234177 0.119711705 0.1823756 0.10665352 0.04578536 0.17776822 -0.016694203 -0.008471481
0.16800053 0.24545133 0.23641752 0.2230955 -0.030784268 0.08146992 -0.03381541 -0.012468227
0.11982803 0.11991508 -0.015202097 -0.0059749223 0.16363221 0.120998286 0.25626817 0.084699675
0.1641465 0.21703841 -0.015745629 0.15880457 0.08278042 0.18219775 0.119083844 0.119964525
0.19599333 0.15653977 0.12128987 0.08012187 0.19539478 0.113166116 0.17328757 0.001422532
0.16144876 0.11525326 0.14746995 -0.09823515 0.18328357 -0.31856352 0.14260404 0.16230625
0.05827626 0.04456737 0.19917373 0.18775626 -0.121607885 0.0025305606 0.017775746 0.17337088
0.09921508 -0.0100223115 0.17294887 0.10366042 -0.03322382 0.25663152 0.14816014 0.2297482
0.18077223 0.05329728 0.16375265 0.16082497 0.0778645 0.07353596 0.17512567 0.18115109
0.1953679 -0.0671666 0.111124925 0.15545256 0.028315797 -0.024361525 -0.033578638 0.0043438524
0.11603663 -0.001936347 0.017032659 -0.011549476 0.16082013 0.02197312 0.006812994 0.1394993

q.weight f4 [1, 300]
00000000: 7ba9 2b3d 9742 b73f 6a01 2d3f 63f1 f93e
00000010: e3cb 503f c7e1 10bc 7c09 8abe ec1f 213f
00000020: 3155 a4be d530 063f 0471 09bf 6202 03c0
00000030: dd44 353d e8e7 063f 1bbd e0bf f823 14bb
00000040: aea1 bebf 2620 253f 57b2 fcbe d21c 243f
00000050: f2a3 fd3e b03e 74bb afc7 353c e969 3b3f
00000060: a792 033f c9a1 3a3d fba2 d2bf 4907 02bf
00000070: 00a7 e5be 7aee 213f cd0d b9bf bced 223f
00000080: 5f1e 25c0 e9d5 1c3f bf54 dcbf 1c95 a1be
00000090: e984 9fbf 6698 8e3c e1ae 55bd dcb9 cebe
000000a0: 996d 393f 594b b13f 6a07 073f 4c12 0a3f
000000b0: df4b 89be b0ab 8b3f 9512 013f e61d 073f
000000c0: c665 213f 117b 1bbd 5ce0 d8be 749a a5bf
000000d0: 8ec8 8d3f a23f fdbe 3cd1 edbf 7310 85be
000000e0: 733f dabe 1387 1d3f 63ae 083f 5e25 203f
000000f0: a457 373f fad2 1e3f e01c 54c0 07f1 093f
00000100: be16 013d 9b11 043f 0938 94be efaa b0be
00000110: daca 01bf ec0a 1a3f abf5 06bf 575b 183f
00000120: 9f51 0bbf 1d5e dc3c 001a 1b3f ccdd efbe
00000130: 1229 093f f65d 1d3f 9770 1d3f 249c f9be
00000140: 0921 023f 6618 f1be b831 dbbe a794 f43e
00000150: ccb5 553f 7d38 a0be ca39 e93e e373 b83f
00000160: 8c8c 8fbe 5de7 b8bf 6cd7 dfbf 2b0e 05c0
00000170: a9e8 ba3c e21a f73e 3565 fabe b60f b23c
00000180: 9ce4 e8be 124d debe 394b 1ebd 1f08 0cc0
00000190: df4b dcbe 618f 8dbf 17f4 203f 1872 473f
000001a0: 8575 213f fd1e dcbf 62ab d9be 125d 1b3f
000001b0: c448 03bf cd44 143f 5c31 093d 0688 e3be
000001c0: f8d4 01bf c638 173f b7b7 dbbf e10f 343f
000001d0: 3aa7 1abd e058 533f 13d6 0bc0 1f19 9cbf
000001e0: bb75 e2bf 6be5 0cc0 c959 c1bf c0aa a63a
000001f0: 3aca 283f 5cf2 063f 6c87 a7bf 9885 febe
00000200: 15fe efbe 3b0f cbbf cb55 aa3f 3690 203f
00000210: 6696 493f ef8d 553c 3a32 b0be 5d53 b1bf
00000220: 0815 103d 963c c9bf 7d2f 0c3f f654 07c0
00000230: 162b 073f 8adb 433f 7fef 213f 7f14 063d
00000240: a227 f03e ef27 433f 2f0b 223f 704f 253f
00000250: 8ea1 b43c dbc2 ff3c 2625 3abd 9ca6 203f
00000260: bc80 b63c c001 8a3f 14d9 253d f5af fbbe
00000270: b860 6e3c b2a7 4fbd 74e6 efbf cb47 283b
00000280: fa97 513f d8c6 f8be e9f2 233f 6fd9 2f3f
00000290: f9af e73c 87ee dfbf 8f8e ddba cf14 cebf
000002a0: 7eb2 ddbe 0002 debe 9042 03bf ac8f edbf
000002b0: 4619 153f e3f7 343f 1119 e7bb ae12 0b3b
000002c0: 510c c3bf a506 f3be 3bed 1bc0 fd07 0abf
000002d0: d728 ab3c cfe3 073f aed6 0a3d c472 d6bf
000002e0: baa0 0a3f c32b 0b3f 5b02 343d 4ed5 653a
000002f0: fd85 6e3f 4824 0b3f e15b ebbe 265f 0b3f
00000300: b7f5 463f 7455 ebbe c0ef f0bc bede f3bf
00000310: bd9e 003f 0e12 e3bf 402b 2f3f b4de bfbf
00000320: a2b6 ffbe ea87 213f d7f6 023f 8d7f 823f
00000330: 72d2 f3be fd2f 073f 6a73 00bf aa3c b1be
00000340: 9b4d 463f f300 033f 4971 0d3f b4c1 ecbe
00000350: 4401 e6be 28b3 6c40 d72b 253f 79c2 c2be
00000360: f506 c5bf be6a 8ebe 93b6 373f cfb3 febe
00000370: 815e 33bf afdf 8440 a0f0 0f3c 0df1 123f
00000380: 85d9 0f3f 8bed a5be f741 f4be 36b9 2d3f
00000390: e066 383d 0b3e 01bf 9ccb 3f3f 2b2c f8be
000003a0: fb22 edbe a5c5 a4bf 2e89 063f d3dd a33f
000003b0: e888 023f 89c1 6a3f df27 f5bf a8a0 2d3f
000003c0: a118 213f a2d1 3fbf 17dd 793f 89a4 01bf
000003d0: a782 0fbd 786a 023d 7585 203d 45e7 aabf
000003e0: 5fb1 dabf c456 9ebe 2962 24be f386 88be
000003f0: bd0a d0be 5556 133f 7169 1a3d 4df6 23bf
0.041909676 1.4317197 0.6758028 0.48816976 0.81561106 -0.008842892 -0.2696036 0.62939334
-0.32096246 0.5241826 -0.53688073 -2.0470204 0.044255126 0.5269761 -1.755771 -0.0022604447
-1.4893091 0.6450218 -0.49354813 0.64106476 0.49539143 -0.003726881 0.011094972 0.7320848
0.5139565 0.045564447 -1.6455988 -0.50792366 -0.44853973 0.6325451 -1.4457337 0.63644004
-2.5799787 0.612639 -1.7213362 -0.31559074 -1.2462436 0.017406654 -0.05216873 -0.40376174
0.7243286 1.3851119 0.5274569 0.5393417 -0.26815698 1.091177 0.5041898 0.52779996
0.6304592 -0.037959162 -0.42358673 -1.293776 1.107683 -0.4946261 -1.8579478 -0.25989112
-0.42626533 0.6153423 0.53391093 0.6255702 0.71618104 0.62040675 -3.3142624 0.53883404
0.03151583 0.51589364 -0.28949 -0.34505412 -0.5070015 0.60172915 -0.5271861 0.59514374
-0.5442142 0.026900345 0.6058655 -0.46848905 0.53578293 0.614715 0.61499923 -0.48751938
0.5083166 -0.47088927 -0.4281137 0.47769663 0.83480525 -0.31293097 0.45551902 1.4410366
-0.28036916 -1.4445606 -1.7487617 -2.0789897 0.02281602 0.48262697 -0.4890534 0.021736007
-0.45486915 -0.43418175 -0.038645957 -2.1879957 -0.43026635 -1.1059381 0.6287245 0.7790847
0.63069946 -1.7196957 -0.42513567 0.6068889 -0.51282907 0.5791748 0.03349434 -0.44439715
-0.5071559 0.59071004 -1.716544 0.7033673 -0.037757136 0.8255749 -2.184941 -1.2195166
-1.7692178 -2.2015026 -1.5105525 0.0012715682 0.65933573 0.5271356 -1.3088202 -0.497113
-0.46873537 -1.5864023 1.3307432 0.6272005 0.78745115 0.013034328 -0.3441332 -1.3853565
0.035176307 -1.5721614 0.5475996 -2.1145606 0.5280012 0.76506865 0.6325607 0.03273439
0.46905237 0.7623281 0.63298315 0.64574337 0.022049692 0.031220844 -0.045445584 0.62754226
0.022278182 1.0781784 0.040490225 -0.49157682 0.014549427 -0.050697036 -1.8742204 0.0025677558
0.8187252 -0.48589206 0.64042526 0.6869115 0.028282152 -1.7494668 -0.0016903448 -1.61001
-0.4330024 -0.433609 -0.5127344 -1.855947 0.5824169 0.70690745 -0.0070525487 0.002122085
-1.5238134 -0.47466007 -2.4363544 -0.5391844 0.020893497 0.53081983 0.03389614 -1.6753774
0.541515 0.5436365 0.04394756 0.00087674416 0.931732 0.54352236 -0.45968536 0.5444206
0.7771868 -0.45963633 -0.029411197 -1.905235 0.50242215 -1.7739885 0.6842537 -1.4989839
-0.49944025 0.63098013 0.511579 1.0195175 -0.47621495 0.528076 -0.5017611 -0.34616596
0.77462167 0.51173323 0.55250984 -0.46241534 -0.4492284 3.6984348 0.6452002 -0.38038996
-1.5392748 -0.27815813 0.7176296 -0.49746558 -0.70066077 4.152305 0.008785397 0.57399064
0.56191283 -0.32407793 -0.47706577 0.67860734 0.045019984 -0.50485295 0.7492006 -0.48471197
-0.4631575 -1.2872816 0.5255307 1.280207 0.5099015 0.9170156 -1.9152793 0.67823267
0.62928206 -0.7492925 0.9760298 -0.50641686 -0.03503671 0.031839818 0.039189775 -1.3351828
-1.7085379 -0.30925572 -0.1605307 -0.26665458 -0.40633193 0.5755361 0.037698213 -0.640477
