SAC_own/sac_2000/critic_1_sac.pth (torch, 296570 bytes, 5 tensors)

fc1.weight f4 [256, 28]
-1.3291023 -0.99062234 0.84349406 -3.4101126 -0.25866497 0.25865644 -0.21525073 0.115296245
0.6895991 -0.014320948 0.42378604 -0.12770198 -0.27532566 -0.44472575 -0.21928543 -0.32647616
-0.04911606 -0.16060041 -0.3606032 -0.04553935 -0.14889877 -0.15167704 -0.7161776 0.27986586
-0.05342783 -0.32929808 -0.4947686 0.38629702 -0.533959 0.5131997 -0.36526278 -1.1631049
0.30194384 0.13633423 0.37188813 0.105612084 -0.1980606 0.10774181 0.011613416 0.28180102
0.17530192 -0.5001995 -0.41186082 -0.43885106 -0.53872246 -0.5936511 -0.3028107 -0.55015045
-0.5611869 -0.4883755 -0.48908755 -0.7455157 0.043250777 0.090137266 -0.106024526 -0.19693604
-1.6515197 -0.9086829 0.73267245 -1.6090738 -0.55286205 0.3940126 -0.2346948 0.3043417
0.36231786 -1.946183 0.24921104 -0.8706524 -0.26949313 0.24352135 -0.4835431 -0.5231878
-0.6656492 -0.6642513 -0.42081746 -0.538931 -0.7309008 -0.36522016 -0.14080657 -0.20081612
-0.34408438 -0.022090854 0.057543576 0.25185463 1.2909018 2.1625495 -1.0268182 -0.43798885
1.078297 -0.13337778 0.828383 0.121425204 -0.06871738 -0.2407823 -0.27588692 -0.075004466
0.011282865 -0.11993394 -0.34453622 -0.39935368 -0.6291535 -0.43487674 -0.42160097 -0.8407779
-0.717365 -0.7129182 -0.31740612 -1.0386089 -0.11189521 -0.2578582 0.17555326 0.00762431
-1.3217481 -1.4280698 1.2986758 1.2016542 -0.14792004 0.047427926 -0.58650905 0.27746814
-1.5881054 -1.2078624 -0.040721897 0.3717749 -0.26436165 0.24010804 -0.17200948 -0.067187846
-0.30542555 -0.17048027 -0.13045259 -0.41987467 -0.27275294 -0.093200766 -0.09552177 0.11975618
-0.3218262 -0.3074038 -0.40984458 0.15588443 -2.0412893 0.7600008 1.9280822 -1.8487375
-0.26715747 0.3113892 -0.16238613 -0.043795384 0.3225883 -0.16867836 0.3347899 -0.082653
0.11134292 0.7074438 -0.34225684 -0.1971941 -0.20409457 -0.23492281 -0.21712464 -0.27492058
-0.34042558 -0.015244991 -0.31723556 0.018247075 -0.2757777 0.19599333 0.4702346 0.6933219
0.41805556 -0.7736106 0.118583925 -3.6543472 0.8342741 -0.8684994 -0.30125624 -1.4326315
0.32230562 0.6794954 0.022338226 1.1109399 0.21903354 -0.07778513 -0.6971409 -0.76608944
-0.6094549 -0.413767 -0.5524354 -0.6689208 -0.60077053 -0.41379365 -0.4356454 -0.2739614
-1.4532802 -0.67916626 -0.65582556 0.6353842 -1.0458258 -4.3928084 1.1030844 0.8877266
-0.2149856 0.76697385 -0.6187638 0.96602714 -0.23803778 0.03504773 1.4316272 1.1964624
0.9108901 0.24229307 0.1405655 0.22107096 0.30662397 0.19033071 -0.030746982 -0.22163126
-0.20106709 -0.32410696 0.33295503 -0.37795112 0.042887725 -1.1319191 -0.739822 0.8037432
-1.6779226 0.1786735 -0.392515 0.22689898 1.0938544 -0.42066306 0.17913967 -0.24545188
-0.14153758 -0.36381716 -0.38962767 -0.9088941 -0.24544846 -0.045246143 -0.10580245 -0.29270682
-0.15240262 -0.3383606 -0.19121256 -0.31942257 -0.39408752 -0.3930353 0.048657265 0.26836246
-0.6970853 -1.1603916 0.04910344 0.28618208 0.6070738 -0.9482366 -1.8994027 -1.4795449
00000000: 0620 aabf 6d99 7dbf 3aef 573f 493f 5ac0
00000010: bc6f 84be 9e6e 843e b06a 5cbe 7020 ec3d
00000020: 9189 303f 69a2 6abc 7cfa d83e 4fc4 02be
00000030: 7cf7 8cbe 18b3 e3be 5c8c 60be e227 a7be
00000040: ec2d 49bd 6f74 24be fca0 b8be 7887 3abd
00000050: eb78 18be 3a51 1bbe 6a57 37bf 944a 8f3e
00000060: 24d7 5abd c299 a8be 4f52 fdbe b9c8 c53e
00000070: 89b1 08bf 0e61 033f b903 bbbe 9fe0 94bf
00000080: 6298 9a3e 339b 0b3e 1f68 be3e 264b d83d
00000090: 66d0 4abe bda7 dc3d 3246 3e3c 3948 903e
000000a0: 5982 333e 130d 00bf 6cdf d2be 16b1 e0be
000000b0: b7e9 09bf 85f9 17bf 010a 9bbe a9d6 0cbf
000000c0: f2a9 0fbf 5b0c fabe af69 fabe 1eda 3ebf
000000d0: ba27 313d e399 b83d 6323 d9bd 9aa9 49be
000000e0: ff64 d3bf 719f 68bf 6c90 3b3f 21f6 cdbf
000000f0: 5e88 0dbf 05bc c93e d553 70be add2 9b3e
00000100: ba81 b93e 861c f9bf 2e31 7f3e 13e3 5ebf
00000110: 01fb 89be a95d 793e f692 f7be a3ef 05bf
00000120: fc67 2abf 600c 2abf 6375 d7be 62f7 09bf
00000130: 511c 3bbf 23fe babe 992f 10be bea2 4dbe
00000140: d42b b0be e1f7 b4bc d0b2 6b3d 17f3 803e
00000150: 453c a53f 3667 0a40 c76e 83bf 1340 e0be
00000160: a305 8a3f 2f94 08be e910 543f c7ad f83d
00000170: b3bb 8cbd a38f 76be 0d41 8dbe f19b 99bd
00000180: c4db 383c ed9f f5bd 0d67 b0be 1678 ccbe
00000190: 3410 21bf 2aa8 debe 15dc d7be 383d 57bf
000001a0: 3ca5 37bf cf81 36bf 0e83 a2be 23f1 84bf
000001b0: 5129 e5bd fd05 84be 3cc4 333e 59d5 f93b
000001c0: 0b2f a9bf feca b6bf 023b a63f cecf 993f
000001d0: 5a78 17be c943 423d 7525 16bf 4e10 8e3e
000001e0: 0a47 cbbf 3c9b 9abf 01cc 26bd 4859 be3e
000001f0: 695a 87be e2de 753e 4123 30be c899 89bd
00000200: bd60 9cbe 6192 2ebe 5d95 05be d0f9 d6be
00000210: 46a6 8bbe 0be0 bebd eba0 c3bd ba42 f53d
00000220: 67c6 a4be 0864 9dbe 26d7 d1be 2ba0 1f3e
00000230: 7ca4 02c0 6a8f 423f 66cb f63f 6ea3 ecbf
00000240: ddc8 88be 686e 9f3e 8d48 26be ca62 33bd
00000250: 4b2a a53e 05ba 2cbe 9569 ab3e fa45 a9bd
00000260: c207 e43d 091b 353f 4a3c afbe 40ed 49be
00000270: 2bfe 50be 9b8f 70be ec55 5ebe 64c2 8cbe
00000280: 434c aebe 20c6 79bc b36c a2be e47a 953c
00000290: bc32 8dbe 7ab2 483e 97c2 f03e 8b7d 313f
000002a0: 610b d63e 580b 46bf 21dc f23d d3e0 69c0
000002b0: fd92 553f fa55 5ebf 423e 9abe 7860 b7bf
000002c0: 3e05 a53e 69f3 2d3f a8fe b63c 4733 8e3f
000002d0: 544a 603e cf4d 9fbd d377 32bf 701e 44bf
000002e0: 3c05 1cbf 45d9 d3be 686c 0dbf 653e 2bbf
000002f0: 19cc 19bf c3dc d3be ea0c dfbe ab44 8cbe
00000300: 1605 babf d7dd 2dbf 2fe4 27bf 8aa8 223f
00000310: 9fdd 85bf e391 8cc0 df31 8d3f 0d42 633f
00000320: 2f25 5cbe 6658 443f 4e67 1ebf 8e4d 773f
00000330: 2dc0 73be 358e 0f3d 8f3f b73f ae25 993f
00000340: 1830 693f ad1b 783e 67f0 0f3e 6d60 623e
00000350: d1fd 9c3e 0ee6 423e 18e1 fbbc 4ef3 62be
00000360: 88e4 4dbe 59f1 a5be 1579 aa3e cf82 c1be
00000370: 0aab 2f3d bae2 90bf f964 3dbf 1dc2 4d3f
00000380: 2bc6 d6bf 30f6 363e baf7 c8be 3558 683e
00000390: 6c03 8c3f 2661 d7be 6470 373e bd57 7bbe
000003a0: 3aef 10be 3e46 babe 477d c7be 49ad 68bf
000003b0: d756 7bbe 0554 39bd f4ae d8bd abdd 95be
000003c0: 6f0f 1cbe 9a3d adbe 3acd 43be 5b8b a3be
000003d0: d7c5 c9be ec3b c9be d74c 473d ce66 893e
000003e0: 2f74 32bf b687 94bf b020 493d 7586 923e
000003f0: 3069 1b3f a2bf 72bf a11f f3bf ba61 bdbf

fc1.bias f4 [256]
0.44348502 -0.18889686 0.029364366 -0.49670026 0.04787206 0.041143548 -0.33143947 -0.38079956
0.40861318 0.20289561 0.12911178 0.14286461 0.34820217 0.51614803 -0.87111944 -0.84761685
0.35876894 -0.16427617 -0.49898297 -0.54079735 -0.9784392 -0.4016349 -0.3198388 0.6867798
-0.5528032 -0.03224851 -0.13719736 -0.59542817 -0.12195786 -0.08684096 -0.45897985 -0.14937419
0.042411886 0.11881748 0.37575477 -0.2766587 0.018592136 0.5863497 0.44174737 -0.123780504
0.014754337 -0.10676175 -0.19242327 0.1517494 -0.5716632 -0.38076127 -0.36273342 0.3965298
-0.42973578 -0.19429962 -0.02727105 -0.20909154 0.5191115 0.32494423 -0.38513827 -0.07915482
-0.33672193 0.16083667 -0.52691245 -0.5489214 0.22836082 -0.1277155 0.29807067 0.38722876
-0.7076728 -0.54947144 -0.24975955 0.5998817 0.49521482 0.64015913 -0.16901328 0.080283366
-0.14165348 0.55375063 -0.07369578 0.4397835 0.70756006 -0.26229456 -0.35245085 0.38440505
-0.39427578 -0.15002385 0.42621148 0.42985138 -0.13821593 0.14827281 -0.4226291 -0.05466369
-0.30890006 -0.36912742 0.045741975 0.07164492 -0.73031414 0.03786881 0.30770144 0.38820025
0.60455644 0.2866227 -0.4247489 -0.4734695 -0.523283 -0.5993014 -0.09873497 -0.018472916
-0.32750013 -0.48243415 -0.25801313 -0.7576139 -0.64315504 -0.15556349 -0.08722666 0.0017751007
-0.35992613 -0.37119848 -0.35710058 -0.44476956 0.29344887 0.6295451 -0.2361144 0.61704797
-0.17663532 0.42430314 -0.187302 0.102983676 -0.29365236 0.16676556 0.12952584 -0.1640837
-0.48573792 -0.48026112 0.71989137 -0.10721011 -0.15122522 0.09426026 -0.19651927 -0.39993736
-0.39392483 -0.0706926 0.12862198 -0.33913925 0.7061278 0.046479113 -0.34280613 -0.26897654
-0.30670226 -0.7577449 0.53080183 -0.36285388 -0.053759098 0.38478497 -0.2451644 -0.011284495
-0.3186644 0.0010330394 -0.36713436 0.5560956 -0.50312245 -0.23417766 -0.16407746 -0.17034425
0.48674443 -0.18610653 -0.5932888 0.48136097 0.022597933 0.7043796 -0.26262137 0.9090147
-0.43615228 -0.47028545 0.94584185 -0.4032729 0.23589543 -0.4239935 -0.6129298 0.3129936
0.48055038 -0.83097744 0.11153845 0.041028082 -0.3684372 0.0154984 0.9149092 -0.45588368
-0.1735003 -0.46809465 0.31996623 -0.202711 -0.20657405 0.17410277 -0.2165427 -0.35457703
0.25054964 0.7672522 -0.44895712 -0.07079602 0.52317166 -0.31493193 0.16986859 0.26633078
-0.5208445 -0.19627094 0.11523436 0.22635175 -0.3786376 0.38161147 -0.07177693 0.7089782
0.122071765 0.3008282 -0.2854923 -0.23616767 0.4659149 -0.21080196 -0.09220017 0.13786934
-0.19128588 0.31485057 -0.180078 -0.36738956 -0.030842407 -0.4021752 -0.56663245 0.049612615
-0.49447924 1.3879185 0.2126231 -0.52454704 -1.0451514 0.28241083 -0.44566092 -0.606303
-0.20171861 0.48387608 0.16943537 -0.67749155 -0.0030763233 -0.04506668 -0.71544284 0.38337123
0.01876449 -0.052148286 -0.15012835 0.24666317 0.39258552 -0.020362778 -0.34614906 -0.16236506
-9.116424e-05 -0.06542269 -0.07287385 -0.40826598 0.027208256 0.46056145 -0.46300644 0.6697157
00000000: 7810 e33e 2e6e 41be 8a8d f03c 7f4f febe
00000010: 7e15 443d 2386 283d 6fb2 a9be 29f8 c2be
00000020: bf35 d13e dec3 4f3e e135 043e 1a4b 123e
00000030: 8e47 b23e 4722 043f af01 5fbf 6bfd 58bf
00000040: 90b0 b73e 0338 28be b27a ffbe b271 0abf
00000050: fe7a 7abf 17a3 cdbe e9c1 a3be cdd0 2f3f
00000060: 8384 0dbf 0317 04bd 777d 0cbe fb6d 18bf
00000070: 0bc5 f9bd acd9 b1bd 68ff eabe 8cf5 18be
00000080: 16b8 2d3d 9456 f33d ee62 c03e 36a6 8dbe
00000090: 894e 983c 041b 163f b62c e23e a280 fdbd
000000a0: 2dbc 713c e8a5 dabd 9b0a 45be 3264 1b3e
000000b0: 8558 12bf 24f3 c2be 32b8 b9be f405 cb3e
000000c0: 5406 dcbe 7bf6 46be 8967 dfbc 181c 56be
000000d0: 7ee4 043f 175f a63e d830 c5be ec1b a2bd
000000e0: d166 acbe 5eb2 243e bce3 06bf 1d86 0cbf
000000f0: 6bd7 693e dac7 02be b89c 983e d942 c63e
00000100: 0b2a 35bf 29aa 0cbf f8c0 7fbe d991 193f
00000110: cc8c fd3e 78e1 233f d111 2dbe 9b6b a43d
00000120: 9c0d 11be 9ac2 0d3f d0ed 96bd 4e2b e13e
00000130: a822 353f 794b 86be 7074 b4be bdd0 c43e
00000140: 84de c9be da9f 19be 6438 da3e 7b15 dc3e
00000150: 7a88 0dbe d4d4 173e d762 d8be 09e7 5fbd
00000160: 2628 9ebe 45fe bcbe f05b 3b3d 92ba 923d
00000170: def5 3abf 531c 1b3d 0b8b 9d3e 2fc2 c63e
00000180: 36c4 1a3f 36c0 923e b078 d9be 986a f2be
00000190: e0f5 05bf d16b 19bf 8f35 cabd 8354 97bc
000001a0: 19ae a7be 9c01 f7be 4c1a 84be fcf2 41bf
000001b0: cfa5 24bf 094c 1fbe e4a3 b2bd 7faa e83a
000001c0: 3d48 b8be ba0d bebe e3d5 b6be d6b8 e3be
000001d0: ee3e 963e de29 213f f9c7 71be dbf6 1d3f
000001e0: e4df 34be 433e d93e 18cc 3fbe 1be9 d23d
000001f0: 9a59 96be 97c4 2a3e 6ca2 043e 8f05 28be
00000200: a4b2 f8be c9e4 f5be cd4a 383f f990 dbbd
00000210: c9da 1abe 860b c13d 593c 49be 97c4 ccbe
00000220: 84b0 c9be 48c7 90bd 7bb5 033e a9a3 adbe
00000230: cbc4 343f e260 3e3d 4984 afbe 4bb7 89be
00000240: 1408 9dbe 92fb 41bf a1e2 073f fcc7 b9be
00000250: 8032 5cbd 8902 c53e 600c 7bbe 9ae2 38bc
00000260: fb27 a3be 0d67 873a 09f9 bbbe 485c 0e3f
00000270: a2cc 00bf 45cc 6fbe ec03 28be b96e 2ebe
00000280: 9136 f93e b692 3ebe c6e1 17bf f274 f63e
00000290: 4d1f b93c 3952 343f 4f76 86be 30b5 683f
000002a0: 5a4f dfbe 41c9 f0be b122 723f c979 cebe
000002b0: 928e 713e ad15 d9be f8e8 1cbf b240 a03e
000002c0: b30a f63e f0ba 54bf 456e e43d 100d 283d
000002d0: cda3 bcbe 00ed 7d3c 7d37 6a3f 9669 e9be
000002e0: 10aa 31be 1aaa efbe 9dd2 a33e 7993 4fbe
000002f0: 2688 53be ff47 323e 5fbd 5dbe 1f8b b5be
00000300: 0b48 803e a46a 443f b5dd e5be 81fd 90bd
00000310: 94ee 053f c23e a1be 08f2 2d3e 825c 883e
00000320: 1156 05bf 40fb 48be feff eb3d c1c8 673e
00000330: cadc c1be 9462 c33e c8ff 92bd 987f 353f
00000340: c300 fa3d 2706 9a3e 0c2c 92be f0d5 71be
00000350: 668c ee3e 78dc 57be 71d3 bcbd 9f2d 0d3e
00000360: 72e0 43be 1834 a13e 5e66 38be 7c1a bcbe
00000370: 37a9 fcbc e8e9 cdbe d30e 11bf 9936 4b3d
00000380: 622c fdbe 50a7 b13f dfb9 593e b748 06bf
00000390: 85c7 85bf 2798 903e ab2d e4be ac36 1bbf
000003a0: 538f 4ebe 9bbe f73e 7780 2d3e 1670 2dbf
000003b0: 249c 49bb d797 38bd 4327 37bf 3c49 c43e
000003c0: fdb7 993c 7199 55bd 3fbb 19be 4595 7c3e
000003d0: f800 c93e d7cf a6bc 733a b1be 0743 26be
000003e0: 6e2f bfb8 55fc 85bd e33e 95bd 3d08 d1be
000003f0: d9e3 de3c b6ce eb3e 2e0f edbe 7d72 2b3f

fc2.weight f4 [256, 256]
-0.68492323 0.81475806 -0.4502457 0.95224005 -0.6750124 -4.233604 2.320839 -0.22277045
0.41940132 -7.1937747 0.45115927 -1.4721677 0.33893445 -0.25053856 1.6181612 0.13266176
-2.1840534 1.796608 -0.45653212 -4.8594346 -0.04739685 0.44584236 -1.6345935 0.5255894
-1.232142 -4.943304 -2.778765 0.28836837 1.991417 -0.35648474 0.7739832 -0.11144068
2.0706697 1.5587918 -1.9969386 0.35488525 3.4321675 -0.07551675 -2.3714433 -7.6571493
-2.9609518 0.7404645 -3.8531754 0.6992535 -0.7139115 0.75071776 -0.86776567 0.82090366
-0.3543047 -4.838617 -0.41017577 0.022728618 -1.2317864 -1.9866503 -1.0602431 1.6418296
-0.48848805 -4.4815555 0.80554193 0.09713096 -1.4683201 2.0401857 -3.0886765 0.95911777
0.4956323 1.194093 1.1118145 -3.0762253 -1.1690661 0.86286736 -3.3393612 0.41788006
-3.8154857 0.1689487 0.17925847 -0.77687234 1.588289 -0.1445829 -3.475253 -0.14837018
-0.2601029 -7.388496 0.13488297 0.120202474 0.70243007 -0.11035235 0.2362359 -0.8006056
1.7303216 0.8334492 0.35955864 -1.370618 0.7893342 -6.414314 -1.478287 1.5424224
0.56821823 0.2974483 0.6496608 -5.9733777 1.1336403 -4.1093216 -4.376586 -1.8028398
-1.0259104 -6.1387987 -1.0833912 -3.0083168 -0.7602561 1.112959 1.11906 -2.3515627
1.3338194 -6.056467 0.5452097 -6.429643 -2.5064344 0.24188942 -3.3745465 0.21099043
-1.4757614 -0.2522767 -1.1750027 -5.4450517 3.0343993 -1.1295637 -1.8245995 0.13966328
-3.721183 0.035228662 -0.01968392 0.8491366 1.4361094 0.47476944 -6.0946326 0.6551489
-5.5096817 -3.0401015 0.15884021 0.79078317 0.2581859 -3.0784864 -5.1581626 -2.6184232
-1.4507254 -1.7614498 0.51275676 -4.4533763 -4.6284213 0.5718911 -1.0196601 -4.683905
-1.4613328 0.65074176 -3.549989 1.523379 -1.1304724 2.8864143 -1.6197561 0.8778879
0.885013 1.8461949 0.8119615 0.09194383 -3.6580942 1.2441552 -0.94505924 0.086220585
-5.321348 0.70998895 -0.024291448 0.672625 2.1002407 0.88229793 -0.7681772 -1.0265174
1.155311 -0.9600419 -2.8358152 -0.37215164 -0.66572165 2.3938239 -0.07101938 1.3015112
0.88333327 -2.4111497 0.62297523 -3.8110983 0.40270668 0.19565313 0.68484885 1.4828206
-3.0558574 -0.64599526 -0.30805546 2.8022861 -0.031549357 0.17376485 -3.3745956 -0.7635006
-1.3025674 -0.14564489 0.15085705 -1.1349953 -2.0425076 -0.4122559 1.0480589 1.0350215
1.4671874 -1.0632665 -6.3114676 0.07962837 -0.34642842 1.363202 -1.2482677 0.17674452
0.40880495 1.0830497 0.7609438 -0.97414356 0.36994523 0.1603532 -3.4140508 -2.2895474
0.024912855 -2.0023775 0.12620452 -5.44305 0.9678948 0.52658373 -3.6802454 1.097966
-5.1518474 -0.94572455 0.7327774 -0.21269059 -0.91068864 -2.7837996 -3.517468 0.7034448
0.2331135 -0.48955283 -0.31098062 -0.48696476 1.7505585 0.45713523 -1.8407558 0.17128778
-7.2212367 -1.7134225 -5.818368 -0.6142688 -5.086988 -0.40784886 -1.5894724 -2.3821807
00000000: 2157 2fbf fc93 503f 9b86 e6be 01c6 733f
00000010: 9dcd 2cbf af79 87c0 a088 1440 f01d 64be
00000020: c5bb d63e 6733 e6c0 59fe e63e fe6f bcbf
00000030: d188 ad3e 9746 80be e81f cf3f 7cd8 073e
00000040: 88c7 0bc0 40f7 e53f 94be e9be 7d80 9bc0
00000050: 3323 42bd 7345 e43e 5c3a d1bf 078d 063f
00000060: d4b6 9dbf 8c2f 9ec0 49d7 31c0 05a5 933e
00000070: c1e6 fe3f 2b85 b6be c323 463f 033b e4bd
00000080: da85 0440 7d86 c73f af9b ffbf 85b3 b53e
00000090: a2a8 5b40 87a8 9abd bac5 17c0 5e07 f5c0
000000a0: 3c80 3dc0 158f 3d3f 6d9a 76c0 4702 333f
000000b0: e7c2 36bf 0a2f 403f e425 5ebf be26 523f
000000c0: 6d67 b5be f3d5 9ac0 8f02 d2be 5e31 ba3c
000000d0: 2dab 9dbf 8f4a febf 0cb6 87bf 7927 d23f
000000e0: 1b1b fabe e768 8fc0 ff37 4e3f 99ec c63d
000000f0: eaf1 bbbf 6792 0240 e0ac 45c0 be88 753f
00000100: 84c3 fd3e 0ad8 983f f04f 8e3f e0e0 44c0
00000110: f5a3 95bf e0e4 5c3f 18b8 55c0 60f4 d53e
00000120: eb30 74c0 e300 2d3e 888f 373e 1be1 46bf
00000130: 0e4d cb3f 8a0d 14be 8c6a 5ec0 5aee 17be
00000140: 352c 85be 8f6e ecc0 c31e 0a3e b72c f63d
00000150: 75d2 333f 6a00 e2bd d3e7 713e 7df4 4cbf
00000160: 2e7b dd3f ed5c 553f 1218 b83e 6970 afbf
00000170: ce11 4a3f 0f42 cdc0 8238 bdbf 196e c53f
00000180: c076 113f 254b 983e 2c50 263f e925 bfc0
00000190: 201b 913f 907f 83c0 fe0c 8cc0 74c3 e6bf
000001a0: 0851 83bf 0a71 c4c0 90ac 8abf 4388 40c0
000001b0: 25a0 42bf 7175 8e3f 5c3d 8f3f 0180 16c0
000001c0: 98ba aa3f 94ce c1c0 dd92 0b3f a3bf cdc0
000001d0: 6c69 20c0 dcb1 773e 92f8 57c0 e00d 583e
000001e0: c0e5 bcbf 692a 81be 7d66 96bf dd3d aec0
000001f0: 9933 4240 8b95 90bf 7a8c e9bf e403 0f3e
00000200: dd27 6ec0 ee4b 103d 2c40 a1bc 0461 593f
00000210: 6fd2 b73f fb14 f33e 3b07 c3c0 d7b7 273f
00000220: 504f b0c0 0691 42c0 02a7 223e c470 4a3f
00000230: f130 843e ec05 45c0 ab0f a5c0 3f94 27c0
00000240: 5fb1 b9bf 3077 e1bf 0744 033f 0f82 8ec0
00000250: 071c 94c0 7567 123f 3984 82bf 8de2 95c0
00000260: f40c bbbf 0397 263f 0533 63c0 15fe c23f
00000270: 52b3 90bf 03bb 3840 2b54 cfbf 43bd 603f
00000280: 3690 623f 1d50 ec3f b5dc 4f3f 0c4d bc3d
00000290: 371e 6ac0 7a40 9f3f 67ef 71bf 6b94 b03d
000002a0: 7c48 aac0 d6c1 353f dcfe c6bc 2731 2c3f
000002b0: 586a 0640 47de 613f 43a7 44bf ec64 83bf
000002c0: 3be1 933f 4ec5 75bf ff7d 35c0 a98a bebe
000002d0: bc6c 2abf 6934 1940 9c72 91bd eb97 a63f
000002e0: 2122 623f 4750 1ac0 4e7b 1f3f 09e9 73c0
000002f0: 922f ce3e 4b59 483e 4152 2f3f 11cd bd3f
00000300: 2b93 43c0 f25f 25bf 72b9 9dbe a858 3340
00000310: e639 01bd 6aef 313e 60f9 57c0 c674 43bf
00000320: 87ba a6bf ef23 15be 457a 1a3e 8747 91bf
00000330: 72b8 02c0 3513 d3be cb26 863f 967b 843f
00000340: cccc bb3f 1e19 88bf 8bf7 c9c0 3314 a33d
00000350: 115f b1be 677d ae3f 3cc7 9fbf 84fc 343e
00000360: e24e d13e 5fa1 8a3f 36cd 423f 7961 79bf
00000370: 7669 bd3e a133 243e cf7f 5ac0 f287 12c0
00000380: 0b16 cc3c f426 00c0 c23b 013e 772d aec0
00000390: f4c7 773f 31ce 063f 2489 6bc0 268a 8c3f
000003a0: efdb a4c0 011b 72bf 4d97 3b3f 90cb 59be
000003b0: e422 69bf c629 32c0 321e 61c0 f514 343f
000003c0: 4eb5 6e3e aba6 fabe da38 9fbe 7253 f9be
000003d0: 4d12 e03f a10d ea3e e39d ebbf 1066 2f3e
000003e0: 5f14 e7c0 6e51 dbbf 1230 bac0 b840 1dbf
000003f0: 9bc8 a2c0 91d1 d0be d573 cbbf a675 18c0

fc2.bias f4 [256]
-0.5682747 0.74988157 -0.05788101 0.7107016 -0.053961445 1.018183 -0.4062949 0.89686346
1.0307084 1.0651368 -0.5302551 0.8267702 0.8998418 0.073043 0.33051455 -0.9400487
-0.005160152 -0.82826793 0.92194456 -0.73366064 0.81098 -0.7835963 0.9481956 -0.76796275
-0.5627152 -0.012721803 -0.76249313 -0.6373247 0.07090706 0.9227532 -0.004118348 -0.42391196
0.9195654 -0.76808023 -0.7960701 -0.4968894 0.84237343 -0.6478624 -0.8704683 0.9031102
-0.0038751333 -0.02518035 -0.0004605729 0.94015723 -0.050412837 -0.67007446 -0.5697391 -0.7299374
0.9667576 -0.5196434 0.9689276 0.9394148 -0.021145402 0.8760458 -0.042541638 -0.4028772
0.8799017 -0.05755329 0.9586864 0.9547276 1.0557119 0.99257946 -0.27666596 -0.89914656
-0.7870321 1.0017294 0.89514166 0.1665437 0.93571234 -0.00982638 -0.026865989 0.95574933
0.88997674 0.9685354 -0.08065274 0.9132544 -0.06295654 0.0027741145 -0.50304127 1.0231698
-0.4098584 0.50166917 0.9447196 -0.8485415 -0.7982205 -0.50648 0.94753253 1.0146682
0.9147283 -0.73347646 0.90829 -0.6592779 -0.6005196 -0.21571481 -0.053185616 0.9392702
-0.30902016 -0.7043759 0.95518863 0.952415 -0.027152993 -0.75421786 -0.5503035 -0.07779964
-0.3542509 1.0130336 -0.03969211 -0.6758755 -0.6274223 0.971746 0.21782291 1.0308022
-0.22599752 0.99398017 -0.04081726 -0.025479013 0.8952006 1.0258906 -0.7127003 -0.076836005
0.040137224 0.9512888 0.9153186 0.9306419 0.906253 0.9080161 0.061523948 0.97146845
0.83537674 -0.60324955 -0.04339815 -0.06304616 -0.588218 0.9128739 0.97958654 -1.0470972
-0.051794183 0.85614115 0.034449574 -0.70659566 -0.74763936 1.037064 -0.49059474 -0.6792814
0.9899728 -0.060481004 0.9603122 -1.0050114 -0.41041884 -0.44414586 1.0281425 0.11445311
0.9741192 0.02655263 -0.78895897 -0.5102228 -0.46472463 -0.7884443 -0.4291733 -0.27267528
-0.67773974 -0.51606685 1.0292007 0.93520856 -0.4655181 1.0519015 -0.7083448 0.9280971
-0.6082826 0.9447587 0.02684544 -0.59435993 0.9489326 1.002562 -0.044931136 -0.7757387
-0.008383556 -0.6224104 0.9871237 -0.77551126 0.92588127 0.029275255 -0.32187048 -0.06297202
0.97637725 0.9579222 -0.052788418 -0.0325912 0.8851812 0.90142375 -0.3343662 0.7757924
-0.6189159 0.9727929 -0.41209432 1.1679839 -0.7940668 0.64074516 0.032605074 -0.032827355
-0.61139774 0.5490843 1.0050286 -0.49212065 0.8501133 -0.040924717 0.91092163 0.9637832
0.9914891 0.9606576 0.98107415 0.14110385 -0.19673143 -0.5823562 0.86733204 -0.024908975
0.8737699 -0.5955701 -0.4239767 -0.16516498 -0.2951022 0.90313125 -0.48699957 -0.78750145
0.89103955 -0.79146934 0.7854086 -0.4154935 0.5188567 0.033162374 1.1365875 0.96421355
-0.56561035 -0.009550221 -0.8877702 0.7226574 -0.30624056 -0.0566308 0.95096976 -0.3639626
-0.00845884 -0.2567792 0.9201869 -1.089897 0.13039035 -0.002465935 -0.7901462 -0.27467895
0.6896568 0.10564705 -0.829724 -0.070929386 -0.40301707 0.5391322 -0.45513073 0.89558303
00000000: 737a 11bf 3df8 3f3f a314 6dbd 8af0 353f
00000010: ad06 5dbd d253 823f e305 d0be d898 653f
00000020: 41ee 833f 6756 883f ccbe 07bf 36a7 533f
00000030: 085c 663f 9297 953d 3439 a93e 08a7 70bf
00000040: 7e16 a9bb 5e09 54bf 8f04 6c3f 2fd1 3bbf
00000050: 639c 4f3f c499 48bf f2bc 723f 3599 44bf
00000060: 1a0e 10bf 1c6f 50bc c032 43bf b627 23bf
00000070: b837 913d 8e39 6c3f 35f3 86bb fd0a d9be
00000080: a368 6b3f e8a0 44bf 40cb 4bbf 4a68 febe
00000090: c9a5 573f 4fda 25bf 03d7 5ebf 3b32 673f
000000a0: f3f5 7dbb 0547 cebc 0c79 f1b9 25ae 703f
000000b0: b17d 4ebd 008a 2bbf 6cda 11bf 2ddd 3abf
000000c0: 6d7d 773f 5a07 05bf a40b 783f 7d7d 703f
000000d0: 1f39 adbc 8a44 603f 2440 2ebd ec45 cebe
000000e0: 3d41 613f 00bd 6bbd 796c 753f 0769 743f
000000f0: 9121 873f b019 7e3f 29a7 8dbe 782e 66bf
00000100: f07a 49bf ab38 803f 0128 653f 6f8a 2a3e
00000110: d88a 6f3f d3fe 20bc 1016 dcbc fdab 743f
00000120: 84d5 633f f0f1 773f 442d a5bd 0acb 693f
00000130: 5cef 80bd ebcd 353b 50c7 00bf 3af7 823f
00000140: f6d8 d1be 646d 003f 25d9 713f 043a 59bf
00000150: 2e58 4cbf aca8 01bf 7e91 723f a6e0 813f
00000160: a22b 6a3f 1dc5 3bbf b285 683f 70c6 28bf
00000170: a7bb 19bf 58e4 5cbe 29d9 59bd 0374 703f
00000180: e437 9ebe fb51 34bf 3e87 743f 78d1 733f
00000190: f46f debc 6c14 41bf b1e0 0cbf 6b55 9fbd
000001a0: 6060 b5be 16ab 813f 3294 22bd 2d06 2dbf
000001b0: bf9e 20bf 59c4 783f f80c 5f3e 54f1 833f
000001c0: e56b 67be 7c75 7e3f 0030 27bd 5db9 d0bc
000001d0: de2b 653f 6250 833f 8773 36bf 325c 9dbd
000001e0: ee66 243d aa87 733f 5252 6a3f 8c3e 6e3f
000001f0: 3200 683f be73 683f 8900 7c3d 28b2 783f
00000200: 40db 553f 906e 1abf 42c2 31bd 581e 81bd
00000210: 7495 16bf 1bb2 693f 2fc6 7a3f 4807 86bf
00000220: 2326 54bd 112c 5b3f ff1a 0d3d 74e3 34bf
00000230: 4b65 3fbf 83be 843f 3c2f fbbe 63e5 2dbf
00000240: db6e 7d3f eeba 77bd 05d7 753f 37a4 80bf
00000250: 6b22 d2be 1667 e3be 2c9a 833f 6466 ea3d
00000260: e05f 793f e784 d93c 37f9 49bf f69d 02bf
00000270: 63f0 edbe 7cd7 49bf 9abc dbbe 189c 8bbe
00000280: 5a80 2dbf f51c 04bf d9bc 833f d469 6f3f
00000290: 6358 eebe b5a4 863f 1656 35bf c697 6d3f
000002a0: 69b8 1bbf b5db 713f f8ea db3c f927 18bf
000002b0: 3fed 723f f453 803f b609 38bd d096 46bf
000002c0: 2f5b 09bc 4a56 1fbf 24b4 7c3f e887 46bf
000002d0: 8e06 6d3f a9d2 ef3c 35cc a4be 79f7 80bd
000002e0: dcf3 793f 643a 753f ab38 58bd 5a7e 05bd
000002f0: 3c9b 623f b5c3 663f 0c32 abbe 559a 463f
00000300: 4671 1ebf f508 793f 07fe d2be 7f80 953f
00000310: f647 4bbf e007 243f e68c 053d fa75 06bd
00000320: 9084 1cbf ca90 0c3f c7a4 803f 3df7 fbbe
00000330: 06a1 593f ada0 27bd 2932 693f 7fba 763f
00000340: 3bd2 7d3f a8ed 753f ad27 7b3f 877d 103e
00000350: f773 49be 4c15 15bf 7909 5e3f e80d ccbc
00000360: 62af 5f3f 4877 18bf 7913 d9be 0221 29be
00000370: a317 97be 9c33 673f 0258 f9be b299 49bf
00000380: 2b1b 643f bc9d 4abf 8a10 493f 90bb d4be
00000390: cbd3 043f 45d5 073d b37b 913f b3d6 763f
000003a0: d7cb 10bf 8878 1cbc e844 63bf 1300 393f
000003b0: 90cb 9cbe b3f5 67bd c172 733f 4e59 babe
000003c0: f296 0abc 9078 83be 5e91 6b3f bf81 8bbf
000003d0: 0c85 053e 869b 21bb 0547 4abf b8a2 8cbe
000003e0: 598d 303f 7b5d d83d cb68 54bf 6d43 91bd
000003f0: 4158 cebe 9104 0a3f e506 e9be ee44 653f

q.weight f4 [1, 256]
-9.231299 0.02304183 -0.0226007 -0.4700388 -0.008504531 0.6341258 -0.35005692 0.38623416
0.8028637 0.85263014 -0.5393389 0.42718357 0.40384495 0.3858459 -6.057299 1.0945944
0.015998814 -0.014974301 0.57809806 -0.25322154 0.041775137 -0.071470596 0.478038 -0.028383076
-0.5268098 0.019765671 -0.4962813 -0.30868244 3.095811 0.46606508 0.031819053 -0.21096334
0.37212113 -0.001307416 -0.0648164 -6.9838567 0.065735385 -0.512984 0.369249 0.3349367
-0.005807155 -0.020409828 -0.03517063 0.24614173 -0.03406572 -0.29854026 0.2649018 -0.07698906
0.6075321 -1.4868395 0.4958459 0.59175223 -0.0015806821 0.30941108 -0.03889176 0.66233414
0.25517634 -0.021873083 0.20715445 0.38331437 0.42668426 0.749083 -4.6209245 1.4808668
-0.023789331 0.5534172 0.5004811 0.37283036 0.34103096 0.0050960192 -0.009652244 0.5929738
0.4156413 0.48900068 0.017628655 0.6149275 0.013692268 0.0023260126 -0.19407044 0.7120325
-0.27892733 0.30729154 0.38915026 -0.40784964 -0.100073755 2.6294177 0.52698493 0.65439945
0.65067786 -0.07632434 0.49169087 -0.08990376 -0.71948904 0.6454788 0.0028503942 0.6235174
0.2518582 -0.080990784 0.55824745 0.38837355 0.0025659208 -0.20263867 0.57391787 -0.012081779
-7.3940077 0.72325504 -0.0011385975 -0.24780731 -2.3135679 0.648595 -7.8561473 0.34325176
-7.118068 0.56944054 -4.5361605 0.031614233 0.57296795 0.35691234 -0.055328198 0.70276475
0.021629194 0.57939184 0.43641624 0.655547 0.53321683 0.58124834 0.36899284 0.59970504
0.23794897 -0.49810836 0.007618334 -0.00755574 -1.961924 0.6316613 0.57773083 2.9952803
-0.014423702 0.4326738 0.03493919 -0.044584837 0.4065604 0.8465646 -0.75712025 -0.4436656
0.5691374 -0.017736327 0.59305197 0.48541898 -0.408294 -0.30048332 0.6149983 0.53790826
0.4753141 0.035375778 0.32261828 -4.302784 -0.6587402 0.9915033 -0.38288593 -0.42841426
0.48681012 -2.8334184 0.70720214 0.43475333 -0.35793737 0.40607443 1.417415 0.18765824
-0.501972 0.66555494 -0.6354356 -0.27208027 0.41242707 0.5334842 -0.013352421 -0.2231425
0.007925712 -5.4351997 0.6612022 -0.7872342 0.5137088 0.0058636046 -5.8827677 -0.03144697
0.50741315 0.3693957 -0.005431419 -0.011072103 0.18086678 0.47831252 -4.905733 0.22147343
-0.0069490485 0.467116 -4.5146093 1.0127976 -0.056497455 0.476154 0.005804291 0.5285804
-0.34677956 -5.0758276 0.32207394 -5.430366 0.19068748 -0.050921865 0.50453794 0.62813115
0.29630518 0.5680404 0.6573695 -12.942199 -6.261469 -0.9080465 0.45017198 -0.027022026
0.43546265 -7.3385572 -0.43657798 -12.103479 -0.3966148 0.49753433 -0.8921974 -0.10820859
0.35717162 -0.20710519 0.15744834 -0.64608043 -4.2798777 0.01372098 1.0158448 0.3838387
-11.545723 0.0013902164 1.1692153 0.51660436 -7.2218723 -0.045924976 0.34149337 -0.40916526
-0.010563263 -0.37945136 0.45553294 3.0428977 0.8871109 -0.0037247133 -0.10172956 -6.7982283
0.37092134 0.59487635 -1.7275666 0.038518097 -2.9145432 -5.9519444 -0.33185306 0.2555417
00000000: 67b3 13c1 38c2 bc3c 1a25 b9bc eda8 f0be
00000010: 9756 0bbc 1256 223f a93a b3be 7cc0 c53e
00000020: 7a88 4d3f f845 5a3f 1d12 0abf ceb7 da3e
00000030: c4c4 ce3e 988d c53e 65d5 c1c0 ab1b 8c3f
00000040: f20f 833c c556 75bc 3cfe 133f 41a6 81be
00000050: 681c 2b3d 2d5f 92bd 66c1 f43e a083 e8bc
00000060: 02dd 06bf 9eeb a13c 9518 febe a00b 9ebe
00000070: c421 4640 15a0 ee3e b254 023d c606 58be
00000080: a986 be3e 9a5d abba 76be 84bd c17b dfc0
00000090: 46a0 863d eb52 03bf 340e bd3e d37c ab3e
000000a0: f249 bebb 8332 a7bc 140f 10bd 940c 7c3e
000000b0: 7f88 0bbd 45da 98be 35a1 873e 71ac 9dbd
000000c0: 3987 1b3f c250 bebf 84df fd3e 137d 173f
000000d0: e42e cfba 216b 9e3e f74c 1fbd bb8e 293f
000000e0: 79a6 823e 2e2f b3bc 4c20 543e c841 c43e
000000f0: 5c76 da3e e7c3 3f3f 9dde 93c0 0b8d bd3f
00000100: d8e1 c2bc c0ac 0d3f 881f 003f 9fe3 be3e
00000110: 9c9b ae3e 82fc a63b 7224 1ebc 22cd 173f
00000120: f0ce d43e 4c5e fa3e f869 903c e36b 1d3f
00000130: 8955 603c 0470 183b 67ba 46be c347 363f
00000140: 90cf 8ebe 5155 9d3e b43e c73e abd1 d0be
00000150: 78f3 ccbd 6148 2840 7ce8 063f b986 273f
00000160: d392 263f f04f 9cbd e8be fb3e 761f b8bd
00000170: 6f30 38bf 193e 253f aecd 3a3b d69e 1f3f
00000180: 8ff3 803e 7fde a5bd 4ee9 0e3f e6d8 c63e
00000190: 0229 283b 8380 4fbe 48ec 123f a7f2 45bc
000001a0: b69b ecc0 3e27 393f fe3c 95ba 33c1 7dbe
000001b0: 7f11 14c0 520a 263f 8f65 fbc0 b2be af3e
000001c0: 37c7 e3c0 dbc6 113f 3a28 91c0 ed7d 013d
000001d0: 07ae 123f 37bd b63e d29f 62bd 64e8 333f
000001e0: b52f b13c 0653 143f f371 df3e eed1 273f
000001f0: e680 083f b1cc 143f a1ec bc3e 4586 193f
00000200: e5a8 733e 0f08 ffbe 38a3 f93b 2496 f7bb
00000210: 5320 fbbf 8eb4 213f 2be6 133f acb2 3f40
00000220: 6451 6cbc 6c87 dd3e 651c 0f3d 979e 36bd
00000230: af28 d03e 75b8 583f a2d2 41bf 2328 e3be
00000240: fdb2 113f c64b 91bc 41d2 173f d688 f83e
00000250: e90b d1be f3d8 99be 8770 1d3f 5bb4 093f
00000260: 5f5c f33e 31e6 103d 392e a53e 68b0 89c0
00000270: 33a3 28bf 29d3 7d3f a009 c4be 1d59 dbbe
00000280: 2d3f f93e ba56 35c0 330b 353f fd97 de3e
00000290: 9143 b7be fde8 cf3e db6d b53f 7b29 403e
000002a0: 3d81 00bf cf61 2a3f e8ab 22bf 1b4e 8bbe
000002b0: a429 d33e 6c92 083f 1dc4 5abc 787f 64be
000002c0: d8da 013c 28ed adc0 8c44 293f 2e88 49bf
000002d0: 6b82 033f 7b23 c03b a23f bcc0 8ace 00bd
000002e0: d4e5 013f 6f21 bd3e 0bfa b1bb c467 35bc
000002f0: 2435 393e 61e5 f43e c4fb 9cc0 eec9 623e
00000300: d8b4 e3bb d429 ef3e ae77 90c0 5aa3 813f
00000310: e069 67bd 75ca f33e ec31 be3b 0c51 073f
00000320: 178d b1be 2e6d a2c0 e0e6 a43e 8fc5 adc0
00000330: 9443 433e 7293 50bd 6629 013f 34cd 203f
00000340: 50b5 973e 186b 113f 5e49 283f 3f13 4fc1
00000350: f45d c8c0 bc75 68bf f17c e63e 4c5d ddbc
00000360: f6f4 de3e 76d5 eac0 2687 dfbe daa7 41c1
00000370: 1811 cbbe d2bc fe3e 0c67 64bf 779c ddbd
00000380: 33df b63e 6213 54be 233a 213e 8765 25bf
00000390: c2f4 88c0 f6cd 603c 3407 823f 8286 c43e
000003a0: 48bb 38c1 ec37 b63a d9a8 953f 2f40 043f
000003b0: 9419 e7c0 d41b 3cbd 38d8 ae3e 1c7e d1be
000003c0: 8911 2dbc 7347 c2be 9d3b e93e d6be 4240
000003d0: b319 633f 521a 74bb 9657 d0bd 168b d9c0
000003e0: 67e9 bd3e d149 183f e720 ddbf 27c5 1d3d
000003f0: e087 3ac0 5476 bec0 a5e8 a9be 5dd6 823e
