SAC_own/sac_2000/value_sac.pth (torch, 292444 bytes, 5 tensors)

fc1.weight f4 [256, 24]
0	0xbe06c9b6	-0.13162884
1	0xbfb7a1d0	-1.4346256
2	0xbe7e78be	-0.24850747
3	0x3f983a3e	1.1892774
4	0xbe3af4b1	-0.18257405
5	0x3d3869db	0.045022827
6	0x3e47e46c	0.1952073
7	0xbe1624a2	-0.14662412
8	0xbc9b8b3e	-0.018987294
9	0xbd206c50	-0.039165795
10	0x3c833392	0.016015802
11	0x3e943a0b	0.28950533
12	0xbda17217	-0.07883089
13	0xbeb3c4be	-0.3511104
14	0xbf144802	-0.57922375
15	0xbe947237	-0.2899339
16	0xbe4ce61d	-0.20009656
17	0xbe673f88	-0.22582829
18	0xbe833ae3	-0.25630865
19	0xbe014209	-0.12622847
20	0xbca8be88	-0.020598665
21	0xbe9eea7a	-0.31038266
22	0xbda3ce9a	-0.079983905
23	0x3e220250	0.15821195
24	0xbef3bf04	-0.4760667
25	0xbd758369	-0.059939776
26	0x3d857c74	0.06517878
27	0xc036baf6	-2.8551612
28	0xbfb7c6a5	-1.4357497
29	0xbe171d84	-0.14757353
30	0xbf3b3995	-0.7313474
31	0x3e03560a	0.1282579
32	0x3f21459f	0.6299686
33	0x3db4bf8f	0.088255994
34	0x3c7ec567	0.015549994
35	0x3f2f65b4	0.6851456
36	0x3ecbd14b	0.39808115
37	0x3ee533fb	0.4476622
38	0x3de2e2c1	0.11078406
39	0x3d325f4d	0.043547917
40	0xbdef3100	-0.11679268
41	0xbe3ae03c	-0.18249601
42	0xbc57f4a4	-0.013180885
43	0xbd9340d6	-0.07190101
44	0xbded2dc3	-0.11580994
45	0xbcb5e6ce	-0.022204783
46	0xbd9ecfe4	-0.07754496
47	0xbf202b3b	-0.62565964
48	0xbba5c20b	-0.005058532
49	0x3ed8ec4d	0.42367783
50	0xbdd159d9	-0.10222215
51	0xbe3f84f1	-0.18703057
52	0xbc90433e	-0.017610189
53	0x3d82a375	0.06378833
54	0x3e3b6234	0.1829918
55	0xbd0c31e5	-0.03422727
56	0xbeb87c2c	-0.36032236
57	0x3dd1ef23	0.1025069
58	0xbd438a37	-0.047739234
59	0xbe38ae54	-0.18035251
60	0x3dafd8f6	0.08586304
61	0x3e325088	0.17413533
62	0xbec7953b	-0.3898104
63	0xbf0841e7	-0.5322556
64	0xbeac08ff	-0.33600613
65	0xbf1dc2f0	-0.61625576
66	0xbf132a35	-0.5748628
67	0xbed50f32	-0.41613156
68	0xbec50b6e	-0.38485283
69	0xbf2537cd	-0.6453827
70	0xbdf9af66	-0.12191658
71	0xbd4ecf15	-0.050490458
72	0x3e21c19b	0.15796511
73	0x3fd8b8f7	1.6931447
74	0x3eba9248	0.3643973
75	0x3f5ca963	0.86195964
76	0xbe18f12d	-0.14935751
77	0x3ddde40c	0.10834512
78	0xbd1a3015	-0.03764351
79	0xbdc4d0ca	-0.09610136
80	0xc02ca3c2	-2.697495
81	0x3e8ad311	0.27114156
82	0xbcc02846	-0.023456704
83	0x3c8e8418	0.017396972
84	0x3c9566b0	0.018237442
85	0x3c31c76b	0.010850768
86	0xbebf0f7f	-0.3731651
87	0xbdc4fa13	-0.0961801
88	0xbeb02b37	-0.3440797
89	0xbe5b2ff1	-0.21405007
90	0xbe51330c	-0.20429629
91	0x3e4740de	0.19458339
92	0x3d420d79	0.04737613
93	0x3e3ec57a	0.18630019
94	0xbc32cfb2	-0.010913776
95	0x3f9dce00	1.2328491
96	0x3f2f03ae	0.6836499
97	0x3ecf5c70	0.40500212
98	0xc03e3e10	-2.972538
99	0xbf54f58e	-0.83187187
100	0x3ecad593	0.3961607
101	0x3db5fae0	0.08885741
102	0xbd85ec5a	-0.06539221
103	0xbe40f16b	-0.18842094
104	0xbf58195a	-0.84413683
105	0x3d3c5936	0.045983516
106	0xbe26680e	-0.16250631
107	0x3f69dfcc	0.9135711
108	0xbd998fc4	-0.07498124
109	0xbed6efdb	-0.4197987
110	0xbf4f0a52	-0.8087512
111	0xbf3caa3f	-0.73697275
112	0xbf242dc7	-0.6413235
113	0xbf458dc0	-0.7716942
114	0xbf17dddc	-0.59322906
115	0xbf0d9034	-0.5529816
116	0xbf30ee16	-0.6911329
117	0xbf3ace6e	-0.72971237
118	0xbe875cf9	-0.2643812
119	0xbea94807	-0.33062765
120	0x40103760	2.2533798
121	0x3fece49a	1.8507264
122	0xbf80d524	-1.0065045
123	0x3e993bae	0.29928344
124	0x3eaa32aa	0.3324178
125	0x3dcc2663	0.09968259
126	0xbd84a116	-0.06476037
127	0xbd602d2e	-0.054730587
128	0x3e60b3cd	0.21943589
129	0x3fa0f9e5	1.2576262
130	0xbce503af	-0.027955858
131	0x3f1a3613	0.6023876
132	0xbe323c63	-0.17405848
133	0xbcbd08cd	-0.023075486
134	0x3de466a5	0.111523904
135	0x3db1b2d6	0.086766884
136	0x3e5ac3db	0.21363775
137	0x3e876e26	0.26451224
138	0x3dadc121	0.08484102
139	0x3ed54ae7	0.41658708
140	0x3e85fdf1	0.26170304
141	0x3e8d6b97	0.27621147
142	0xbe246b0f	-0.16056465
143	0x3d57f3ae	0.052722625
144	0xbe000ea7	-0.1250559
145	0xc0a02a45	-5.00516
146	0xbf115d7c	-0.5678327
147	0xc01dd3c2	-2.4660497
148	0xbe6a6e82	-0.22893718
149	0xbd90c8d6	-0.070695564
150	0xbc26d462	-0.010182472
151	0xbc7a0ecd	-0.015262318
152	0x3cbb4b52	0.022863064
153	0x3f5cc1a0	0.8623295
154	0xbf11f25d	-0.5701044
155	0x3e4a4912	0.19754437
156	0xbdef9db3	-0.117000006
157	0x3e81b846	0.25335902
158	0xbf668799	-0.90050656
159	0xbf7051bb	-0.9387471
160	0xbf1b4cf1	-0.6066428
161	0xbf05d630	-0.5227995
162	0xbef5d603	-0.4801484
163	0xbe79fa18	-0.2441181
164	0xbe3110af	-0.1729152
165	0x3e093b63	0.1340156
166	0xbea05069	-0.31311348
167	0x3ed2adc1	0.4114819
168	0xc023af3f	-2.5575712
169	0xc0ad2caf	-5.4117045
170	0x3fc15564	1.5104184
171	0x3fad2f97	1.3530148
172	0xbd9ada19	-0.0756113
173	0xbe352b23	-0.17692237
174	0x3e8d1391	0.2755399
175	0xbe8a0456	-0.26956433
176	0x3e07f03e	0.13275239
177	0xbe04bd58	-0.12962854
178	0xbe26e2fd	-0.16297527
179	0x3e60472c	0.2190215
180	0xbdfcbb0d	-0.123403646
181	0xbdd03a5e	-0.10167383
182	0xbe003988	-0.12521946
183	0xbdcba642	-0.099438205
184	0xbe26532a	-0.16242662
185	0xbda3ec0b	-0.08004006
186	0xbebc6547	-0.36796018
187	0xbd7e8a93	-0.062143873
188	0xbe3ea91f	-0.18619202
189	0xbd8bbc65	-0.06823043
190	0xbe8db43c	-0.2767657
191	0xbe9038f2	-0.28168446
192	0xbf146291	-0.579629
193	0xc018c417	-2.3869684
194	0xbea16100	-0.31519318
195	0xbec60723	-0.3867732
196	0xbf7ffd98	-0.9999633
197	0x3eceb780	0.40374374
198	0xbcb456da	-0.02201407
199	0xbed1f8f2	-0.41010243
200	0xbf61b14c	-0.8816116
201	0xbe9a1161	-0.30091384
202	0x3f169079	0.588142
203	0x3ebea85d	0.37237826
204	0x3f02b245	0.5105327
205	0xbf6802bf	-0.9062919
206	0xbe37d55f	-0.17952488
207	0xbe8eceb0	-0.27892065
208	0x3c6d4508	0.01448179
209	0xbc360a7d	-0.011110899
210	0xbe87d918	-0.26532817
211	0xbdaa88f3	-0.08326902
212	0x3d8a3447	0.06748252
213	0x3d5d2fb5	0.054000575
214	0x3d875c5e	0.066094145
215	0xbd9706e1	-0.07374359
216	0xbdeba0d3	-0.11505284
217	0xbfb765d7	-1.4327954
218	0xbf947942	-1.1599505
219	0x3e33917b	0.17535965
220	0x3f93fc20	1.1561317
221	0x3de2af3e	0.11068581
222	0x3e83cb60	0.257411
223	0xbf069c2f	-0.5258207
224	0x3e94b83c	0.2904681
225	0x3e8ebc9e	0.27878278
226	0xbe9b16b7	-0.30290768
227	0xbe310960	-0.17288733
228	0xbd8765d7	-0.06611221
229	0xbf7778a1	-0.9666844
230	0xbecf2026	-0.40454215
231	0xbedd47eb	-0.43218932
232	0xbe5b4f11	-0.2141688
233	0xbed708ff	-0.4199905
234	0xbe39054f	-0.18068431
235	0xbed0c7d7	-0.40777466
236	0xbeba68f7	-0.36408207
237	0xbe0908ef	-0.13382314
238	0xbce919dd	-0.028454715
239	0xbc136699	-0.008996629
240	0xbf1dcb65	-0.6163848
241	0xc086b5ee	-4.209708
242	0x3dc58424	0.096443444
243	0xbfa95203	-1.3228153
244	0xbb43ffc4	-0.0029907087
245	0x3d62fea7	0.055418637
246	0xbf4b3429	-0.79376465
247	0x3e61dea3	0.22057585
248	0xbe9263a2	-0.2859164
249	0xbf44ca4e	-0.7687119
250	0xbe2fd0dd	-0.17169519
251	0xbede6a44	-0.4344045
252	0xbed5de73	-0.41771278
253	0xbe4ef7ad	-0.20211668
254	0xbf20b830	-0.6278105
255	0xbf0c6e03	-0.54855365

fc1.bias f4 [256]
0	0x3e1d55bd	0.15364738
1	0xbef12fd3	-0.471068
2	0x3e83c0ea	0.2573312
3	0x3f6bd43d	0.92120725
4	0xbe915832	-0.283876
5	0xbe4d41f1	-0.20044686
6	0x3edeacb8	0.4349115
7	0xbee52a4b	-0.4475883
8	0xbec423e1	-0.38308623
9	0x3e59b315	0.2125972
10	0x3ce62eb3	0.02809844
11	0xbc1e6ad5	-0.009669025
12	0xbae95c7f	-0.0017804055
13	0xbe4e2034	-0.20129472
14	0xbe54f3f1	-0.20796181
15	0xbe99ad23	-0.30014905
16	0xbe8688bd	-0.26276198
17	0xbf0f7419	-0.56036526
18	0xbdac1697	-0.08402746
19	0xbdd89dd2	-0.10576977
20	0xbf0155c0	-0.5052147
21	0xbd66b04e	-0.05632048
22	0xbe43a63e	-0.19106385
23	0xbef0cdf7	-0.4703214
24	0x3cf2608b	0.02958705
25	0xbdc1e812	-0.09468092
26	0xbe0cc925	-0.13748606
27	0x3f1ebaca	0.6200377
28	0x3f407147	0.7517285
29	0x3e35e6d7	0.1776384
30	0xbf132b2e	-0.5748776
31	0xbdb47918	-0.08812159
32	0x3d014b37	0.03156587
33	0xbecc310a	-0.39881164
34	0xbf088888	-0.5333333
35	0x3f127dc4	0.57223153
36	0x3f6a107d	0.9143141
37	0xbf23f1f2	-0.64041054
38	0x3ed97366	0.42470855
39	0x3d5fc56e	0.054631643
40	0xbe42d53b	-0.19026653
41	0xbe37f201	-0.17963411
42	0xbf6e6c4a	-0.93133986
43	0xbe8f8149	-0.28028324
44	0xbcadf311	-0.021234067
45	0xbe15477a	-0.14578047
46	0x3e8e92a3	0.2784625
47	0xbeecba3c	-0.46235836
48	0x3d5f1787	0.054465797
49	0xbda465d0	-0.08027232
50	0xbed1b8b3	-0.40961227
51	0xbf7e5b1a	-0.9935776
52	0xbec9d735	-0.39422002
53	0xbed68ffc	-0.41906726
54	0xbe47e846	-0.19522199
55	0xbef80ec2	-0.4844876
56	0xbed79898	-0.42108607
57	0x3e0a0a78	0.13480556
58	0xbecf035d	-0.40432253
59	0x3e92792f	0.2860808
60	0xbefbb58d	-0.4916195
61	0xbe2e76d0	-0.17037511
62	0x3d18a200	0.03726387
63	0x3e99b317	0.30019447
64	0xbb23ccaf	-0.0024993827
65	0xbece4c99	-0.40292814
66	0x3e796d52	0.24358109
67	0xbf4b1212	-0.7932445
68	0xbf366235	-0.712436
69	0xbf00b896	-0.50281656
70	0xbe6dd4d9	-0.23225726
71	0xbe3d616c	-0.18494195
72	0xbd8b9caa	-0.06816991
73	0x3e5bfffc	0.21484369
74	0xbef35624	-0.47526658
75	0xbe4d8f9c	-0.20074314
76	0x3dbf2e50	0.09335005
77	0xbeacbb05	-0.33736435
78	0xbe26ab3c	-0.16276258
79	0xbe32bb64	-0.17454296
80	0xbe4fdce2	-0.20299104
81	0xbececce0	-0.40390682
82	0x3e85ff7d	0.26171485
83	0x3ec1bfdb	0.37841687
84	0xbf11d26e	-0.56961715
85	0x3e112caa	0.14177194
86	0x3f01cd3a	0.50703776
87	0x3f00407a	0.50098383
88	0xbeac2ba2	-0.3362704
89	0xbe15d9aa	-0.14633814
90	0xbf41c73b	-0.75694627
91	0x3f1ec96f	0.62026113
92	0x3e32062e	0.1738517
93	0x3ed59e59	0.41722372
94	0xbf02e84e	-0.5113572
95	0xbe2278e9	-0.15866436
96	0xbf28cb03	-0.6593477
97	0xbf165e59	-0.58737713
98	0xbe9aecff	-0.3025894
99	0xbf1da363	-0.61577433
100	0x3b339963	0.0027404658
101	0xbf36d4e2	-0.71418583
102	0x3de85e1f	0.11346077
103	0xbe821f54	-0.25414526
104	0xbf3470a2	-0.70484364
105	0xbf2340ee	-0.6377095
106	0x3c62edf9	0.013850682
107	0x3f526a7a	0.8219372
108	0x3e5ccffc	0.21563715
109	0xbdb84c2a	-0.08998902
110	0xbec6913d	-0.38782683
111	0xbf204f4f	-0.62621015
112	0x3eb798aa	0.3585866
113	0xbf2ce76c	-0.6754062
114	0xbe4d9bc0	-0.20078945
115	0x3f421eb0	0.75828075
116	0x3ebbeec5	0.36705604
117	0x3f882ae5	1.063809
118	0xbedc27e8	-0.42999196
119	0xbf01c869	-0.50696427
120	0xbf259267	-0.6467652
121	0x3dc75750	0.097334504
122	0x3f06ed4a	0.52705824
123	0x3d12d65e	0.035848968
124	0xbf40303a	-0.7507359
125	0xbe98ef15	-0.29869905
126	0x3e08218c	0.13294047
127	0xbe208fb9	-0.15679826
128	0xbf384f23	-0.71995753
129	0x3f3b81fa	0.73245203
130	0xbeebdca1	-0.46066764
131	0xbf0724b7	-0.527904
132	0xbf187e9b	-0.59568185
133	0x3c65d3bf	0.014027535
134	0xbd8daf1c	-0.06918165
135	0x3ebacc5f	0.36484048
136	0x3d044fe3	0.03230275
137	0x3d66e783	0.05637313
138	0x3df0fb1b	0.117666446
139	0x3eb7d9cf	0.35908362
140	0xbea2e858	-0.3181789
141	0xbea02c8f	-0.31283996
142	0x3df08f5d	0.117460944
143	0xbe7ebce0	-0.24876738
144	0xbe8668cf	-0.26251838
145	0x3d08854e	0.033330254
146	0xbf095be6	-0.5365585
147	0x3f3404e3	0.70319957
148	0x3e71b9c6	0.23606023
149	0xbf5ff103	-0.8747713
150	0xbf753dfd	-0.9579771
151	0xbefbb404	-0.4916078
152	0xbe3a2dc7	-0.18181525
153	0xbe47bf66	-0.19506606
154	0xbeff3f33	-0.49852905
155	0x3be32dc9	0.0069329483
156	0xbe83e37f	-0.25759503
157	0xbf71e84b	-0.94495076
158	0xbe87a46b	-0.26492628
159	0x3f670f4a	0.90257704
160	0xbf214797	-0.6299986
161	0xbdc3aa1c	-0.0955393
162	0xbd23e713	-0.04001529
163	0x3e08cac3	0.13358597
164	0xbf35f637	-0.7107882
165	0xbf013df0	-0.50485134
166	0xbf0d85f6	-0.55282533
167	0xbf15d730	-0.58531475
168	0xbef25bf4	-0.4733578
169	0xbf0fde79	-0.5619884
170	0x3f6d5564	0.9270842
171	0xbf086343	-0.5327646
172	0xbf43c3dc	-0.7647073
173	0xbef3461a	-0.4751442
174	0xbe72a57b	-0.23695938
175	0x3e8af152	0.27137238
176	0x3eb2e970	0.34943724
177	0xbf139baf	-0.5765943
178	0x3f2f2bab	0.6842601
179	0xbf542f3b	-0.8288457
180	0xbf2c3e9d	-0.6728304
181	0x3f2b7761	0.6697903
182	0xbe3c26cd	-0.18374176
183	0xbe037e64	-0.12841183
184	0xbd557f93	-0.052123617
185	0xbf0afd1f	-0.5429248
186	0x3dd71e8c	0.10503873
187	0xbf04b1d4	-0.51833844
188	0xbf44e631	-0.76913744
189	0x3ebcba78	0.36861014
190	0xbe5a866c	-0.2134034
191	0xbd841272	-0.06448831
192	0x3f29c646	0.66318166
193	0x3e08d02a	0.13360658
194	0xbeb14690	-0.34624147
195	0x3e3ea9a2	0.18619397
196	0x3ede0612	0.43364006
197	0xbf14a4ab	-0.58063763
198	0x3c62094a	0.01379616
199	0x3e97ee84	0.2967416
200	0x3e28f3bf	0.16499232
201	0xbf154b1b	-0.58317727
202	0xbef3e023	-0.4763194
203	0xbe90fb17	-0.28316566
204	0x3ea27016	0.3172614
205	0xbedbc466	-0.42923278
206	0x3f4866cb	0.7828185
207	0xbf33a7ab	-0.70177716
208	0xbe621434	-0.2207802
209	0xbf0dac7d	-0.5534132
210	0x3e9f2b6a	0.3108781
211	0x3dee70d1	0.11642612
212	0x3e4098d7	0.18808304
213	0xbe924d45	-0.28574577
214	0xbf13a3d3	-0.5767185
215	0xbe9429a5	-0.28938022
216	0x3f0b79cc	0.5448272
217	0xbd86f998	-0.06590575
218	0x3e2ee23e	0.17078492
219	0x3e9408ba	0.28912908
220	0xbb8f69dd	-0.0043766336
221	0x3e520190	0.20508409
222	0xbf158ba7	-0.5841622
223	0xbec3f800	-0.38275146
224	0xbedbf13f	-0.42957494
225	0xbe1e6e55	-0.15471776
226	0xbd5db4af	-0.05412739
227	0xbe0020d3	-0.12512521
228	0xbf48598f	-0.78261656
229	0xbe0c6577	-0.13710581
230	0x3d54ba74	0.051935628
231	0xbf3a8fe3	-0.72875804
232	0x3f0dd393	0.5540096
233	0x3e8eaf40	0.2786808
234	0xbf2c6e84	-0.67356133
235	0x3f0f5840	0.55994034
236	0xbeafc85c	-0.3433255
237	0xbeecae98	-0.46226954
238	0xbe801340	-0.25014687
239	0x3dc7e3ae	0.09760223
240	0xbc879c73	-0.016554093
241	0xbf1d86cc	-0.6153381
242	0xbedeabf8	-0.43490577
243	0xbe1df098	-0.1542381
244	0xbdd8af24	-0.105802804
245	0x3eb1100f	0.34582564
246	0x3f4a428e	0.79007804
247	0x37c44418	2.339673e-05
248	0xbda0834c	-0.07837543
249	0xbe5f9183	-0.21832852
250	0x3e3a51bb	0.1819524
251	0xbe9e3936	-0.30903023
252	0x3e12a73c	0.14321607
253	0xbe8482de	-0.25881094
254	0xbe5a4808	-0.2131654
255	0x3f113624	0.5672324

fc2.weight f4 [256, 256]
0	0xbde6bc9a	-0.11266442
1	0x3d1a70c6	0.037705205
2	0xbe08f73c	-0.13375562
3	0x3eae8703	0.3408738
4	0x3f8fdc02	1.1239016
5	0x3aec6dee	0.0018038133
6	0xbc1e4660	-0.009660333
7	0xc075e91c	-3.8423529
8	0xbf4c6fd0	-0.7985811
9	0xbd2459d2	-0.04012472
10	0xc0992e9e	-4.7869406
11	0xbe4f3fe8	-0.20239222
12	0x3d5c61c6	0.05380418
13	0xbeee2ba6	-0.46517676
14	0xbedad75f	-0.4274244
15	0xbe904d08	-0.2818377
16	0xbd770a00	-0.06031227
17	0x3de98887	0.11402994
18	0xbde5dc42	-0.112236515
19	0xbeb11109	-0.3458331
20	0xbe81d72b	-0.25359473
21	0x3d9adeb7	0.07562011
22	0xbe185af2	-0.14878443
23	0x3da5c048	0.08093315
24	0xbba7ca59	-0.0051205573
25	0xbf89cd72	-1.0765822
26	0xbf297d86	-0.6620716
27	0xbde15c17	-0.11003893
28	0xbe6c1628	-0.23055327
29	0x3ee1b3ff	0.4408264
30	0xbf0a5316	-0.5403303
31	0xbde6da4a	-0.11272104
32	0x3e9e3f95	0.30907884
33	0xbf12240b	-0.5708625
34	0xbc160eba	-0.0091587845
35	0xbdc45087	-0.09585672
36	0x3e95d0a1	0.29260734
37	0xbea19e49	-0.31566074
38	0xc02c8509	-2.6956198
39	0xbe63e226	-0.22254238
40	0xbda15b6b	-0.07878765
41	0xbdffac83	-0.12484076
42	0xbed20728	-0.41021085
43	0xbf36c3b0	-0.71392345
44	0xbe6892e5	-0.22712286
45	0xbd281b29	-0.041041527
46	0xbf03a5b0	-0.51424694
47	0xc082de74	-4.089655
48	0xbe7d7c4a	-0.24754444
49	0xbff5d989	-1.9207011
50	0x3f6112e5	0.87919456
51	0xbdd40475	-0.103524126
52	0x3ecc902a	0.39953738
53	0xbe0797cf	-0.13241504
54	0xbdbc1a69	-0.09184725
55	0xbfa00a22	-1.2503092
56	0xbc83d06c	-0.016090594
57	0xbcf77205	-0.030205736
58	0xbd13ee43	-0.036115896
59	0xbf1e77e0	-0.61901665
60	0xbd819673	-0.06327524
61	0x3ca6e195	0.020371238
62	0x3c62ea8c	0.013849866
63	0x3e07bdfc	0.13256067
64	0xc0c2184c	-6.065466
65	0xbdd764ac	-0.105172485
66	0x3d50463e	0.05084824
67	0xbecc0157	-0.39844772
68	0x3f1df29c	0.6169832
69	0xbe827b7b	-0.25484833
70	0xbfbe5119	-1.4868499
71	0xbded9301	-0.116003044
72	0xbf2611c5	-0.64870864
73	0xc02d603e	-2.7089992
74	0xbf3014aa	-0.6878153
75	0xbe673862	-0.22580102
76	0xbc99affd	-0.018760676
77	0xbe855dff	-0.26048276
78	0xc060853c	-3.508132
79	0x3d3f5233	0.04670925
80	0xbf9de4ad	-1.2335411
81	0xbea395d8	-0.3195026
82	0xbf0f4826	-0.55969465
83	0xc0681ce8	-3.6267643
84	0xbe450f7e	-0.19244191
85	0xbe57efd3	-0.2108758
86	0x3d1dd559	0.038533542
87	0x3e33154c	0.17488593
88	0xbf0cb9fa	-0.5497128
89	0xbdb12198	-0.086489856
90	0x408b4ab5	4.3528695
91	0xc0d4d853	-6.651407
92	0xbe2cca43	-0.16874032
93	0x3e969d3f	0.29416844
94	0xbe03a407	-0.1285554
95	0x3c77bafa	0.015120262
96	0xbcded4eb	-0.027201137
97	0xbf3d2c48	-0.7389569
98	0x3df8b435	0.12143747
99	0x3cf7f15e	0.03026646
100	0xbef3a9f3	-0.47590598
101	0xbcb06edc	-0.021537237
102	0x3dda3eef	0.10656535
103	0x3e1bcb16	0.1521419
104	0xbd83970c	-0.06425294
105	0x3d6def5d	0.058089603
106	0xbe2a2d5c	-0.16618866
107	0x3d9a7d75	0.0754346
108	0xbd72887e	-0.0592122
109	0xbdb50b1a	-0.08840008
110	0xbd9c37ae	-0.076278076
111	0xbe88d372	-0.2672382
112	0xbe27c42b	-0.16383426
113	0xbef551d9	-0.47914007
114	0x3e39bbf5	0.18138106
115	0x3ebff3bb	0.3749064
116	0xbf8a5138	-1.0806036
117	0x3ea7218c	0.32642782
118	0x3e0983ae	0.13429138
119	0xbe72a20c	-0.23694628
120	0x3dbe71e9	0.092990704
121	0xbdad48fa	-0.08461185
122	0xbecba5c0	-0.39774895
123	0x3dc9a269	0.098454304
124	0xbe3b47de	-0.18289134
125	0xbdd36627	-0.103222184
126	0xc0879ada	-4.237653
127	0x3f350f97	0.70726913
128	0xbf39cdcf	-0.72579664
129	0x3e75a2ae	0.23987839
130	0xbf956f78	-1.1674643
131	0xbde28b12	-0.11061682
132	0x3da88706	0.08228879
133	0xbec05ccb	-0.37570795
134	0xc00430a9	-2.06547
135	0xbec6b2aa	-0.38808185
136	0x3d1755f0	0.03694719
137	0xbea45236	-0.32093972
138	0xbdaff7b9	-0.08592171
139	0xc09b83fd	-4.859862
140	0x3d1b8015	0.037963945
141	0xbf278f10	-0.6545267
142	0x3dabdb5e	0.0839145
143	0xc08674d4	-4.2017612
144	0x3d9a12d2	0.07523121
145	0xbf51e9b5	-0.81997234
146	0x3ee87753	0.45403537
147	0xbf0d09d8	-0.55093145
148	0xbeec8630	-0.46196127
149	0xbd21a511	-0.03946406
150	0xbdccb876	-0.09996121
151	0xbf2e99b0	-0.6820326
152	0x3d1a827f	0.037722107
153	0xbe24beec	-0.16088456
154	0xbf4a136d	-0.7893589
155	0x3a6a07ec	0.0008927572
156	0xbe6c0c35	-0.23051532
157	0xbe9b8935	-0.30378118
158	0xbf0215a7	-0.5081429
159	0x3ebaad67	0.3646042
160	0xbe91b02e	-0.28454727
161	0xbd27ab0d	-0.04093461
162	0xbe855e2f	-0.2604842
163	0xbfa69c42	-1.3016436
164	0x3e06e52a	0.13173357
165	0xc08326fc	-4.098509
166	0x3e8501d5	0.2597796
167	0xbf3d0071	-0.738288
168	0xbfd7528f	-1.682207
169	0xbd1a16d8	-0.03761944
170	0x3eb68cab	0.35654196
171	0xbed764d3	-0.4206911
172	0xbc4e3e2c	-0.012588065
173	0xbe4193e8	-0.18904078
174	0xbc3bc8e5	-0.011461471
175	0xc04f86c3	-3.2426002
176	0xbe3c566c	-0.18392342
177	0xbde71edc	-0.11285183
178	0xbdad0885	-0.084488906
179	0x3f241150	0.64088917
180	0xbe1c9776	-0.15292153
181	0x3e33fe18	0.17577398
182	0xbe9ce726	-0.30645102
183	0xbf5c5808	-0.86071825
184	0x3bf77512	0.0075517977
185	0xbd1f99ce	-0.03896504
186	0xbfa6a4af	-1.3019007
187	0xbe9a5c1d	-0.30148402
188	0xbe52f250	-0.20600247
189	0xbd942d10	-0.072351575
190	0x3e0842e7	0.13306771
191	0xbf357817	-0.7088637
192	0xbc260841	-0.010133804
193	0xc0984483	-4.7583632
194	0x3de0402a	0.10949738
195	0xbeced5b3	-0.40397415
196	0xbd98e9d6	-0.07466476
197	0xbd3fce64	-0.04682769
198	0xbf12692f	-0.5719175
199	0xc0c365d6	-6.106181
200	0xbea8a02c	-0.329347
201	0xbc57db39	-0.013174825
202	0xbde4181b	-0.1113741
203	0x3f2e1565	0.68001395
204	0xc0ae0429	-5.438008
205	0x3e4d30b4	0.2003811
206	0x3e63a3e4	0.22230488
207	0xbe971b5a	-0.29513055
208	0xbe630e82	-0.22173503
209	0xbe989b7c	-0.29806125
210	0xbf7d37fd	-0.98913556
211	0xbe532ff8	-0.20623767
212	0xbef39551	-0.47574857
213	0x3ce6189a	0.028087903
214	0xbc09721b	-0.008389021
215	0xc013c04d	-2.308612
216	0xbebca1ca	-0.36842185
217	0xbe1e57cd	-0.15463181
218	0x3e029c7d	0.12755008
219	0xbf4e9cc3	-0.8070795
220	0xbe1af51b	-0.15132563
221	0xbd9eaf61	-0.077482946
222	0xbdcd52ef	-0.10025584
223	0x3e000129	0.12500443
224	0xbf475dee	-0.778777
225	0x3df772f4	0.120824724
226	0x3e3f50cc	0.18683165
227	0xbf0763bd	-0.52886564
228	0xbe85a478	-0.26102042
229	0xbda9c08f	-0.08288681
230	0xc0a1a849	-5.0517926
231	0xbf07c2d6	-0.5303167
232	0x3d7d1b47	0.06179359
233	0xc0958e3d	-4.673613
234	0xbdb6db79	-0.0892858
235	0x3cd67f3a	0.026183713
236	0xbe64729e	-0.22309348
237	0xbea3e996	-0.3201415
238	0xbdd23f88	-0.10266024
239	0xbeb4e7bc	-0.3533305
240	0x3e07e143	0.13269524
241	0xbe926491	-0.2859235
242	0xbf59a87c	-0.8502271
243	0xbf4a2a6d	-0.78970987
244	0xbd77af7a	-0.060470082
245	0x3ba22c2d	0.004949114
246	0x3e8204ac	0.2539419
247	0xc089ecca	-4.310155
248	0xbdb75a5d	-0.08952782
249	0xbfe69282	-1.8013461
250	0xbcb8abe6	-0.022542905
251	0x3cee735a	0.029107738
252	0xbdd367aa	-0.10322507
253	0xbe8e8afb	-0.2784041
254	0x3f0d4f46	0.55199087
255	0x3e36c663	0.17849116

fc2.bias f4 [256]
0	0x3f891845	1.0710531
1	0xbd8ae025	-0.067810334
2	0xbd940266	-0.0722702
3	0xbed2592b	-0.41083655
4	0xbd9e688b	-0.07734784
5	0xbd13e3af	-0.036105808
6	0x3f210835	0.6290315
7	0x3e05b6f1	0.13058068
8	0xbe73e01e	-0.23815963
9	0x3b846dbe	0.0040414026
10	0xbd597814	-0.05309303
11	0x3f8dd3bf	1.1080245
12	0xbd5fcd3d	-0.05463909
13	0x3c8b83ff	0.017030714
14	0x3f980656	1.1876934
15	0xba978373	-0.0011559561
16	0xbd4dd22e	-0.05024927
17	0x3f90aa95	1.1302058
18	0x3f943232	1.1577818
19	0x3f8af1cd	1.0855042
20	0xbe06365f	-0.13106678
21	0xbda4831e	-0.08032821
22	0xbcfea762	-0.031085674
23	0x3d0f17da	0.034934856
24	0xbc77c61c	-0.015122917
25	0x3fa955be	1.3229291
26	0xbef71f60	-0.48266125
27	0x3e880ed3	0.2657381
28	0x3ebd20c2	0.36939055
29	0xbdbae9c2	-0.09126617
30	0x3f159074	0.5842354
31	0xbdfa5110	-0.12222493
32	0xbd91945e	-0.07108377
33	0x3f574805	0.8409427
34	0x3f7357a3	0.950556
35	0x3f8859e5	1.0652434
36	0xbd9957f1	-0.074874766
37	0x3d479348	0.048724443
38	0xbe9c15ec	-0.30485475
39	0x3f82ac87	1.0208901
40	0xbdc46027	-0.09588652
41	0xbe4d5cb5	-0.20054896
42	0xbdb43265	-0.087986745
43	0x3f34b42c	0.7058742
44	0xbc83a434	-0.01606951
45	0xbefda563	-0.49540243
46	0x3cf59b05	0.029981146
47	0xbed2b117	-0.41150734
48	0x3e260c6c	0.16215676
49	0xbe0a14b1	-0.13484456
50	0x3cb84f2b	0.022498688
51	0xbe4fdaef	-0.2029836
52	0x3f8e5efc	1.1122737
53	0xbeae1109	-0.33997372
54	0x3c04a1e3	0.008095237
55	0x3c55f8db	0.01305982
56	0x3faa892a	1.3323109
57	0xbe153e68	-0.14574587
58	0x3c63f7a2	0.013914021
59	0x3f887767	1.0661439
60	0xbda1c31b	-0.078985415
61	0xbd86e7db	-0.06587192
62	0xbdf1b683	-0.118023895
63	0xbd70818b	-0.05871729
64	0xbc713c61	-0.014723868
65	0x3f954453	1.1661476
66	0x3c7473ca	0.014920184
67	0x3f0f8beb	0.5607287
68	0xbe1f75d9	-0.15572299
69	0xbb726532	-0.0036986587
70	0x3f8179b1	1.0115262
71	0xbdda6d6e	-0.10665403
72	0x3f8ea24d	1.114328
73	0x3f90268e	1.1261766
74	0x3d501b2f	0.050807174
75	0x3df16675	0.1178712
76	0x3e3ca21b	0.18421213
77	0xbee003c7	-0.43752882
78	0xbe88aeaf	-0.26695773
79	0x3f868334	1.050879
80	0x3c6258b2	0.013815092
81	0xbc51c24a	-0.01280267
82	0xbe0509a9	-0.12991966
83	0xbebdda42	-0.3708058
84	0x3d232d73	0.039838266
85	0x3f99f0f6	1.202666
86	0x3f8e80f9	1.1133109
87	0xbe8d0b7c	-0.27547824
88	0xbdf47ff0	-0.11938465
89	0xbdf98237	-0.1218304
90	0xbba76df4	-0.005109543
91	0xbb1470cf	-0.0022650247
92	0x3f623e4f	0.88376325
93	0xbd4e46c5	-0.05036046
94	0xbe1c6bb3	-0.15275459
95	0xbebd75b2	-0.37003857
96	0xbdf30477	-0.11866086
97	0xbe2f3d4a	-0.17113224
98	0xbd4ec1a7	-0.05047765
99	0x3f7ec7a0	0.99523354
100	0x3f441c1a	0.7660538
101	0xbe07b807	-0.13253795
102	0x3f919c7f	1.1375884
103	0x3ed8d193	0.42347392
104	0x3f01195c	0.5042932
105	0xbedb6f0a	-0.42858154
106	0x3f9174ec	1.1363807
107	0x3eb87e96	0.36034077
108	0x3f37c7a1	0.71788985
109	0x3cee07f0	0.02905652
110	0xbef07d94	-0.46970809
111	0x3f1d0f38	0.61351347
112	0x3f8ba1aa	1.0908711
113	0xbda2949d	-0.07938502
114	0x3f8f57a8	1.1198626
115	0x3f7a71f5	0.97830135
116	0x3b651cde	0.0034959833
117	0x3b830ab4	0.0039990786
118	0xbd5e4785	-0.054267425
119	0xbf11ba8d	-0.5692528
120	0x3f1cb2b3	0.61210173
121	0x3f8ab4c2	1.0836413
122	0x3d1697f2	0.036766
123	0x3f90ffcb	1.1328062
124	0x3e992157	0.2990825
125	0x3f88b4df	1.0680197
126	0x3f929cbf	1.1454085
127	0xbcc405e0	-0.023928583
128	0xbe938c67	-0.28818056
129	0x3f806480	1.003067
130	0xbe8ac88a	-0.27106124
131	0xbc16b666	-0.009198761
132	0x3f843966	1.0330017
133	0x3f085911	0.53260905
134	0x3f8e4eed	1.1117836
135	0xbd89fd28	-0.06737739
136	0x3f907f92	1.1288931
137	0xbf6447fc	-0.8917234
138	0xbe2f7c3c	-0.17137235
139	0xbc0f7621	-0.0087561915
140	0x3f8f7861	1.1208612
141	0xbd884c3a	-0.06655164
142	0xbda2a3c1	-0.0794139
143	0x3efd47dd	0.4946889
144	0xbd8d669c	-0.06904337
145	0x3f8b0a5d	1.0862538
146	0x3f8f6c9d	1.1205021
147	0xbdd3ff0d	-0.103513815
148	0xbd17698d	-0.036965895
149	0xbcef1031	-0.029182525
150	0xbdca7432	-0.09885444
151	0x3f7f0298	0.9961333
152	0xbeec4b48	-0.46151185
153	0xbe0ee4f3	-0.13954525
154	0x3f02081b	0.5079362
155	0xbcd2b50f	-0.025721101
156	0x3f6f9de3	0.9360029
157	0xbd685396	-0.05672034
158	0xbd5be3a0	-0.053683877
159	0xbf58b8b3	-0.8465683
160	0xbd4b6b4b	-0.04966287
161	0x3f712a16	0.94204843
162	0x3bf4a9b6	0.00746652
163	0x3dbed0cc	0.093171686
164	0x3f2a23fb	0.6646115
165	0xbe85877b	-0.26079926
166	0x3f61a628	0.8814416
167	0x3cc9301f	0.024559079
168	0xbc045642	-0.008077206
169	0xbd96e003	-0.073669456
170	0x3f89b174	1.0757279
171	0x3e09d9e2	0.13462022
172	0xbce5cb08	-0.028050914
173	0x3e3f00aa	0.18652597
174	0x3f14ee6a	0.5817629
175	0xbc777b13	-0.015105027
176	0xbe45eacc	-0.19327849
177	0x3f87d8a8	1.0612993
178	0xbdaf0552	-0.08545937
179	0x3f7fb4c5	0.9988521
180	0x3db28c72	0.08718194
181	0xbe163006	-0.14666757
182	0x3f8f6bf4	1.120482
183	0xbf2f7687	-0.68540233
184	0xbf413324	-0.7546866
185	0x3f09da4a	0.5384871
186	0x3ec05e44	0.3757192
187	0xbdfe112c	-0.12405619
188	0x3c99b8d8	0.018764898
189	0x3f76ed12	0.9645549
190	0xbca6144a	-0.020273346
191	0x3f83f99b	1.0310549
192	0x3f986d93	1.1908439
193	0x3f971872	1.1804335
194	0xbd72c337	-0.059268203
195	0x3e110851	0.14163329
196	0x3f3eb7a0	0.7449894
197	0x3fa63d51	1.2987462
198	0x3d0a39c5	0.0337465
199	0xbe4e1b61	-0.20127632
200	0x3f6e9fee	0.93212783
201	0x3e898305	0.26857772
202	0x3ef54942	0.47907454
203	0x3f8c7e86	1.0976112
204	0x3f2fc144	0.68654275
205	0xbd45c01b	-0.04827891
206	0x3f8b2be0	1.0872765
207	0x3fa25a76	1.2683856
208	0xbcc03a90	-0.023465425
209	0xbd94ee5f	-0.07272028
210	0xbd9d168e	-0.076703176
211	0x3f8acfc6	1.0844657
212	0xbf199220	-0.59988594
213	0x3f700fa0	0.9377384
214	0xbe302adc	-0.1720385
215	0x3f941fa5	1.1572157
216	0x3c0783de	0.008271186
217	0xbf4031b7	-0.7507586
218	0x3f30705d	0.6892145
219	0x3df254e4	0.11832598
220	0xbe9d64fd	-0.3074111
221	0x3f5c1e83	0.8598406
222	0xbdfc7462	-0.12326886
223	0x3c81c00a	0.015838642
224	0x3f5a7d90	0.85347843
225	0x3f34affd	0.70581037
226	0xbd6092b6	-0.054827414
227	0x3ee55279	0.44789484
228	0xbe23f9a6	-0.16013202
229	0xbdfdbe49	-0.1238981
230	0xbd70bd60	-0.058774352
231	0x3f8a4027	1.0800828
232	0x3e03307a	0.12811461
233	0x3f89ef63	1.077618
234	0x3f891f7b	1.0712732
235	0xbe02f087	-0.12787066
236	0xbecfcb58	-0.40584826
237	0x3f80db04	1.0066838
238	0xbc258f54	-0.010104973
239	0x3f8765bf	1.0577925
240	0x3f37c738	0.7178836
241	0x3ed3cc44	0.4136678
242	0x3f824aa5	1.017903
243	0x3f88fcb2	1.0702116
244	0x3f3a3251	0.72733027
245	0x3f88fe04	1.070252
246	0xbd811bf0	-0.06304157
247	0xbd4b6a81	-0.049662117
248	0x3f80a1f8	1.0049429
249	0x3d1f58db	0.0389031
250	0x3ef519f1	0.47871354
251	0x3f840169	1.031293
252	0xbbe1acff	-0.006887078
253	0xbdb65155	-0.089022316
254	0x39caa497	0.0003865107
255	0xbc3941e4	-0.011307213

v.weight f4 [1, 256]
0	0x3e820e0c	0.25401342
1	0xbb4a9410	-0.0030911006
2	0x3cac67b0	0.021045536
3	0xbfc00c49	-1.5003749
4	0xbcd34a69	-0.025792317
5	0x3d1f8b9f	0.038951512
6	0xbf63962e	-0.8890103
7	0xbfcda250	-1.6065159
8	0xbfebea42	-1.8430865
9	0xc00f6273	-2.2403839
10	0xbf3a741d	-0.72833425
11	0x3e9ce8ce	0.30646366
12	0xbfd96ddf	-1.6986655
13	0xbc44d71d	-0.012014178
14	0x3edeff86	0.43554324
15	0x3d50e8cd	0.051003266
16	0x3c9d0b01	0.019170286
17	0x3e881f4e	0.26586384
18	0x3ea638b4	0.32465136
19	0x3e92ce22	0.28672892
20	0x400aeb77	2.1706216
21	0xbfc51abe	-1.5398786
22	0x3d080f33	0.03321762
23	0xbcac3d6b	-0.02102538
24	0xba98ab18	-0.001164767
25	0x3f087610	0.5330515
26	0xbfda5759	-1.7057906
27	0xc0486eb9	-3.131758
28	0xc0066db3	-2.1004455
29	0x3bbeb62b	0.005820056
30	0xbfba8f6f	-1.4575022
31	0x3a2f6ae9	0.0006691651
32	0xb938a1b6	-0.0001760785
33	0x3d1da9bb	0.038491946
34	0x3e413d6b	0.18871085
35	0x3ea6b705	0.32561508
36	0xc0160e25	-2.3446133
37	0x3d056514	0.0325671
38	0xbfa9f056	-1.327647
39	0x3e6e61d4	0.23279506
40	0xbf38b762	-0.7215482
41	0x3f21a0fd	0.63136274
42	0xb892ff4f	-7.0093774e-05
43	0xbbec310e	-0.007207996
44	0xbd7adecc	-0.061247632
45	0xbf271755	-0.65269977
46	0x3b9d3efb	0.0047987676
47	0xbf0f562f	-0.5599088
48	0xbfb6778d	-1.4255234
49	0xb84b234e	-4.843185e-05
50	0xbc4e97b6	-0.012609413
51	0x3f4191f6	0.75613344
52	0x3e87838c	0.2646755
53	0x3fdd1322	1.7271464
54	0x3b3850d3	0.0028124347
55	0xbf5d50c6	-0.86451375
56	0x3f801de3	1.0009121
57	0xbfbd6b68	-1.4798403
58	0x3d11a069	0.03555337
59	0x3e97279d	0.2952241
60	0xbf597294	-0.8494046
61	0xbf3ce56d	-0.73787576
62	0x3f96f7ce	1.1794374
63	0xbfe695ae	-1.8014429
64	0x3b9bbe87	0.0047529372
65	0x3e9d7607	0.3075411
66	0xbc323f75	-0.010879387
67	0xbf6908fa	-0.9102932
68	0xbef047fc	-0.4692992
69	0x3d333138	0.04374811
70	0x3e219334	0.1577881
71	0xbb7ee676	-0.003889469
72	0x3e8c8fa0	0.27453327
73	0x3edc5ee2	0.4304114
74	0x3cd511b8	0.026009426
75	0xbfa32dd3	-1.274836
76	0xc014542b	-2.3176372
77	0x3fbc8507	1.4728097
78	0x3e525b8b	0.20542733
79	0x3e687eed	0.22704668
80	0xc01ac726	-2.418405
81	0x3bc58884	0.006028237
82	0x39db8780	0.0004187189
83	0x3ed7a230	0.42115927
84	0x3af55704	0.0018717949
85	0x3ee13787	0.43987677
86	0x3ea27241	0.31727794
87	0xbf930c3f	-1.1488112
88	0x3c153dfb	0.009109016
89	0xbfb3a119	-1.4033538
90	0xbccdcdda	-0.025122572
91	0x3c69a3ed	0.014260274
92	0x3db996bc	0.090619534
93	0xc002ea1c	-2.045539
94	0x3ab8c7b2	0.00140976
95	0x3abe4417	0.0014516142
96	0x3c107335	0.00881653
97	0x3f09fbee	0.5390004
98	0xbfda3de0	-1.7050133
99	0x3e7d78ed	0.24753161
100	0xbe911406	-0.2833559
101	0xbe878221	-0.26466468
102	0x3ea1a96e	0.31574577
103	0xbf463685	-0.7742694
104	0x3bd40d90	0.0064713433
105	0x3ea23d24	0.31687272
106	0x3ea6b507	0.32559988
107	0xbf866b89	-1.0501567
108	0xbfac5e50	-1.3466282
109	0xbc7652de	-0.0150344055
110	0x3fd5e9ed	1.6712013
111	0xbc102b5e	-0.008799402
112	0x3e95e807	0.29278585
113	0xbbd0fb40	-0.0063776076
114	0x3eb6d776	0.3571126
115	0x3e7eba4e	0.24875757
116	0x3d2161a4	0.039399758
117	0x3beb2ecf	0.007177211
118	0x3ca55da3	0.020186251
119	0xbe499e39	-0.19689263
120	0xbfaf4a6e	-1.3694589
121	0x3e83bea8	0.25731397
122	0x3d436543	0.047703993
123	0x3e9e74a0	0.30948353
124	0xc033c3d6	-2.8088279
125	0x3e66de4c	0.22545737
126	0x3ea8bb94	0.3295561
127	0xbc7bcfb7	-0.015369347
128	0xbfcc2e66	-1.595166
129	0x3e558cd4	0.20854503
130	0xbf1bc151	-0.6084185
131	0x3d79caff	0.060984608
132	0x3e8e6429	0.2781079
133	0xbf2fad22	-0.68623555
134	0x3ead74e5	0.33878246
135	0xbc4455b2	-0.011983322
136	0x3e883dac	0.26609552
137	0x3ff4a3a4	1.9112439
138	0xbb072b1f	-0.0020625067
139	0x3bf325e1	0.007420287
140	0x3eade5e8	0.33964467
141	0x3bd74e0b	0.0065705827
142	0xbfb430d1	-1.4077398
143	0xbf1b979c	-0.6077821
144	0x3ce49f98	0.027908131
145	0x3e988016	0.29785222
146	0x3e9a6c93	0.3016096
147	0xbabb07e6	-0.0014269322
148	0xbae0cb23	-0.0017150383
149	0xbd772a6b	-0.060343187
150	0xbf83cdcc	-1.0297179
151	0x3e336bc2	0.17521575
152	0xbefe787e	-0.49701303
153	0xbca25906	-0.01981784
154	0xbf5fb68c	-0.8738792
155	0x3b06420e	0.002048615
156	0x3e41fe95	0.18944772
157	0xbc9abca5	-0.01888878
158	0xbc7d753c	-0.015469845
159	0xbeff8715	-0.49907747
160	0xba240d26	-0.0006258063
161	0x3e4175ce	0.18892595
162	0xbfaef06e	-1.3667123
163	0xbfd887e4	-1.691647
164	0xbf8a4cda	-1.0804703
165	0x3fbed2db	1.4908098
166	0x3de9d470	0.11417472
167	0x3cb97747	0.022639884
168	0x3cf112d8	0.02942793
169	0x3d28dd50	0.041226685
170	0x3e9d474b	0.30718455
171	0xbfe495cc	-1.7858214
172	0xbbf82212	-0.007572421
173	0xbf9f1769	-1.2429019
174	0xbfa8dedc	-1.3193011
175	0xbffeccc1	-1.9906236
176	0x3f8f3f64	1.119122
177	0x3e892b5a	0.26790887
178	0xba771f54	-0.00094269705
179	0x3e8834b2	0.26602703
180	0xbf329076	-0.6975168
181	0xbb044fe4	-0.002018922
182	0x3eaf04c4	0.34183323
183	0xbf88ea08	-1.0696421
184	0xbeedc225	-0.46437183
185	0xbf7192f8	-0.9436488
186	0xc07eced8	-3.9813747
187	0xbfb0dfea	-1.3818333
188	0x3cf0456e	0.029329982
189	0x3e623cda	0.22093526
190	0x39fa72a1	0.0004776912
191	0x3e77894b	0.24173467
192	0x3ebfc8c2	0.37457854
193	0x3eb30490	0.34964418
194	0x3cadc1a3	0.021210497
195	0xc03573c1	-2.83519
196	0x3f1d7407	0.6150517
197	0x3f8bce44	1.0922322
198	0xbd627560	-0.05528772
199	0xbf321bb9	-0.6957355
200	0x3e30f9b1	0.1728275
201	0xbf63a587	-0.8892445
202	0xbf8062ab	-1.0030111
203	0x3ea32270	0.3186221
204	0xbfacc2d6	-1.3496959
205	0x3ced87b2	0.028995369
206	0x3eac54c5	0.33658424
207	0x3efea3d8	0.49734378
208	0xbf4b3851	-0.79382807
209	0x3bdb0095	0.006683419
210	0xbfa4f59c	-1.2887454
211	0x3e812d0c	0.2522968
212	0xbeca60b4	-0.39526904
213	0x3e1738cc	0.1476776
214	0xbaca4686	-0.0015432395
215	0x3ec43f4a	0.38329536
216	0x3d3f3d67	0.046689417
217	0xbe2ab7e8	-0.16671717
218	0xbf7a0e12	-0.9767772
219	0xc0357ad5	-2.835622
220	0xbfbfaa36	-1.4973819
221	0x386a011f	5.579099e-05
222	0xbb703959	-0.0036655276
223	0xbfa74437	-1.3067693
224	0x3f114162	0.5674039
225	0xbb94701f	-0.0045299674
226	0x3b5d24fe	0.0033743973
227	0xbeb68af7	-0.35652897
228	0x38d13f2d	9.977664e-05
229	0xbbfb92e8	-0.0076774247
230	0x3cf2dceb	0.029646358
231	0x3e8e8dc1	0.27842525
232	0xbfd30d97	-1.6488522
233	0x3e8c5794	0.27410567
234	0x3e69e68e	0.22841856
235	0xbbb38f5d	-0.0054797367
236	0xbf36cd5d	-0.7140711
237	0x3e803f7a	0.2504843
238	0x3c3344f9	0.010941737
239	0x3ea61856	0.32440442
240	0x3f3557d8	0.70837164
241	0xbf8458cf	-1.0339602
242	0x3e162124	0.1466108
243	0x3e91499c	0.28376472
244	0xbfda1f49	-1.7040797
245	0x3e85facd	0.26167908
246	0xbbaa42ba	-0.0051959427
247	0xbfb233df	-1.392208
248	0x3e82b2e2	0.25527102
249	0x3c5ca933	0.013468075
250	0xbf433757	-0.76256317
251	0x3e60045f	0.21876667
252	0x3cbe68da	0.023243356
253	0x3cf9d20a	0.030495662
254	0xb97d3b82	-0.00024150129
255	0x3cd64b71	0.02615902
