SAC_own/sac_1000/actor_sac.pth (torch, 300184 bytes, 8 tensors)

fc1.weight f4 [256, 24]
0	0xbfec9b37	-1.8484868
1	0xc038dba6	-2.8884063
2	0x3f90dbd7	1.131709
3	0xbf41afac	-0.7565868
4	0xbe89db4a	-0.26925117
5	0xbe0b8c64	-0.13627774
6	0x3ceef5f9	0.029170023
7	0x3c1e63c5	0.009667342
8	0xbee3cc66	-0.4449188
9	0xbf86a750	-1.051981
10	0x3d9878c8	0.07444912
11	0xbf1f53b8	-0.6223712
12	0x3dc61e01	0.096736915
13	0xbd21f9fb	-0.03954504
14	0xbdea5649	-0.11442239
15	0xbe87085b	-0.26373562
16	0xbd226d25	-0.03965487
17	0xbe9515a0	-0.2911806
18	0xbde879dd	-0.113513686
19	0xbdad8711	-0.084730275
20	0xbdf2af0e	-0.11849795
21	0xbe833e46	-0.25633448
22	0xbe0d658c	-0.13808268
23	0x3ea973a7	0.33096048
24	0x3dd98571	0.10621155
25	0x3f98dbe8	1.194211
26	0xbfad1a33	-1.352362
27	0x3ece6d84	0.4031793
28	0x3e616718	0.22011983
29	0x3e8a40be	0.2700252
30	0xbe592a11	-0.21207453
31	0xbf112eb3	-0.5671188
32	0x3ec76b27	0.38948938
33	0xbeae83d5	-0.34084955
34	0x3e1c2811	0.15249659
35	0x3f594816	0.8487562
36	0x3ba3255c	0.004978819
37	0x3da1932d	0.078894
38	0xbe140b85	-0.1445752
39	0xbea1e3ea	-0.31619197
40	0xbebab0a0	-0.3646288
41	0xbd802ef5	-0.06258956
42	0xbe68b293	-0.2272437
43	0xbe84d720	-0.25945377
44	0xbebcfc90	-0.3691144
45	0xbdaf874d	-0.085707285
46	0xbe7c6404	-0.24647528
47	0xbe19244d	-0.14955254
48	0xbd86d6da	-0.065839484
49	0x3f73c9ab	0.95229596
50	0xbfd87e45	-1.6913534
51	0xbcd322f7	-0.025773508
52	0xbf6c8c75	-0.9240182
53	0xbe94a909	-0.29035214
54	0x3e4b3a21	0.19846393
55	0xbe86f7a1	-0.263608
56	0x3ea4d63e	0.32194704
57	0x3f08acb0	0.533885
58	0x3cccff6a	0.025024135
59	0xbe909baa	-0.28243762
60	0x3c1db061	0.009624572
61	0x3d1fee1d	0.039045442
62	0x3dbe2627	0.09284621
63	0xbbf77d3b	-0.0075527704
64	0x3df13a62	0.11778714
65	0x3d78ff7b	0.06079052
66	0xbe0ed4f8	-0.13948429
67	0xbe793cda	-0.2433962
68	0xbe49b441	-0.19697668
69	0xbe5d93ea	-0.21638456
70	0x3d8cefcb	0.068816744
71	0x3e312cf6	0.17302307
72	0xbf70778d	-0.9393242
73	0x3d8af196	0.0678436
74	0xbf4f8737	-0.81065696
75	0xbe49de7d	-0.19713779
76	0xbefd0d96	-0.49424428
77	0x3e0538e8	0.1300999
78	0xbe90369c	-0.28166664
79	0x3f05f98e	0.52333915
80	0xbe830f71	-0.25597718
81	0xbeaec17e	-0.34131998
82	0x3e41bbe9	0.18919338
83	0xbe877eaa	-0.26463825
84	0x3df0586d	0.11735616
85	0xbe21daa3	-0.1580606
86	0xbc6a55d7	-0.014302692
87	0xbd904623	-0.070446275
88	0x3da5c312	0.08093847
89	0x3d615a5c	0.055017814
90	0xbdc7498c	-0.09730825
91	0x3d688985	0.056771774
92	0x3d8802a8	0.06641132
93	0xbd03e146	-0.03219726
94	0x3d7ef18c	0.062242076
95	0xbe328fa7	-0.17437612
96	0x3ea2601b	0.31713948
97	0x3f2cbb25	0.6747306
98	0x3f53fb7f	0.8280563
99	0xc00346e3	-2.0512016
100	0x3cf094ba	0.029367793
101	0x3cce8c7f	0.025213478
102	0x3e362d4a	0.17790714
103	0xbb49797d	-0.0030742579
104	0x3d650b1e	0.055918805
105	0xbf3088af	-0.6895856
106	0xbe35cbd9	-0.17753543
107	0xbf0a5f2f	-0.5405149
108	0x3c89ba9a	0.016812611
109	0xbdcd618d	-0.10028372
110	0x3eac2a6d	0.33626118
111	0x3b4897d3	0.0030608072
112	0x3e963a7a	0.2934149
113	0xbdf0691e	-0.117387995
114	0xbe6f2385	-0.23353393
115	0xbe2f96f9	-0.17147435
116	0xbe17757e	-0.14790913
117	0xbda74a76	-0.08168499
118	0x3e15c9f8	0.14627826
119	0x3e5c383e	0.2150583
120	0x3e9600af	0.29297397
121	0x40838e99	4.111157
122	0x3f14e5f7	0.581634
123	0x4015bcf2	2.3396573
124	0x3f48bf76	0.78417146
125	0xbda7fcd3	-0.08202519
126	0x3e2a0ce7	0.16606484
127	0x3db2890b	0.08717545
128	0x3e199a79	0.15000333
129	0xbf50d23d	-0.815708
130	0x3e5a178d	0.21298046
131	0xbd869388	-0.06571108
132	0xbe53ffae	-0.20703003
133	0x3db34ef9	0.08755297
134	0x3ec1cff2	0.37853962
135	0x3e64f0ab	0.22357433
136	0x3eba0124	0.36328995
137	0x3e670698	0.22561109
138	0x3dac6bfe	0.084190354
139	0x3e870648	0.2637198
140	0x3dcacc84	0.099022895
141	0x3d955de7	0.07293301
142	0xbd645f25	-0.0557548
143	0xbeb43b16	-0.3520133
144	0xbec137a7	-0.37737772
145	0xbe0feddf	-0.14055584
146	0xbe8729a3	-0.26398954
147	0x3f44f1f3	0.76931685
148	0xbf59398b	-0.8485343
149	0xbe9bac37	-0.30404827
150	0xbe47914b	-0.19489019
151	0xbeabf9bb	-0.33588967
152	0xbf849f41	-1.03611
153	0xbf5a93c6	-0.85381734
154	0x3e7f846b	0.24952857
155	0x3e3a455b	0.1819052
156	0x3e91a482	0.28445822
157	0x3e22ddc4	0.1590491
158	0x3b42c55c	0.0029719686
159	0xbc8bda29	-0.0170718
160	0x3e4743bb	0.19459431
161	0x3e2ff0b7	0.17181669
162	0xbe5ca4c0	-0.21547222
163	0xbdd11383	-0.102088
164	0x3ce9b864	0.028530307
165	0xbe64374b	-0.22286718
166	0x3e05a44f	0.1305096
167	0xbe75141e	-0.23933455
168	0xbfa209b7	-1.2659215
169	0xbd99de9c	-0.075131625
170	0xbdc45ae9	-0.09587652
171	0xbf40d017	-0.7531752
172	0xbe194389	-0.14967169
173	0x3e3da954	0.18521625
174	0xbf60e643	-0.8785135
175	0x3e209269	0.15680851
176	0xbecbd80e	-0.39813274
177	0xbe9059cd	-0.28193513
178	0xbd655b65	-0.055995364
179	0x3e013891	0.12619235
180	0xbd50d879	-0.050987694
181	0xbe8c1645	-0.2736074
182	0x3e5d0fba	0.2158803
183	0x3e299976	0.16562447
184	0x3cf080b4	0.029358245
185	0x3d6486b0	0.05579251
186	0xbd17de9d	-0.037077535
187	0xbd636e83	-0.055525314
188	0xbe03913c	-0.12848371
189	0x3e19115d	0.1494803
190	0xbdad2e61	-0.08456112
191	0xbc6d757d	-0.014493343
192	0x3eea7294	0.4579054
193	0x401e4058	2.4726772
194	0x3e9ee8c9	0.31036976
195	0xc0507b30	-3.2575188
196	0x3e49652a	0.19667497
197	0x3db7e6cd	0.08979569
198	0xbe185c78	-0.14879024
199	0x3c5c1a26	0.013433969
200	0x3b93ad12	0.0045067156
201	0x3e8a4d7a	0.27012235
202	0x3ddf8325	0.10913686
203	0xbc30e12e	-0.0107958745
204	0x3ddf8036	0.10913126
205	0x3d33a22a	0.043855824
206	0xbe8045d9	-0.2505329
207	0xbe411727	-0.18856488
208	0xbed48c57	-0.4151332
209	0xbe54f147	-0.20795165
210	0xbec2e9ae	-0.38068908
211	0xbde5f2e5	-0.11227969
212	0xbdbbb589	-0.091654845
213	0x3e2b4c10	0.16728234
214	0x3e45b27d	0.19306369
215	0xbe2750b2	-0.16339377
216	0x3f599b52	0.85002625
217	0x3eeda063	0.46411428
218	0xc0109d6d	-2.2596085
219	0x3f916478	1.1358786
220	0x3f2201f4	0.6328423
221	0x3e486a44	0.19571787
222	0x3f4f39db	0.80947655
223	0x3e156eb6	0.14593014
224	0xbc807d67	-0.015684796
225	0xbe48564c	-0.1956417
226	0xbe404438	-0.18776023
227	0xbf2d2865	-0.6763976
228	0x3e31f76a	0.17379537
229	0xb9a5fae3	-0.00031658178
230	0xbd9ad73e	-0.075605854
231	0xbe7335b0	-0.23750949
232	0xbe23b0de	-0.15985438
233	0xbee499fb	-0.44648728
234	0xbefbb78a	-0.49163467
235	0xbe8abb7e	-0.2709617
236	0xbec9bc75	-0.39401594
237	0xbf1d29a3	-0.6139166
238	0xbf01b38f	-0.5066461
239	0xbcd8bab0	-0.026456207
240	0xbd992d4b	-0.07479342
241	0x3f81194b	1.0085844
242	0x3dc42ecb	0.095792376
243	0xbf1dda56	-0.6166128
244	0x3dbf8683	0.09351828
245	0xbc5e9ac5	-0.013586705
246	0x3de9a8f1	0.11409176
247	0xbe050593	-0.12990408
248	0xbf9b7b07	-1.214692
249	0xbeacfe27	-0.33787653
250	0xbe486aa0	-0.19571924
251	0xbf3a8a59	-0.7286735
252	0x3cfa43dd	0.030549938
253	0xbe7bdf1d	-0.2459683
254	0x3d8d749b	0.06907006
255	0x3e9ada8e	0.3024487

fc1.bias f4 [256]
0	0x3d86ca67	0.06581574
1	0xbee42c0c	-0.44564855
2	0xbd8ec143	-0.069704555
3	0x3ddcd18e	0.10782157
4	0xbe0be40d	-0.13661213
5	0xbf0447dd	-0.51672155
6	0x3c098977	0.008394591
7	0xbe2d2419	-0.16908301
8	0xbc54be70	-0.012984857
9	0xbdda8e89	-0.10671718
10	0xbe80021d	-0.25001612
11	0xbe150afc	-0.14554971
12	0xbdd04274	-0.10168925
13	0x3ed4578a	0.41473037
14	0xbec266d9	-0.37969092
15	0xbea963d0	-0.33083963
16	0xbecc186b	-0.3986238
17	0xbef95607	-0.48698446
18	0x3da13b5b	0.07872649
19	0x3e85cb01	0.26131442
20	0x39c00a6b	0.00036628856
21	0xbe301405	-0.17195137
22	0xbd0abbea	-0.033870615
23	0xbe5de48c	-0.21669215
24	0xbf0472b9	-0.5173755
25	0x3e05f580	0.13081932
26	0xbe9b3326	-0.3031246
27	0x3e65efd8	0.22454774
28	0xbe838dc8	-0.25694108
29	0xbeeb0f52	-0.45910126
30	0x3e72a385	0.2369519
31	0xbe2545b6	-0.16139874
32	0xbe8900b4	-0.2675835
33	0xbe8b4090	-0.27197695
34	0xbe3c0eb6	-0.18364987
35	0x3ea15583	0.31510553
36	0xbc32b3ff	-0.010907172
37	0xbc30f596	-0.01080074
38	0x3de365d7	0.11103409
39	0xbedf43cb	-0.4360641
40	0x3d059f48	0.032622606
41	0xbdb6dd08	-0.08928877
42	0xbda77101	-0.08175851
43	0x3db88983	0.09010603
44	0xbe818416	-0.25296086
45	0xbefa3352	-0.4886728
46	0xbdbfe7f3	-0.09370413
47	0xbe5979ba	-0.21237841
48	0xbe1d64d8	-0.153705
49	0xbdccfe61	-0.100094564
50	0xbec298c0	-0.38007164
51	0xbe377f2d	-0.17919607
52	0xbd50e398	-0.0509983
53	0x3d8233ea	0.06357558
54	0x3e33998b	0.1753904
55	0xbe6af1fd	-0.22943874
56	0xbe7c1556	-0.24617514
57	0xbda1b4d9	-0.07895822
58	0x3cbc1722	0.02296025
59	0xbd4ee528	-0.05051151
60	0xbe811d2f	-0.25217578
61	0x3dd15bcd	0.10222588
62	0xbe2acb64	-0.1667915
63	0xbea9e4c8	-0.3318236
64	0xbebf5080	-0.37366104
65	0xbe004a87	-0.1252843
66	0x3ef854a8	0.48502088
67	0xbe839dab	-0.2570623
68	0xbc8ed45c	-0.017435245
69	0xbdfa64f7	-0.12226289
70	0xbdb8da5a	-0.09026022
71	0x3e77a0b3	0.24182396
72	0xbdcf7d7a	-0.10131355
73	0xbeeca0a6	-0.46216315
74	0xbde9a642	-0.11408664
75	0x3ee4788b	0.44623217
76	0x3e0655b6	0.13118634
77	0x3d37b7b8	0.044852942
78	0xbc69821c	-0.014252212
79	0x3e3ab3a4	0.1823259
80	0xbe3463f9	-0.17616262
81	0xbe2552fb	-0.16144936
82	0xbe45db40	-0.19321918
83	0xbe6adad9	-0.22935046
84	0xbe428621	-0.18996479
85	0xbe12fe2f	-0.14354776
86	0x3e811ea5	0.25218692
87	0xbe31f237	-0.17377554
88	0xbef92be6	-0.48666304
89	0x3ea93ec4	0.330557
90	0xbea496d1	-0.32146314
91	0x3e13fea9	0.14452614
92	0x3e9c4802	0.30523688
93	0xbd82ecaa	-0.06392796
94	0xbd74f8f3	-0.05980773
95	0xbc0e8798	-0.00869932
96	0xbd939c13	-0.07207503
97	0xbd591157	-0.052995052
98	0xbe722fbb	-0.2365102
99	0x3ccabfbd	0.024749631
100	0x3e187ca7	0.14891301
101	0x3c37fa68	0.011229135
102	0xbd6397a9	-0.055564556
103	0xbf09a59e	-0.53768337
104	0xbecb75ea	-0.397384
105	0xbe35dfd6	-0.17761168
106	0xbc61ca67	-0.013781167
107	0xbdb18d99	-0.08669586
108	0xbe00ba0e	-0.12570974
109	0xbe0ca930	-0.13736415
110	0xbef7db3d	-0.48409453
111	0x3d914c17	0.07094591
112	0x3e45a107	0.19299708
113	0xbefdd323	-0.49575147
114	0xbe7cd76f	-0.24691556
115	0xbe845d74	-0.2585255
116	0xbebd1e88	-0.36937356
117	0x3e65aacf	0.2242844
118	0xbe727dc8	-0.23680794
119	0x3e228423	0.15870719
120	0xbe513d07	-0.20433436
121	0xbe8034bf	-0.25040242
122	0xbc662660	-0.014047235
123	0xbd9d88c1	-0.07692099
124	0xbf00ec0d	-0.50360185
125	0xbf18fb47	-0.5975842
126	0x3ed7efe6	0.42175215
127	0xbdfa3f99	-0.122191615
128	0x3e7dac71	0.24772812
129	0x3de75198	0.1129486
130	0xbd758331	-0.059939567
131	0xbe2253bd	-0.15852256
132	0x3e479572	0.19490603
133	0xbd2c6e68	-0.04209748
134	0x3ef7c2c5	0.48390785
135	0xbe8ae5b5	-0.27128378
136	0x3e24a3e7	0.16078149
137	0xbe065cec	-0.13121384
138	0xbe20eb4d	-0.1571476
139	0xbe26a0dd	-0.16272302
140	0xbef11230	-0.47084188
141	0xbd9fa8f1	-0.07795895
142	0x3d808f45	0.062773265
143	0xbdbe02f1	-0.09277905
144	0x3d8f31bf	0.0699191
145	0xbe488a97	-0.19584118
146	0x3e0fbb4e	0.14036295
147	0xbce27370	-0.027642936
148	0xbd34f1c9	-0.044175897
149	0xbe9e92d0	-0.30971384
150	0xbe3b9745	-0.18319423
151	0xbe15887e	-0.14602849
152	0xbea9370f	-0.3304982
153	0xbdf11975	-0.11772434
154	0x3e676209	0.22595991
155	0x3e12fee4	0.14355046
156	0x3d20081b	0.03907023
157	0xbe647498	-0.22310102
158	0xbe2c88e3	-0.16849093
159	0xbde6e444	-0.11274007
160	0xbe0a76d4	-0.13521892
161	0xbe5de222	-0.21668294
162	0x3b419899	0.0029540418
163	0xbda6758f	-0.08127891
164	0x3dc54fe3	0.09634378
165	0x3e4dd65e	0.20101306
166	0x3ea7d4b0	0.32779455
167	0xbea0f73c	-0.31438625
168	0x3e85792d	0.26069012
169	0xbe916218	-0.28395152
170	0x3cd838f8	0.026394352
171	0x3e2966c7	0.16543113
172	0xbe980beb	-0.29696593
173	0xbdb784e0	-0.08960891
174	0xbea228e2	-0.31671816
175	0xbd60f9f9	-0.054925893
176	0xbce290b2	-0.027656887
177	0xbe81bba1	-0.25338462
178	0x3c4ae688	0.0123840645
179	0x3e32386c	0.17404336
180	0xbeccef9d	-0.4002656
181	0xbe89b669	-0.2689698
182	0x3ed0590d	0.4069294
183	0xbea43483	-0.32071313
184	0xbe36cb6e	-0.1785104
185	0xbe928365	-0.2861587
186	0xb89f37f2	-7.5921314e-05
187	0xbd5d968c	-0.05409865
188	0xbe02aaf4	-0.12760526
189	0x3b1b2070	0.0023670457
190	0xbe076eb1	-0.13225819
191	0x3ebd1578	0.36930442
192	0x3eab5a47	0.33467314
193	0x3e7afbf2	0.24510172
194	0x3e5e54d8	0.21712053
195	0xbe96dd10	-0.29465532
196	0xbe0ffdb4	-0.14061624
197	0xbe8550aa	-0.26038104
198	0x3a820960	0.0009921007
199	0x3df22ad3	0.11824574
200	0xbe34e229	-0.17664398
201	0xbe635869	-0.22201695
202	0xbeeaf457	-0.45889542
203	0x3dd83b80	0.10558224
204	0x3cf2e9d2	0.02965251
205	0x3d35ed2b	0.044415634
206	0x3e439718	0.19100606
207	0xbf0409e0	-0.5157757
208	0xbd8e8338	-0.06958622
209	0xbeb00bd0	-0.34384012
210	0x3df26a7e	0.11836718
211	0xbdb3092f	-0.08741986
212	0x3e59116d	0.21198054
213	0xbe7a4c43	-0.24443154
214	0xbe5ded1a	-0.21672478
215	0x3e92f016	0.28698796
216	0xbea99210	-0.3311925
217	0x3e67ff92	0.22656086
218	0x3c2ed42f	0.010670706
219	0x3e3f6528	0.18690932
220	0xbc489ad2	-0.012243943
221	0x3dc00a11	0.0937692
222	0xbeba058b	-0.36332354
223	0x3eab17cd	0.33416596
224	0xbcc812c3	-0.024423009
225	0xbe8529ed	-0.2600855
226	0xbe204946	-0.15652952
227	0xbe582073	-0.21106128
228	0xbe364697	-0.17800365
229	0xbcba74b4	-0.022760727
230	0xbeb0bf16	-0.34520787
231	0x3c7dbbc9	0.015486666
232	0x3e9ac2ec	0.3022684
233	0xbeb20909	-0.34772518
234	0xbdf71dbf	-0.120662205
235	0x3d884db3	0.06655445
236	0xbd6a33c5	-0.057178278
237	0xbeead625	-0.45866504
238	0xbe6ab57a	-0.2292079
239	0xbf034075	-0.5127023
240	0xbed2f638	-0.41203475
241	0xbdf97af2	-0.12181653
242	0xbe1b8b75	-0.15189917
243	0x3d2f5e48	0.042814523
244	0xbeab5120	-0.3346033
245	0x3ed9ee78	0.4256475
246	0xbec119e3	-0.37715062
247	0xbe75ddaa	-0.2401034
248	0x3c289811	0.010290162
249	0x3c9b31b8	0.018944606
250	0x3e2255f5	0.15853103
251	0x3c55238a	0.013008961
252	0xbec7f09a	-0.39050752
253	0xbe2ba929	-0.16763748
254	0xbd16cbac	-0.03681533
255	0xbe500eaa	-0.20318094

fc2.weight f4 [256, 256]
0	0xbf89b4e2	-1.0758326
1	0x3c0cef76	0.008602014
2	0x3d9921d8	0.07477158
3	0x3e127548	0.14302552
4	0xbcde8196	-0.0271614
5	0xbde52493	-0.111886166
6	0x3f6667d5	0.90002185
7	0xbe6337c1	-0.22189237
8	0xbe4fe5ad	-0.20302458
9	0xbf4863c4	-0.7827723
10	0xbd0d9437	-0.034565177
11	0xbe4968d7	-0.196689
12	0x3da87c02	0.082267776
13	0x3e5c47db	0.21511786
14	0x3c99b59c	0.018763356
15	0xbee5e266	-0.4489929
16	0xbf1b7af9	-0.60734516
17	0x3e758ce2	0.23979524
18	0x3e31fcbe	0.1738157
19	0x3f39bfa1	0.7255803
20	0xbe8a5bc1	-0.27023128
21	0x3e7a1692	0.24422672
22	0xbc503eda	-0.0127102975
23	0x3d8af21d	0.06784461
24	0x3eca39ee	0.39497322
25	0x3e2283e8	0.1587063
26	0x3d67d833	0.056602668
27	0x3d899041	0.067169674
28	0x3d36a7ae	0.044593506
29	0xbe485d18	-0.19566762
30	0x3ef234c3	0.4730588
31	0x3f0c314c	0.5476272
32	0xbe6e47f2	-0.23269632
33	0xbe2f4ff6	-0.17120346
34	0xbee8d012	-0.45471245
35	0x3daa0e35	0.08303491
36	0x3eb0495a	0.34430963
37	0xbf7be565	-0.98396903
38	0xbd012505	-0.031529445
39	0xbd2dc189	-0.042420898
40	0x3ba36e76	0.004987533
41	0x3e197264	0.14985043
42	0xbc51d949	-0.0128081525
43	0xbdfe1cde	-0.1240785
44	0xbfa87a44	-1.3162313
45	0x3e0d7fff	0.13818358
46	0x3e33b341	0.17548849
47	0x3d652330	0.05594176
48	0x3e4f7f12	0.20263317
49	0x3e7cdfdf	0.24694775
50	0xbcb40a68	-0.021977618
51	0x3dae39a1	0.085070856
52	0xbdded9ba	-0.10881372
53	0x3e62095c	0.22073883
54	0xbc613442	-0.013745369
55	0x3e6ac20c	0.22925586
56	0xbe00744a	-0.12544361
57	0xbf1c0ccc	-0.60957026
58	0x3e8d7af5	0.2763287
59	0x3d8575a7	0.06516581
60	0x3dfbbd81	0.122920044
61	0x3eab0900	0.33405304
62	0x3deda855	0.116043724
63	0x3d5f3a4b	0.054498952
64	0x3e946e0e	0.28990215
65	0x3d79b0ca	0.060959615
66	0xbd1ea0b4	-0.038727477
67	0xbf4388b1	-0.7638045
68	0xbe183d0b	-0.14867036
69	0x3e836b00	0.25667572
70	0x3f363674	0.7117684
71	0xbeae5388	-0.34048104
72	0x3ea722e3	0.32643804
73	0x3e9e935d	0.30971804
74	0x3a47e633	0.000762555
75	0x3e81bb97	0.25338432
76	0x3e35256f	0.17690061
77	0x3d94c187	0.07263475
78	0x3f0fb3c8	0.561337
79	0xbdbcbdea	-0.09215911
80	0xbc9fbddc	-0.019499712
81	0x3dcbe9bb	0.0995669
82	0xbe274f5f	-0.16338871
83	0xbe2b5130	-0.1673019
84	0x3d706d62	0.058698066
85	0x3ee21bb5	0.44161764
86	0xbe3c2b20	-0.18375826
87	0x3e52fb6f	0.20603727
88	0xbeff5617	-0.4987037
89	0x3e17fc0b	0.1484224
90	0xbe7af2a3	-0.24506621
91	0xbe030703	-0.12795644
92	0x3e988846	0.29791468
93	0x3dc34a53	0.095356606
94	0xbdbfa036	-0.0935673
95	0x3c896064	0.016769595
96	0xbea1f8e5	-0.31635204
97	0x3f281ed6	0.6567205
98	0x3d05a45f	0.03262746
99	0x3d5b3c0c	0.053524062
100	0xbde4f5df	-0.11179709
101	0x3e0b886d	0.13626261
102	0xbe095729	-0.13412155
103	0xbe890aa4	-0.2676593
104	0xbd1c989a	-0.03823147
105	0x3f1a8348	0.6035657
106	0x3d9810cd	0.074250795
107	0xc04b4a92	-3.1764264
108	0x3e84cc4a	0.2593711
109	0xbede5711	-0.434258
110	0x3ec11625	0.37712207
111	0x3daff8c5	0.08592371
112	0xbe01f81a	-0.126923
113	0xbf4ba285	-0.7954486
114	0x3c177dc9	0.009246298
115	0x3e25fc2d	0.16209479
116	0xbe1b8fe9	-0.15191616
117	0x3ef73ab7	0.48286983
118	0xbd629a5c	-0.05532299
119	0x3e370080	0.17871284
120	0xbf0f90f2	-0.56080544
121	0x3f2bae2a	0.6706263
122	0x3e276d2e	0.16350242
123	0xbe169d23	-0.1470838
124	0xbe51502c	-0.2044074
125	0xbe7151c6	-0.2356635
126	0xbe33f6d9	-0.17574634
127	0xbe6688be	-0.225131
128	0xbd79df2c	-0.06100385
129	0x3d598628	0.053106457
130	0x3e63b8a7	0.22238408
131	0x3d7d86bc	0.06189607
132	0xbe4b988a	-0.19882408
133	0xbfd10eb7	-1.6332616
134	0xbc501298	-0.012699746
135	0x3dc3814a	0.09546144
136	0xbe28a3a5	-0.16468675
137	0xbc2c1138	-0.010502152
138	0x3e406ccd	0.18791504
139	0xbeff3a98	-0.4984939
140	0xbe3051b3	-0.17218666
141	0x3d711751	0.058860127
142	0x3d378735	0.044806678
143	0x3eb07d66	0.3447067
144	0x3cd9982f	0.026561825
145	0xbdce442c	-0.100715965
146	0x3f7e3191	0.9929438
147	0xbf20ee06	-0.62863195
148	0xbc7193f7	-0.01474475
149	0xbe8d1758	-0.27556872
150	0x3e9b905f	0.30383584
151	0x3e4090ea	0.1880528
152	0xbda6e92b	-0.08149942
153	0x3eda5c2f	0.42648456
154	0x3c2aacf4	0.010417212
155	0x3e785319	0.24250449
156	0x3bea690a	0.007153635
157	0x3dcba303	0.099432014
158	0xbf85f886	-1.0466468
159	0xbe9a924f	-0.3018975
160	0xbf028d6a	-0.5099703
161	0x3e1e3c37	0.15452658
162	0xc0200b69	-2.5006964
163	0x3eaa2ace	0.33235782
164	0x3e794310	0.24341989
165	0x3d8f5e27	0.0700038
166	0x3f38d295	0.7219632
167	0xbcec4d23	-0.028845375
168	0xbd34abd5	-0.044109184
169	0x3f333db2	0.70016015
170	0x3e912b31	0.28353265
171	0xbdb5a6f4	-0.088697344
172	0xbd6158f3	-0.05501647
173	0xbd125763	-0.03572787
174	0xbe01b93c	-0.12668318
175	0xbeabe4b7	-0.33572933
176	0xbd468f99	-0.04847679
177	0xbe80464a	-0.25053626
178	0xbd884433	-0.06653633
179	0x3d171da9	0.03689352
180	0xbd88f60a	-0.06687553
181	0x3d146500	0.036229134
182	0x3e483135	0.19550021
183	0xbe3d4e46	-0.1848689
184	0x3c91b2ab	0.01778539
185	0x3e99012f	0.29883716
186	0x3e0ffca4	0.14061219
187	0x3dbb0f2d	0.09133754
188	0xbf0e431d	-0.55571157
189	0x3e7d025e	0.24707934
190	0xbec58693	-0.38579234
191	0xbecf9bf6	-0.40548676
192	0xbf82ad60	-1.020916
193	0x3d99f63a	0.07517667
194	0x3db3d28c	0.08780393
195	0xbf3ea2db	-0.7446725
196	0xbec5a28c	-0.38600576
197	0x3d3cb9c1	0.046075586
198	0x3e822c38	0.2542436
199	0x3ebad704	0.3649217
200	0xbc597f97	-0.013275049
201	0xbd6f38ed	-0.058403898
202	0x3d0656d6	0.032797657
203	0xbf36e3cb	-0.71441334
204	0x3cf88c4e	0.03034034
205	0x3dae07c7	0.08497577
206	0x3d748c0d	0.059703875
207	0xbe807d96	-0.25095814
208	0xbd47de56	-0.04879602
209	0x3c2ca69e	0.0105377715
210	0x3cc6ab30	0.02425155
211	0x3cf783ac	0.030214153
212	0xbd2f3245	-0.04277255
213	0xbd5c561f	-0.05379307
214	0xbcba12fe	-0.022714134
215	0xc0070467	-2.1096437
216	0xbde25b3b	-0.11052557
217	0x3f082f8c	0.5319755
218	0x3e0d637e	0.13807485
219	0xbed41510	-0.4142232
220	0x3e827b32	0.25484616
221	0x3e53ff9b	0.20702974
222	0x3f18667d	0.59531385
223	0xbde47422	-0.11154963
224	0xbe19bc43	-0.15013222
225	0x3e06cd46	0.13164243
226	0xbfc0ed77	-1.5072469
227	0xbd0d8e9b	-0.034559827
228	0xbdd87996	-0.10570066
229	0x3eb1b436	0.34707803
230	0x3e6fbc4f	0.23411678
231	0xbf1b4357	-0.6064963
232	0xbdc453e6	-0.09586315
233	0x3db3ceb1	0.08779658
234	0xbc8215be	-0.015879508
235	0x3dcf8332	0.101324454
236	0x3da5268b	0.08063992
237	0xbeafdff8	-0.34350562
238	0xbea762f6	-0.3269269
239	0x3e906db4	0.28208697
240	0xbe4a18ee	-0.19736072
241	0x3e7c6e35	0.24651416
242	0xbf682817	-0.9068617
243	0x3e4cabde	0.19987437
244	0x3d0dfb32	0.034663387
245	0xbe811105	-0.25208297
246	0x3c31683d	0.010828075
247	0x3d9af5a7	0.07566386
248	0xbe31ac51	-0.1735089
249	0x3def9c93	0.11699786
250	0xbd2a5505	-0.041584987
251	0x3f3c1244	0.7346537
252	0x3eabbf21	0.33544257
253	0xbea42e7f	-0.32066724
254	0x3e403f13	0.18774061
255	0xbe021087	-0.12701617

fc2.bias f4 [256]
0	0x3e24dbd4	0.16099483
1	0x3e2e1050	0.1699841
2	0xbe3cd31e	-0.1843991
3	0xbd88a200	-0.06671524
4	0xbf0abb27	-0.5419182
5	0x3f25adb4	0.64718175
6	0xbe8fe30b	-0.28102908
7	0x3d5ce22e	0.05392664
8	0x3e8002ec	0.2500223
9	0xbcb6d019	-0.022316026
10	0xbe471706	-0.19442376
11	0x3e2cf0af	0.16888689
12	0xbec729f5	-0.38899198
13	0xbea1bb24	-0.3158809
14	0xbe492467	-0.19642793
15	0x3ed78951	0.42096952
16	0xbe8926e1	-0.26787475
17	0xbd227d11	-0.039670054
18	0x3c52284d	0.012826991
19	0x3ecd2895	0.40070024
20	0xbd78b0c8	-0.060715467
21	0xbedf665b	-0.4363278
22	0xbecfd24f	-0.4059014
23	0x3f40c77a	0.7530438
24	0x3ecba81a	0.3977669
25	0xbe866cc9	-0.2625487
26	0x3d837cae	0.06420265
27	0x3e877358	0.26455188
28	0xbc3b1a5d	-0.01141986
29	0xbe8a933d	-0.2706546
30	0xbe06caac	-0.1316325
31	0xbef6b119	-0.4818199
32	0xbebe56e9	-0.37175682
33	0xbefa394a	-0.48871833
34	0xbf45718a	-0.7712637
35	0x3eed97eb	0.46404967
36	0xbdd1275a	-0.10212584
37	0x3e32f29a	0.17475358
38	0x3e05c3f8	0.13063037
39	0xbdb790e1	-0.0896318
40	0xbebc4229	-0.36769226
41	0xbef3ba52	-0.4760309
42	0xbe97fad9	-0.2968357
43	0xbca820e6	-0.0205235
44	0xbd67590e	-0.056481414
45	0xbf446d09	-0.76728874
46	0x3e7250de	0.23663661
47	0xbd4db644	-0.05022265
48	0x3f50ec4d	0.81610566
49	0xbeeb2def	-0.45933482
50	0x3e8fba4d	0.28071824
51	0x3edc0182	0.429699
52	0xbe473c2f	-0.19456552
53	0xbef4d227	-0.47816584
54	0x3e2d87fb	0.16946404
55	0xbefa3ce0	-0.4887457
56	0xbe413014	-0.18865997
57	0xbc840a5e	-0.016118225
58	0xbea191f1	-0.31556657
59	0xbf366ae3	-0.71256846
60	0xbe99397d	-0.29926673
61	0xbe2944eb	-0.16530196
62	0xbf0acb56	-0.54216516
63	0x3eb27527	0.34855005
64	0xbf1b1c16	-0.6058973
65	0xbec99d9b	-0.39378056
66	0x3d8d3ea2	0.06896712
67	0xbe057c8b	-0.1303579
68	0x3c55bed8	0.013045989
69	0x3eb51566	0.35367888
70	0xbd9b8dac	-0.07595381
71	0xbeff17f7	-0.4982297
72	0xbeae11ab	-0.33997855
73	0xbed63cd9	-0.41843298
74	0xbda47a09	-0.08031089
75	0xbd8b5cb9	-0.06804795
76	0xbe666083	-0.22497754
77	0xbf310f33	-0.6916382
78	0x3e3f271d	0.18667264
79	0x3eeff6ee	0.4686808
80	0xbec0b9d6	-0.37641782
81	0x3e78f72b	0.24313037
82	0xbe3926e1	-0.18081237
83	0xbe973615	-0.2953345
84	0xbe2257d0	-0.1585381
85	0xbef78713	-0.4834524
86	0x3e98dcfd	0.298561
87	0x3e957d89	0.29197338
88	0xbd792b2d	-0.06083219
89	0x3c22265e	0.009896843
90	0x3daa964c	0.08329448
91	0x3e462e6d	0.19353648
92	0x3eb7ba3a	0.35884267
93	0xbeb2f5ca	-0.34953147
94	0x3a0ac5c2	0.00052937504
95	0x3e40c718	0.18825948
96	0x3ec456ac	0.38347375
97	0xbf0149b4	-0.5050309
98	0xbec8114a	-0.3907569
99	0xbe9183f6	-0.2842099
100	0xbee9e969	-0.4568589
101	0xbed5d919	-0.41767195
102	0xbe39f6d1	-0.18160559
103	0xbeb80077	-0.35937855
104	0xbd6a13d4	-0.057147816
105	0xbda1113a	-0.07864614
106	0x3ca03d9a	0.019560624
107	0x3d46f812	0.048576422
108	0xbe60fd94	-0.21971732
109	0xbddba915	-0.10725609
110	0x3ee058f6	0.43817872
111	0xbe1fd43c	-0.15608305
112	0xbd5cf138	-0.05394098
113	0xbed1d05f	-0.40979287
114	0xbe91d023	-0.28479108
115	0x3d66d17e	0.05635213
116	0xbf1759b8	-0.59121275
117	0x3f5820ce	0.84425056
118	0x3eda0ff9	0.4259031
119	0xbec70d99	-0.38877562
120	0x3eaa9e26	0.33323783
121	0x3f05e629	0.5230432
122	0xbed89132	-0.42298275
123	0xbe8726f4	-0.26396906
124	0xbe5a274c	-0.21304053
125	0xbc13978e	-0.009008301
126	0xbe694a8d	-0.22782345
127	0x3e4c2485	0.19935806
128	0xbf0d81d1	-0.5527621
129	0x3e356563	0.17714457
130	0x3e846b9a	0.25863343
131	0xbda03651	-0.0782286
132	0xbd35b1ae	-0.0443589
133	0x3e0d183f	0.1377878
134	0x3f299dbb	0.662563
135	0xbf63ce50	-0.8898668
136	0xbd1188a0	-0.035530686
137	0xbdda63fe	-0.10663603
138	0xbd903d17	-0.07042902
139	0xbf12f327	-0.5740227
140	0x3c6659ba	0.014059478
141	0x3eca0fdd	0.39465228
142	0xbe0686ac	-0.1313731
143	0x3d475811	0.04866797
144	0xbe93fd5f	-0.28904244
145	0xbea9dc50	-0.33175898
146	0xbe9a1110	-0.30091143
147	0xbe1ae071	-0.1512468
148	0x3f09a17b	0.53762025
149	0x3eec877d	0.4619712
150	0xbf41214e	-0.75441444
151	0x3e8e26ef	0.2776408
152	0xbf2eac97	-0.682321
153	0xbeb28c5d	-0.34872714
154	0xbeebf1cb	-0.4608291
155	0xbec24fac	-0.3795141
156	0xbecf3610	-0.40470934
157	0xbe990eab	-0.29894003
158	0xbd7481c2	-0.05969406
159	0xbdbb85e6	-0.091563985
160	0xbeeefc57	-0.46676895
161	0xbd56c583	-0.052434456
162	0xbcc9dc72	-0.02464125
163	0xbf03501c	-0.5129411
164	0xbf22101e	-0.6330584
165	0xbf0be361	-0.5464383
166	0xbe65f246	-0.22455701
167	0xbecdce4d	-0.40196458
168	0x3ea696ee	0.32537025
169	0xbc1d2584	-0.009591464
170	0xbd33f4fb	-0.043934803
171	0x3ee2a173	0.442638
172	0xbf50c7ae	-0.8155469
173	0x3bb558ef	0.0055342834
174	0x3ead6b5f	0.3387098
175	0xbe95d756	-0.2926585
176	0xbebb3ec9	-0.3657134
177	0xbf304782	-0.6885911
178	0xbd589300	-0.052874565
179	0x3e56addf	0.20964764
180	0xbe58b69a	-0.21163407
181	0x3f230a77	0.63687843
182	0xbdecaa9a	-0.11555977
183	0xbeb04d06	-0.34433764
184	0xbf122f3c	-0.57103324
185	0x3ee689fe	0.45027155
186	0xbe70ac7a	-0.23503295
187	0x3e1a132c	0.15046376
188	0xbf0b2f18	-0.54368734
189	0x3e276033	0.16345291
190	0xbedc569a	-0.43034822
191	0xbd411517	-0.047139253
192	0xbea6aba1	-0.32552817
193	0xbf3879b9	-0.72060734
194	0xbeb46aee	-0.3523783
195	0x3e7676c5	0.24068744
196	0xbef1ba35	-0.47212377
197	0x3de34ccb	0.110986315
198	0x3e511cb7	0.2042111
199	0x3d2120c5	0.039337892
200	0x3eacf749	0.33782414
201	0x3f02881a	0.50988925
202	0x3f20c8bf	0.62806314
203	0xbb4c4342	-0.0031168018
204	0xbf0609d8	-0.5235877
205	0x3e439905	0.19101341
206	0xbeaedc2b	-0.3415235
207	0xbdecd24b	-0.11563548
208	0xbf13402f	-0.5751981
209	0xbdb6201c	-0.08892843
210	0xbf58e18e	-0.8471917
211	0x3e3b9065	0.18316801
212	0xbcbd8485	-0.02313448
213	0x3f095667	0.53647465
214	0xbeca1301	-0.39467624
215	0xbf31c5d1	-0.6944247
216	0xbe13ef2b	-0.14446704
217	0x3e96ddbc	0.29466045
218	0xbf131f9b	-0.574701
219	0xbeb07a84	-0.34468472
220	0x3e29bdbe	0.16576287
221	0x3e41ae29	0.18914093
222	0x3dc64cb6	0.096826
223	0xbf520472	-0.82038033
224	0xbe536d73	-0.2064722
225	0x3d8048a4	0.06263855
226	0x3d10c34f	0.03534251
227	0x3f154540	0.5830879
228	0xbed0314e	-0.40662616
229	0xbedeffe0	-0.43554592
230	0x3cca6db7	0.02471052
231	0xbea54b38	-0.3228395
232	0xbf00d2bb	-0.5032155
233	0xbe35773b	-0.17721264
234	0xbeef1fcc	-0.46703947
235	0xbeb5a999	-0.35480955
236	0xbedbff86	-0.42968386
237	0x3de35364	0.1109989
238	0xbdba4c14	-0.09096542
239	0x3d65b337	0.056079116
240	0xbe5e64f4	-0.21718198
241	0xbe98857d	-0.29789343
242	0xbdbac1a9	-0.09118969
243	0xbed424e6	-0.414344
244	0x3f06f0e7	0.5271134
245	0x3c26a066	0.010170078
246	0x3d519bf9	0.051174138
247	0xbf1039b0	-0.56338024
248	0xbe35f7cf	-0.17770313
249	0xbed03112	-0.40662438
250	0x3e4db27e	0.2008762
251	0xbe6e74a5	-0.23286684
252	0xbeeb338b	-0.45937762
253	0xbefdd1da	-0.49574167
254	0xbe7fbc2c	-0.24974126
255	0xbec546d4	-0.385306

mu.weight f4 [4, 256]
0	0x3e420b7a	0.1894969
1	0xbdc40a3e	-0.09572266
2	0x3db99b49	0.090628214
3	0xbd06d1db	-0.032914978
4	0xbde315c6	-0.11088137
5	0x3d2b741e	0.041858785
6	0x3d45967b	0.048239212
7	0xbd952b33	-0.0728363
8	0xbe324fed	-0.17413302
9	0xbd8a2a42	-0.06746341
10	0xbdda0ade	-0.10646604
11	0xbe3ac94d	-0.18240853
12	0x3e47b29b	0.19501726
13	0xbd893b0c	-0.067007154
14	0xbf46aeea	-0.7761065
15	0x3e802157	0.25025436
16	0x3e4b2668	0.1983887
17	0x3b8a1268	0.00421362
18	0xbc9b3bb5	-0.018949369
19	0xbdaf7c2d	-0.085686065
20	0xbce1185a	-0.027477432
21	0xbddbb1a1	-0.107272394
22	0x3f03b416	0.51446664
23	0x3e121f98	0.14269865
24	0xbe079d33	-0.1324356
25	0x3e5f4997	0.21805416
26	0x3e0c7c13	0.13719206
27	0x3ead8077	0.33887073
28	0xbca53586	-0.020167124
29	0x3e3e8c82	0.18608287
30	0xbf7c11d8	-0.9846473
31	0x3df52978	0.119708
32	0x3ea07c1d	0.3134469
33	0x3e6b96dd	0.23006769
34	0xbe6b655e	-0.22987887
35	0xbe94f081	-0.2908974
36	0x3f3b0f57	0.7307028
37	0xbc472685	-0.01215518
38	0x3da0e8cd	0.07856903
39	0xbf21cd5c	-0.6320398
40	0xbe072ce2	-0.13200715
41	0x3f068179	0.5254131
42	0x3ded9694	0.11600986
43	0x3f0df0e9	0.55445725
44	0xbc88792c	-0.016659342
45	0xbdb113c4	-0.08646348
46	0x3e81d5b3	0.25358352
47	0xbccffce2	-0.025389139
48	0xbeb26530	-0.34842825
49	0xbddcbf0d	-0.107786275
50	0x3e37f3f5	0.17964156
51	0xbce712f8	-0.028207287
52	0xbd85468a	-0.06507595
53	0xbe262a94	-0.1622718
54	0x3bdb988c	0.0067015346
55	0xbe1f07a2	-0.15530255
56	0x3e9f9715	0.31169954
57	0x3d0349d8	0.032052845
58	0xbf278ae6	-0.6544632
59	0x3bd22f80	0.006414354
60	0xbebf4201	-0.37355044
61	0xbe80a03a	-0.25122243
62	0xbe4615f1	-0.19344307
63	0x3d2d8598	0.042363733
64	0x3e2de343	0.16981225
65	0xbd3022ad	-0.04300182
66	0x3fc3120a	1.523988
67	0x3e3cc608	0.18434918
68	0x3d556180	0.052094936
69	0x3d524c7c	0.051342472
70	0x3c685f87	0.014182932
71	0xbbd34a70	-0.0064480826
72	0x3e056d00	0.13029861
73	0xbec2893b	-0.37995324
74	0xbd6a1921	-0.05715287
75	0xbcb0e1be	-0.021592017
76	0xbd89a260	-0.06720424
77	0x3d1ae0de	0.037812106
78	0xbe800319	-0.25002363
79	0x3e346235	0.17615588
80	0x3ede833e	0.43459505
81	0x3d963b5f	0.07335543
82	0x3c3f437f	0.011673807
83	0xbde217ae	-0.11039673
84	0x3c20a375	0.009804596
85	0xbe3d3908	-0.18478787
86	0xbdacec4a	-0.08443506
87	0x3d9765af	0.073924415
88	0xbc971a5f	-0.018445192
89	0xbbdd430d	-0.006752378
90	0x3ec7a310	0.38991594
91	0xbdda69a0	-0.106646776
92	0xbc7e9ee0	-0.015540808
93	0xbe0d4282	-0.13794902
94	0x3e36b275	0.17841513
95	0xbd8a6e5d	-0.067593314
96	0xbcba89b1	-0.022770735
97	0x3d1f7527	0.038930085
98	0x3ec69a37	0.38789532
99	0xbccd1e45	-0.025038848
100	0xbef036d4	-0.4691683
101	0x3e46f7ec	0.19430512
102	0xbee56bac	-0.4480871
103	0xbde95113	-0.11392417
104	0x3db165e2	0.08662011
105	0xbd35c5c8	-0.044378072
106	0x3d46bf55	0.048522312
107	0x3e030e9c	0.12798542
108	0xbd7df1a6	-0.061998032
109	0xbd61b7da	-0.055106975
110	0xbe11093e	-0.14163682
111	0x3ed41007	0.41418478
112	0x3d71200a	0.058868445
113	0x3e7783f6	0.24171433
114	0x3e1ea540	0.15492725
115	0x3da60994	0.08107296
116	0xbe81104b	-0.25207743
117	0xbe95ee85	-0.29283538
118	0x3ced447b	0.028963318
119	0xbd250564	-0.040288344
120	0x3e04d7e3	0.12972979
121	0xbdd4a9e8	-0.103839695
122	0xbe15eefb	-0.14641945
123	0xbeaa14d0	-0.33219004
124	0x3e815cfc	0.25266254
125	0x3c85084a	0.016239304
126	0xbe1db49b	-0.15400927
127	0x3e6a3b94	0.2287429
128	0x3eb301e4	0.3496238
129	0xbea5f310	-0.32412004
130	0xbd683d50	-0.056699097
131	0x3ddbf8aa	0.10740788
132	0x3b1413c9	0.00225948
133	0xbe1d9ad7	-0.15391098
134	0xbe74bc1c	-0.23899883
135	0xbdd2be1c	-0.10290167
136	0xbd74ac51	-0.059734646
137	0x3eecddb6	0.46262902
138	0x3d07238b	0.03299288
139	0x3d9632f7	0.073339395
140	0x3d2c69f1	0.04209322
141	0x3e2cc88e	0.1687338
142	0x3d06e8e7	0.032936957
143	0xbd8897ad	-0.06669555
144	0xbddea565	-0.1087139
145	0x3ecd3b6c	0.40084398
146	0xbf12c089	-0.57325035
147	0x3d16f6a1	0.036856297
148	0xbe635f2a	-0.22204271
149	0xbd3cd8e4	-0.04610528
150	0xbe49bfc2	-0.19702056
151	0xbe1ffa7a	-0.15622893
152	0x3efed985	0.4977533
153	0x3e1b4f7d	0.15167041
154	0x3efa76e7	0.4891884
155	0x3eac73e8	0.3368218
156	0xbad6349c	-0.0016342583
157	0x3f3c9412	0.7366344
158	0xbe33b337	-0.17548834
159	0x3ee36614	0.44413817
160	0x3d394293	0.045229506
161	0xbcd19264	-0.0255825
162	0x3e36e72c	0.17861623
163	0xbeea06d3	-0.4570833
164	0x3e211d95	0.15733941
165	0x3f1c9543	0.61165255
166	0x3e17bcfd	0.14818187
167	0x3e7085d8	0.23488557
168	0xbf223132	-0.63356316
169	0xbce95ca4	-0.028486557
170	0xbb26e83f	-0.002546802
171	0xbd3a10cd	-0.04542618
172	0x3f200124	0.6250174
173	0x3cc862b7	0.024461133
174	0xbe2f5921	-0.17123844
175	0xbce9dc85	-0.028547535
176	0xbf1a644c	-0.6030929
177	0x3f00aecb	0.5026671
178	0xbc87c02b	-0.016571125
179	0xbd3f6903	-0.046731006
180	0xbd8556dd	-0.065107085
181	0xbe6e588c	-0.23275965
182	0x3d4c2d09	0.049847636
183	0x3f59e1e4	0.85110307
184	0xbd34434f	-0.044009503
185	0x3d6eb0f8	0.05827424
186	0x3db1c309	0.08679778
187	0xbe371311	-0.17878367
188	0x3f01932a	0.5061518
189	0xbda6169c	-0.08109781
190	0x3d8ae569	0.06782038
191	0xbd05d6e0	-0.032675624
192	0xbdfbf135	-0.12301866
193	0xbd9b726b	-0.07590183
194	0x3e0439a5	0.12912615
195	0x3e555fa5	0.20837267
196	0x3ba917ab	0.005160292
197	0xbd022ae3	-0.03177918
198	0x3dedb207	0.11606222
199	0xbead91d9	-0.33900335
200	0xbe0fd430	-0.14045787
201	0xbdf6f3dc	-0.12058231
202	0x3b98e639	0.0046661166
203	0xbcc9c97f	-0.024632214
204	0x3d5b610b	0.053559344
205	0x3df4e83a	0.11958356
206	0xbf02942f	-0.5100736
207	0xbda9c05f	-0.08288645
208	0x3ebee22f	0.3728194
209	0x3c7f8170	0.015594825
210	0x3dac1bf9	0.08403773
211	0x3dcae0bf	0.09906148
212	0x3e8cff2c	0.2753843
213	0xbd7f95f3	-0.062398862
214	0x3e0379ca	0.12839428
215	0x3e2a4118	0.16626394
216	0x3e996dc5	0.2996656
217	0x3dad2215	0.08453766
218	0x3ebff702	0.3749314
219	0xbecd60d2	-0.4011293
220	0x3e01b8b6	0.12668118
221	0xbe3f6d23	-0.18693976
222	0xbe189f82	-0.14904597
223	0xbe3dc33e	-0.1853151
224	0x3e2be7ec	0.1678769
225	0x3da79c6a	0.081841305
226	0x3d981d38	0.07427448
227	0xbbb05455	-0.005381147
228	0x3e504d14	0.20341903
229	0xbe96ff72	-0.29491764
230	0x3d3c4166	0.045960806
231	0xbf0eb095	-0.5573819
232	0x3dc79bda	0.09746523
233	0xbcd942f2	-0.02652118
234	0x3de21a64	0.1104019
235	0xbd608186	-0.054811023
236	0xbe766824	-0.24063164
237	0x3ef3f82f	0.47650287
238	0x3cf406f7	0.029788477
239	0xbe9701a5	-0.29493442
240	0xbd9c376b	-0.07627758
241	0xbf0e4565	-0.5557464
242	0x3cc07a28	0.023495749
243	0x3eaafb34	0.33394778
244	0x3cd66f28	0.02617605
245	0x3f414c6a	0.75507224
246	0xbd7a690f	-0.061135348
247	0x3e7969dd	0.2435679
248	0xbe94efef	-0.29089305
249	0x3f2b3b1d	0.66887075
250	0x3c9c0f0a	0.01905014
251	0x3f216196	0.6303953
252	0xbe98c39d	-0.2983674
253	0x3ecc4b32	0.3990112
254	0x3f1b6023	0.6069357
255	0x3e22e153	0.15906267

mu.bias f4 [4]
0	0x3e8a96df	0.2706823
1	0xbd2a8f1d	-0.04164039
2	0x3df9caad	0.121968605
3	0xbd2a11d8	-0.041520923

sigma.weight f4 [4, 256]
0	0xbc1b1b07	-0.009466893
1	0xbc5ab6f6	-0.013349285
2	0x3cf58fdc	0.029975824
3	0xbd364d19	-0.04450712
4	0xbc47f1ae	-0.012203617
5	0x3bc1a852	0.005909958
6	0x3b3f8424	0.002922305
7	0x3dbda42c	0.09259829
8	0x3ba82b8c	0.0051321443
9	0xbd80986b	-0.062790714
10	0x3d92229c	0.071355075
11	0x3c68050d	0.01416136
12	0x3cd3ac6b	0.025839051
13	0x3c3d4b37	0.011553577
14	0xbce69188	-0.028145567
15	0xbd2b361d	-0.041799653
16	0xbd3c8958	-0.04602942
17	0xbb7c2ca1	-0.003847875
18	0x3c9dd9f4	0.019268967
19	0x3d225cba	0.039639212
20	0x3b61af82	0.0034436886
21	0x3e0aab74	0.13541967
22	0x3d0ff755	0.035147984
23	0xbd438340	-0.04773259
24	0xbb0edb8a	-0.0021798336
25	0xbdaf6483	-0.08564093
26	0x3d28e413	0.041233134
27	0x3e12b35c	0.14326233
28	0x3aa3c5d6	0.0012494873
29	0xbcaa6de5	-0.020804355
30	0x3e3a0a7b	0.1816806
31	0x3e85cc86	0.26132601
32	0x3d155da5	0.03646626
33	0x3e77ad12	0.24187115
34	0x3e1290d7	0.14313065
35	0x3cbe7d31	0.023253055
36	0x3e524a3b	0.20536129
37	0xbc6f1da8	-0.014594473
38	0xbc0986be	-0.008393941
39	0x3de3b133	0.111177824
40	0x3bc60cfb	0.006044028
41	0x3e27376f	0.1632974
42	0x3d60debb	0.054899912
43	0x3e19b75e	0.15011355
44	0x3d138b20	0.03602135
45	0x3dc38d35	0.095484175
46	0xbd6a8e74	-0.05726476
47	0x3d6bd4e9	0.057576094
48	0xbd8cba43	-0.06871464
49	0xbd592fb9	-0.053024027
50	0xbd2f31e1	-0.042772178
51	0x3cb11afc	0.021619312
52	0xbc943658	-0.01809232
53	0x3dc561cc	0.09637794
54	0x3c64e0d5	0.01396962
55	0x3d06ffce	0.032958798
56	0x3e837ac0	0.25679588
57	0xbaf8dead	-0.0018987261
58	0xbca444e6	-0.020052385
59	0x3e346099	0.17614974
60	0x3e6db10f	0.23212074
61	0xbd577df9	-0.05261037
62	0x3c537a9f	0.012907653
63	0xbcfd28b9	-0.030903207
64	0x3e4f58a2	0.20248654
65	0xbca08b93	-0.019597804
66	0x3dc61ba8	0.09673244
67	0xbd1b0028	-0.037841946
68	0xbb80ee7a	-0.0039346786
69	0xbb4862ef	-0.0030576547
70	0x3cf66dc7	0.030081643
71	0x3d1fcd6b	0.03901426
72	0x3cf1c1b8	0.029511318
73	0x3edff940	0.4374485
74	0xbcedd6b6	-0.029033046
75	0x3cb57071	0.022148343
76	0xbb8d9998	-0.0043212883
77	0xbb4629d1	-0.0030237327
78	0x3b9e13ba	0.004824129
79	0xbd2aa12d	-0.041657615
80	0x3e9503bd	0.29104415
81	0x3bb7cc9c	0.005609108
82	0x3d7f214d	0.062287617
83	0x3cbc6e5b	0.02300184
84	0x3c261329	0.010136404
85	0x3c79bd0d	0.015242827
86	0x3d4dcc10	0.050243437
87	0xbbb116d1	-0.0054043313
88	0xbb0a37bd	-0.0021090352
89	0x3bd1e54e	0.006405509
90	0xbbd9b741	-0.00664416
91	0xbddf215e	-0.10895036
92	0x3c0d3c20	0.008620292
93	0x3eec1507	0.46109793
94	0xbcf4157b	-0.029795399
95	0xbcb3b2dc	-0.021935873
96	0x3e39e8d3	0.18155222
97	0x3d2c571f	0.042075273
98	0x3db89331	0.090124495
99	0x3bcb1e16	0.006198655
100	0x3c91d643	0.017802363
101	0xbc6549d8	-0.0139946565
102	0x3d8c6f6c	0.068571895
103	0x3d820615	0.06348816
104	0xbc58e9c6	-0.01323933
105	0x3caa0aa4	0.020757027
106	0xbbe4f810	-0.006987579
107	0xbc0c04bd	-0.008546052
108	0x3c11be3c	0.008895453
109	0xbd09ffc1	-0.03369117
110	0xbd3e3253	-0.04643471
111	0x3afc1467	0.0019232155
112	0x3cd11c6d	0.02552625
113	0xbd9f30a6	-0.07772951
114	0x3b16049e	0.0022890936
115	0xbc1a615d	-0.009422627
116	0x3e19eca1	0.15031673
117	0x3b8648e3	0.0040980442
118	0xbac93966	-0.0015352189
119	0xbcb66e92	-0.02226952
120	0x3b1a4cb9	0.0023544265
121	0xbc558a10	-0.013033405
122	0x3d13d3da	0.03609071
123	0x3dacb908	0.084337294
124	0x3d0072ad	0.031359363
125	0x3c9d5b67	0.019208623
126	0x3b922e88	0.0044611134
127	0xbd3544d0	-0.044255078
128	0x3b0e453a	0.0021708743
129	0xbc0773bc	-0.008267339
130	0xbde8bcba	-0.11364122
131	0xbd1acc20	-0.037792325
132	0x3d0d9fb2	0.034576125
133	0x3cb61202	0.022225384
134	0x3bd1d581	0.0064036255
135	0x3ec1b6f9	0.3783491
136	0x3cc161e1	0.023606243
137	0x3d383ee0	0.044981837
138	0xbc8a5c56	-0.016889732
139	0x3e961649	0.29313877
140	0x3c5d60e5	0.013511871
141	0xbdeccd4a	-0.11562593
142	0x3b82cd69	0.003991772
143	0xbb8bebbd	-0.0042700456
144	0xbda32ec2	-0.07967903
145	0x3a73553f	0.0009282417
146	0xbd6ff84d	-0.058586407
147	0xbd7ec2f3	-0.062197637
148	0xbc8e6f33	-0.017387008
149	0x3c903537	0.0176035
150	0x3e010068	0.12597811
151	0x3c207cd2	0.0097953845
152	0x3e9810e9	0.297004
153	0x3c6c339a	0.0144166
154	0x3d811cd7	0.06304329
155	0x3dff7fa2	0.12475516
156	0x3d115431	0.03548068
157	0x3ee18fc6	0.44055003
158	0x3d61f63e	0.055166475
159	0xbdeb084e	-0.11476193
160	0x3dd78811	0.105239995
161	0x3dc62aad	0.096761085
162	0x3d1f08e1	0.038826827
163	0x3f0f19ee	0.5589894
164	0x3ead4183	0.33839044
165	0x3e9c844d	0.30569687
166	0x3e2c2b62	0.16813424
167	0x3c483ee1	0.012222023
168	0xbce04406	-0.027376186
169	0x3c0123cd	0.007882071
170	0x3b51335c	0.0031921482
171	0xbbffd12e	-0.0078069186
172	0x3e811c3c	0.25216854
173	0x3c94f1ab	0.018181643
174	0xbd901f2f	-0.07037198
175	0x3cb304b1	0.021852823
176	0x3ee7a38d	0.45241967
177	0x3e0d4c4e	0.13798639
178	0x3cf697f2	0.03010175
179	0xbbdf0492	-0.0068059647
180	0xbbd577b8	-0.0065145157
181	0xbce669e4	-0.028126664
182	0x3c29c264	0.010361288
183	0x3dc1d2d0	0.094640374
184	0xbc911e66	-0.01771469
185	0xbd2c885a	-0.042122222
186	0xbc0e863c	-0.008698996
187	0xbc0218d4	-0.00794049
188	0x3d2f51a8	0.042802483
189	0xbc144543	-0.009049716
190	0xbbf1557a	-0.007364926
191	0xbc51a7e3	-0.012796375
192	0x3e44766c	0.191858
193	0x3e01f8e9	0.12692608
194	0x3cd861af	0.026413767
195	0xbde62af2	-0.1123866
196	0xbd94d5ee	-0.07267366
197	0x3c48e880	0.012262464
198	0x3dc5021a	0.096195415
199	0xbc90a094	-0.017654695
200	0x3d198d0c	0.03748803
201	0x3c16817d	0.009186146
202	0x3a3221cb	0.00067951967
203	0xbc6e0b61	-0.01452908
204	0x3d3bcb2b	0.045848053
205	0xbc627f22	-0.013824256
206	0x3d397349	0.04527596
207	0x3baf212d	0.005344531
208	0x3bab88e3	0.005234824
209	0xbc892931	-0.016743274
210	0x3e16a068	0.14709628
211	0xbcab922d	-0.020943725
212	0xbc0c63b7	-0.008568696
213	0xbd4a4428	-0.049381405
214	0x3eb4be6c	0.3530153
215	0x3ee7c2af	0.4526572
216	0x3ede7760	0.4345045
217	0xbb56df28	-0.003278682
218	0x3e137de8	0.14403498
219	0x3e1b8612	0.15187863
220	0x3cfe6389	0.031053321
221	0x3cc781c3	0.024353867
222	0x3bc44716	0.0059899194
223	0xbcee681b	-0.029102376
224	0xbc34bdac	-0.011031549
225	0xbb179375	-0.0023128663
226	0xbb0976b8	-0.0020975303
227	0x3ca7e4be	0.020494815
228	0xbb23dc8d	-0.0025003285
229	0x3d5ccba6	0.05390515
230	0xbb2438c2	-0.0025058244
231	0x3e0c82a5	0.13721712
232	0xbd17b1dd	-0.037034858
233	0xbc044367	-0.008072711
234	0xbc2b42e4	-0.01045296
235	0xbc74362c	-0.014905494
236	0xbc22bf85	-0.009933357
237	0x3d85f2f8	0.06540483
238	0xbcc98b44	-0.02460254
239	0x3dbc6e89	0.092007704
240	0x3ed3491d	0.41266719
241	0x3e2de504	0.16981894
242	0x3d295dd6	0.041349255
243	0xbcab4332	-0.020906065
244	0xbcc013f0	-0.023447007
245	0x3dbe492e	0.09291302
246	0x3c0ff93e	0.008787451
247	0x3e0314f4	0.12800962
248	0x3e44ecdc	0.1923098
249	0x3edb0e95	0.42784563
250	0x3e1911d5	0.14948209
251	0x3dc846d5	0.09779135
252	0x3d7fa310	0.062411368
253	0x3b55128c	0.0032512276
254	0x3f365205	0.712189
255	0x3d991565	0.07474784

sigma.bias f4 [4]
0	0x3f326f86	0.6970142
1	0x3f32e811	0.69885355
2	0x3f44ba8d	0.76847154
3	0x3f3a400a	0.72753966
