SAC_own/sac_1000/critic_1_sac.pth (torch, 296570 bytes, 5 tensors)

fc1.weight f4 [256, 28]
000000 ed 2c 33 bf b4 71 23 bf 86 0b 3c 3f 73 1f 57 bf
       -0.69990426 -0.6384537 0.73455083 -0.8403236
000010 6b 9c b3 3d 05 c0 08 3e d1 0a a1 be 7e fa 3c 3d
       0.08770069 0.133545 -0.31453565 0.046137325
000020 f0 1c 64 3e 6b 9c 2c be c8 88 9d bd 62 18 62 3e
       0.22276664 -0.16856544 -0.076921046 0.22079614
000030 57 47 4a be da c6 17 be 1e 04 92 be be cb bb be
       -0.19753776 -0.1482195 -0.28518766 -0.3667888
000040 3c b6 88 bd 49 59 2b be c9 c1 c7 be f0 36 55 bd
       -0.066753834 -0.16733278 -0.39015034 -0.052054346
000050 de 7a 18 be 55 c7 e3 bd b4 30 6f be a1 84 95 3e
       -0.1489062 -0.11122004 -0.23358423 0.2920275
000060 64 1f 90 3d f0 99 a9 bd a0 95 8f bd dc 49 3f 3e
       0.07037237 -0.082813144 -0.070109606 0.18680519
000070 89 b1 08 bf 0e 61 03 3f b9 03 bb be 9f e0 94 bf
       -0.533959 0.5131997 -0.36526278 -1.1631049
000080 62 98 9a 3e 33 9b 0b 3e 1f 68 be 3e 26 4b d8 3d
       0.30194384 0.13633423 0.37188813 0.105612084
000090 66 d0 4a be bd a7 dc 3d 32 46 3e 3c 39 48 90 3e
       -0.1980606 0.10774181 0.011613416 0.28180102
0000a0 59 82 33 3e 13 0d 00 bf 6c df d2 be 16 b1 e0 be
       0.17530192 -0.5001995 -0.41186082 -0.43885106
0000b0 b7 e9 09 bf 85 f9 17 bf 01 0a 9b be a9 d6 0c bf
       -0.53872246 -0.5936511 -0.3028107 -0.55015045
0000c0 f2 a9 0f bf 5b 0c fa be af 69 fa be 1e da 3e bf
       -0.5611869 -0.4883755 -0.48908755 -0.7455157
0000d0 ba 27 31 3d e3 99 b8 3d 63 23 d9 bd 9a a9 49 be
       0.043250777 0.090137266 -0.106024526 -0.19693604
0000e0 0a c0 e6 bf 3f 05 82 bf 17 56 85 3f df ec fa bf
       -1.8027356 -1.0157851 1.0416898 -1.9603537
0000f0 2b f9 d1 be d9 a5 14 be 55 3b 83 be 0f 81 1c 3c
       -0.41010413 -0.14516391 -0.25631204 0.009552254
000100 60 f3 2a bd b0 1b a0 bf 93 3b 1a 3e ee a8 47 bf
       -0.041736007 -1.250845 0.15061788 -0.7799214
000110 dd 8e d4 3d df 4d f4 3e 24 8f 6a be af d5 8a be
       0.103788115 0.4771566 -0.22906166 -0.27116153
000120 f5 3c d3 be ca 93 d3 be 32 e0 36 be f0 fe 9f be
       -0.41257444 -0.41323692 -0.17858961 -0.3124919
000130 c8 31 09 bf 09 16 6a be ea f6 a4 bb 93 69 93 3c
       -0.53591585 -0.22859968 -0.0050343173 0.017994678
000140 69 04 ba bd af 6d 27 bd 31 dc b7 bd f8 9c 2d bd
       -0.090828724 -0.040876087 -0.08977545 -0.042386025
000150 7a f2 b2 3f a9 03 06 40 48 60 78 bf ec 7e 05 bf
       1.3980248 2.0939734 -0.97021914 -0.5214679
000160 3a bf 9c 3f 94 08 e5 bd 73 9e 64 3f 90 f8 98 bd
       1.2245858 -0.11183277 0.89304274 -0.074692845
000170 10 51 57 bd 0b 32 cc 3b 33 a1 fb 3d 4f a6 4c bd
       -0.05256754 0.0062315515 0.12286606 -0.04996329
000180 12 e5 11 3e 16 2a b6 bb b1 ea ee bd bc 30 2c be
       0.1424754 -0.0055592163 -0.116658576 -0.16815466
000190 fa 6a c5 be 25 ff 2c be de 5f fc bd 77 8a 06 bf
       -0.3855818 -0.16894205 -0.12322973 -0.5255503
0001a0 70 ac c5 be d8 92 d1 be be e8 d5 bd 4c d4 3d bf
       -0.38608122 -0.40932345 -0.10444783 -0.74152064
0001b0 2f 3b b8 bd c6 0f e7 bd 1c 24 56 bd 95 6e 4a bb
       -0.089956634 -0.112823054 -0.05228053 -0.0030888666
0001c0 7b 9e 97 bf 8a 0b 43 bf b8 f2 b0 3f 6d 17 3f 3f
       -1.1845239 -0.7618948 1.3824072 0.7464512
0001d0 2c 99 f9 3d 3d aa 0e 3e b3 ba 81 be a4 f6 2b be
       0.12187418 0.13932128 -0.25337753 -0.16793305
0001e0 e2 78 89 bf 6a 5c 98 bf 3d 93 26 be aa 45 e0 3d
       -1.0740016 -1.1903203 -0.16267104 0.10950787
0001f0 fc 3e 03 3e 14 9b 75 bd e6 60 0b be ee 86 d0 bc
       0.12816995 -0.059962347 -0.13611183 -0.025454964
000200 8a 01 83 be 02 b5 d6 bd f8 4c 56 bd 9a 3c b8 be
       -0.25587112 -0.10483743 -0.052319497 -0.35983735
000210 b7 11 8b be 85 56 03 be 9a 46 46 be 1b c1 a7 3c
       -0.27161953 -0.12825973 -0.1936287 0.020477822
000220 80 a6 d4 bb ae 82 6a be 94 ba 8f bd cc 97 05 bd
       -0.006489575 -0.22901413 -0.07018009 -0.032615468
000230 7c 3b ad bf aa 80 a1 be 92 86 82 3f 5e 85 14 bf
       -1.3533778 -0.31543475 1.0197318 -0.58016
000240 27 b2 f0 be 6f 10 62 3c 0d 36 bb be 78 2f 66 be
       -0.4701092 0.013797863 -0.36564675 -0.22479045
000250 fe 07 55 3e fe 8d 59 be 0c 73 24 bd e5 c7 5f be
       0.2080383 -0.21245572 -0.04014878 -0.21853597
000260 71 89 e3 3d 6c 6d 86 3e 05 40 80 be af 8d cd bd
       0.11110199 0.26255357 -0.25048843 -0.100367896
000270 68 04 e9 bd e4 dc 16 be ad 0e 1d be f9 cf 75 be
       -0.113777936 -0.147327 -0.1533763 -0.24005117
000280 2c 8d b5 be ff bc a9 bd 2a d1 56 be 41 b8 16 3e
       -0.35459268 -0.08288001 -0.20978227 0.14718725
000290 56 3b 18 3d 59 8b a2 bb ad e3 e6 3d f2 97 92 3e
       0.037165962 -0.004960459 0.112738945 0.2863155
0002a0 2e 5f 2c 3e a2 c3 67 3f d6 b0 b7 3a e5 f9 55 bf
       0.16833183 0.90532887 0.0014014493 -0.83584434
0002b0 fb 85 88 3e 7b 00 0e bf c8 e4 ca be 44 bb 72 be
       0.2666472 -0.55469483 -0.3962767 -0.23704249
0002c0 1e a5 a1 bc 15 e0 c5 3e e0 2b aa bc 84 08 cc 3b
       -0.019732054 0.38647524 -0.020772874 0.006226601
0002d0 a8 f0 25 3d cf e1 18 3e 05 df e7 be a4 18 07 bf
       0.04051271 0.14929889 -0.45287338 -0.52771974
0002e0 01 a8 c7 be 18 92 4a be 31 4a ae be 95 35 e3 be
       -0.38995364 -0.19782293 -0.3404098 -0.44376817
0002f0 7b a3 c4 be ee 80 7a be 21 2c 94 be d3 20 19 bb
       -0.38405976 -0.24463245 -0.28939918 -0.0023365512
000300 2c 81 df be 03 2a 99 be 77 0d 61 bd fd b6 b0 3c
       -0.43653238 -0.29914865 -0.05494448 0.02157163
000310 9d 3f 66 bf 56 4e 8b bf a8 54 0e 3f bc 50 70 3f
       -0.89940816 -1.0883281 0.55597925 0.9387319
000320 8e 41 98 be 51 af 07 bc 3a bb 44 be cc 52 9a 3e
       -0.29737514 -0.008281545 -0.19212046 0.30141294
000330 1f b7 26 bc 05 e7 f3 bb e2 82 18 bd 4e 38 b6 3e
       -0.010175495 -0.007443311 -0.037234195 0.35589832
000340 a2 2a 2a bd 79 b1 d4 3d 52 e4 1e 3e 21 ae 68 3e
       -0.041544564 0.10385413 0.15516785 0.22722675
000350 1f d0 a8 3e 8d a5 86 3e 53 c4 0a 3e b3 73 76 3c
       0.32971284 0.2629818 0.13551454 0.015042233
000360 85 6b 9f 3d 83 f3 6d 3d dd 9e 12 3e b0 19 8a be
       0.077841796 0.05809356 0.14318414 -0.26972723
000370 f6 af 9e 3d 94 29 8b be a9 45 be 3c 3e 7a 32 bd
       0.07748406 -0.2718016 0.023226576 -0.04357361
000380 d5 23 ed be 03 e5 e9 3f 85 3d f5 bd 07 70 33 bf
       -0.463164 1.8273014 -0.119746245 -0.70092815
000390 ea 10 07 3f 39 b9 21 be 67 0b f2 bc 1f db 49 3e
       0.52760184 -0.15793313 -0.029546453 0.19712494
0003a0 63 a0 d9 be 70 0a 07 bf 05 22 4b bd df b4 01 bf
       -0.42505178 -0.527503 -0.04959299 -0.5066661
0003b0 83 02 0c 3e c2 29 e0 3d 00 17 7d 3c cd 7f 2a be
       0.13672833 0.10945465 0.015447378 -0.16650315
0003c0 25 6b bc bb 1e 6a 49 be 1e ae c7 bb e7 a0 d8 bd
       -0.0057500773 -0.19669387 -0.0060937544 -0.10577565
0003d0 1e af 83 be 1b cf 90 be 2f 70 57 bb 65 78 b8 3e
       -0.2571954 -0.2828301 -0.0032873263 0.36029354
0003e0 26 0c 0c be b3 af 86 be f7 3b ef 3d 1e 31 8f 3e
       -0.1367651 -0.26305923 0.11681359 0.2796716
0003f0 c8 ff e8 3d 81 65 b4 bf c4 81 9e bf 02 cb 5b bf
       0.113769114 -1.4093477 -1.2383351 -0.8585664

fc1.bias f4 [256]
000000 b1 5a e1 3e 2e 6e 41 be b8 b9 a8 3e b2 63 3a be
       0.44014505 -0.18889686 0.32954192 -0.18202093
000010 8c 81 8f 3b 23 7d 14 3e 86 75 ce 3b 43 3a 92 be
       0.004379457 0.14500861 0.006300631 -0.28560075
000020 b7 fd f9 3e b2 c9 bd 3e 17 8f a8 3e df a3 4a bd
       0.48826382 0.37067944 0.3292167 -0.049472686
000030 c2 cd 53 3e 72 71 6c 3e 33 0e 12 bf bb d4 fe be
       0.20683959 0.23090151 -0.57052916 -0.49771675
000040 47 fc fd 3d d0 b4 fe bd db 87 fb be 94 ae b8 be
       0.12401634 -0.12436831 -0.49127087 -0.36070693
000050 ac 01 1b bf 11 f2 59 be 9f 1a 7d bc 2d 2c 43 3f
       -0.60549426 -0.21283747 -0.0154482415 0.7623928
000060 9d be 96 be f3 43 e4 bd 23 6a 4f 3d 60 10 b6 be
       -0.294423 -0.11145773 0.05063833 -0.35559368
000070 57 cc 0e 3d 2e 0e 11 3e e0 de ce be c8 7f b8 b9
       0.034862842 0.14165565 -0.40404415 -0.0003519042
000080 db 65 a8 3d a3 ab f7 3d 87 f5 65 3e 60 09 01 be
       0.082225524 0.12093284 0.22456942 -0.12601233
000090 27 f6 09 3d 30 cb 9a 3e 3d cf 66 3e 63 67 91 bc
       0.033682015 0.30233145 0.22539993 -0.017749494
0000a0 08 7a d6 bd 2c c3 56 3d 54 be d2 bd 1f d3 2e 3e
       -0.10472494 0.052432224 -0.102902085 0.17072724
0000b0 07 75 f8 bb b2 a6 e7 bd 59 43 88 be 17 bb fb 3e
       -0.00758231 -0.113110915 -0.26613882 0.49166176
0000c0 06 41 ee be 7b 89 67 be cc 1e 2d 3d 18 1c 56 be
       -0.46533984 -0.22611038 0.0422657 -0.20909154
0000d0 33 8a bb 3e 4d d0 44 3e d8 30 c5 be 17 50 87 be
       0.36628875 0.19220085 -0.38513827 -0.2642829
0000e0 d3 d8 d2 bd 51 87 6f 3e d0 1c 9e be 22 74 d8 be
       -0.10295262 0.23391463 -0.30881357 -0.42276102
0000f0 4e 98 32 bd e0 06 cd 3d 5b 1d df 3e a2 44 12 3f
       -0.04360228 0.10011077 0.43577084 0.57135975
000100 21 26 23 bf 5b 58 44 be 6e 49 d4 bb f3 10 b0 3e
       -0.63730055 -0.1917433 -0.00647848 0.3438793
000110 a9 cc 84 3e a3 8a c7 3e 50 0d d4 bd de 0c f4 3e
       0.25937393 0.3897296 -0.10354102 0.47666067
000120 80 6b 74 bd f2 e6 b3 3e c1 35 e9 3e 61 b5 ad 3e
       -0.059672832 0.35137135 0.45548823 0.33927444
000130 8e fe 00 3f 61 1f 8e bc 1f ec d2 3a 35 9b 92 3e
       0.5038842 -0.017348947 0.0016092098 0.2863404
000140 0a ef 89 be 0c ad da bc af 33 ce 3e d1 f0 8e 3e
       -0.26940185 -0.026693843 0.40273806 0.27918103
000150 cf 81 50 bd 8d 16 b7 3e a7 12 80 be e2 1c 28 be
       -0.050905045 0.35759392 -0.2501423 -0.16417268
000160 a6 53 f6 bd 4e 0b 5b be ce a0 81 3e 40 7e 27 3d
       -0.120276734 -0.21391031 0.25317997 0.040891886
000170 b6 07 a9 be 63 ae ed 3d 40 21 86 3d 2d b3 35 3f
       -0.33013695 0.11605527 0.06549311 0.70976526
000180 de 6a 21 3f 4b 16 82 3e 81 6e 7f be a6 34 45 be
       0.6305369 0.25407633 -0.24944498 -0.19258365
000190 40 e8 89 be ad dd 17 bf 15 a1 04 bb 4a 82 15 be
       -0.26935005 -0.59322625 -0.0020237614 -0.14600483
0001a0 a5 85 5a be 10 e5 27 be 1a 15 5b be 36 21 d7 be
       -0.21340044 -0.16395974 -0.21394768 -0.42017525
0001b0 01 1c d2 be 7b 8d d9 3d 39 51 a3 bd ca d0 5e 3e
       -0.4103699 0.106226884 -0.07974476 0.21759334
0001c0 ea 81 66 be fd c0 14 be 76 c8 05 be 06 fe a0 be
       -0.22510496 -0.14526744 -0.13064751 -0.31443805
0001d0 15 d3 4a 3e 72 fe 0e 3f 17 bd 27 be fb f9 8f 3e
       0.19807084 0.55857 -0.16380726 0.28120407
0001e0 df 4c e2 bc d2 82 b5 3e 36 2b bc bd 00 96 dd 3e
       -0.027624546 0.3545137 -0.09187929 0.43278503
0001f0 9a 59 96 be 59 a2 94 3e b8 53 cb 3d 66 15 62 be
       -0.29365236 0.2903011 0.099280775 -0.22078475
000200 e4 54 67 be b3 22 71 be 10 1d c2 3e 1e 25 16 3e
       -0.22590977 -0.23548393 0.37912798 0.14662597
000210 e8 1d 99 3d 41 7e f5 3d 6b 9b 28 3e 6c 24 4f be
       0.07476407 0.11986972 0.16465537 -0.20228738
000220 d2 1c bb be fd 45 61 3d b4 65 3e 3e 3a 17 17 be
       -0.36545426 0.054998387 0.18593484 -0.14754954
000230 4c 78 c6 3e 0b 62 9e 3e 1d 39 4b 3c b1 51 11 be
       0.38763654 0.30934176 0.012403754 -0.14191319
000240 01 5c e5 be a5 0c d1 be 60 53 ab 3d a7 62 b3 be
       -0.44796756 -0.4082996 0.08365512 -0.35036203
000250 0d c1 10 bd 48 e8 81 3e 4f de 88 bd 3c f3 8a 3d
       -0.035340358 0.2537253 -0.06683027 0.067846745
000260 55 4d 84 bd 0d d8 a0 3d 9f 26 15 be cb d3 a3 3e
       -0.064600624 0.078537084 -0.14565514 0.31997523
000270 27 c4 be be 05 91 1a be 62 0b 24 3c 31 46 06 bd
       -0.37259027 -0.15094383 0.0100124795 -0.032781783
000280 d8 54 13 3f 99 d0 34 be ed 20 15 bf 7b f2 00 3f
       0.57551336 -0.17657699 -0.58253366 0.50369996
000290 3e ba 75 3e 94 f4 2d 3f 57 7d 8c be 95 b9 11 3f
       0.23996827 0.6795132 -0.27439377 0.569238
0002a0 5e ae 2f be f9 2f 86 be 6e e1 13 3f fb f0 32 be
       -0.1715636 -0.26208475 0.57765853 -0.17474739
0002b0 6d 82 5a 3e 7b e3 16 bd 32 a8 83 be 40 64 16 3e
       0.21338816 -0.036838036 -0.2571426 0.1468668
0002c0 08 ee c8 3e f5 06 10 bf ae a0 36 3e 1d b3 09 3e
       0.39244103 -0.56260616 0.17834732 0.13447233
0002d0 a2 0b 56 bd 24 29 3e 3d f8 ce 38 3f a0 f3 c3 be
       -0.052257188 0.046425954 0.7219081 -0.3827181
0002e0 0a 44 e7 bd c9 fa 85 be e7 d0 31 3e f2 14 30 be
       -0.11292274 -0.26167896 0.17364846 -0.1719549
0002f0 79 ca 9e bd 43 7e 07 3e a7 6f a5 be 00 47 e4 bd
       -0.07753462 0.13231759 -0.32311746 -0.11146355
000300 1e 70 4f 3e 0d cd d7 3e 78 48 cc be fc 19 39 ba
       0.20257613 0.4214863 -0.3989904 -0.0007061062
000310 83 85 13 3f c7 85 23 be 49 c7 86 3e 0a 87 98 3e
       0.576256 -0.15969001 0.26323918 0.29790527
000320 b8 1e 13 bf bb 94 a5 3d c9 d1 4f 3e 2d 9c 3d 3d
       -0.5746875 0.08085009 0.2029487 0.04629152
000330 25 54 5f be a1 55 c9 3e 47 ed b0 3d 54 86 10 3f
       -0.21809442 0.39323142 0.08639007 0.5645497
000340 e1 c2 69 3e 01 e6 22 3d 08 ce 20 bd 8b ff 8b 3e
       0.22828247 0.03977013 -0.039258987 0.273434
000350 38 56 af 3e 73 4d ba bd 01 65 09 3d 9c d9 89 3e
       0.34245467 -0.090968035 0.03354359 0.26923835
000360 d8 4b 8c bc c7 a6 85 3e 3b f8 64 be de 1c b7 be
       -0.017126009 0.26103804 -0.22360317 -0.3576421
000370 56 94 63 3d 63 85 b1 be 5c 2c d8 be 74 1e 59 3d
       0.055561386 -0.34672078 -0.42221344 0.053007558
000380 0e 89 e3 bd 14 8f 71 3f 25 a1 9f 3e 67 e3 84 be
       -0.111101255 0.94358945 0.3117763 -0.25954744
000390 07 0c 1a bf 64 f4 02 3f 23 3b b8 be 78 b4 a3 be
       -0.601746 0.5115416 -0.35982618 -0.31973624
0003a0 27 f6 37 be dd 75 e9 3e c0 01 3a 3e ec 7a d1 be
       -0.17964993 0.45597735 0.1816473 -0.40914094
0003b0 18 c4 be 3d 27 bc 4a 3e 95 ce a3 be 3a b8 27 3f
       0.09314746 0.19798337 -0.31993547 0.6551548
0003c0 10 00 ce 3d 13 7a 07 be 0a 91 83 be 83 f9 71 3e
       0.10058606 -0.13230161 -0.25696594 0.23630337
0003d0 57 d6 98 3e 38 dd 96 3e 24 da aa be ac 9b d3 bd
       0.29851028 0.29465652 -0.33369553 -0.103324264
0003e0 71 52 35 bd 75 ff e8 3c 9f c8 be bc 3b f4 0d be
       -0.044268075 0.028442124 -0.023289023 -0.13862698
0003f0 a3 f5 69 3e 87 6d 25 3f e1 66 b7 be d2 8f 01 3f
       0.22847609 0.6462025 -0.35820678 0.5061008

fc2.weight f4 [256, 256]
000000 9f ce 4d 3e fc 93 50 3f ca e6 8b be f5 19 93 3f
       0.20098351 0.81475806 -0.27324516 1.1492296
000010 dc d8 1f be 20 1e 4a 3e 3b 5b df 3e 3d 49 40 3c
       -0.15610069 0.19738054 0.4362429 0.011736211
000020 36 68 b4 3e 6b 1f 64 3e f9 70 98 3e cb 07 6e 3d
       0.35235757 0.2227761 0.2977369 0.0581129
000030 fc 89 12 3e 6b 79 48 be cc bb ea 3f 41 a3 76 3e
       0.1431045 -0.19577567 1.8338561 0.24085714
000040 1d 63 80 be 23 a3 e6 3f 2f 91 f1 be c4 37 60 3f
       -0.25075617 1.8018535 -0.4718108 0.8758509
000050 e0 08 e9 3e b1 1a c8 3c 4f b4 4c bd 06 99 31 3f
       0.45514584 0.02442679 -0.049976643 0.6937412
000060 e6 96 b2 3e 81 ef 7f 3d cc 05 38 3d 4a 46 0e 3e
       0.3488075 0.062484268 0.044927403 0.13894
000070 36 9f aa 3f c5 26 6b 3d b2 19 13 3f 8f ca 7f 3e
       1.3329837 0.05741002 0.5746108 0.24979614
000080 47 61 07 40 97 c6 7e 3f 87 9f c3 bc 4a 1d 9f 3d
       2.1153123 0.99521774 -0.02387978 0.07769258
000090 69 22 5e 40 e2 1e 2a be 2c 07 38 bd 80 66 ba bd
       3.4708502 -0.16613343 -0.044928715 -0.091015816
0000a0 82 d6 64 3f 49 a3 2b 3f 3e 88 d8 3d ea 35 b9 3e
       0.8938981 0.6704603 0.10572861 0.36173946
0000b0 70 bd 17 3e 42 c6 c9 3d 39 45 b0 bf 72 7e 5f 3d
       0.14818358 0.09852268 -1.3771125 0.054563947
0000c0 9d d6 2f 3d c2 67 ec 3d 16 23 83 be 5e 31 ba 3c
       0.04292928 0.11543228 -0.25612706 0.022728618
0000d0 22 31 4c 3e 7f 76 db bd 0c b6 87 bf b7 bd a1 3e
       0.19940618 -0.10715961 -1.0602431 0.31590053
0000e0 01 68 d9 3d a2 8e e9 3d 17 a5 89 3f af 43 80 3e
       0.1061554 0.11404158 1.0753506 0.25051638
0000f0 8a e6 c0 3d f5 b2 04 3e 46 44 36 3e c4 01 8a 3f
       0.09418972 0.12958892 0.17799482 1.0781789
000100 da 02 aa 3e 2b 07 1d 3e 1f 0c a1 3f 4e c0 75 3d
       0.332053 0.15334766 1.2581824 0.05999785
000110 d0 2f 08 be d5 2b 27 3e 4e 77 7d be 2d e2 2b 3f
       -0.13299489 0.16325314 -0.24752542 0.6714199
000120 14 aa b9 3c c3 6c e8 3d 6c d6 a9 3e df 84 04 3e
       0.022664107 0.1134887 0.33171403 0.12941311
000130 2b 32 6e 3e 07 52 fd bd 00 89 31 3d f8 02 1b 3d
       0.23261325 -0.12369161 0.043343544 0.037844628
000140 8e e5 ab be 82 a7 17 3e 88 c5 cb 3d 7a d9 85 3e
       -0.33573574 0.14809993 0.099497855 0.26142484
000150 e9 14 aa 3e 79 ef 6b 3e a6 b8 14 3e b1 94 49 bf
       0.33219078 0.2304057 0.14523563 -0.7874251
000160 7c 7b 97 3e 6b f0 6c 3d 72 1c 10 3e 26 1e 61 3d
       0.295864 0.057846468 0.14073351 0.054960392
000170 89 d3 43 3e 5e ce d5 be d6 ea 0b 3d 3e 1c 80 3f
       0.19123663 -0.41759008 0.034159504 1.0008619
000180 01 e3 76 3f 3b 3d 8d 3e 21 85 41 3f b7 d7 21 be
       0.9644013 0.27585778 0.75593764 -0.15804945
000190 eb cf 8a 3f 1e c2 9b bd 19 ee 85 be 77 e7 dd bf
       1.0844702 -0.07605384 -0.26158217 -1.7336262
0001a0 14 09 6d bf d6 c3 8b 3c e8 84 85 bf bb 51 9d 3d
       -0.9259198 0.017061155 -1.0431185 0.076816045
0001b0 80 d0 8b 3e 16 6a 3f 3e d0 10 81 3f 07 f6 4c 3e
       0.2730751 0.18692812 1.0083256 0.20015727
0001c0 e0 ad 97 3f ad e5 27 3e 7e 97 34 3e 8b e0 12 bf
       1.1849937 0.16396208 0.17635915 -0.57373875
0001d0 1d 78 8e 3e 0b e9 4f 3e 77 11 8b 3e 55 92 ad 3d
       0.27826014 0.20303743 0.27161762 0.08475176
0001e0 28 b8 91 3e f9 3b c2 bd 63 19 39 3e 37 09 e2 bd
       0.28460813 -0.09484095 0.1807609 -0.11036914
0001f0 99 33 42 40 a0 95 2c bd bd 30 cf 3d b4 50 85 3d
       3.0343993 -0.04213488 0.10116718 0.065095335
000200 7c ef 05 bd f4 e8 21 3e 5b 66 79 3c 7d 44 4f 3e
       -0.032699093 0.15811521 0.015222157 0.2024097
000210 a7 85 89 3d 21 c5 b2 3d 76 05 39 3d a5 e7 81 3f
       0.06714945 0.087290056 0.045171224 1.0148817
000220 94 16 82 3e df f3 09 3f 88 85 a4 3f 26 c1 9d 3e
       0.2540785 0.5388774 1.285325 0.30811423
000230 0d 6a 0b 3e 41 59 fd 3e 90 99 81 3d 63 9a 1d 3e
       0.13614674 0.49482158 0.06328118 0.15390925
000240 ff 99 c1 bf 06 ba b6 3e 28 41 a2 3d 46 f4 54 3e
       -1.5125121 0.356888 0.07922584 0.20796308
000250 07 06 93 3d f3 1a a4 bb a8 dd 16 3e f0 7a d2 3e
       0.07178884 -0.0050080954 0.14732993 0.4110942
000260 d0 5f a2 3d 21 28 21 3e 42 10 d1 bd 74 ff cf bd
       0.07928431 0.15737964 -0.10208179 -0.10156146
000270 e2 4b 18 bf 04 d8 3c 40 41 db 82 3d 8e 86 5c 3d
       -0.5949079 2.9506845 0.063894756 0.05383926
000280 47 00 23 be 46 87 ed 3f ad 88 50 3f 4e c4 78 bd
       -0.15918075 1.8556907 0.8145855 -0.060734086
000290 21 b7 9a bd a5 72 6d 3e 4d 36 7a be 74 24 bb 3d
       -0.0755446 0.23188265 -0.24434777 0.09137812
0002a0 6e 03 3e 3e c5 45 24 bd 1d 37 8b bc 85 1d 97 3e
       0.18555996 -0.0401056 -0.016994053 0.2951471
0002b0 24 1c 8c be c8 1a 23 3f 48 70 97 3e 48 61 93 bf
       -0.2736522 0.6371274 0.2957785 -1.1514063
0002c0 79 bc a1 3e 96 29 5c bf 9e de d6 3e 37 e0 b7 3c
       0.31589106 -0.86000955 0.41966718 0.022445781
0002d0 a1 0e 9b 3d f0 76 19 40 3d da bf 3e 8c f4 34 3e
       0.075711496 2.3978844 0.3747119 0.17671412
0002e0 4f 60 67 3f 08 95 3b be f8 7a 23 be 4e f9 aa 3e
       0.9038133 -0.1831857 -0.15964878 0.3339333
0002f0 ea 88 b0 bd 7a c3 0f bf 4f ed be 3d e9 cc 3c 3e
       -0.08619864 -0.5615765 0.09322607 0.18437542
000300 de 49 30 be 3a 7b b6 bd 3a dc d6 be 87 39 32 40
       -0.17215678 -0.08910222 -0.41964895 2.7847612
000310 79 4e 60 bd 77 12 00 3f 90 3a 30 be 15 4d a2 3e
       -0.054762337 0.50028175 -0.1720984 0.31699434
000320 f1 53 ae bf d3 08 15 bd 6d 05 af 3e d6 cd bf 3e
       -1.3619367 -0.03638537 0.34183827 0.37461728
000330 9d 2a 97 bd 63 b9 30 3f 8d 1a a8 bd 1d 11 2a 3f
       -0.07381175 0.6903288 -0.08208189 0.6643236
000340 cb 7e 9a bd e7 11 51 be d2 3a 0c 3e 4b 4b bf 3e
       -0.07543715 -0.20416985 0.13694313 0.3736213
000350 f9 b8 c5 bd 87 c6 5c 3e 94 59 3d 3e e2 28 dd 3d
       -0.09654421 0.21560107 0.18491203 0.107988134
000360 f8 6f 95 3d f1 a3 19 3e 7f a9 d8 3d c0 c5 24 bf
       0.07296747 0.15003945 0.10579204 -0.6436424
000370 de 6e 76 bd e7 1d 2c 3e 0d 6e 18 3e 95 db 34 3e
       -0.060164325 0.16808282 0.14885731 0.17661889
000380 52 c5 53 3e 5c c0 6e 3e ed 51 3d 3e 20 da c3 bd
       0.2068074 0.23315567 0.18488283 -0.095630884
000390 e4 3b ef 3e b4 21 41 3e da 2f b8 bd 78 a5 f9 3e
       0.4672538 0.18860513 -0.08993502 0.48759055
0003a0 4d f6 75 3d 50 05 a7 3d ad ee 5f 3e b4 79 e7 bd
       0.060049344 0.0815531 0.21868391 -0.1130251
0003b0 24 67 6f be 9d 63 38 3e 4e 60 a1 3d ae 48 9b 3f
       -0.23379189 0.1800675 0.07879697 1.2131555
0003c0 92 36 31 3e 12 2e 01 3e 42 64 94 be dc d2 25 bf
       0.17305973 0.1261523 -0.2898274 -0.6477487
0003d0 90 ea de 3e 50 e4 59 3f d0 99 ec bf df 27 04 3f
       0.43538332 0.85114 -1.848444 0.5162334
0003e0 53 5b e4 3e 6b ca 3e be b6 93 34 3d f4 9d 31 bf
       0.44600925 -0.18631904 0.04408618 -0.6938164
0003f0 8f de 08 3e 47 c5 e7 bc 4c 1f e9 bd c0 0c 31 3e
       0.1336615 -0.028292311 -0.113829225 0.1729002

fc2.bias f4 [256]
000000 e2 a2 8c be 31 40 c8 3e a5 11 46 bd 80 ed cc 3e
       -0.2746802 0.39111474 -0.04835667 0.40024948
000010 ad 06 5d bd 95 3c 03 3f e0 09 75 be 33 fc c8 3e
       -0.053961445 0.51264316 -0.23929548 0.39254913
000020 db eb 07 3f 63 2c 0d 3f 93 01 78 be 81 56 b0 3e
       0.5309426 0.55145854 -0.2421935 0.34440997
000030 fd c7 cc 3e e7 8c 09 be eb fb 0f 3f 2b 66 a5 be
       0.3999633 -0.13432656 0.5624377 -0.3230451
000040 7e 16 a9 bb 74 b6 b2 be 5b ba d3 3e 71 38 b2 be
       -0.005160152 -0.34904826 0.41353115 -0.34808686
000050 d9 8b c9 3e 6c a9 ab be 6f e3 de 3e c4 c8 91 be
       0.39364508 -0.33527696 0.43532893 -0.28473485
000060 3f ba a8 be be 9d 51 bb 03 bf b1 be ea 4f 99 be
       -0.32954594 -0.003198489 -0.34716043 -0.29943782
000070 35 e3 34 3e 16 77 dc 3e 35 f3 86 bb e2 0c 26 be
       0.17664798 0.43059605 -0.004118348 -0.16215852
000080 35 b0 d6 3e d8 41 95 be d7 1b a3 be 37 2d 81 be
       0.4193131 -0.29151797 -0.31857178 -0.2522981
000090 1d e2 db 3e d4 84 a8 be 03 21 a0 be f9 39 cf 3e
       0.42945948 -0.3291384 -0.31275186 0.40473917
0000a0 f3 f5 7d bb df 6e 6d bc cc 94 a0 3c 63 84 f5 3e
       -0.0038751333 -0.014491766 0.019602202 0.47952566
0000b0 b1 7d 4e bd 06 d7 87 be 5e 5a a5 be af b2 81 be
       -0.050412837 -0.26531237 -0.32295507 -0.25331637
0000c0 2a 4e e5 3e 51 52 36 be 7b b8 e8 3e d1 65 d2 3e
       0.44786197 -0.17804839 0.45453247 0.41093305
0000d0 30 94 3f bc 83 96 c0 3e 24 40 2e bd 92 d0 84 be
       -0.0116930455 0.3761483 -0.042541638 -0.25940377
0000e0 14 64 cf 3e 00 bd 6b bd 23 6a f4 3e 4c ea e9 3e
       0.4050604 -0.05755329 0.47737226 0.45686567
0000f0 bb cb 12 3f 36 bf f7 3e 97 b0 f1 bd 07 e7 be be
       0.5734212 0.4838807 -0.1180126 -0.37285635
000100 0c 95 ab be c7 c5 f8 3e e0 e0 c4 3e c3 83 19 3d
       -0.3351215 0.48588392 0.38452816 0.037479173
000110 65 d1 ee 3e 72 6b e8 3b 6b 4a 8e bc cb b2 de 3e
       0.4664413 0.0070928866 -0.01736947 0.43495783
000120 c0 eb ef 3e 86 44 e9 3e 85 be 91 bd ac 23 ce 3e
       0.4685955 0.45560092 -0.07116417 0.4026159
000130 5c ef 80 bd eb cd 35 3b 04 3c 6e be b0 96 08 3f
       -0.06295654 0.0027741145 -0.23265082 0.5335493
000140 eb 7a 86 be 03 1c 9e 3e 6f 18 e5 3e bd ff 9f be
       -0.26265654 0.30880746 0.44745204 -0.312498
000150 2d d5 aa be 62 97 da be cf e6 e8 3e ad e0 f6 3e
       -0.33365765 -0.4269362 0.45488593 0.4821829
000160 ae 04 cd 3e 00 8a 80 be b2 80 dc 3e 1c d9 7b be
       0.40042633 -0.25105286 0.43066937 -0.2459454
000170 0c ad 51 be 78 36 81 be 7a 0c 33 bd d0 fa d1 3e
       -0.20476168 -0.2523687 -0.04371307 0.41011667
000180 d9 55 6c be f7 58 91 be ae 7a e5 3e 84 d8 ee 3e
       -0.23079623 -0.28388187 0.4482016 0.46649563
000190 f4 6f de bc 30 cb 98 be 31 f2 b7 be ef f7 8b bd
       -0.027152993 -0.2984252 -0.35926965 -0.06834399
0001a0 5b d7 62 be 1b 2c 06 3f 32 94 22 bd 50 33 93 be
       -0.22152464 0.5241105 -0.03969211 -0.28750086
0001b0 79 0e 81 bd ad 42 e8 3e 42 3b 67 3c 7a e1 0b 3f
       -0.063015886 0.4536337 0.014113249 0.54640925
0001c0 5f f5 b9 be 07 93 f3 3e 99 35 6d bd 27 ed 98 bc
       -0.36320016 0.4757311 -0.057912443 -0.01866777
0001d0 d9 89 c7 3e 2a 33 0b 3f f7 ee 9c be d7 50 b1 bc
       0.38972357 0.54374945 -0.30651066 -0.021644993
0001e0 ee 66 24 3d f9 db de 3e 7b 6d cf 3e 4d 2b d5 3e
       0.040137224 0.435272 0.40513214 0.41634598
0001f0 8d 7a ca 3e e7 34 c6 3e 1c 4f 06 bc d3 cb ed 3e
       0.39546624 0.38712236 -0.008197572 0.46444568
000200 78 81 b2 3e 43 8a 89 be 4a 2b ea bc de 1c 19 bd
       0.34864402 -0.26863298 -0.028585095 -0.037381046
000210 aa 4b af be 0a cb c1 3e a9 5f ec 3e 7c 95 84 bf
       -0.34237415 0.3785022 0.46166733 -1.0358119
000220 22 22 2d bd 92 0a b5 3e 93 72 3f 3d 6e f2 6b be
       -0.04226888 0.35359627 0.046740126 -0.23041698
000230 20 c0 94 be 0a b4 08 3f fe 02 77 be cb 8a a2 be
       -0.2905283 0.5339972 -0.24122235 -0.31746516
000240 0d 98 f4 3e ee ba 77 bd 0b f9 ea 3e 21 29 a3 be
       0.47772256 -0.060481004 0.4589313 -0.31867316
000250 4b 8c 37 be 89 40 06 be 25 52 00 3f 78 c2 b4 3c
       -0.17924611 -0.13110556 0.5012534 0.022065386
000260 14 37 e7 3e e7 84 d9 3c 41 5d bb be 12 d2 95 be
       0.4515921 0.02655263 -0.36594585 -0.29261833
000270 a1 71 0a be 65 fd 94 be 8a 62 26 be 03 13 be bd
       -0.13519908 -0.29099575 -0.16248527 -0.0928097
000280 00 06 8b be be ba af be 66 f1 07 3f 36 dd dc 3e
       -0.27153015 -0.3432216 0.5310272 0.4313752
000290 80 fb 4d be e5 05 11 3f 67 db 8f be 75 6f ed 3e
       -0.20115471 0.5664962 -0.28097078 0.46374097
0002a0 44 64 ab be 4f fb df 3e 2e 75 16 bd 67 31 80 be
       -0.33474934 0.4374642 -0.036732845 -0.2503769
0002b0 60 2e df 3e d3 dc fd 3e 22 de 05 bd 6d 33 98 be
       0.4359007 0.49582538 -0.032682545 -0.29726735
0002c0 b5 18 7d 3a ca 88 a7 be 44 73 f2 3e a0 9a 88 be
       0.0009654866 -0.3272155 0.47353566 -0.2668047
0002d0 dd f8 cd 3e 71 5b 18 3d b7 7e ba be 6c f2 5a bd
       0.4022893 0.03719658 -0.364248 -0.053453848
0002e0 d5 0d ee 3e d9 d6 f1 3e 0e 43 31 bd 85 40 0e bc
       0.46494928 0.47234228 -0.04327684 -0.008682375
0002f0 0a 57 d6 3e 5a 8f c8 3e 64 74 8d be 42 3e bf 3e
       0.4186328 0.3917187 -0.27627861 0.37352186
000300 87 48 a4 be bc 8d ed 3e a1 aa 90 be fa d5 1c 3f
       -0.32086584 0.46397197 -0.2825518 0.61264
000310 0b 0c ba be 0d c9 a0 3e e6 8c 05 3d aa a1 75 bc
       -0.36337313 0.3140339 0.032605074 -0.014992157
000320 cd 0f 96 be 68 c9 16 3f 6e 6a 06 3f 09 b7 56 be
       -0.2930893 0.5890107 0.5250615 -0.2096826
000330 ca f9 c7 3e ad a0 27 bd 13 d2 c7 3e d6 a1 e2 3e
       0.3905776 -0.040924717 0.3902746 0.44264096
000340 df b2 fc 3e a9 87 e9 3e 5a 13 f0 3e 00 33 2c be
       0.49355218 0.45611313 0.46889764 -0.1681633
000350 eb 0b a6 3d 16 96 89 be 5c 30 c0 3e e8 0d cc bc
       0.08107742 -0.2687232 0.37536895 -0.024908975
000360 29 03 be 3e 7e 5c bb be 04 00 8f be 18 ec b2 bd
       0.37111786 -0.36594003 -0.279297 -0.087364376
000370 a6 14 ba bd 69 f2 c8 3e 22 f4 99 be b6 92 b1 be
       -0.090859696 0.39247444 -0.3006907 -0.34682244
000380 84 e7 c8 3e 15 e7 b5 be 86 36 cb 3e 6a a3 5a be
       0.39239132 -0.35527864 0.39690036 -0.213514
000390 72 5e 97 bc 45 d5 07 3d c7 48 16 3f b6 7b ed 3e
       -0.018477652 0.033162374 0.587048 0.46383446
0003a0 70 17 9b be 88 78 1c bc 91 26 a1 be 2d 23 b4 3e
       -0.3029132 -0.009550221 -0.31474736 0.35183087
0003b0 ee 7b 1c be b3 f5 67 bd 85 85 ef 3e 3c 5c ce bd
       -0.1528165 -0.0566308 0.46781555 -0.10076186
0003c0 a3 06 ac bb 5b ad 70 bd 55 5e ce 3e 10 33 52 bf
       -0.0052498146 -0.058759075 0.40306345 -0.82109165
0003d0 d5 26 d0 bd 54 3b 02 3b 4c d5 ad be 43 ba 93 be
       -0.101636566 0.0019871788 -0.33951795 -0.28853044
0003e0 84 cd cb 3e d6 c9 17 3d a2 de 9b be 6d 43 91 bd
       0.39805233 0.03705772 -0.30443293 -0.070929386
0003f0 65 ee a7 be e5 4e 24 3f 03 8c 84 be 8c 20 d2 3e
       -0.32799068 0.64182884 -0.2588807 0.41040456

q.weight f4 [1, 256]
000000 ce 04 99 bd d7 86 b3 3e f4 7d 03 bd f4 ef 9e 3e
       -0.074716195 0.35063812 -0.03210254 0.31042445
000010 97 56 0b bc 5a 2a 47 3f 76 fa 48 bf 1c 80 23 3f
       -0.008504531 0.77799 -0.78507173 0.63867354
000020 4c 15 65 3f 49 20 73 3f 4a 6b ca be b8 21 2b 3f
       0.8948562 0.9497114 -0.3953498 0.66848326
000030 c8 2f 21 3f 54 91 01 3f 0e 5e a5 c0 22 1d 22 be
       0.62963533 0.5061238 -5.1677313 -0.15831426
000040 f2 0f 83 3c 5a 92 f3 be 35 44 3e 3f 42 40 04 bf
       0.015998814 -0.47572595 0.74322826 -0.5166055
000050 d8 f1 cf 3e d5 11 e3 be 28 99 35 3f 6b a8 dd be
       0.406142 -0.44349542 0.7093682 -0.43292555
000060 e2 5f d1 be bd b3 ef 3c ae c3 29 be 3a ba ff be
       -0.40893465 0.02926051 -0.16578552 -0.49946767
000070 48 2b 47 40 7b b1 31 3f b2 54 02 3d 87 1a da be
       3.1120167 0.6941144 0.031819053 -0.42598364
000080 59 a6 17 3f 72 53 e6 be 45 bd ee be bb 0a af be
       0.592382 -0.4498554 -0.46628776 -0.34187874
000090 7f cf e2 3e 9c 06 02 be 83 90 ec be 52 ab 14 3f
       0.44298932 -0.12697834 -0.46204004 0.58073914
0000a0 f2 49 be bb 36 a7 e2 bc c1 99 5f bd c6 e9 ed 3e
       -0.005807155 -0.027667623 -0.05458999 0.46467417
0000b0 7f 88 0b bd 44 1c 2c be 9b 67 f6 bd 07 b6 e1 be
       -0.03406572 -0.16807657 -0.1203148 -0.44084188
0000c0 8c 77 40 3f 01 a0 a6 bd cd bd 34 3f 41 56 4d 3f
       0.75182414 -0.08135987 0.70602113 0.8020974
0000d0 d2 0d c7 3b 29 e5 06 3f f7 4c 1f bd 3d 88 1e bc
       0.0060746456 0.5269342 -0.03889176 -0.009676036
0000e0 d3 60 0a 3f 2e 2f b3 bc 71 b8 e4 3e c7 07 16 3f
       0.5405399 -0.021873083 0.44671968 0.5860562
0000f0 df bf 09 3f 61 2c 5d 3f a6 be 2d c0 60 ac 1a be
       0.538084 0.8639584 -2.7147613 -0.15104818
000100 59 71 e3 be 68 27 5a 3f 3a ca 34 3f 30 53 e7 3c
       -0.44422415 0.8521638 0.70621073 0.02823791
000110 67 9f 04 3f b3 1d ab bc 6d 7b 9c bc 93 c0 46 3f
       0.5180573 -0.020888185 -0.019101823 0.77637595
000120 91 47 9c 3f c9 bc 33 3f f3 f5 dd 3c 5c 85 4e 3f
       1.220934 0.7020994 0.027094817 0.8067224
000130 89 55 60 3c 04 70 18 3b b9 09 61 be 59 84 5b 3f
       0.013692268 0.0023260126 -0.21976365 0.8574882
000140 e4 ff 47 be 15 c7 69 3e 2b 22 22 3f 55 9c 03 bf
       -0.19531208 0.2282985 0.63333386 -0.5141042
000150 be f9 f1 be cb 3c 23 40 78 cd 3b 3f 0f aa 54 3f
       -0.4726085 2.5505855 0.73360395 0.8307199
000160 14 ea 54 3f e6 1d df be fb 96 34 3f 02 06 0b bf
       0.83169675 -0.43577498 0.7054288 -0.5430604
000170 c4 d5 cc bd 32 1f 8e 3b ff f2 d9 bb 06 c4 4d 3f
       -0.1000171 0.004337215 -0.006651282 0.80377233
000180 0a f5 85 3e 7a e6 ec be 65 81 41 3f b7 d0 26 3f
       0.26163512 -0.4626959 0.75588065 0.65162224
000190 02 29 28 3b 6a 51 fa be db fe 08 3c 49 3c ae bc
       0.0025659208 -0.4889024 0.0083615435 -0.02126898
0001a0 21 e9 63 bc e5 49 58 3f fe 3c 95 ba fa 8f bc bd
       -0.013910563 0.84487754 -0.0011385975 -0.09207149
0001b0 fb d3 23 bf 24 6f 4a 3f 42 49 18 3c 1b c8 d1 3e
       -0.6399533 0.7907584 0.00929481 0.4097298
0001c0 a9 62 3b be 70 46 40 3f b5 c9 3f c0 18 81 42 3d
       -0.18299355 0.7510748 -2.9966862 0.047486395
0001d0 b8 5b 45 3f 5f 06 d9 3e c1 fe ec be 40 ed 45 3d
       0.77093077 0.42387673 -0.46288112 0.048321962
0001e0 b5 2f b1 3c dc 30 41 3f 1d 54 2c 3f dc 03 59 3f
       0.021629194 0.7546518 0.67315847 0.84771514
0001f0 80 73 3f 3f 36 a2 54 3f aa ce b8 3f fe a1 42 3f
       0.74785614 0.83060014 1.4438069 0.7602843
000200 8e 97 0d 3f a4 7d dc bd 94 2b a5 bb ff 7d 24 bd
       0.5530938 -0.107661515 -0.0050405953 -0.04015922
000210 37 bc c5 bd 0e c6 51 3f a1 ec 3f 3f 9b f8 26 40
       -0.0965504 0.8194283 0.7497044 2.6089237
000220 e9 fc c2 bc 3a 87 2c 3f 6c aa 54 3d f2 68 f6 be
       -0.023802238 0.6739384 0.05192034 -0.48126942
000230 6b f7 0f be e0 79 6e 3f fa fa 89 be 00 ce f4 be
       -0.14059226 0.93154716 -0.26949292 -0.47813416
000240 cf 53 3f 3f c6 4b 91 bc 22 8b 3f 3f cd d2 13 be
       0.74737257 -0.017736327 0.74821675 -0.14435883
000250 8a 29 84 bd 2b 2a 60 be 48 75 4c 3f 1f bc 69 3b
       -0.064532354 -0.21891086 0.79866457 0.0035665107
000260 b3 3b 35 3f 31 e6 10 3d 23 b2 25 be 3b ad 70 bd
       0.7079422 0.035375778 -0.16181235 -0.058758955
000270 2a e8 f1 bd ea fd 0b be 44 14 43 be ac 50 c4 bd
       -0.1181186 -0.1367108 -0.190507 -0.095856994
000280 cc 04 8a bd d7 21 41 bd 35 20 50 3f d4 1c 26 3f
       -0.06739196 -0.047151413 0.81299144 0.6488774
000290 a9 bf 01 bf 4f 38 ed 3e 5d 0c 3b 3e 4e 11 06 3f
       -0.50683075 0.46332023 0.18266435 0.52370155
0002a0 38 72 f3 bd 9a 34 4c 3f 0a 77 d1 bc b4 0c ac bd
       -0.1188702 0.79767764 -0.025569458 -0.084008604
0002b0 09 0d 37 3f 34 3a 37 3f 9d e7 da bc 96 bd e6 be
       0.71504265 0.71573186 -0.02672177 -0.45066518
0002c0 6b 68 cb ba ee e8 05 be 73 95 55 3f 45 a5 dd be
       -0.001551879 -0.13077137 0.83431166 -0.43290153
0002d0 89 08 37 3f a3 6d 06 bb ef 9b 84 bd a5 c4 27 bd
       0.714974 -0.0020512126 -0.064750545 -0.04095902
0002e0 85 f6 31 3f a9 a0 e7 3e e0 dc 85 3b 5d 72 31 bd
       0.69516784 0.4523976 0.0040851682 -0.043321956
0002f0 b7 ce dd 3e 20 b7 34 3f ba bc 23 be f5 3e b1 3e
       0.43321773 0.70591927 -0.15989962 0.34618345
000300 92 6e 89 bd 26 13 2d 3f 65 63 47 be 84 3f a2 3f
       -0.06710543 0.67607343 -0.1947151 1.2675633
000310 a6 18 d5 be 4c fa 96 3e ec 31 be 3b bd 5b 99 3c
       -0.41620368 0.29487836 0.005804291 0.018720502
000320 b5 3e cd bd 32 b1 b2 c0 83 b3 ce 3e 70 a8 59 bf
       -0.10021726 -5.5841303 0.40371332 -0.8502264
000330 4c 77 e4 3e 72 93 50 bd ed 2c 3d 3f e4 9a 54 3f
       0.44622266 -0.050921865 0.73896676 0.83048844
000340 e4 2f 0b 3f 03 73 44 3f 23 3f 4f 3f 1d 0a 43 bf
       0.5436995 0.76737994 0.80955714 -0.76187307
000350 3d 2e c0 c0 70 99 67 bf 31 11 35 3f 4c 5d dd bc
       -6.0056443 -0.904685 0.70729357 -0.027022026
000360 98 98 28 3f 3f a2 b6 bd 05 ee 6f be 5b 3b 69 bf
       0.6585784 -0.08917665 -0.23430641 -0.91106194
000370 c4 33 f8 be 7b 44 36 3f ad 6d 04 bf 2d aa ed be
       -0.48476994 0.7119824 -0.5172985 -0.46418896
000380 b3 32 23 3f da 47 e1 be e5 1a af 3e 54 64 65 bf
       0.63749236 -0.4400013 0.34200206 -0.89606214
000390 55 d0 e6 3b f6 cd 60 3c c9 78 94 3f 95 14 22 3f
       0.007043878 0.01372098 1.1599361 0.63312656
0003a0 42 6f e2 bc ec 37 b6 3a af ed 0c be 77 87 5c 3f
       -0.027640942 0.0013902164 -0.13762544 0.861442
0003b0 06 82 75 bf d4 1b 3c bd bc e6 db 3e 7c ac 0e bf
       -0.95901525 -0.045924976 0.42949474 -0.5573194
0003c0 9e c1 7f bc a1 30 53 bf ec c3 31 3f b7 b4 28 40
       -0.015610127 -0.82496077 0.6943958 2.63603
0003d0 7f a1 b7 3f 7a 5b 8c 3b 2f 1b 04 bf f1 41 22 be
       1.434616 0.004283366 -0.5160398 -0.15845467
0003e0 f5 b0 bc 3e 4c 76 b0 3c 56 3c 19 be 27 c5 1d 3d
       0.36853758 0.021540783 -0.14964423 0.038518097
0003f0 cd 01 af bd 70 f1 cc c0 ab 66 88 be 5e 13 f9 3e
       -0.08545265 -6.4044724 -0.2664083 0.48647588
