SAC_own/sac_1000/critic_2_sac.pth (torch, 296570 bytes, 5 tensors)

fc1.weight f4 [256, 28]
00000000: 1ffe 94bf 104a 3bc0 4b86 2f3f f8e7 5abf
00000010: b77b 93bf a718 90be 32ca a73d 5ac1 1c3c
00000020: 7700 a53d 9086 1ebf 00a9 bfbd 29ac e7be
00000030: a380 d7bd 0b21 40be bbc3 b63d 8019 50be
00000040: 99d5 3ebe ad27 5fbe e9dd 60be 6ee3 1e3e
00000050: 4ce3 96bd af63 ea3d 1f65 b73c 2d8c b0bd
00000060: 3580 aabc 878d 953e 1e68 a13a 424d 8c3e
00000070: 89a6 e0bd b9c0 31bf a85e 463f 701d 4bbf
00000080: 2e51 71bf 5343 2bbe 9c1d 9dbd 8254 c73d
00000090: 9aa6 dc3d 5601 0d3f 6a35 5b3e 4ba0 b8bd
000000a0: c774 fdbd a60b 073e cf23 febe 0b66 edbe
000000b0: fd7c 8bbe 994e 73be 0657 f0be b849 4cbe
000000c0: bd04 ccbe 559c d4be b1ae 80be 2d37 373e
000000d0: 2a80 6dbe d84b 82be 4f44 dabd 48dc 39bd
000000e0: 5bd6 53bf d671 19c0 133c 6b3f 6e27 8d3f
000000f0: e6ae 44be ad64 f93d 6661 e43e d6a1 cc3c
00000100: 2208 20be b182 ebbe fb99 003e 7fc2 d2bd
00000110: 902c e1be a44c fc3c 8b4a 123e 56d3 39be
00000120: 6f91 2abc 3329 8aba bc1a 883c acf1 2a3d
00000130: a670 3bbe 9ff0 463e 5b62 13bd 3916 573e
00000140: 69c5 793e 0c0f 32bd b55b 713c 4aa7 62be
00000150: 057c 923f 20d9 ee3e 35b9 0fc0 9c64 1f3d
00000160: 5ced a93f 3bdb 10be a321 933e 5f9e 58be
00000170: fa35 8cbf f503 5cbe 7a36 84bc 9b7d 1c3f
00000180: ebdf 20bd 6803 2f3e 24b3 d8be abb6 f4be
00000190: ea03 6ebe aedc 00bf eed6 a0be 991f eabe
000001a0: 0544 cbbe 8cf1 74be 2a97 bbbe 2016 22bf
000001b0: 66d6 b23c 8608 693d f539 03be 13d2 423d
000001c0: 15af cbbe b6ce 51bd 6291 1f3f fe42 aabe
000001d0: 0705 c9be 2837 8c3e f7ca c0bd c89f e63d
000001e0: 961c 6f3e 9af6 65bf cc5b 02bf 00a6 d0be
000001f0: f43f 8bbe a663 08bf 8031 043e ab9a 0b3e
00000200: 84e6 3a3e 80e7 bf3d 8485 083e 162d bfbd
00000210: c403 823d e73d 5cbe 9826 c7bc a7b3 4d3e
00000220: aaad 93be 54de 993c 569b f5be 7954 89be
00000230: 8717 fabe ef95 213f 8d10 07bf 9389 183f
00000240: 52f8 543e cbc7 c63d aa0e 19be b461 21be
00000250: 3e9a d9be 8f5d ae3d c337 53be bb44 c63e
00000260: e8eb 683e 3ac1 63bf c96b c5be dffc d6bd
00000270: 8d8c c5bd 0452 b4be 55fd acbe 802c b4be
00000280: fbed 11bd a761 04be cea6 823e 26f5 913d
00000290: a6f0 023e d772 b23e 95b2 ecbe 8af4 973e
000002a0: d84f 47bf 85aa a53e 9c37 f53f cff8 b0be
000002b0: 3fb1 9cbd 93ee 38bd 20e5 be3e f1c7 2d3e
000002c0: 3b37 37be 22e8 f1be 3581 d0bc 63db 953e
000002d0: bd44 d8be e383 a53e 50e9 7bbe 4ff3 8ebe
000002e0: a4e3 71be 7f15 4bbe 515d 4dbe deed 48be
000002f0: 0212 f7be 2f54 bebd 708d 473d 8640 973e
00000300: 0cc3 87be 0dd8 723d d78b 0a3d 1e49 b03e
00000310: cf62 363e 68c2 8c3f 673b 8b3e 44a8 0b3f
00000320: 5d3f 643f b4df 4ebb 9fc3 0d3f 156d febe
00000330: 4b81 89be 6dd0 57be 5dcc 6e3e 5db3 85bd
00000340: f651 e93d a7f0 a53e c227 b4bd e9e8 f9bd
00000350: cf36 4bbe 535a 05be 25d9 8ebe 1ec3 423d
00000360: 5022 d13d c19a 8c3c d558 1bbe 543c ea3c
00000370: 0e23 e03e cb39 953d 90ff a63e af0c aebe
00000380: 105e c93e 9c6d bf3d 330e a13e bf44 fbbe
00000390: 9e00 463e 8d7f e0bc fb08 89be 9732 a4bd
000003a0: e17c bbbd c710 603e 2f6d 763d f6ac 1fbd
000003b0: 336e dc3d 5c24 f6bd bca6 f53c 1b2c 0f3e
000003c0: 6234 4b3e cc25 9cbd 7d68 653e 1ed0 973e
000003d0: 5196 833e 71e6 bebc 3dd1 e83d b891 db3e
000003e0: 88af df3d 1327 4d3c fa4e 453e a45c fb3d
000003f0: 9bed 903e 9b15 afbe a500 983f e0b4 42be
-1.1640052 -2.9263954 0.6856429 -0.85510206 -1.152213 -0.28143808 0.081928626 0.009567583
0.08056729 -0.61924076 -0.09358406 -0.45248535 -0.105225824 -0.18762605 0.089240514 -0.20322227
-0.18636169 -0.21792479 -0.21959652 0.15516445 -0.07367572 0.114447944 0.022387085 -0.086204864
-0.020813087 0.2920954 0.0012314355 0.27402693 -0.10969264 -0.69434696 0.77488184 -0.79341793
-0.94264495 -0.16724901 -0.07671663 0.097329155 0.10773964 0.55080163 0.21407095 -0.090149485
-0.12375789 0.13188037 -0.49636695 -0.46366915 -0.27243796 -0.23760451 -0.46941394 -0.19949996
-0.39847365 -0.41525522 -0.2513328 0.17892142 -0.23193422 -0.2544849 -0.1065756 -0.045376092
-0.82748955 -2.397573 0.9188854 1.1027658 -0.19207343 0.121774055 0.4460556 0.024979513
-0.15628102 -0.45998147 0.12558739 -0.102910034 -0.4397931 0.030798264 0.14286248 -0.18147025
-0.010410651 -0.0010540843 0.01661431 0.041734383 -0.1830469 0.19427727 -0.03598247 0.21004571
0.24391712 -0.04347138 0.014731337 -0.22134128 1.1444098 0.46650028 -2.2456791 0.038914308
1.3275561 -0.1414613 0.287366 -0.21154164 -1.0953972 -0.21485884 -0.016139258 0.6112916
-0.039276045 0.17091143 -0.42324173 -0.47795615 -0.2324368 -0.5033673 -0.31413978 -0.45727232
-0.39700332 -0.23920268 -0.36638767 -0.6331501 0.021830749 0.056892894 -0.12815078 0.047563624
-0.39782014 -0.051222526 0.6233121 -0.33254236 -0.39261648 0.2738583 -0.094137125 0.112609446
0.23350748 -0.8982941 -0.5092132 -0.40751648 -0.2719723 -0.5327705 0.12909508 0.1363322
0.18251997 0.09370327 0.13332182 -0.09334771 0.063483745 -0.21507989 -0.024310395 0.20088063
-0.28843433 0.018782772 -0.47970074 -0.2682226 -0.48846075 0.63119406 -0.5275963 0.5958492
0.20797852 0.09706076 -0.14947 -0.15759927 -0.4250049 0.08513939 -0.2062674 0.38724312
0.22746241 -0.88966715 -0.38558796 -0.1049745 -0.096459486 -0.35218823 -0.33787027 -0.351902
-0.035627346 -0.12927876 0.25517887 0.071268365 0.12787113 0.3485324 -0.46229997 0.29678756
-0.77856207 0.3235666 1.9157596 -0.34564826 -0.076509945 -0.045149397 0.37284184 0.16970803
-0.17892163 -0.47247416 -0.025452236 0.2926894 -0.42239943 0.32327184 -0.2460072 -0.27920005
-0.23621994 -0.19832419 -0.20055129 -0.19621989 -0.48255926 -0.092934005 0.04871887 0.29541415
-0.26515996 0.059288073 0.033824768 0.34430784 0.1781113 1.0996828 0.27193758 0.5455363
0.89159185 -0.0031566443 0.5537662 -0.49692598 -0.26856455 -0.21075602 0.23320146 -0.065283515
0.11392586 0.32410166 -0.08796646 -0.12202627 -0.19845127 -0.13022737 -0.27900043 0.04754936
0.10211623 0.017163636 -0.15170605 0.02859322 0.43776745 0.07286414 0.32616854 -0.33994052
0.39329576 0.09347078 0.31456146 -0.49075887 0.19336173 -0.027404571 -0.26764664 -0.08017462
-0.09154678 0.218814 0.06016272 -0.038983308 0.10763206 -0.12018654 0.029986732 0.13981669
0.19844201 -0.07624397 0.2240314 0.29650968 0.2570062 -0.023303242 0.11368034 0.42884612
0.10922152 0.012521523 0.19268408 0.12273529 0.2830628 -0.3419617 1.1875197 -0.19014311

fc1.bias f4 [256]
00000000: 6443 3cbe 4c47 db3e d20a d43d 3669 71be
00000010: 9d17 36be d5ca df3e 0c8d e93e de90 ad3d
00000020: 4ad7 9f3d ff3a 353f cd0f 6c3e e036 ca3e
00000030: 866f fabd 3410 8cbe a02a 84be 9e21 35bd
00000040: a1e6 11bd 9e49 83be 3571 503f c523 87be
00000050: b6e4 84be 5f6d b53e 908a ddbe 6f27 c73e
00000060: 200e c93d 9dce 7bbe 707d 1d3f 0fa8 c73d
00000070: c041 54be a886 d93d 55c5 733d 9932 91be
00000080: 40c3 5fbe b6d1 6ebe 1297 62bd 6d35 e23e
00000090: 2893 8c3c 6deb 9dbe 9678 3bbe 8027 2abe
000000a0: c871 8c3e 07d9 eb3e 7c0f 4ebe 48b1 30be
000000b0: ff68 b53e c2ef e3bd 563b b8bd 4e0a 333d
000000c0: a616 60bc 2788 b43e c271 0f3f 9b85 61be
000000d0: 1c66 ba3e 3275 ab3e ef71 90be 2a19 89be
000000e0: c287 aebd f5a4 413b 5c46 853e 0733 39be
000000f0: e7ef 113f f921 b73e 0dc7 3ebf 6497 2036
00000100: bb04 563f 71cc bd3d 708a d2be 95a8 973e
00000110: 9c35 90be e27f bb3e ae9c 073f c2b6 e2bd
00000120: 5449 ba3e 6c0b 2dbe 6bed af3e b95e 8c3e
00000130: f067 e33e 0750 543e 2d5d b13d 724f b73d
00000140: 891f 103f 4eaf c83e 3a44 9dbe d7c4 7f3d
00000150: 8223 9abd da66 6fbe 941a 93be 941f 7ebc
00000160: 2c64 c03e 3472 ad3d 58c9 e53e 015b eebd
00000170: 2c71 34be c7f9 133e f2da debc 1022 ac3e
00000180: ff90 92be 56c0 1bbe 0436 963e 7fad 243f
00000190: 260b 7e3d 1da5 de3e df4a 583e 068f 44bc
000001a0: db58 2bbe 110d babe 0b6c 733e 713f b93e
000001b0: 1f6b 83be d063 70bd c6ab 4c3c a980 173f
000001c0: 3cfb 9bbe 9b13 89bd 5701 9f3e 652f f1be
000001d0: ffc8 61be 5422 723e c023 363e 9239 af3e
000001e0: a370 6f3e d757 68be 54e1 e43a 397e ecbd
000001f0: a11a 233e 82af 43be 1c0d 74be 66d3 bc3e
00000200: 1b6f 21bf 6e45 95be 8e5d 8cbe 0d3e a33d
00000210: 7d07 683d f942 0d3f 235c 03be ef46 3d3f
00000220: 053d 1fbd b3ef f43e 0454 00bf 4d4b b8bd
00000230: 7d7a 41be 51d0 93be e6a6 6dbe 55be 003e
00000240: 9d82 913e 9429 a93e 1a9c cb3d fe81 6dbe
00000250: 622f dbbe f0ee a13e d310 9ebe 2042 003e
00000260: 7fcb 5dbe 0984 2b3f 225c 25bd f7d9 e33c
00000270: e1c6 9e3e d813 8e3e ecaf 373e 69bf 42be
00000280: d74f 48bd 7fc5 4c3e c9ef ef3d b30f dfbe
00000290: 5795 5f3d 2f3c 9cbd b453 e6bc 5d98 b0bd
000002a0: cfcb ba3e 28d7 21be db66 733e d2c7 a03e
000002b0: 96f0 f43d 339c 443f 3d6a c23b e597 91bd
000002c0: 5c16 b7bc 3b3d 503e 0a86 413f c9a6 abbe
000002d0: a129 eb3e 36a1 963d 197c db3e f13e 6bbe
000002e0: fa86 443e 2116 343f 039b b33c 4c14 3ebe
000002f0: 11aa ac3d 957f f43d 66ca 003f 0787 fa3e
00000300: 3ca3 88be e1dc 7f3d e9e9 1fbd 627d a1be
00000310: 6ecc afbe 53e3 dcbd 27a0 88be 39a1 313f
00000320: 6091 4a3c 00fc a03e dea2 80be e7bc 0cbe
00000330: 9dc2 b53d ecfe 2d3e 14e5 b7be de1e c4bc
00000340: e83a f73e faea 86be 53ad b5be f89c 66bd
00000350: d90d 6a3d e56a a83e 1abb 7f3e 75ef b03e
00000360: 7fa1 82be 1a02 433f 56b3 923c 08c6 e43b
00000370: 1571 c63d 0efe 27be e312 b9be ca2f dbbe
00000380: 5452 b13e 4f59 d83e 6e05 193d 36e1 fb3e
00000390: e7be 2a3d c131 103f 0f26 0ebe 808e 0dbe
000003a0: f80f ea3e a70c f93d 809a e6be d3a9 4bbe
000003b0: 709f 1c3e af80 7c3e f9af 54be 866d 423d
000003c0: a47c 8bbe a31c f8bd c969 58bd 966d 1a3f
000003d0: a306 b1be 32b9 d43d 9a99 4ebc 54bd f73e
000003e0: 7bec 6c3e a5bc 0c3f b767 84bf 0e09 88be
000003f0: 475b 343f 47b0 40be 8185 e23e 0016 05be
-0.18385082 0.42827833 0.10353626 -0.23575291 -0.17782445 0.43709436 0.45615423 0.08474897
0.07804735 0.70793146 0.23052903 0.3949499 -0.12228303 -0.27356112 -0.2581377 -0.044221513
-0.035620335 -0.25642103 0.8142274 -0.26394477 -0.25955743 0.35435006 -0.43269777 0.38897273
0.09817147 -0.24590535 0.6151953 0.097488515 -0.20728207 0.10621387 0.059514362 -0.28358915
-0.21851826 -0.23322186 -0.055319853 0.44181386 0.017160013 -0.30843678 -0.18307719 -0.1661663
0.27430558 0.46064016 -0.20123094 -0.17255127 0.35431668 -0.111297145 -0.089956924 0.043711
-0.013677275 0.35260126 0.56032956 -0.22023623 0.36406028 0.3348785 -0.28211924 -0.2677701
-0.085219875 0.0029547785 0.26030242 -0.18085872 0.57006687 0.35768107 -0.7452248 2.3929979e-06
0.8360097 0.0926751 -0.41121244 0.29620805 -0.281659 0.36621004 0.5297345 -0.110700145
0.3638407 -0.16898888 0.34360823 0.27416018 0.44415236 0.20733653 0.0866035 0.089507
0.5629812 0.39196247 -0.30716115 0.06244358 -0.07526304 -0.23379079 -0.28731215 -0.0155104585
0.37576425 0.08469048 0.44880176 -0.11638451 -0.17621297 0.14450751 -0.02720401 0.33619738
-0.28626248 -0.15210089 0.29338086 0.64327234 0.06202235 0.43485346 0.21122311 -0.01199699
-0.16733114 -0.36338094 0.23771684 0.36181214 -0.25667664 -0.05868894 0.012492126 0.59180695
-0.30465114 -0.066931926 0.3105571 -0.47106472 -0.2204933 0.23645908 0.17787075 0.3422361
0.23382811 -0.22689758 0.0017462173 -0.115475126 0.15928127 -0.1910992 -0.23833126 0.36880034
-0.6306016 -0.29154533 -0.27415127 0.079708196 0.056647766 0.5518032 -0.12828116 0.7393636
-0.038876552 0.47839126 -0.501282 -0.089987375 -0.18894382 -0.2886987 -0.23208198 0.12572606
0.28419963 0.33039534 0.099418834 -0.2319412 -0.42809588 0.31627607 -0.3087221 0.12525225
-0.21659659 0.66998345 -0.040371068 0.027813895 0.31011108 0.27749515 0.17938203 -0.1901833
-0.048904266 0.19997214 0.11715657 -0.43566665 0.05458578 -0.076286666 -0.028116085 -0.08622811
0.3648362 -0.15804732 0.23769705 0.3140245 0.119599506 0.7680084 0.0059330747 -0.0710905
-0.022349529 0.20335858 0.7559515 -0.33525684 0.45930198 0.07354967 0.42868116 -0.22973229
0.19192114 0.70346266 0.021924501 -0.1856243 0.08430875 0.11938397 0.50308836 0.48931143
-0.26687038 0.062466506 -0.039041433 -0.31540972 -0.34335655 -0.10785546 -0.26684687 0.6938663
0.012363762 0.3144226 -0.25124258 -0.13743936 0.0887501 0.16991776 -0.3591696 -0.0239405
0.4828713 -0.26351148 -0.35483798 -0.05630204 0.057142112 0.32894054 0.24973717 0.3455769
-0.25513837 0.7617508 0.01790778 0.006981615 0.096895374 -0.16405508 -0.36147222 -0.42809898
0.34633124 0.42255637 0.037358694 0.4919526 0.041685965 0.5632592 -0.13881706 -0.1382389
0.45715308 0.12160616 -0.4503975 -0.19889002 0.15295196 0.24658464 -0.20770253 0.04746773
-0.2724353 -0.12114837 -0.05283526 0.60323465 -0.34575376 0.10386886 -0.012609864 0.48386633
0.23137085 0.5497535 -1.0344151 -0.26569408 0.7045178 -0.18817244 0.4424248 -0.12996674

fc2.weight f4 [256, 256]
00000000: eb77 53bf dd21 ad3c 51bf f1bd 6e83 4cbf
00000010: 64b7 8fbe dbaa 3a3e 6cc9 a2bb f497 823e
00000020: 40f7 74be 598a 343e 98e5 053e 3296 173e
00000030: 70ea a53e ee5e 90be 73f4 3cbd fb22 87bc
00000040: af28 86be f08f 9ebd f914 223e a42b dc3c
00000050: e8ed 353d 1a68 76be 2639 b03e 15d0 d8bd
00000060: 7721 2840 abbd 95bd 128b fb3e 78f1 563c
00000070: b93e c6bd 7c5c 0a3e da38 e7bc 8bca fdbd
00000080: 8c55 3bbe 7fbb 02bf 6aee 223e d0d4 963e
00000090: 9733 aabe efdc e7bd bd08 86be 94c3 4d40
000000a0: 71cc 403e 18b9 29be 5fae d3be 9827 343d
000000b0: 6ce4 73be 82d1 1f3b e5bc 193f de6e 82be
000000c0: bf50 25bd f380 9dbe bc16 a3be e380 e23e
000000d0: a8db c23e fc8f 09be a580 cbbd ab41 ebbd
000000e0: 91e5 f4bc 18cc abbe 7c96 8abe fbfe 94be
000000f0: 8590 8c3e f628 e3bd 3978 623e ad4d 8bbe
00000100: b499 123f 6c49 56be 4be8 94be 2d36 80bf
00000110: 2d78 123f 53b7 00be d272 a93d 2f28 e7be
00000120: 1fe5 1abe d3ae efbe 0ff2 353e 832a 43be
00000130: 50b6 d4be 89a8 aabe 355b 2bbd 9410 b6be
00000140: e9ba b2be b38c 40be 0747 a3bf 51c6 e03d
00000150: 5921 49be c3ed 0fbe abe1 6c3e a3a3 11be
00000160: 5193 a13d 6e68 093f 315a 6ebe 186a 7cbe
00000170: cd87 85bf c46a 22be c92f aa3d 4593 90be
00000180: e07b 9e3f 1269 dcbe e87e 28bc cf6e f5bd
00000190: f211 e6bd 6085 6dbe 9020 983c bc53 1340
000001a0: 15c9 ad3d fcfe 503e eb24 7bbe 2617 dabe
000001b0: 7c98 b0be 0703 b0be 8ede edbd 4669 1e3a
000001c0: 2f4a aebd 701b 8ebe 2ce2 d93d b2f0 b8be
000001d0: 564d b1bc b9c9 923d 6e25 543d 1a93 82be
000001e0: acf5 343e ac9f df3c 9bdd cdbb 81ae f23f
000001f0: 7fb3 1abe a1ff e0be 2cc6 4dbd 5d0b a9bd
00000200: c691 b8be 5cd2 5fbe 0872 90bc 869d 2cbf
00000210: 349d 30be 3b08 99be d5b0 9cbd cb28 9a3f
00000220: fab5 54be df04 21be 6ff8 81be 6bcd 31bc
00000230: 24e5 b9ba 4dda 91bf a2f6 963e a4c5 8f3d
00000240: 0912 363d ddf3 c6be ff4f 823e 8611 8b3f
00000250: 32ad 503e 8200 943d 68bd 37be cef2 193d
00000260: b69a 843f bde3 46be c990 1bbe c17c 16bd
00000270: 02ee 873e 9d42 8f3d 1fd9 0cbe 7a6d a1be
00000280: c6e6 1140 66a3 2c3e 6926 70bf 17e5 66be
00000290: 6f26 63be 84dd c6be efb2 d03f ef40 a3bd
000002a0: 74c1 2dbe f659 a1be d96b 0bbe f30e 383f
000002b0: 618a 67be 375d 243e 36a1 fd3e 3b84 8c3d
000002c0: 4862 2d3f 6dd4 bcbd 1e46 c23c b550 6a3f
000002d0: 24f1 223e 0e55 023d 8c7f 733c c7d7 a7bd
000002e0: 59ec ba3d e98d 913d 4bbf b0be 3fd0 4bbe
000002f0: 0dc1 84be e0e4 0140 87f1 7f3e 1f2a 563e
00000300: 4201 c9bd e860 f63c 84e1 02be c029 943d
00000310: 2add d5be deb4 75be 4617 5ebe eee3 f6bc
00000320: 711f 0e40 3fbb 8a3e 354f fdbe 6fa8 3340
00000330: 4e69 cd3e 9008 223e f683 96be af05 40be
00000340: 400b 0abd 082e 643e 045f 403c 5858 84bf
00000350: 757a 1fbe 602a 583d c786 69bf 4625 4f3e
00000360: 430c 23bf 0f14 cabd 536c 063e 2c02 d4bd
00000370: 02b8 5fbe e54c 1f3e 4430 a63f ad99 aabd
00000380: 5bb6 363e 9d7e febe 812d 0bbe 4c07 77bd
00000390: 788b 64bc 1fae ae3d 71de cb3d 69eb ddbf
000003a0: 7dbc 333e eb68 70be 9981 17bf 7cfb 8cbe
000003b0: fd7d 95bd 5bdb a2be 56e8 073f 3545 5cbe
000003c0: 5357 0cbf 6831 02be 71d0 c6bc ed8b 2bbe
000003d0: d652 e8bc cc9e fb3f 5d56 85bd 53b0 ccbb
000003e0: 266e a3bf 68bb 033b 842f 883e 0b10 fc3f
000003f0: 5827 6dbe e56f 1abf 8066 083c 1713 b9bd
-0.82604855 0.021134311 -0.11804069 -0.79888046 -0.28069603 0.18229239 -0.004967859 0.25506556
-0.23922443 0.176309 0.13075864 0.14803389 0.32405424 -0.28197426 -0.046131562 -0.016496172
-0.26202914 -0.07742298 0.15828313 0.026876278 0.04441634 -0.24063149 0.344186 -0.105865635
2.6270425 -0.07311567 0.4912954 0.013119094 -0.09679932 0.13511842 -0.028225351 -0.12392148
-0.18294352 -0.51067346 0.1591126 0.29459238 -0.33242485 -0.113214366 -0.26178542 3.2150621
0.18827988 -0.16574514 -0.41343972 0.043983072 -0.23817605 0.002438635 0.60053855 -0.2547521
-0.04036021 -0.30762443 -0.31853282 0.44238958 0.3805821 -0.13433832 -0.09936646 -0.114871345
-0.029894622 -0.3355415 -0.27067935 -0.29100785 0.2745401 -0.11091797 0.22116174 -0.272077
0.5726578 -0.20926446 -0.29083475 -1.0016533 0.57214624 -0.12569933 0.08273853 -0.45147845
-0.15126465 -0.46813068 0.1776812 -0.19059186 -0.41545343 -0.33331707 -0.04183503 -0.35559523
-0.34908226 -0.18803672 -1.2756051 0.10975326 -0.19641627 -0.14055543 0.2313296 -0.14222579
0.078894265 0.5367497 -0.23276593 -0.24649847 -1.0432068 -0.1586104 0.083098955 -0.28237358
1.2381554 -0.43048912 -0.010284163 -0.11984026 -0.112338915 -0.2319541 0.018570215 2.3019857
0.08485619 0.20409769 -0.24525802 -0.42595786 -0.34491336 -0.3437731 -0.116147146 0.00060429086
-0.08510243 -0.27755308 0.10638842 -0.36121136 -0.021643322 0.07167382 0.05179351 -0.25502855
0.17671841 0.027297817 -0.006282521 1.8959504 -0.15107535 -0.4394503 -0.05023782 -0.082541205
-0.36048716 -0.2185759 -0.0176325 -0.6742786 -0.17247468 -0.29889092 -0.076509155 1.2043699
-0.20772544 -0.15724514 -0.25384852 -0.010852198 -0.0014182669 -1.1394745 0.2948504 0.07020119
0.044450793 -0.38857928 0.25451657 1.0864723 0.20378569 0.07226659 -0.17943347 0.037585072
1.0359714 -0.19422813 -0.1519195 -0.03674007 0.26548773 0.06995127 -0.137547 -0.31528836
2.2797103 0.16859207 -0.9380861 -0.22548328 -0.2218263 -0.38840878 1.6304606 -0.079713695
-0.16968328 -0.31513947 -0.1361536 0.7189781 -0.22611381 0.16051184 0.49537057 0.068611585
0.6772809 -0.092202045 0.023715075 0.915294 0.159123 0.031819396 0.0148619525 -0.08195453
0.09127111 0.07107145 -0.34520945 -0.19903658 -0.25928536 2.0295944 0.24994479 0.20914505
-0.09814693 0.030075505 -0.1278134 0.07234526 -0.41770297 -0.23994777 -0.21688566 -0.030137982
2.220669 0.27095982 -0.49474493 2.8071554 0.40119404 0.15823579 -0.29397553 -0.18752168
-0.033702135 0.22283185 0.0117414035 -1.033946 -0.15574057 0.052774787 -0.9122128 0.20229062
-0.63690585 -0.09867107 0.1312726 -0.10351977 -0.21847537 0.15556677 1.298348 -0.083300926
0.17843 -0.49705973 -0.13591577 -0.060309693 -0.013949268 0.08529305 0.09954537 -1.7337466
0.17552371 -0.23477523 -0.59182125 -0.27535617 -0.07299421 -0.3180798 0.5308889 -0.21510775
-0.54820746 -0.1271416 -0.024269314 -0.16752596 -0.028359812 1.9657836 -0.06510613 -0.0062466054
-1.276799 0.0020100717 0.26598752 1.9692396 -0.2315954 -0.6032699 0.008325219 -0.09036844

fc2.bias f4 [256]
00000000: cf30 04be 993f a8be f479 0b3f 4647 ad3e
00000010: eb47 c1be dc22 f23e 3df7 c83e 7632 94be
00000020: fff0 cb3e d6d5 0dbd 5615 54bd 0ff1 5fbf
00000030: d152 b13e 2b35 523c be87 a2be 8364 c5bd
00000040: a0bc d73e 476a 19bd d6c9 133f 7dee a9be
00000050: 3fe4 af3e 8a07 af3e 8e34 3abe 2a69 db3e
00000060: 65d0 83bd 4116 b63e 632b eb3e b35a cf3e
00000070: ff7f c33e dbc7 d03e 0fb5 5dbe 1446 f53e
00000080: 704c 98be ca68 b53e 1e80 d23d fe71 e63d
00000090: 20cf c6be 42de dd3e 864f 223e d771 b13e
000000a0: e8ff 09be 6623 b7bc 4571 59bb 9a08 8a3c
000000b0: 3d50 4cbc 5ccd b8be 4c18 7abe c205 66be
000000c0: 7488 e23e 1a7d c83e 21f4 b4be 5a48 ebbc
000000d0: 10c7 82bd df01 f63d 5380 00bd ab76 513e
000000e0: b3bb c13e 2f23 e73e f149 bbbe 7a4d a13e
000000f0: 3168 7bbc ac2d cb3e c3f2 f73e 8fd0 5e3e
00000100: 2f7e b83e 7a8f 3bbe 3843 40be 3358 cdbd
00000110: 5aa1 8bbd 26cc 16be 09d3 183d d45e 07be
00000120: 3bb3 b83e be87 b2be 5e28 b13e 73d1 8f3d
00000130: c48e 293b fb2e 3abd fd97 8bbd d286 913d
00000140: d8b4 d93e e88c db3e 0c54 eebc 35e7 13bd
00000150: 7af7 4dbd f4b3 91be 2ca6 88bd b25c 70bd
00000160: bdd2 7fbd 36be e0bd 856a d6bd 434b ee3e
00000170: 5183 46bc c041 abbe 82d6 9abd 2ee7 e73e
00000180: 2e31 8abd 787e ad3e bff6 e03d 56cf 02bc
00000190: 5c8f 73be 1503 f73e 9d60 c83e f5dd b2be
000001a0: 2295 ef3e c79f fbbc 5eeb 6a3e 513e bdbe
000001b0: 33a3 c2be fecb 99bd b2a8 c13e 044d 0f3e
000001c0: 2791 44bd 1966 bb3e 7fa1 dcbc 5ddb babe
000001d0: c9c7 3c3f acc3 acbe 829d ce3e 1042 823e
000001e0: e5b5 c83e 308a 2a3f 2f34 21be 2105 a6bd
000001f0: 88fb d73e 3cbb d13e a2cf 5d3d 6efd 003f
00000200: 0880 9cbe da63 a6be 0e8e acbd e679 963b
00000210: 9a2e 1d3e 9e91 e33e 5b79 cb3e 52b2 0cbd
00000220: 1232 243d e8e2 bfbe d91c ea3e e0bd 123d
00000230: 61f5 133f ee2e e43e 0980 2cbe 0aac bc3e
00000240: c608 cd3e 7883 48be b2da ba3a c084 e13e
00000250: 98cc b13e c0af c3be 5323 30be 7710 7a3a
00000260: 6eb3 be3e c0c9 a53e a78b cc3e 1eec 6dbd
00000270: 424d 97bd 3ce9 4abd ff6f 083c 401e b5bc
00000280: 9efa da3e f276 92bd fa21 eabb c299 f2bd
00000290: 8a99 d43e 4ee0 b0be f757 60bd 1ee9 2d3e
000002a0: a9d7 91bd 9e7c d33e ddff 1b3f b767 e83e
000002b0: 9e5b 66bd 8e66 babe d11c e8bc 1467 6dbe
000002c0: ce86 f83e 1c30 b7be bca3 a0be dad3 e83e
000002d0: bf29 bdbe e415 e23e 5bed f83e 9787 3dbe
000002e0: 7ffe 433d b719 013f c4e5 b4bd 5ecd dc3e
000002f0: 359c cc3e 1a0f c03e 97df d13d 31c5 99be
00000300: 5e69 b6be 0baf 0fbd d30c 023f d2b5 143c
00000310: b7ca 9d3e 9be1 1c3f 7337 ff3e 0f3b cc3e
00000320: 8a97 8cbe bfc6 d73e e40a b43e ed72 f53e
00000330: 858b ee3e a5c3 9f3e bd60 c23e 9683 3fbe
00000340: 59c4 d13e 5bf1 e4bd 9760 6ebd 409b 19be
00000350: 8475 c83e 7c08 283e 69b1 5bbd c583 da3e
00000360: 6d5c 95be dcaf e43e 0bbb d1bc 5a5e d83e
00000370: 0cf9 72bd c2a9 b3be 7703 a3be 4ee7 97bd
00000380: c44f cc3e 50cd 2bbe dd30 0f3e 350f 08be
00000390: 5ccd c0be f177 9f3e 90e6 d23e ee44 22be
000003a0: 850a f3bc 8ec0 9abd 81a2 553e f11a dd39
000003b0: 5fa4 a3be f2e5 95be 3436 2abe 6cdb c43b
000003c0: 0320 f33e 4fc0 cc3e 66ee 83bd 112c df3e
000003d0: 6c80 aebe 0d1e d4bc 3568 9e3e 34e5 583e
000003e0: 60f5 013f b4f5 2d3e 10cc de3d 28be 9fbe
000003f0: 9f26 19bd e56a fc3d ffa2 df3d c56d 173d
-0.12909244 -0.3286102 0.5448296 0.3384344 -0.37750182 0.4729222 0.39251128 -0.2894475
0.39832303 -0.034627758 -0.05177816 -0.874772 0.34633496 0.012830059 -0.31744188 -0.09638312
0.42136097 -0.03745487 0.5772985 -0.33189765 0.34353825 0.3418544 -0.1818411 0.4285367
-0.064362325 0.35563853 0.4593154 0.40498886 0.3818359 0.40777478 -0.216511 0.47905028
-0.29745817 0.3543151 0.10278343 0.11252211 -0.388299 0.43333632 0.15850648 0.34657165
-0.13476527 -0.022355746 -0.0033179086 0.016849805 -0.012470302 -0.36094177 -0.24423331 -0.22463134
0.4424473 0.39157945 -0.35342506 -0.028721023 -0.063856244 0.12012076 -0.03137238 0.20455424
0.37838516 0.4514403 -0.3657985 0.31504422 -0.015344665 0.39683282 0.484274 0.21759246
0.3603377 -0.1831645 -0.18775642 -0.10026588 -0.06817885 -0.14726314 0.037310634 -0.13219768
0.36074242 -0.34869188 0.3460111 0.07022371 0.0025872448 -0.04545496 -0.06816099 0.07105793
0.42520785 0.4288094 -0.029092811 -0.036109168 -0.05028484 -0.28457606 -0.0667232 -0.05868215
-0.062456835 -0.1097378 -0.10469536 0.46541795 -0.012116269 -0.334486 -0.07560445 0.45293564
-0.067476615 0.3388555 0.10984563 -0.007984003 -0.23785156 0.4824454 0.3913621 -0.34934965
0.46793467 -0.030715836 0.22941348 -0.36961606 -0.38015136 -0.075096115 0.37824017 0.13994223
-0.04798999 0.36601332 -0.026932476 -0.36495486 0.7374235 -0.33743036 0.40354544 0.25441027
0.39201275 0.6661711 -0.15742563 -0.08106447 0.4218409 0.4096316 0.054153092 0.50386703
-0.3056643 -0.32498056 -0.08425532 0.004592168 0.15349808 0.44447035 0.39741024 -0.034349747
0.040086813 -0.37477803 0.45725134 0.03582561 0.57796293 0.44567055 -0.16845717 0.36850005
0.40045756 -0.19581401 0.001425585 0.44046593 0.34726405 -0.38220024 -0.17200975 0.00095391966
0.3724627 0.32380486 0.39950296 -0.058086507 -0.07387783 -0.049538836 0.008327483 -0.02210915
0.4276933 -0.07151593 -0.0071451636 -0.11845733 0.4152339 -0.3454613 -0.05477139 0.16983458
-0.07121212 0.41306013 0.6093729 0.45391628 -0.056239717 -0.36406368 -0.028334053 -0.23183852
0.48540348 -0.35778892 -0.3137492 0.4547413 -0.36945912 0.44157326 0.48618588 -0.18508755
0.04785013 0.5042986 -0.08832887 0.43125433 0.39962927 0.37511522 0.102477245 -0.30033258
-0.35627264 -0.035079043 0.5080082 0.009076552 0.30818722 0.61281747 0.49846992 0.39888808
-0.27459365 0.4214382 0.3516456 0.47939244 0.4659082 0.31203952 0.3796443 -0.1870254
0.40970114 -0.111788474 -0.058197584 -0.1500063 0.39152157 0.16409487 -0.05363599 0.42678657
-0.29172078 0.4466542 -0.025601884 0.42259485 -0.05931954 -0.35090452 -0.3183858 -0.07417165
0.39904606 -0.16777539 0.13983484 -0.13287051 -0.37656677 0.31146196 0.4119153 -0.15846607
-0.029668102 -0.07556258 0.20862772 0.00042172478 -0.31961343 -0.29276997 -0.1662224 0.0060076024
0.4748536 0.3999047 -0.06441955 0.43588307 -0.34082353 -0.025893236 0.3093888 0.21181184
0.5076504 0.1698826 0.108787656 -0.31199765 -0.037390348 0.12325076 0.10919761 0.03696992

q.weight f4 [1, 256]
00000000: d80d 26bf 6a59 8fbe d214 b33e 813a a23e
00000010: c63d 63be c6f5 143f da08 b43e a40e 9bbe
00000020: 76c9 1b3f 25a0 5f3c 6514 50bd 4082 4640
00000030: 1ef1 0d3f d4ac 9f3c c2c9 84be 2524 38bf
00000040: 9514 3a3f 5f86 633c 0022 cc3e a9f4 92be
00000050: 4135 1a3f 04c4 173f 72f3 58c0 a68a 063f
00000060: 27ff 163c 227d 2b3e efbd 273f d6a2 2d3f
00000070: a275 353f b952 043f e0db 29bf 41a0 0e3f
00000080: d8b9 78be ce52 1d3f 34cd 7bbf 3439 5ec0
00000090: c7a6 84be 3b09 263f 9e84 0bbf 9a98 0c3f
000000a0: 0c25 1abf 4219 0d3d 925a dfbe a8bd bcbb
000000b0: c9a3 ffbc 644e 75be 459d bf3f 9540 e4be
000000c0: 4562 1c3f bebc 093f d5e0 96be 6381 84c0
000000d0: 4412 cf3b 686e 253f 1195 01bf 8e70 623f
000000e0: 3994 043f 6db2 043f 8196 62be 5732 b8c0
000000f0: b45b 973c 5bdc 143f c5ce 103f fe43 25bf
00000100: 8549 f83e 889a 71be 9eeb c6be 5298 ecbe
00000110: 1be3 f9be 02ec b1be 93dc dabe 19fb 6e3f
00000120: 9f28 8d3e 3acf 07be dc2b ea3e ac34 afc0
00000130: 53cd 9039 c9f4 b63c 9060 0bc0 512b a43f
00000140: 94f5 353f e92a 013f b916 8d3c 5191 07ba
00000150: d514 c6bc fb34 9abe 6baa 30bd 94ce d7bb
00000160: e109 1fbf 27be 1dbf 8719 eb3f cb22 043f
00000170: f13f fabe 24a7 4ebe 5802 b2ba fd32 1a3f
00000180: 4e50 d53b 1e0e 983e 04bd 1dc0 e1c1 b33b
00000190: e86f dabe fb6b e3c0 bd46 043f b6ff 24be
000001a0: fb00 1b3f a7da 1a3b 9866 5cc0 bbbf 94be
000001b0: 0562 8dbe 7fdd 183d 1ced 263f 83a0 df3e
000001c0: e554 15bd 2502 b43e 5e8b 91c0 459d 8ebe
000001d0: adfa 143f bf92 72be 8007 0c3f 00db 37bf
000001e0: 958b 063f d28a a6c0 ccdc 1ec0 5fe6 8f3c
000001f0: 2874 1d3f e2b5 2a3f 34f3 0dc0 f2c0 163f
00000200: 25dd 81be 8ab4 a4be 5a75 1b3d 30f2 e7bf
00000210: a7e2 0bbf e2cf 1b3f 0be0 cb3e 22ba a6bc
00000220: 2f34 18c0 6b5c 99bf aa56 cd3e f0ab 023d
00000230: 56d0 053f 433f f23e f99f 50bf 65d5 db3e
00000240: baef 003f c31c 703f ebc3 c7bb 01f1 073f
00000250: 4fba df3e 87f5 8bbe 2c90 04bf d554 ebbe
00000260: d46b 163f 89d6 733d bf22 1c3f b278 08c0
00000270: 8508 48bd 706e 843c 99e2 2e3c 9743 983c
00000280: 951d 0a3f afc6 903c de59 ffbb 0ffa 27bf
00000290: d861 fc3e e5b8 85be c55b 80ba 91c0 eabf
000002a0: a561 12bc 935d 0b3f a8ce 013f a650 253f
000002b0: 44ce 70bd d47e 90be 29aa 143d f59e 2cbf
000002c0: ed5b aa3e 4cf6 9abe b8e7 e0be 4128 103f
000002d0: ef6f 11be 4284 173f 9bb5 373f 3db3 5fbe
000002e0: 9daa 98bf 2fe2 373f b7aa efbe cd2b e73e
000002f0: ab6d ce3e 5b16 1e3f 1ac7 c5bf 25c5 81be
00000300: 8bbb 8bbe e227 6f3c 9933 253f 2e06 90c0
00000310: 1842 3b3e 9794 0b3f 9bfe 6d3f b606 123f
00000320: 1e6c 83be 310b cc3e d238 053f e98d b23e
00000330: c495 123f d1fc 633e e506 493e 0ef5 a5be
00000340: 44ae 1f3f efe8 74c0 ecbd 223d bf25 8840
00000350: b9bb 0c3f ac08 6dc0 44e7 0cbd fea5 1d3f
00000360: 5a8b 60be e3ae 223f bd94 3bbf d345 0b3f
00000370: 42dc 1b3b 7ab6 1dbe b262 84be 411e bebc
00000380: e5a9 1c3f 1f12 07c0 1408 47c0 70de 07bf
00000390: 2b94 5abe d1f1 19c0 155d de3e 7490 39be
000003a0: e034 08bf 7b6d 37bd 9337 e03f 2665 15bd
000003b0: ac57 6dbe 421a 68be 02c4 1abf 9e47 60bb
000003c0: 95a2 1a3f 2fef ff3e 935e f6bc 2484 ed3e
000003d0: 1f23 c2bd 4530 133d 5597 6c3e 3b97 3ac0
000003e0: 593f f13e 8db2 05c0 86fd e83f 1805 8bbe
000003f0: 8c17 9c3b 1474 6bc0 285f 65bf 9642 ebbb
-0.64864874 -0.27997905 0.34976822 0.3168526 -0.22191533 0.5818752 0.35163003 -0.30284607
0.6085428 0.013649021 -0.0508007 3.1016998 0.5544604 0.01949159 -0.2593518 -0.7193015
0.72687656 0.013887017 0.3986969 -0.28702286 0.6023751 0.5928347 -3.3898587 0.5255531
0.0092161065 0.16746953 0.6552419 0.6782659 0.7088262 0.51688725 -0.6635113 0.5571328
-0.24289644 0.61454475 -0.9835999 -3.4722414 -0.2590849 0.64857835 -0.5449923 0.5492035
-0.6021278 0.034447916 -0.43623787 -0.0057599135 -0.031206029 -0.23955685 1.496987 -0.44580522
0.6108745 0.5380362 -0.29468408 -4.1407943 0.006319316 0.6462159 -0.5061808 0.88452995
0.5178867 0.51834756 -0.22127725 -5.756145 0.018476345 0.58148736 0.56565505 -0.6455687
0.4849359 -0.23594105 -0.38851637 -0.4620996 -0.4880608 -0.34750372 -0.4274641 0.93351895
0.27570054 -0.13262644 0.45736587 -5.4751797 0.000276188 0.02233352 -2.1777687 1.2825719
0.7107785 0.504561 0.01722275 -0.0005171495 -0.024179855 -0.30118546 -0.043131273 -0.0065859053
-0.6212445 -0.61618274 1.8367165 0.5161559 -0.48876908 -0.20180947 -0.0013581021 0.6023405
0.006509817 0.2969827 -2.4646616 0.0054857587 -0.42663503 -7.106931 0.5167044 -0.16113171
0.6054837 0.0023628862 -3.4437618 -0.2905253 -0.27613845 0.03732061 0.6520555 0.43677148
-0.036457915 0.35157886 -4.5482626 -0.27854362 0.58195 -0.23688792 0.54698944 -0.7181854
0.52556735 -5.204446 -2.4822264 0.017565904 0.61505365 0.6668378 -2.217969 0.5888816
-0.25364032 -0.3216899 0.037953712 -1.8120785 -0.5464272 0.6086408 0.3981937 -0.020352427
-2.378185 -1.1981329 0.40105182 0.031902254 0.5227102 0.4731389 -0.814941 0.42936245
0.50365794 0.93793887 -0.0060963533 0.5310212 0.4369683 -0.2733576 -0.5178249 -0.4596316
0.5875828 0.05953077 0.6099052 -2.1323667 -0.04883625 0.016165942 0.010674142 0.018586917
0.5395139 0.017672865 -0.0077926954 -0.65615934 0.492934 -0.26117626 -0.0009792974 -1.8340017
-0.008934413 0.5443966 0.5070596 0.64576185 -0.05879046 -0.28221762 0.03629509 -0.6743005
0.3327326 -0.30266035 -0.43926787 0.5631142 -0.14202856 0.59186184 0.7176148 -0.21845718
-1.1927067 0.71829504 -0.46809933 0.45150605 0.40318045 0.6175286 -1.5451386 -0.25345722
-0.2729152 0.014596911 0.64531857 -4.5007544 0.18286932 0.54523605 0.9296662 0.5704149
-0.25668424 0.39852288 0.52039826 0.34873894 0.57259774 0.2226441 0.19631536 -0.32413524
0.62375283 -3.8267171 0.039731905 4.2546077 0.5497394 -3.7036543 -0.03440024 0.6158141
-0.21928158 0.63548106 -0.7327383 0.5440342 0.0023782407 -0.1540164 -0.2585655 -0.023207786
0.6119674 -2.110481 -3.109868 -0.5307379 -0.21345584 -2.4053843 0.4343039 -0.1812151
-0.5320568 -0.044782143 1.751696 -0.036473416 -0.23177975 -0.22666267 -0.60455334 -0.0034222375
0.6040433 0.4998717 -0.030074393 0.46389878 -0.09479355 0.035934705 0.23104604 -2.9154804
0.47118643 -2.0890229 1.8202369 -0.27152324 0.004763549 -3.6789598 -0.8959832 -0.0071795685
