SAC_own/sac_1000/target_value_sac.pth (torch, 292514 bytes, 5 tensors)

fc1.weight f4 [256, 24]
0	0xbe573c72	-0.21019152
1	0xbfc30602	-1.5236208
2	0x3ebbbbb3	0.3666664
3	0x3fa0e434	1.2569642
4	0xbe47554c	-0.19466132
5	0x3db39e01	0.08770371
6	0x3e153ae4	0.14573246
7	0x3e269fdf	0.16271923
8	0x3e02726f	0.12738965
9	0xbb8c2813	-0.004277238
10	0xbd946ec1	-0.07247687
11	0x3e182294	0.1485694
12	0x3dc2b4c2	0.09507133
13	0xbe207fa6	-0.15673694
14	0xbea1a3ec	-0.31570375
15	0xbccc8fbb	-0.02497088
16	0x3d88db46	0.06682448
17	0x3d319e35	0.04336377
18	0x3c42fbae	0.011900825
19	0x3e067be0	0.13133192
20	0x3e619fbd	0.22033592
21	0xbdc81d8e	-0.09771262
22	0x3e6b80d0	0.22998357
23	0x3ec1ace9	0.37827232
24	0xbe4bef4d	-0.19915505
25	0x3f1ed6b4	0.6204636
26	0x3dc45cec	0.09588036
27	0xbfe77d02	-1.8085024
28	0xbf8a96ea	-1.0827305
29	0xbe295b56	-0.16538748
30	0xbf3d5a04	-0.7396548
31	0x3c816c47	0.015798701
32	0x3f0369f5	0.5133355
33	0x3e7f3a72	0.24924639
34	0x3dff5bdd	0.124686934
35	0x3f152a25	0.5826743
36	0x3d82d0a9	0.06387455
37	0x3e21f112	0.15814617
38	0x3e91a748	0.28447938
39	0x3e5931ee	0.21210453
40	0x3d2eb74a	0.042655267
41	0xbcfd2067	-0.03089924
42	0x3e104e77	0.14092432
43	0x3dc6e396	0.09711377
44	0x3d89eae4	0.06734255
45	0x3e2d257f	0.16908835
46	0xbe0f312b	-0.139836
47	0xbf142af4	-0.5787804
48	0x3d8eba51	0.06969131
49	0x3efb3511	0.49063924
50	0xbe42c3b8	-0.19019973
51	0xbe868fd0	-0.26281595
52	0xbc3ba89b	-0.011453773
53	0x3d8ef480	0.069802284
54	0x3e7a3330	0.24433589
55	0x3c7a5b52	0.0152805615
56	0xbeb87c8f	-0.3603253
57	0x3cac2e39	0.021018134
58	0xbdc8b5a2	-0.09800269
59	0xbe55a9c8	-0.20865548
60	0x3e0fd2a6	0.140452
61	0x3e4b0ae5	0.19828375
62	0xbe972d63	-0.29526815
63	0xbee01aec	-0.4377054
64	0xbe773dcd	-0.24144669
65	0xbf058d42	-0.5216867
66	0xbef5e840	-0.48028755
67	0xbea4a2e3	-0.32155523
68	0xbe949e9b	-0.29027256
69	0xbf0d0076	-0.5507883
70	0xbcdfb178	-0.027306303
71	0x3d35e330	0.044406116
72	0x3e92418e	0.2856564
73	0x3f8ab2c6	1.0835807
74	0x3e8058d4	0.2506777
75	0x3ecd90f1	0.40149644
76	0xbdd704f9	-0.10498995
77	0x3d723fea	0.059142984
78	0x3b238e20	0.002495654
79	0xbda36fa6	-0.079802796
80	0xbff5c12b	-1.9199575
81	0x3e9d316e	0.30701774
82	0x3bb201a6	0.0054323254
83	0x3d811716	0.063032314
84	0x3b70276a	0.0036644586
85	0x3d1ba7e4	0.03800191
86	0xbeb97ef3	-0.36229667
87	0xbdc2b1e0	-0.09506583
88	0xbeb2740a	-0.34854156
89	0xbe600fc8	-0.2188102
90	0xbe492d35	-0.19646151
91	0x3e411005	0.18853767
92	0xbc1c2bd6	-0.009531936
93	0x3d2cde48	0.04220417
94	0x3e801d93	0.25022563
95	0x3f586304	0.84526086
96	0x3f1ea8de	0.6197642
97	0x3ebaa669	0.36455086
98	0xc042a64f	-3.0414007
99	0xbf45bd36	-0.7724184
100	0x3ea5548d	0.3229107
101	0x3e390a14	0.18070251
102	0xbe50cf0a	-0.20391479
103	0x3e078a47	0.13236342
104	0xbf581989	-0.84413964
105	0x3e15b576	0.14620003
106	0xbe983992	-0.29731423
107	0x3f549bc8	0.83050203
108	0xbe0d0835	-0.13772662
109	0xbed6efe2	-0.4197989
110	0xbf3ccfd4	-0.7375462
111	0xbf2a6fcc	-0.6657684
112	0xbf11f33b	-0.57011765
113	0xbf335341	-0.7004891
114	0xbf05a365	-0.52202445
115	0xbef6acd1	-0.48178723
116	0xbf1eb386	-0.6199268
117	0xbf2893fa	-0.65850794
118	0xbe45d0fb	-0.19318001
119	0xbe96121b	-0.29310688
120	0x3fd6ed10	1.6791096
121	0x3ffd7382	1.9800875
122	0xbf47b323	-0.78007716
123	0x3efc05f3	0.4922329
124	0x3d5ebfdc	0.05438219
125	0x3dbf4933	0.093401335
126	0xbd040786	-0.032233737
127	0x3bc3835c	0.005966587
128	0x3dd6bfb3	0.104857825
129	0x3f9eda6e	1.241041
130	0xbe607494	-0.21919471
131	0x3ef6e133	0.48218688
132	0xbd9aa927	-0.075517945
133	0x3d201886	0.039085887
134	0x3d5e962f	0.054342445
135	0x3ca206c2	0.019778613
136	0x3e0ad3c8	0.1355735
137	0x3e35489e	0.17703483
138	0xbb4e126f	-0.0031444093
139	0x3ea0766a	0.31340343
140	0x3de39467	0.1111229
141	0x3de04f9e	0.10952686
142	0x3d4dea55	0.050272305
143	0xbc6ce51e	-0.014458923
144	0xbea7fe82	-0.32811362
145	0xc0a07987	-5.014835
146	0xbf2d0b18	-0.6759505
147	0xc004da72	-2.0758328
148	0xbf0085b7	-0.5020403
149	0xbd5bf050	-0.053695977
150	0xbeca1358	-0.39467883
151	0x3d026d15	0.03184231
152	0x3c9139c2	0.017727736
153	0x3f27eddf	0.6559734
154	0xbedeefa1	-0.43542197
155	0xbe1716ec	-0.14754838
156	0xbcd9619a	-0.026535798
157	0xbbfb3477	-0.0076661664
158	0xbf170125	-0.5898612
159	0xbf2091a3	-0.62722224
160	0xbe9ceb43	-0.3064824
161	0xbe82154e	-0.2540688
162	0xbe87d737	-0.26531383
163	0xbe19c8ad	-0.15017958
164	0xbe8a3a69	-0.26997688
165	0xbe4ea0fd	-0.201786
166	0x3d0ffafb	0.035151463
167	0x3e89e32b	0.26931128
168	0xc020faa5	-2.5152981
169	0xc08af292	-4.3421106
170	0x3f97f754	1.1872354
171	0x3f88bb1a	1.0682099
172	0x3dd4e305	0.10394863
173	0xbd9763e0	-0.073920965
174	0x3d05dfc8	0.032684118
175	0xbd3d67c8	-0.04624155
176	0xbd46336e	-0.04838889
177	0x3c16b80e	0.0091991555
178	0xbe16b2a1	-0.14716579
179	0x3d999fdc	0.07501194
180	0xbdb43d69	-0.088007756
181	0xbe2ae774	-0.16689855
182	0xbd2659f2	-0.040613122
183	0xbc80bc3a	-0.015714753
184	0xbd9ffdc4	-0.07812074
185	0xbafc6465	-0.0019255994
186	0xbe91167a	-0.2833746
187	0x3c7dde7b	0.015494938
188	0xbdd75df4	-0.10515967
189	0x3c6de17e	0.014519094
190	0xbe9c2800	-0.30499268
191	0xbe974dce	-0.29551548
192	0xbe7c5666	-0.24642333
193	0xbfeb365b	-1.8375963
194	0xbea0fcd1	-0.31442884
195	0x3ed751be	0.42054552
196	0xbf5edf60	-0.87059593
197	0xbd3a4f99	-0.045486066
198	0xbde2a1b0	-0.11065996
199	0xbe80f7bc	-0.25189006
200	0x3dae6944	0.085161716
201	0xbea65794	-0.32488692
202	0x3eb821f2	0.35963398
203	0x3f4d0d96	0.80098855
204	0x3ed27eda	0.41112405
205	0xbf8b0c84	-1.0863194
206	0xbe7c0baa	-0.24613824
207	0xbeb1013a	-0.34571248
208	0xbd70d45c	-0.05879627
209	0xbdb849cd	-0.089984514
210	0xbeb4c583	-0.3530694
211	0xbe375d83	-0.17906766
212	0xbd2f205d	-0.042755473
213	0xbdca501f	-0.09878563
214	0xbe084b9d	-0.13310094
215	0xbe6fe2e6	-0.23426399
216	0x3e0c5814	0.13705474
217	0xbfa94a78	-1.3225851
218	0xbfa1eb87	-1.2650002
219	0x3ebdece5	0.370948
220	0x3f652fb9	0.89525944
221	0x3f28ecef	0.6598653
222	0x3ea59b81	0.32345203
223	0x3e0ca2e4	0.13734013
224	0xbdf6da43	-0.12053349
225	0xbe308723	-0.1723905
226	0xbf434358	-0.76274633
227	0x3c8978e5	0.01678128
228	0xbdc71a8f	-0.097218625
229	0xbef0591d	-0.46942988
230	0xbe991247	-0.29896757
231	0xbea64e6a	-0.324817
232	0xbdd688e9	-0.10475332
233	0xbe9bca6b	-0.3042787
234	0xbd8017c9	-0.06254537
235	0xbe8c0192	-0.27344948
236	0xbe5560fa	-0.20837775
237	0x3d3f4d37	0.046704497
238	0x3da303c1	0.079597004
239	0x3dd2e3be	0.102973446
240	0xbf44c720	-0.7686634
241	0xc0938501	-4.609986
242	0x3eb5068a	0.3535655
243	0xbf9e73e8	-1.2379122
244	0xbeca0127	-0.39454004
245	0xbdc6f413	-0.09714522
246	0xbf1bcbb2	-0.6085769
247	0x3cb775bd	0.02239501
248	0x3d230a53	0.039804768
249	0xbf75823c	-0.95901847
250	0xbe5681b2	-0.20947912
251	0xbebdccca	-0.37070304
252	0xbd99e1e1	-0.07513786
253	0xbdab92dc	-0.083776206
254	0xbebc9e0f	-0.3683934
255	0xbe93ccdb	-0.2886723

fc1.bias f4 [256]
0	0x3ec3ed7d	0.38267127
1	0xbed682e4	-0.41896737
2	0x3eaccf89	0.33752087
3	0x3f07cc6c	0.530463
4	0xbe969940	-0.29413795
5	0xbe83ac79	-0.25717524
6	0x3e8bbf06	0.27294177
7	0xbeed241f	-0.4631662
8	0xbef95000	-0.48693848
9	0x3ece83e6	0.40335006
10	0x3e85c7e4	0.26129067
11	0x3e37ccc4	0.17949206
12	0x3e1fd054	0.15606815
13	0xbe88ad56	-0.26694745
14	0xbe192e1b	-0.14958994
15	0xbeabad57	-0.33530685
16	0xbea3c87a	-0.3198889
17	0xbf0976c5	-0.5369685
18	0x3e848f87	0.25890753
19	0xbd383ad2	-0.04497797
20	0xbe37a23d	-0.17932983
21	0xbc2fce87	-0.010730392
22	0x3d3a81e0	0.045534015
23	0xbe97c24d	-0.29640427
24	0x3e44a5c4	0.1920386
25	0x3e6fa355	0.2340215
26	0x3d2d5bef	0.042324003
27	0x3f10bfa3	0.56542414
28	0x3f538c08	0.82635546
29	0x3ea52d79	0.32261255
30	0xbed4e915	-0.41584077
31	0x3d043442	0.0322764
32	0xbd3eed66	-0.04661312
33	0xbe855381	-0.2604027
34	0xbe9cee7f	-0.30650708
35	0x3e87f591	0.2655454
36	0x3f253264	0.64530015
37	0xbee0df21	-0.43920234
38	0x3dc2cc7f	0.09511661
39	0x3db025ef	0.08600985
40	0xbd7923de	-0.06082522
41	0xbd8f5139	-0.06997914
42	0xbf300640	-0.68759537
43	0xbe528d7c	-0.20561785
44	0x3ddc3e9b	0.107541285
45	0x3d3e8a7c	0.046518788
46	0x3dd9c920	0.10634065
47	0x3e08ec37	0.13371359
48	0x3e1b3ace	0.15159151
49	0xbc0312b0	-0.008000061
50	0xbec717a1	-0.38885215
51	0xbf4254ee	-0.7591084
52	0xbec48d80	-0.38389206
53	0xbe81f6b9	-0.25383547
54	0x3d24caaa	0.040232338
55	0xbe9ee6a1	-0.3103533
56	0xbe12906e	-0.14312908
57	0x3d668d08	0.05628684
58	0xbe927d6c	-0.28611314
59	0x3ef64604	0.48100293
60	0xbed46835	-0.41485754
61	0xbe002bb0	-0.12516665
62	0x3ed03e88	0.40672708
63	0x3e5be8cf	0.21475528
64	0x3d257489	0.04039434
65	0xbe4177ca	-0.18893352
66	0x3e87ca4d	0.2652153
67	0xbf16ea97	-0.58951706
68	0xbf0142e1	-0.50492674
69	0xbeb43093	-0.3519331
70	0xbe31f88d	-0.17379971
71	0xbc8f36f6	-0.017482262
72	0x3de03441	0.10947467
73	0x3eb274ab	0.34854636
74	0xbebb9c3b	-0.36642632
75	0xbe3fa691	-0.18715884
76	0x3d403725	0.04692759
77	0xbec01ac3	-0.37520418
78	0x3ddd65f2	0.1081046
79	0x3d3537be	0.044242613
80	0x3d361fe4	0.044464007
81	0xbdec0054	-0.115235
82	0x3edb3368	0.42812657
83	0x3eee7f97	0.46581718
84	0xbe0d9eed	-0.13830157
85	0x3e058381	0.13038446
86	0x3eef8596	0.46781605
87	0x3e881563	0.26578817
88	0xbe38ef1a	-0.1805996
89	0xbd0ffeab	-0.03515498
90	0xbf0569a3	-0.52114314
91	0x3f28b416	0.6589979
92	0x3ebe85a3	0.37211332
93	0x3e523dcb	0.20531385
94	0xbeb8fe45	-0.36131492
95	0xbe09778f	-0.13424514
96	0xbeebbf83	-0.4604455
97	0xbf2b408c	-0.66895366
98	0xbe578b87	-0.21049319
99	0xbebf5794	-0.37371504
100	0x3d489888	0.04897359
101	0xbeb628aa	-0.355779
102	0xbbd7ce15	-0.006585846
103	0xbde9414a	-0.11389406
104	0xbee3cff0	-0.4449458
105	0xbed3c84f	-0.4136376
106	0x3e456cad	0.19279738
107	0x3f3269dd	0.69692785
108	0x3e3472cf	0.17621921
109	0x3e08335d	0.13300844
110	0xbea29dc3	-0.31760988
111	0xbe599d95	-0.21251519
112	0x3f088796	0.5333189
113	0xbf03858c	-0.5137565
114	0xbdc5d944	-0.09660581
115	0x3eec1883	0.4611245
116	0x3ed02b82	0.40658194
117	0x3f4dc074	0.80371785
118	0xbe055242	-0.1301966
119	0xbe5f11f4	-0.21784192
120	0xbf0587af	-0.5216016
121	0x3e75d76d	0.2400796
122	0x3e9f9784	0.31170285
123	0xbceb84ff	-0.02874994
124	0xbf096e3d	-0.53683835
125	0xbe004524	-0.12526375
126	0x3ee4478b	0.44585833
127	0x3e8f7ba6	0.28024024
128	0xbf0e0164	-0.5547087
129	0x3eff6a4f	0.49885795
130	0xbe8a45fb	-0.27006516
131	0xbf0220ed	-0.5083149
132	0xbf01a339	-0.50639683
133	0x3ede7e34	0.4345566
134	0x3e1c0231	0.15235211
135	0x3e955523	0.29166517
136	0x3ebb5dd7	0.36595032
137	0x3e95f4ff	0.2928848
138	0x3e8d3503	0.27579507
139	0x3ec4b610	0.38420153
140	0xbe265e78	-0.16246974
141	0xbdc90fcc	-0.09817466
142	0x3e23f1db	0.1601023
143	0xbdb574e1	-0.088601835
144	0xbe4dedce	-0.20110247
145	0x3df68529	0.12037117
146	0xbf095bb5	-0.5365556
147	0x3ec839c3	0.3910657
148	0x3f104e5a	0.56369555
149	0xbf4f276b	-0.8091952
150	0xbf2811ec	-0.65652347
151	0xbea54355	-0.32277933
152	0xbe3a2d60	-0.18181372
153	0xbe4b8443	-0.19874673
154	0xbe90dd55	-0.28293863
155	0x3cf7ebac	0.030263744
156	0xbf031733	-0.51207274
157	0xbf37fbbf	-0.7186851
158	0xbd541df5	-0.05178638
159	0x3f27aece	0.65501106
160	0xbe93920d	-0.28822365
161	0x3d2be764	0.04196872
162	0xbdc64ae4	-0.09682253
163	0x3e3cdd61	0.18443824
164	0xbf1b069b	-0.60556954
165	0x3d166d2d	0.036725212
166	0xbedfe3d7	-0.43728516
167	0xbe9ccaed	-0.3062357
168	0xbeb2bb60	-0.3490858
169	0xbe6eb24d	-0.23310204
170	0x3f2f670b	0.68516606
171	0xbeec7045	-0.46179405
172	0xbf0a434a	-0.54008925
173	0xbe53a2ee	-0.20667621
174	0x3de93bd2	0.11388363
175	0x3f01d2e6	0.5071243
176	0x3e887547	0.26651976
177	0xbef36e34	-0.47545016
178	0x3f111fd4	0.5668919
179	0xbf205a5d	-0.62637883
180	0xbec4c4b5	-0.38431326
181	0x3eed57f1	0.46356156
182	0xbde38b2b	-0.111105286
183	0xbe2ebbaf	-0.17063783
184	0x3a6dcc62	0.0009071288
185	0xbed7210a	-0.42017394
186	0x3de0a69a	0.10969277
187	0xbeef991b	-0.46796498
188	0xbf00c3d4	-0.5029881
189	0x3f217bb3	0.63079375
190	0xbd944035	-0.07238809
191	0x3e55bb17	0.2087215
192	0x3f316883	0.693001
193	0x3ea61fc4	0.3244611
194	0xbe0264a9	-0.12733711
195	0x3e800449	0.2500327
196	0x3eb19123	0.34681043
197	0xbef1806f	-0.471683
198	0x3e149e69	0.14513554
199	0x3ebd4097	0.3696334
200	0x3f0a8fa2	0.54125416
201	0xbee01358	-0.43764758
202	0xbea61ffb	-0.32446274
203	0xbd6adb51	-0.057338063
204	0x3ee2ae03	0.44273385
205	0xbea45a09	-0.3209994
206	0x3f1a313c	0.60231376
207	0xbe6d0480	-0.23146248
208	0x3d4832dc	0.04887663
209	0xbeaa4f19	-0.33263472
210	0x3e7d2641	0.24721624
211	0x3e7d1594	0.24715263
212	0x3e745bdd	0.23863168
213	0xbdd3e5e9	-0.10346586
214	0xbecfba01	-0.40571597
215	0xbde3badf	-0.11119627
216	0x3f137232	0.57596123
217	0x3e3c2cab	0.18376414
218	0x3d884eb3	0.06655636
219	0x3e12bfd5	0.1433099
220	0xbe21ee2a	-0.15813509
221	0x3ef6df3f	0.48217198
222	0xbef25fd0	-0.47338724
223	0xbe8b5ee7	-0.27220842
224	0x3d9efc82	0.07763006
225	0x3c8e4961	0.017368974
226	0xbdcbf765	-0.09959296
227	0x3c83d971	0.016094895
228	0xbec6d566	-0.38834685
229	0x3dfc0928	0.12306434
230	0x3ce8284a	0.028339524
231	0xbeddb889	-0.43304852
232	0x3f284873	0.6573555
233	0x3e978edd	0.29601184
234	0xbee9aee0	-0.45641232
235	0x3ed2c824	0.4116832
236	0xbe134a7d	-0.14383884
237	0xbe71ff0b	-0.23632447
238	0xbe0e3507	-0.13887416
239	0x3e6b9181	0.23004724
240	0x3de22d90	0.110438466
241	0xbecee8c8	-0.40411973
242	0xbea06062	-0.31323534
243	0xbd6fb59c	-0.058522806
244	0xbc29310c	-0.010326635
245	0x3e9441ad	0.28956357
246	0x3f2200f6	0.63282716
247	0x3d033b9a	0.032039262
248	0x3d9a896d	0.07545743
249	0xbe871e93	-0.26390514
250	0x3dfd1cac	0.12358984
251	0xbea5710d	-0.32312813
252	0x3e96ea04	0.29475415
253	0xbd910fa8	-0.07083064
254	0xbda87d5e	-0.08227037
255	0x3edbd191	0.42933324

fc2.weight f4 [256, 256]
0	0x3dd8b4d7	0.105813675
1	0x3d99fc5c	0.07518837
2	0xbe08f6ed	-0.13375445
3	0x3ea374ec	0.31925142
4	0x3f93d080	1.1548004
5	0x3d3ec1a5	0.046571393
6	0x3cd07cc2	0.025450114
7	0xc08ac31a	-4.336316
8	0xbf2e1abe	-0.68009555
9	0x3e8d8178	0.2763784
10	0xc09912fd	-4.783568
11	0x3d8473d9	0.06467409
12	0xbea75b5d	-0.32686892
13	0xbee0bff8	-0.4389646
14	0xbe5361ba	-0.20642748
15	0xbe4bb804	-0.19894415
16	0xbced18c6	-0.028942477
17	0x3bca8a71	0.0061810543
18	0xbd5dc3d1	-0.054141823
19	0xbe748b1c	-0.23881191
20	0xbe116827	-0.14199887
21	0x3d9e5117	0.077303104
22	0x3d3debf3	0.046367597
23	0x3b419fda	0.0029544742
24	0xbc54f83d	-0.012998638
25	0xbf1055a0	-0.56380653
26	0xbda09133	-0.078401946
27	0xbda44e80	-0.08022785
28	0x3e3bd045	0.18341167
29	0x3ef04593	0.4692808
30	0xbe91ba6b	-0.28462538
31	0xbda4d6f8	-0.080488145
32	0x3e8948d2	0.2681337
33	0xbe98094f	-0.29694602
34	0x3cab908b	0.020942947
35	0xbe0566e2	-0.13027528
36	0x3e67e885	0.22647293
37	0x3e771f57	0.24133049
38	0xbe9c8b07	-0.3057482
39	0xbd078aea	-0.033091463
40	0xbdccc065	-0.09997634
41	0xbd9400dc	-0.072267264
42	0xbe503aca	-0.20334926
43	0xbe333544	-0.17500788
44	0xbe920ddb	-0.28526196
45	0x3e057555	0.1303304
46	0xbf0cabdb	-0.5494973
47	0xc0802272	-4.0042048
48	0xbe135b24	-0.14390236
49	0xbed59cd9	-0.41721228
50	0x3f611332	0.87919915
51	0xbd7e4ac6	-0.06208303
52	0x3b9c7890	0.0047751144
53	0x3ca6bf05	0.020354757
54	0x3d876409	0.06610877
55	0xbf7c9b6b	-0.9867465
56	0x3cd5a4fd	0.02607965
57	0x3d707aed	0.05871098
58	0xbd20f76d	-0.039298464
59	0x3d99ffb1	0.075194724
60	0xbd33cfda	-0.043899395
61	0xbcfe8609	-0.031069772
62	0x3c744ddd	0.014911142
63	0x3ebb54ba	0.3658808
64	0xc0c35be8	-6.104969
65	0x3e56385c	0.20919937
66	0xbc6e6ffa	-0.0145530645
67	0xbf353257	-0.7077994
68	0x3da9dfee	0.08294664
69	0xbe475582	-0.19466212
70	0x3ef2f47e	0.47452158
71	0x3b63df23	0.003477045
72	0xbed25631	-0.41081384
73	0xc0690e09	-3.6414816
74	0xbf3cd163	-0.73757
75	0xbe4ae742	-0.1981478
76	0xbc32e980	-0.010919929
77	0xbe46451e	-0.19362304
78	0xc06085ca	-3.5081658
79	0x3e4a5fd7	0.19763122
80	0xbf5b4906	-0.856583
81	0xbe745a97	-0.23862682
82	0xbe9c8ab2	-0.30574566
83	0xc06fe51b	-3.7483585
84	0x3ba71ed2	0.0051001096
85	0xbe57ef5a	-0.21087399
86	0xbc52bb22	-0.012861999
87	0x3eb0ad9c	0.34507453
88	0xbecce718	-0.4002006
89	0x3db7ade1	0.08968712
90	0x408a2886	4.3174467
91	0xc0e4188c	-7.1279964
92	0xbcdb5dde	-0.026778158
93	0x3dc348a8	0.095353425
94	0xbc14160b	-0.009038459
95	0x3d78757b	0.060658913
96	0x3d0d313b	0.034470778
97	0x3f35c090	0.7099695
98	0xbdf1dbb3	-0.118094824
99	0x3d690f3d	0.056899298
100	0xbe862fa1	-0.26208213
101	0xbd03927c	-0.03212212
102	0x3e841738	0.25798965
103	0x3e079b9d	0.13242956
104	0xbdce876e	-0.10084425
105	0x3ea539e3	0.32270727
106	0x3cae6a83	0.021291023
107	0x3e43f457	0.19136177
108	0xbc45e442	-0.012078347
109	0xbd463e37	-0.048399176
110	0xbd38a6c6	-0.045080923
111	0xbe94a0bd	-0.29028884
112	0xbcb1f2e1	-0.021722259
113	0xbe7460ff	-0.23865126
114	0x3bd9a854	0.0066423807
115	0x3e8ec014	0.2788092
116	0xbf8bce4b	-1.0922331
117	0x3e8e295e	0.27765936
118	0x3e6edec9	0.23327173
119	0xbe02b1bb	-0.12763111
120	0x3aa606b1	0.0012666789
121	0x3c340fcb	0.010990093
122	0xbeacd08c	-0.3375286
123	0xbf2d9846	-0.67810476
124	0xbefc9d05	-0.49338546
125	0xbd7050de	-0.05867087
126	0xc08cdb05	-4.401736
127	0xbcffd036	-0.031227212
128	0xbed32b0c	-0.4124378
129	0x3e8f87c5	0.2803327
130	0xbeebb71c	-0.4603814
131	0xbde28afb	-0.11061665
132	0x3dd21549	0.10257966
133	0xbd992aec	-0.0747889
134	0xbf7ac036	-0.9794954
135	0xbe1b8983	-0.15189175
136	0xbdcd8331	-0.100347884
137	0xbe072570	-0.13197875
138	0xbe095779	-0.13412274
139	0xc06e4e14	-3.7235155
140	0x3a180db5	0.00058003824
141	0xbf55d9c1	-0.8353539
142	0xbec3f4b6	-0.38272637
143	0xc08d76e8	-4.420765
144	0x3d40b5e0	0.04704845
145	0xbf17c08c	-0.5927818
146	0x3ee87762	0.45403582
147	0xbee8c282	-0.45460898
148	0x3db6630a	0.08905609
149	0xbbf57a50	-0.0074913874
150	0xbe262a28	-0.16227019
151	0xbed412cd	-0.41420594
152	0x3d1a831d	0.037722696
153	0xbe216d35	-0.15764315
154	0xbf4af330	-0.79277325
155	0x3e3533f6	0.17695603
156	0xbe18673f	-0.14883135
157	0xbe07150f	-0.13191627
158	0xbefe6947	-0.49689695
159	0x3ea75486	0.32681674
160	0xbe4539dc	-0.19260353
161	0xbd51f267	-0.051256564
162	0xbd9b6c0d	-0.075889684
163	0xbf45c438	-0.7725253
164	0x3defe688	0.11713892
165	0xc0832a73	-4.098932
166	0xbd012e70	-0.031538427
167	0x3d125f92	0.035735674
168	0xbf7c4867	-0.9854798
169	0x3c685f77	0.014182917
170	0x3ea07a17	0.31343147
171	0xbd1c9405	-0.0382271
172	0x3b8a7962	0.0042258957
173	0xbc4ef2f8	-0.01263117
174	0xbc7366b0	-0.014856026
175	0xc0737560	-3.804039
176	0xbc3e858b	-0.011628519
177	0xbda0fa8d	-0.07860289
178	0x3c18ca67	0.0093256
179	0x401d5435	2.4582646
180	0xbd3e7a05	-0.046503086
181	0x3e5df6e1	0.21676208
182	0xbdbc60f7	-0.09198182
183	0xbea45a96	-0.32100362
184	0x3e1b42e5	0.15162237
185	0x3acd250e	0.0015651302
186	0xbfac098d	-1.3440415
187	0xbe5cd7bd	-0.21566673
188	0x3ce8501d	0.028358513
189	0x3dbe2766	0.092848584
190	0x3b69ab70	0.0035655163
191	0xbec29d33	-0.38010558
192	0x3dd1102b	0.10208162
193	0xc09aee54	-4.841593
194	0x3e745567	0.23860703
195	0xbee52003	-0.44750986
196	0xbcda2a81	-0.026631596
197	0x3e5fb69b	0.21847002
198	0x3e2b4721	0.16726352
199	0xc0c346bb	-6.102384
200	0x3d1658ac	0.036705658
201	0xbd9babd4	-0.07601133
202	0xbdc3cf4c	-0.09561023
203	0x3e2dc920	0.16971254
204	0xc0d8e0c1	-6.777436
205	0xbd71b75c	-0.059012756
206	0x3e8eb5f9	0.2787321
207	0xbe02cf68	-0.12774432
208	0xbe3eadfe	-0.1862106
209	0xbe5960e4	-0.21228367
210	0xbedf6205	-0.4362947
211	0xbd21c251	-0.039491955
212	0xbe6b653f	-0.22987841
213	0x3d3a130b	0.045428317
214	0x3d8a2570	0.06745422
215	0xc024d486	-2.5754714
216	0xbe827b65	-0.25484768
217	0xbe89bc49	-0.26901463
218	0x3d9f0fd1	0.077666886
219	0xbf5ff2f5	-0.874801
220	0xbe46ba79	-0.19407071
221	0xbd449df4	-0.0480022
222	0xbe1df6b4	-0.15426141
223	0x3e423021	0.18963672
224	0xbe1ca92b	-0.15298907
225	0xbcfe1652	-0.031016503
226	0x3e58ab0f	0.21159004
227	0xbf7edf9e	-0.9955996
228	0xbdf719cc	-0.12065467
229	0xbdfec1ad	-0.124392845
230	0xc093f810	-4.624031
231	0xbeb35e0e	-0.35032696
232	0x3db4b87c	0.0882425
233	0xc0983f46	-4.757724
234	0xbdc409d4	-0.09572187
235	0x3d4ca20b	0.049959224
236	0xbdd35090	-0.103181005
237	0xbe60c9e5	-0.21952017
238	0x3ca5739f	0.020196734
239	0xbe9c9c3f	-0.30587956
240	0x3da3937d	0.079871155
241	0xbebdf9c6	-0.37104625
242	0xbf6aa0c8	-0.9165158
243	0xbf1e1793	-0.6175472
244	0xbe0ee70f	-0.1395533
245	0xbc6d4183	-0.014480951
246	0x3e9e1582	0.30875784
247	0xbff57ebc	-1.9179301
248	0xbe849979	-0.2589834
249	0xbe82ce69	-0.25548103
250	0x3ca39ccf	0.019972233
251	0x3d490a10	0.049081862
252	0xbda5f5dc	-0.081035346
253	0xbd405c18	-0.046962827
254	0x3ccb61d6	0.024826925
255	0x3e8a7ab8	0.27046752

fc2.bias f4 [256]
0	0x3f1e5080	0.61841583
1	0xbd8adffd	-0.067810036
2	0xbd940246	-0.07226996
3	0x3e091c96	0.13389811
4	0xbd8ae4ad	-0.06781898
5	0xbd13e306	-0.03610518
6	0x3f1cf12d	0.61305505
7	0x3dfe982f	0.124313705
8	0x3dfba3c7	0.122870974
9	0x3d706afe	0.058695786
10	0x3d466257	0.048433628
11	0x3f1fbb9c	0.62395644
12	0x3dc0ea0f	0.09419643
13	0x3c8b840c	0.017030738
14	0x3f23eac4	0.640301
15	0xba978326	-0.0011559471
16	0xbd4dd181	-0.050248627
17	0x3f2d930b	0.67802495
18	0x3f2b6601	0.6695252
19	0x3f1bd9b1	0.60879046
20	0xbdcddb1a	-0.10051556
21	0x3e2b2a2d	0.16715308
22	0xbcb0ad58	-0.021567032
23	0x3d0f1874	0.03493543
24	0xbc77c624	-0.015122924
25	0x3f3e48c9	0.7432981
26	0xbed2e68b	-0.41191515
27	0x3eb2a0a7	0.34888193
28	0x3ef3a0fc	0.4758376
29	0xbdbae9a8	-0.09126598
30	0x3f05d89a	0.5228363
31	0xbdfa50ec	-0.12222466
32	0xbd919466	-0.07108383
33	0x3f0e27e2	0.55529606
34	0x3f0a1463	0.5393736
35	0x3f10713c	0.5642278
36	0xbd394490	-0.045231402
37	0x3d4793d8	0.04872498
38	0xbe0042dd	-0.12525506
39	0x3f14b76f	0.580924
40	0xbd9d5756	-0.07682674
41	0xbe4d5c51	-0.20054747
42	0xbdb43220	-0.08798623
43	0x3f0b8ad1	0.5450869
44	0xbc83a434	-0.01606951
45	0xbe7c9cc1	-0.24669172
46	0x3cf59b73	0.02998135
47	0x3d74301b	0.05961619
48	0x3dd360d1	0.10321201
49	0xbe0a1415	-0.13484223
50	0x3d044b9c	0.03229867
51	0xbd6bb306	-0.057543777
52	0x3f25bf49	0.64745003
53	0xbea45147	-0.3209326
54	0x3c04a254	0.008095343
55	0x3d03aaac	0.032145187
56	0x3f2e3085	0.68042785
57	0xb988dcab	-0.00026104352
58	0x3cbd7087	0.023124946
59	0x3f159dfb	0.58444184
60	0xbda1c297	-0.07898443
61	0xbd86e85c	-0.06587288
62	0xbd909a90	-0.070607305
63	0x3d498ced	0.049206663
64	0xbc713bec	-0.014723759
65	0x3f2f88a2	0.6856786
66	0x3c747423	0.014920267
67	0x3f005d28	0.50142145
68	0x3e92a0e8	0.28638387
69	0xbb7264cc	-0.003698635
70	0x3f20066d	0.62509805
71	0xbdda6cda	-0.10665293
72	0x3f2a8dfa	0.6662289
73	0x3f16ca4b	0.58902425
74	0x3d501b71	0.05080742
75	0x3e1dc645	0.15407665
76	0x3e9110ba	0.28333074
77	0xbe5a2cc7	-0.21306144
78	0x391c3e8d	0.00014900621
79	0x3f20ce0e	0.62814415
80	0x3d2796bf	0.040915247
81	0xbc51c21a	-0.012802625
82	0xbe050975	-0.12991889
83	0xbe83c90a	-0.25739318
84	0x3d232dde	0.039838664
85	0x3f267b9b	0.65032357
86	0x3f1f37fa	0.6219479
87	0xbe7e9454	-0.2486127
88	0xbdf47fdc	-0.1193845
89	0xbd9ad6b6	-0.07560484
90	0xbba76d5f	-0.0051094736
91	0xbb14706e	-0.002265002
92	0x3f177ea5	0.5917762
93	0x3d022501	0.03177357
94	0xbe1c6b66	-0.15275344
95	0xbeb89590	-0.36051607
96	0xbdf3042c	-0.1186603
97	0xbe2f3c97	-0.17112957
98	0x3c1c758d	0.009549511
99	0x3f096959	0.5367637
100	0x3f17b5ca	0.59261763
101	0xbe07b765	-0.13253553
102	0x3f26c059	0.6513725
103	0x3ec576d8	0.38567233
104	0x3f0dc675	0.55380946
105	0xbe849a51	-0.25898984
106	0x3f255fc4	0.6459925
107	0x3ebe137e	0.37124246
108	0x3f1da289	0.61576134
109	0x3d1e0c95	0.038586218
110	0xbe9c2515	-0.3049704
111	0x3f02d708	0.5110936
112	0x3f1c883f	0.61145395
113	0xbda293f7	-0.07938378
114	0x3f1d33bf	0.61407083
115	0x3f08eaa0	0.5348301
116	0x3b651d92	0.0034960252
117	0x3b830b4c	0.0039991494
118	0xbd5e46ca	-0.05426673
119	0xbdaebd23	-0.08532169
120	0x3f13459c	0.5752809
121	0x3f21898a	0.6310049
122	0x3d1697fd	0.03676604
123	0x3f2480be	0.64258945
124	0x3ec311f3	0.38099632
125	0x3f227b29	0.6346918
126	0x3f249af6	0.6429895
127	0xbc6beee3	-0.014400217
128	0xbe938c4e	-0.2881798
129	0x3f168ea0	0.5881138
130	0xbeae8619	-0.34086683
131	0xbc16b5ae	-0.009198589
132	0x3f11e557	0.5699057
133	0x3f0615a0	0.5237675
134	0x3f1b10cc	0.60572505
135	0xbd75e1c4	-0.06002976
136	0x3f2db21d	0.67849904
137	0xbee6741a	-0.45010453
138	0xbe2f7bdf	-0.17137097
139	0x39c97900	0.0003842786
140	0x3f1ddb34	0.616626
141	0xbd699233	-0.057024192
142	0x3d14ac77	0.036297288
143	0x3eea036c	0.45705736
144	0xbd8d6615	-0.06904236
145	0x3f1b9723	0.6077749
146	0x3f248d43	0.6427805
147	0xbdd3fec2	-0.103513256
148	0xbd17695e	-0.03696572
149	0xbcef0fab	-0.029182276
150	0xbd174c91	-0.036938254
151	0x3f18e416	0.5972303
152	0xbd3e9901	-0.046532635
153	0xbe0ee4e5	-0.13954504
154	0x3ed5f965	0.41791835
155	0xbcd2b512	-0.025721107
156	0x3f07ca4f	0.53043073
157	0xbd685373	-0.05672021
158	0xbd5be312	-0.053683348
159	0xbeb5bd31	-0.35495904
160	0xbd4b6aa9	-0.049662266
161	0x3f08b907	0.5340733
162	0x3e465cd9	0.19371356
163	0x3df291a2	0.118441835
164	0x3f0308df	0.5118541
165	0xbe5b44c6	-0.21412954
166	0x3f100fb3	0.56273955
167	0x3cc93058	0.024559185
168	0xbc0455c5	-0.00807709
169	0xbd96dfde	-0.07366918
170	0x3f187990	0.5956049
171	0x3dda19e3	0.10649469
172	0xbc999e36	-0.018752199
173	0x3dc24a9d	0.094868876
174	0x3f03e471	0.5152045
175	0x3e24c2d4	0.16089946
176	0xbcfba9d5	-0.03072063
177	0x3f1c988a	0.61170256
178	0xbdaf051f	-0.08545899
179	0x3f0aafb2	0.5417434
180	0x3e3c79ee	0.18405887
181	0xbe162f4e	-0.14666483
182	0x3f1dec71	0.61688906
183	0xbe871cc0	-0.26389122
184	0xbe96688a	-0.29376632
185	0x3eee3675	0.46525922
186	0x3ec936f2	0.39299732
187	0x3e7fe0c7	0.2498809
188	0x3c99b98d	0.018765235
189	0x3f071a37	0.52774376
190	0xbc327bd8	-0.010893784
191	0x3f185fe4	0.5952132
192	0x3f2be260	0.67142296
193	0x3f2bc77e	0.67101276
194	0xbd72c28c	-0.059267566
195	0xbc15d215	-0.009144326
196	0x3f03561c	0.5130327
197	0x3f24443b	0.6416661
198	0x3d0a3a5c	0.033747062
199	0x3e1bf3b8	0.1522969
200	0x3f07e19f	0.53078645
201	0x3e81fc7d	0.25387946
202	0x3ee4b368	0.44668126
203	0x3f1d987d	0.61560804
204	0x3f163277	0.58670753
205	0xbd45bfe1	-0.048278693
206	0x3f1747aa	0.59093726
207	0x3f33204b	0.6997115
208	0xbcc03a99	-0.023465442
209	0xbd94ee36	-0.07271998
210	0xba4b4781	-0.00077544904
211	0x3f242a4f	0.6412706
212	0xbe6c2e49	-0.23064531
213	0x3f0fb83d	0.561405
214	0xbe302ae0	-0.17203856
215	0x3f21a70c	0.6314552
216	0x3c07849c	0.008271363
217	0xbea4a1af	-0.32154605
218	0x3f1d0e84	0.61350274
219	0x3e19bcde	0.15013453
220	0x3d430a3a	0.047617175
221	0x3f1d78fc	0.6151273
222	0xbdfc73cc	-0.12326774
223	0x3da743a1	0.08167196
224	0x3f1333f9	0.5750118
225	0x3f0fb58c	0.56136394
226	0xbd60924b	-0.054827016
227	0x3edafdac	0.4277166
228	0xbe23f8ff	-0.16012953
229	0xbdfdbe44	-0.12389806
230	0xbd70bd5c	-0.058774337
231	0x3f1c4241	0.61038595
232	0x3dc63f80	0.096800804
233	0x3f1ea84a	0.6197554
234	0x3f2777ac	0.6541698
235	0xbe02eff5	-0.12786849
236	0xbd6f4be4	-0.058421984
237	0x3f0cfeff	0.55076593
238	0xbc258f3f	-0.010104953
239	0x3f0eed44	0.5583079
240	0x3f0a58e6	0.540419
241	0x3f0f4b2d	0.55974084
242	0x3f2c2d42	0.6725656
243	0x3f1a2a99	0.6022125
244	0x3f1d4cdc	0.61445403
245	0x3f1bea5b	0.60904473
246	0xbd811b35	-0.063040175
247	0xbb8c96f2	-0.004290455
248	0x3f0fac9a	0.56122744
249	0x3d45a488	0.048252612
250	0x3ee302e5	0.44338146
251	0x3f1a4865	0.60266715
252	0xbbe1ac53	-0.0068869977
253	0xbdb65118	-0.08902186
254	0x3c3e4e67	0.011615372
255	0xbc394170	-0.011307105

v.weight f4 [1, 256]
0	0x3e93e160	0.28882885
1	0xbb4a9498	-0.0030911323
2	0x3cac685e	0.02104586
3	0xbfb29412	-1.3951437
4	0xbd10a555	-0.035313923
5	0x3d1f8c2d	0.03895204
6	0x3e480ffb	0.19537346
7	0xbf9e77a8	-1.2380266
8	0xbff9db9b	-1.9520143
9	0xc004c365	-2.074426
10	0xbf35c867	-0.71008915
11	0x3e96a0fb	0.29419693
12	0xbfe797d3	-1.8093208
13	0xbc44d7d8	-0.012014352
14	0x3ec88b9a	0.39169008
15	0x3d50e8e9	0.05100337
16	0x3c9d0b8d	0.019170547
17	0x3e8c039d	0.27346507
18	0x3e99a0f2	0.30005604
19	0x3e924fe1	0.28576568
20	0x4039bf2c	2.9022932
21	0xbfbc1bd3	-1.4695991
22	0x3d2e24e6	0.042515658
23	0xbcac3e2e	-0.021025743
24	0xba98aa76	-0.0011647481
25	0x3ee44f68	0.44591832
26	0xbeef9a2f	-0.4679732
27	0xc04aedcd	-3.1707642
28	0x3e2c5acd	0.16831513
29	0x3bbeb64f	0.0058200727
30	0xbfc52732	-1.5402586
31	0x3a2f6b76	0.0006691733
32	0xb938a148	-0.0001760769
33	0x3e7fe005	0.249878
34	0x3e843776	0.25823563
35	0x3ea15321	0.31508735
36	0xc015ded5	-2.3417256
37	0x3d0565a4	0.032567635
38	0xbf9ce441	-1.2257158
39	0x3e8e0163	0.27735433
40	0xbf3d985f	-0.74060625
41	0x3f21a1c6	0.6313747
42	0xb892fee6	-7.009301e-05
43	0x3e7c322d	0.24628516
44	0xbd7adecc	-0.061247632
45	0xbf63fe9d	-0.89060384
46	0x3b9d3f1d	0.0047987835
47	0xbf558812	-0.8341075
48	0xbfa9efde	-1.3276327
49	0xb84b2390	-4.843209e-05
50	0x3a0487c4	0.0005055631
51	0x3f397e55	0.7245839
52	0x3e92601c	0.2858895
53	0x3fdeaf79	1.73973
54	0x3b385197	0.0028124803
55	0xbf67891a	-0.90443575
56	0x3f6915b8	0.91048765
57	0xbfbc89f1	-1.4729596
58	0x3d3f63bf	0.046725985
59	0x3e964065	0.29346004
60	0xbf5972d9	-0.8494087
61	0xbf3ce578	-0.7378764
62	0x3fa49954	1.2859292
63	0xc01aa4a4	-2.4162989
64	0x3b9bbdf6	0.0047528697
65	0x3e943564	0.28946984
66	0xbc323faf	-0.010879441
67	0xbf85dc3f	-1.0457839
68	0xbeb86221	-0.36012366
69	0x3d3331df	0.043748733
70	0x3e82b5e2	0.2552939
71	0xbb7ee65c	-0.003889463
72	0x3e87cc95	0.2652327
73	0x3ebfd27e	0.3746528
74	0x3cd51289	0.026009815
75	0xbfa84436	-1.3145816
76	0xc020182a	-2.5014749
77	0x3fba1243	1.4536823
78	0x3f4c86b0	0.79893017
79	0x3e8637f6	0.2621457
80	0xc0220d35	-2.532056
81	0x3bc58869	0.0060282242
82	0x39db87a9	0.0004187201
83	0x3e91c532	0.2847076
84	0x3af5577b	0.0018718088
85	0x3ec60294	0.38673842
86	0x3e98597f	0.2975578
87	0xbf9132bd	-1.1343609
88	0x3c153de6	0.009108996
89	0xbfb9768f	-1.4489306
90	0xbccdce60	-0.025122821
91	0x3c69a42a	0.014260331
92	0x3e67e2c0	0.22645092
93	0xbffae09c	-1.9599795
94	0x3ab8c857	0.0014097792
95	0xbc04581d	-0.0080776485
96	0x3c10728e	0.0088163745
97	0x3f09fca4	0.53901124
98	0xbfdefff1	-1.7421857
99	0x3e9235fa	0.28556806
100	0x3e78d30f	0.24299262
101	0xbe878244	-0.26466572
102	0x3e99609d	0.29956523
103	0xbf6bee87	-0.9216084
104	0x3e33f6a0	0.17574549
105	0x3cacbe16	0.021086734
106	0x3e9a0a8a	0.30086166
107	0xbfa1a244	-1.2627645
108	0xbfb65bf9	-1.4246818
109	0xbcc932b0	-0.024560302
110	0x3fd9b039	1.7006904
111	0x3e6c8828	0.23098814
112	0x3e96029e	0.29298872
113	0xbbd0fba9	-0.0063776565
114	0x3ea3a2df	0.31960198
115	0x3e8aacdd	0.2708501
116	0x3d2161b6	0.039399825
117	0x3beb2f7a	0.0071772905
118	0x3ca55e06	0.020186435
119	0xbedaf6f2	-0.4276653
120	0xbfbf1402	-1.4927981
121	0x3e8b8e54	0.27257025
122	0x3d436588	0.04770425
123	0x3e9c9a49	0.3058646
124	0xc0236421	-2.5529864
125	0x3e88438d	0.26614037
126	0x3ea25710	0.31707048
127	0xbccbf810	-0.024898559
128	0xbfcc2ec0	-1.5951767
129	0x3e83efcc	0.25768888
130	0xbea40085	-0.32031646
131	0x3d79ca8c	0.06098418
132	0x3e915a80	0.2838936
133	0x3e60c73f	0.21951006
134	0x3ea3fe38	0.3202989
135	0xbcbd72df	-0.023126064
136	0x3e86eb68	0.26351476
137	0x3fea53ff	1.8306884
138	0xbb072ac5	-0.0020624858
139	0x3cf8be93	0.03036431
140	0x3ea54033	0.32275543
141	0x3c83de3c	0.01609718
142	0xbfc3d2d1	-1.5298711
143	0xbf77f545	-0.96858627
144	0x3ce49fca	0.027908225
145	0x3e98366c	0.2972902
146	0x3e92ba52	0.28657776
147	0xbabb081f	-0.0014269388
148	0xbae0ca8b	-0.0017150206
149	0xbd772aab	-0.060343426
150	0xbf8c5302	-1.0962832
151	0x3e820b1b	0.25399098
152	0xbf8639d1	-1.0486394
153	0xbca2595e	-0.019818004
154	0xbf71a54b	-0.9439284
155	0x3b0641f5	0.002048609
156	0x3e8480a0	0.25879383
157	0xbc9abced	-0.018888915
158	0xbc7d759b	-0.015469934
159	0xbf2eec28	-0.68329096
160	0xba240d4e	-0.0006258086
161	0x3e870a43	0.26375017
162	0xc0074d22	-2.1140828
163	0xbfebc9d6	-1.842097
164	0xbf8010c3	-1.0005115
165	0x3fb16202	1.3858035
166	0x3e654510	0.22389627
167	0x3cb97757	0.022639913
168	0x3cf1134b	0.029428145
169	0x3d28de1e	0.041227452
170	0x3e95f089	0.29285076
171	0xbfdc015e	-1.7187917
172	0x3aba41af	0.0014210249
173	0xbf996649	-1.198434
174	0xbfb75f04	-1.4325871
175	0xc007f6f6	-2.1244483
176	0x3fadd24a	1.35798
177	0x3e89d700	0.26921844
178	0xba771ef4	-0.00094269146
179	0x3e902732	0.28154904
180	0xbf973119	-1.1811858
181	0xbb04504c	-0.0020189462
182	0x3ea14e4c	0.31505048
183	0xbf20aa67	-0.62760013
184	0xbee018cc	-0.4376892
185	0xbf949221	-1.1607095
186	0xc05eb2c9	-3.4796622
187	0xbfc8e75b	-1.5695604
188	0x3cf045d3	0.02933017
189	0x3e8b8d83	0.27256402
190	0xbc12f586	-0.00896967
191	0x3e849908	0.25898004
192	0x3ea5c432	0.32376248
193	0x3ea3bcae	0.3197989
194	0x3cadc1ae	0.021210518
195	0xbfa5dee6	-1.2958648
196	0x3e6ed4c4	0.23323351
197	0x3f7a72a9	0.9783121
198	0xbd6275e2	-0.055288203
199	0xbf6e62e9	-0.93119675
200	0x3e86bf1c	0.2631768
201	0xbf7046c9	-0.9385801
202	0xbf92b360	-1.1460991
203	0x3e9ba37a	0.3039816
204	0xbfb57bb7	-1.417838
205	0x3ced8842	0.028995637
206	0x3e9c4c80	0.30527115
207	0x3ed62036	0.4182145
208	0xbf4b38a8	-0.79383326
209	0x3bdb0082	0.00668341
210	0xbfac51b6	-1.3462436
211	0x3e8911f7	0.2677152
212	0xbf818b96	-1.0120723
213	0x3e7b6ba8	0.24552786
214	0xbaca4740	-0.0015432611
215	0x3eaddadb	0.33956036
216	0x3d3f3d77	0.046689477
217	0xbddd3ad1	-0.10802234
218	0x3e6bb42f	0.23017953
219	0xbfe6d5a6	-1.803395
220	0xbf9c6d77	-1.2220906
221	0x3e7e8f69	0.24859394
222	0xbb703a1b	-0.0036655727
223	0xbf9b9ff2	-1.2158186
224	0x3e527792	0.20553425
225	0x3e6d4140	0.23169422
226	0x3b5d24f2	0.0033743945
227	0xbf4eb35b	-0.80742425
228	0x38d13eda	9.9776036e-05
229	0xbbfb9393	-0.0076775043
230	0x3cf2dd1b	0.029646447
231	0x3e9263ab	0.28591666
232	0xbfcb0bad	-1.5862938
233	0x3e8a3551	0.26993802
234	0x3e7a5944	0.24448115
235	0xbbb38ed8	-0.005479675
236	0xbf840773	-1.0314773
237	0x3e90b0ec	0.2825998
238	0x3c334567	0.01094184
239	0x3ea1dd7b	0.3161429
240	0x3e59977d	0.21249194
241	0x3e5a1ecf	0.21300815
242	0x3e688b6f	0.2270944
243	0x3e9567ca	0.29180747
244	0xbfe76de2	-1.8080409
245	0x3e8dea19	0.27717665
246	0xbbaa425f	-0.0051959003
247	0xbfbc393d	-1.4704968
248	0x3e897949	0.26850346
249	0x3ca971c6	0.020684134
250	0xbf88f842	-1.0700762
251	0x3e88d7e9	0.26727226
252	0x3cbe68f7	0.02324341
253	0x3cf9d25b	0.030495813
254	0x3b3b7648	0.0028604437
255	0x3cd64bd1	0.026159199
