SAC_own/sac_1000/value_sac.pth (torch, 292444 bytes, 5 tensors)

fc1.weight f4 [256, 24]
000000 e4 f2 58 be bb 49 c3 bf 57 d8 bb 3e c6 f5 a0 3f
       -0.21186405 -1.5256876 0.36688492 1.2575004
000010 4e 62 46 be 61 21 b8 3d 9f ce 15 3e 32 d3 23 3e
       -0.19373438 0.089907415 0.14629601 0.15998533
000020 e7 db 01 3e a0 f0 77 bb 71 b2 95 bd f2 71 18 3e
       0.12681542 -0.0037832633 -0.073094256 0.14887217
000030 a4 82 c2 3d 75 d1 1f be b2 8e a1 be 2b 45 cb bc
       0.09497574 -0.15607245 -0.3155418 -0.024813255
000040 5b 2b 89 3d e9 39 32 3d dc 50 45 3c 48 a1 06 3e
       0.066977225 0.04351226 0.012043204 0.13147461
000050 65 c6 61 3e 13 ca c7 bd f3 97 6b 3e 0a d1 c1 3e
       0.22048338 -0.097553395 0.23007183 0.37854797
000060 f1 c2 4f be ad 9b 1e 3f 7d c0 c5 3d f6 94 e7 bf
       -0.20289208 0.6195629 0.09655855 -1.8092334
000070 7e 90 8a bf 9d 67 29 be 49 89 3d bf f4 ba 77 3c
       -1.0825346 -0.16543432 -0.74037606 0.015120257
000080 a4 24 03 3f 5e ea 7f 3e a6 00 fc 3d 90 25 15 3f
       0.51227784 0.24991748 0.12304811 0.5826044
000090 29 ba 83 3d 10 31 23 3e ba 4b 91 3e 08 7a 58 3e
       0.064319916 0.15936685 0.28378087 0.21140301
0000a0 9f cb 2b 3d 9c 84 01 bd 6b 8f 0f 3e d9 5e c5 3d
       0.041942235 -0.031620607 0.14019553 0.096372314
0000b0 f9 5a 88 3d c2 59 2c 3e ac e7 0f be 78 47 14 bf
       0.06657977 0.16831115 -0.1405322 -0.5792155
0000c0 4d ce 8c 3d c8 0d fb 3e f2 16 42 be d8 e0 85 be
       0.06875286 0.49033952 -0.18954065 -0.26148105
0000d0 0d 2e 1e bc e5 7d 8f 3d b5 c4 79 3e 48 1e 65 3c
       -0.009654534 0.07006434 0.24391444 0.01398427
0000e0 2c 7c b8 be c6 e3 b4 3c 2b 5f c7 bd b3 b3 53 be
       -0.36032236 0.022081267 -0.09734949 -0.20674019
0000f0 cc e9 0f 3e ed 9c 4a 3e 99 8d 97 be 01 7b e0 be
       0.1405403 0.19786425 -0.29600218 -0.43843845
000100 c5 fd 77 be 26 bd 05 bf fc 47 f6 be 80 02 a5 be
       -0.24217899 -0.5224174 -0.48101795 -0.3222847
000110 df fd 94 be 00 30 0d bf be 96 e5 bc 22 ee 32 3d
       -0.29099938 -0.5515137 -0.028025981 0.043684132
000120 52 ac 91 3e 4f 58 8a 3f f1 bd 80 3e 00 a5 cd 3e
       0.28451782 1.08082 0.25144914 0.40164948
000130 4b 24 d7 bd fe 91 72 3d bf a7 f0 3a 06 2d aa bd
       -0.10504969 0.05922126 0.0018360539 -0.08309369
000140 ab 90 f5 bf 03 91 9d 3e f9 f3 d7 3b d5 ab 80 3d
       -1.9184774 0.30774698 0.006590363 0.06282774
000150 f3 88 45 3b ee 1b 1e 3d 86 41 b9 be 45 bc c1 bd
       0.0030141443 0.038600855 -0.36182803 -0.09459738
000160 b2 36 b2 be a8 96 5f be 98 b6 48 be 5e 87 41 3e
       -0.34807354 -0.21834815 -0.19600904 0.18899295
000170 46 7a 14 bc fc d3 2e 3d 74 50 80 3e f9 84 58 3f
       -0.009062355 0.042682633 0.2506138 0.845779
000180 63 f9 1e 3f dd fc ba 3e ef bd 42 c0 36 37 46 bf
       0.62099284 0.36521044 -3.0428426 -0.77427995
000190 2a 18 a5 3e fc e6 3a 3e 1b 48 51 be 5d a3 09 3e
       0.32244998 0.18252176 -0.20437662 0.13441224
0001a0 5a 19 58 bf 10 4a 16 3e 16 96 98 be e1 88 54 3f
       -0.84413683 0.1467669 -0.29802006 0.8302136
0001b0 30 62 0d be db ef d6 be 85 74 3c bf 6f 14 2a bf
       -0.13806987 -0.4197987 -0.73615295 -0.6643743
0001c0 ef 97 11 bf f1 f7 32 bf 11 48 05 bf 2e f6 f5 be
       -0.5687246 -0.6990958 -0.5206309 -0.48039383
0001d0 3b 58 1e bf 9f 38 28 bf c9 63 44 be b1 56 95 be
       -0.6185338 -0.65711397 -0.1917869 -0.29167703
0001e0 5e 6a d7 3f 22 dd fd 3f 0f 86 47 bf 06 c0 fd 3e
       1.6829336 1.9833109 -0.7793893 0.49560565
0001f0 5a 6f 55 3d 76 f3 be 3d a7 c5 08 bd 7b 52 2c 3b
       0.052108146 0.0932378 -0.03339162 0.002629428
000200 16 ff d6 3d 47 d4 9e 3f 3e e6 61 be fe 52 f6 3e
       0.104978725 1.2408532 -0.22060487 0.48110193
000210 c4 b6 99 bd 5d c3 2a 3d a9 c9 61 3d d6 5d a8 3c
       -0.07505563 0.04169022 0.05512396 0.020552557
000220 78 9b 0b 3e 06 10 36 3e 4e ad 1b bb 04 db a0 3e
       0.13633525 0.1777955 -0.002375442 0.31417096
000230 3b 30 e5 3d 5f 11 e2 3d b4 7c 51 3d d2 f9 5b bc
       0.1119084 0.110384695 0.051144317 -0.013426261
000240 e9 39 a7 be 4a 6a a0 c0 48 4b 2d bf 0a cf 04 c0
       -0.3266137 -5.0129747 -0.67692995 -2.0751367
000250 63 fd 00 bf d6 c6 56 bd 96 65 ca be 18 4f f3 3c
       -0.5038664 -0.05243572 -0.3953063 0.0297008
000260 b6 f0 93 3c c2 f7 27 3f 09 ed dd be 1c 1e 17 be
       0.018059116 0.65612423 -0.43344906 -0.1475758
000270 34 76 e0 bc 2a ce f0 bb 85 24 17 bf 25 b6 20 bf
       -0.027400114 -0.0073487954 -0.590401 -0.6277793
000280 ee 35 9d be 4f 62 82 be ca 25 88 be e9 65 1a be
       -0.30705208 -0.25465629 -0.2659133 -0.15077938
000290 5e 85 8a be ca 2b 4f be 8e 70 0d 3d 5e b9 89 3e
       -0.27054876 -0.20231548 0.03453117 0.26899236
0002a0 57 ed 20 c0 bf f7 8a c0 ff eb 97 3f a9 64 88 3f
       -2.514486 -4.3427424 1.1868895 1.0655719
0002b0 d4 0e d3 3d 38 9b 97 bd 93 b4 09 3d 3f ca 3c bd
       0.103055626 -0.074026525 0.033619475 -0.046091314
0002c0 bc 30 50 bd 69 dd 07 3c 07 03 19 be e7 51 9c 3d
       -0.050827727 0.008292534 -0.14942561 0.07632809
0002d0 83 3b ad bd ee 3e 2b be 66 cd 2b bd c9 9d 8b bc
       -0.084586166 -0.16723225 -0.04194393 -0.017043011
0002e0 fe b8 a2 bd 16 3c 56 bb 6e c8 91 be 48 ab 67 3c
       -0.07945441 -0.0032689623 -0.28473228 0.014139958
0002f0 9d 32 da bd 9f f5 56 3c fd d9 9c be 94 fc 97 be
       -0.10654185 0.013120084 -0.30635062 -0.2968489
000300 71 e4 7c be 45 47 eb bf 0c c4 a0 be a0 08 d7 3e
       -0.24696518 -1.8381125 -0.31399572 0.41998768
000310 aa fd 5e bf ad 4e 3a bd e4 73 e1 bd 79 d8 80 be
       -0.8710581 -0.045485187 -0.110084325 -0.25165156
000320 1c 6d ae 3d 8b 7e a6 be ac 31 b8 3e 27 12 4d 3f
       0.08516905 -0.3251842 0.35975397 0.80105823
000330 b4 b0 d2 3e 2f 0c 8b bf 9e b8 7b be 3f d8 b0 be
       0.4115044 -1.0863093 -0.24582145 -0.34539983
000340 af 8e 6f bd 74 a9 b7 bd 74 9d b4 be 6e 0d 37 be
       -0.058485683 -0.089678675 -0.35276377 -0.17876217
000350 59 e3 2d bd 0c b0 c9 bd 7d f8 07 be de 7d 6f be
       -0.042453144 -0.098480314 -0.13278385 -0.23387858
000360 36 31 0e 3e 5c fe a8 bf 86 75 a2 bf b2 0a bc 3e
       0.1388596 -1.3202624 -1.2692115 0.3672691
000370 a6 e2 65 3f d3 65 28 3f 0e e4 a4 3e 6a 40 09 3e
       0.89798963 0.6578037 0.32205242 0.13403478
000380 dd f6 f7 bd 92 3b 2d be 8c 46 42 bf b1 32 85 3c
       -0.12107632 -0.16917256 -0.75888896 0.016259523
000390 83 23 c6 bd 6e 1e f2 be 52 a3 99 be 4c d6 a6 be
       -0.09674742 -0.4728884 -0.30007416 -0.3258537
0003a0 f5 7f d8 bd 90 3a 9c be 36 99 81 bd 1f 5c 8c be
       -0.10571281 -0.3051343 -0.06328051 -0.27414033
0003b0 66 00 56 be 7d 27 3d 3d bd 9d a2 3d e3 5c d4 3d
       -0.2089859 0.046180237 0.079402424 0.10369279
0003c0 b6 31 44 bf 04 67 93 c0 35 52 b5 3e cd 63 9e bf
       -0.7663835 -4.606325 0.3541428 -1.2374207
0003d0 62 c6 ca be 3d 7c cb bd 4d e2 1b bf 1a 9a be 3c
       -0.3960448 -0.09935806 -0.6089218 0.02326684
0003e0 a9 1b 29 3d 28 66 75 bf 9f 42 57 be dd 50 be be
       0.041286144 -0.95859003 -0.21021508 -0.3717107
0003f0 e8 f9 99 bd 62 d4 ac bd 8a 7e bc be 7c ae 93 be
       -0.07518369 -0.08438946 -0.36815292 -0.2884406

fc1.bias f4 [256]
000000 e0 11 c4 3e ad b0 d6 be b2 44 ac 3e d9 ee 07 3f
       0.38294888 -0.41931668 0.3364616 0.5309883
000010 28 d0 95 be 79 27 83 be 9c 98 8b 3e e7 d2 ed be
       -0.29260373 -0.25616053 0.2726487 -0.46449968
000020 85 17 f9 be ea bb ce 3e 47 e5 85 3e 09 aa 3b 3e
       -0.48650756 0.40377742 0.26151487 0.18326582
000030 8a 21 20 3e 45 58 87 be e9 3d 19 be 4f e7 aa be
       0.15637794 -0.26434532 -0.14965023 -0.333796
000040 a9 a7 a2 be fe a2 09 bf 3f 5a 85 3e 95 8f 41 bd
       -0.3176854 -0.5376433 0.26045415 -0.04725607
000050 46 f1 36 be 85 ed 3d bc b1 2d 4b 3d b9 c8 97 be
       -0.17865476 -0.011592274 0.04960412 -0.29645327
000060 a3 f6 47 3e 6c 34 6f 3e 24 3a 33 3d b7 97 10 3f
       0.19527678 0.23359841 0.04375662 0.564815
000070 46 89 53 3f a5 8f a6 3e 4c 02 d5 be aa a6 0d 3d
       0.8263134 0.32531467 -0.41603315 0.03458277
000080 f5 11 42 bd e1 30 85 be 17 3e 9d be 76 d4 88 3e
       -0.047380406 -0.26013854 -0.30711433 0.26724595
000090 23 28 25 3f af 15 e3 be b7 b4 c5 3d e7 62 b2 3d
       0.6451437 -0.4435248 0.09653609 0.087102704
0000a0 61 68 7a bd 1f 64 91 bd 7b 17 30 bf 45 f3 4f be
       -0.0611347 -0.07099175 -0.6878583 -0.20307644
0000b0 d0 d6 d7 3d 84 f8 3d 3d 7e d8 db 3d 77 f1 08 3e
       0.10539019 0.04637958 0.10734652 0.13373362
0000c0 d2 ff 1c 3e f4 72 2f bc 1e 18 c7 be 51 43 43 bf
       0.15331963 -0.010708559 -0.38885587 -0.7627459
0000d0 fa f5 c4 be a9 a7 81 be be ce 29 3d 49 d3 9f be
       -0.38468915 -0.25323227 0.04145693 -0.31215885
0000e0 04 57 12 be 02 95 6e 3d 99 24 90 be 46 43 f6 3e
       -0.14291006 0.058247574 -0.28152922 0.480982
0000f0 7a 37 d3 be e9 d9 01 be 1d a1 d0 3e da b3 5b 3e
       -0.41253263 -0.12680782 0.4074792 0.21455327
000100 4e f9 28 3d cb 92 40 be df f1 88 3e fb 56 16 bf
       0.04125338 -0.18805997 0.26747033 -0.5872647
000110 72 80 01 bf 9b d0 b5 be 33 33 31 be 2e a3 85 bc
       -0.50586617 -0.35510716 -0.17304687 -0.016313162
000120 91 9d e4 3d b9 66 b3 3e c4 1c bc be ab a1 42 be
       0.11162866 0.3503931 -0.36740696 -0.19006984
000130 d4 54 3c 3d 86 ca be be fb 21 d5 3d 32 c9 46 3d
       0.045979336 -0.37263888 0.10406872 0.04853172
000140 26 c8 3a 3d 00 13 ed bd 18 04 dd 3e d5 bf ee 3e
       0.045601033 -0.115758896 0.43167186 0.4663073
000150 6c c5 0d be 0f b7 02 3e c0 94 f0 3e 74 45 88 3e
       -0.13844842 0.12765144 0.46988487 0.2661549
000160 07 c5 37 be 94 f0 15 bd 6e 71 05 bf 66 ad 28 3f
       -0.17946254 -0.036606386 -0.52126205 0.65889585
000170 cc 85 be 3e 8a 1a 54 3e 1b b5 b8 be 96 94 07 be
       0.37211454 0.20713249 -0.36075673 -0.13240275
000180 97 24 eb be f6 df 2a bf 2c d4 57 be 5b e2 be be
       -0.45926353 -0.6674799 -0.21077031 -0.3728207
000190 e0 43 42 3d 2f fd b5 be a3 05 e3 bb a1 20 e0 bd
       0.047428012 -0.35544726 -0.006928162 -0.109437235
0001a0 05 24 e4 be f3 31 d3 be 23 8b 45 3e 90 5b 32 3f
       -0.4455873 -0.41249046 0.19291358 0.69670963
0001b0 8d b2 34 3e 6d 4e 0e 3e 9c ed a1 be cc c4 57 be
       0.17646237 0.13897105 -0.31626594 -0.21071166
0001c0 2d a1 09 3f 55 6d 03 bf 27 bd ca bd 91 07 ec 3e
       0.5376156 -0.513387 -0.09899359 0.46099523
0001d0 74 42 d2 3e 05 ba 4d 3f 7a 03 02 be e5 6b 5d be
       0.41066325 0.8036197 -0.12696639 -0.2162319
0001e0 d9 8c 05 bf 55 eb 77 3e 76 0a a0 3e 72 ff ef bc
       -0.5216804 0.24210866 0.3125798 -0.02929661
0001f0 75 61 08 bf a6 56 fe bd 1d 86 e3 3e b0 bb 90 3e
       -0.5327371 -0.12418871 0.44438258 0.28268194
000200 7d 3f 0e bf 27 2b ff 3e 61 ab 89 be 36 21 02 bf
       -0.55565625 0.4983761 -0.26888564 -0.50831926
000210 b2 22 01 bf 0a 0c de 3e 0e 35 1b 3e ae 64 96 3e
       -0.50443566 0.4336856 0.15156958 0.29373688
000220 ca 7d bb 3e 77 18 95 3e bf 0e 8f 3e d1 c6 c4 3e
       0.36619407 0.29120228 0.27940938 0.38432935
000230 50 cb 25 be 1c 7b c9 bd 84 48 24 3e de 8f b7 bd
       -0.16190839 -0.098379344 0.16043288 -0.08962987
000240 82 86 4c be b0 69 f7 3d e6 5b 09 bf 03 c7 c8 3e
       -0.19973186 0.12080705 -0.5365585 0.39214334
000250 48 48 10 3f d3 92 4f bf 59 a1 27 bf 6e 0f a5 be
       0.5636029 -0.8108341 -0.6548057 -0.32238334
000260 c7 2d 3a be 20 70 4a be 87 ad 90 be 2b a2 f8 3c
       -0.18181525 -0.19769335 -0.2825739 0.030350765
000270 32 80 03 bf f1 e7 37 bf a4 87 55 bd ad a3 27 3f
       -0.51367486 -0.7183829 -0.05213131 0.65484124
000280 ea 67 95 be 74 7b 26 3d e4 b4 c7 bd 9a b4 3c 3e
       -0.29180843 0.040645078 -0.09751299 0.18428269
000290 5a 43 1b bf fa 8f 14 3d 0b 9b dd be 27 05 9d be
       -0.60649645 0.03627012 -0.4328235 -0.30667993
0002a0 dd 9a b3 be 34 7d 6e be 9b 64 2f 3f 37 8b eb be
       -0.3507909 -0.23289949 0.68512887 -0.4600465
0002b0 32 6e 0a bf 19 a0 4c be f9 9b ee 3d 89 ef 01 3f
       -0.54074395 -0.19982947 0.11650843 0.50756127
0002c0 bc a9 8b 3e bc 4a f5 be f6 02 11 3f 97 a6 20 bf
       0.27277935 -0.4790858 0.56645143 -0.62754196
0002d0 5f 84 c4 be e7 47 ed 3e 52 47 e1 bd 62 41 31 be
       -0.3838224 0.4634392 -0.109999314 -0.17310098
0002e0 e9 01 d4 3b 22 6a d7 be aa 75 e6 3d 18 f8 ee be
       0.0064699543 -0.4207316 0.112529114 -0.46673656
0002f0 76 9a ff be 52 93 21 3f 2a 7c 94 bd f4 34 56 3e
       -0.49922532 0.6311542 -0.07250245 0.20918638
000300 ed 31 32 3f 3f a7 a4 3e 30 a1 fb bd a0 4d 7f 3e
       0.6960743 0.3215885 -0.122866035 0.24931955
000310 cd 33 b2 3e eb 77 ef be 91 62 14 3e a3 6c bd 3e
       0.34805146 -0.46771178 0.14490725 0.36996946
000320 5a 46 0b 3f 4b 46 e0 be 6d 7e a5 be d9 17 6f bd
       0.5440422 -0.4380363 -0.32323018 -0.058372352
000330 2b e3 e2 3e 7a cf a4 be 87 16 1a 3f 53 14 6d be
       0.4431394 -0.32189542 0.60190624 -0.23152284
000340 2f 05 56 3d f0 f9 aa be 08 db 7b 3e 56 73 7c 3e
       0.052251037 -0.33393812 0.24595273 0.24653372
000350 14 55 74 3e 75 81 d7 bd 7c 09 cf be af 2c e2 bd
       0.2386058 -0.10522739 -0.40436924 -0.11043679
000360 0b f2 13 3f 82 3e 3b 3e b5 49 86 3d 78 5c 10 3e
       0.57791203 0.18285564 0.06557027 0.14097774
000370 63 c1 22 be 56 0c f9 3e 26 58 f3 be 62 d2 8b be
       -0.15894084 0.48642224 -0.4752819 -0.27308947
000380 ca 09 9d 3d 7f 3c 8b 3c de 7d cd bd 3e 9a 90 3c
       0.07667883 0.01699662 -0.10033773 0.017651673
000390 a8 e4 c6 be 9e 66 00 3e 37 7d f4 3c 76 78 dd be
       -0.38846326 0.12539145 0.029844863 -0.43255967
0003a0 b6 ae 28 3f 3d 44 97 3e 16 13 e9 be 08 0d d3 3e
       0.6589159 0.2954425 -0.45522374 0.4122088
0003b0 60 13 0f be 1a 23 72 be 9b 5e 0e be 07 33 6b 3e
       -0.13972235 -0.23646203 -0.13903277 0.22968684
0003c0 37 b3 e2 3d 4e ce d0 be 14 68 a0 be e1 0a 72 bd
       0.11069339 -0.40782398 -0.31329405 -0.059092406
0003d0 7a 19 24 bc f0 20 96 3e 24 fd 21 3f 0b 09 00 3d
       -0.01001584 0.29322004 0.63276887 0.031258624
0003e0 eb c4 98 3d b3 1b 89 be ac bd f9 3d 84 97 a4 be
       0.07459434 -0.26778945 0.1219438 -0.32146847
0003f0 5d f9 96 3e ff 63 89 bd 96 75 a4 bd 9f 8d db 3e
       0.29487124 -0.06708526 -0.0803024 0.42881486

fc2.weight f4 [256, 256]
000000 47 26 d8 3d ad a0 9d 3d 3c f7 08 be 7d bd a3 3e
       0.10554176 0.07696662 -0.13375562 0.31980506
000010 05 f8 93 3f ed db 3f 3d 64 2d d1 3c 13 b6 8a c0
       1.1560065 0.046840597 0.02553434 -4.334726
000020 0e 1a 2e bf 85 dd 8c 3e 98 1b 99 c0 76 c0 83 3d
       -0.68008506 0.27512756 -4.7846184 0.064331934
000030 08 f2 a5 be 1b 2f e1 be 70 62 53 be 23 56 4c be
       -0.32411218 -0.4398125 -0.2064302 -0.19954734
000040 73 90 e9 bc ff 8a ca 3b 88 8e 5d bd 30 3f 76 be
       -0.028511262 0.0061811204 -0.054091007 -0.24047542
000050 31 1f 10 be ad b5 9e 3d 64 ad 44 3d c5 8f 87 3b
       -0.14074399 0.07749496 0.04801692 0.0041370117
000060 3c d0 65 bc ce 72 0f bf af 17 a1 bd 86 e6 a3 bd
       -0.014026698 -0.56034553 -0.078658454 -0.08002953
000070 cd 7f 3b 3e 6e 16 f0 3e 34 5a 90 be c8 7c a5 bd
       0.18310471 0.46892112 -0.2819382 -0.08080441
000080 da e0 88 3e e9 0b 98 be 27 0a ac 3c 73 b9 03 be
       0.26734048 -0.29696587 0.021000935 -0.12863712
000090 1a c3 67 3e a2 fa 70 3e ae 07 9f be ec 5b 03 bd
       0.22633019 0.23533109 -0.31060547 -0.032070085
0000a0 3e e6 ce bd e7 9e 94 bd f2 82 4f be 76 10 32 be
       -0.10102509 -0.07256871 -0.20264795 -0.17389092
0000b0 27 d5 91 be 47 5d 05 3e a0 23 0d bf b8 1c 80 c0
       -0.28482935 0.13023864 -0.55132484 -4.0035057
0000c0 0d 16 14 be b9 9d d5 be e5 12 61 3f 4a 63 7b bd
       -0.14461537 -0.41721895 0.87919456 -0.061373986
0000d0 a6 da 78 3b 8b 2c ba 3c 6e 51 88 3d 9a d3 7c bf
       0.0037972121 0.022726318 0.066561565 -0.9876038
0000e0 5b e5 dc 3c df 6b 6c 3d 63 95 19 bd 64 74 99 3d
       0.026964834 0.05772006 -0.037495982 0.07492903
0000f0 4e bb 33 bd ac b4 ea bc 4c 04 82 3c 8e 47 bb 3e
       -0.0438798 -0.028650604 0.01587119 0.3657803
000100 87 46 c3 c0 40 05 54 3e cd 4e 6d bc dc 01 35 bf
       -6.1023593 0.20705128 -0.01448412 -0.7070596
000110 a3 df a9 3d d5 4d 48 be c0 55 f1 3e d4 90 a2 3b
       0.082946084 -0.1956094 0.47135735 0.0049611125
000120 0e 36 d1 be 37 09 69 c0 93 05 3c bf 79 cb 4d be
       -0.40861553 -3.6411874 -0.73446006 -0.2009715
000130 96 e0 27 bc 7e 79 44 be 3c 85 60 c0 f4 5f 4c 3e
       -0.010246417 -0.1918697 -3.508132 0.19958478
000140 bb fa 5b bf 69 32 73 be 08 5b 9c be 5b 1b 70 c0
       -0.8592946 -0.23749699 -0.305382 -3.7516696
000150 4d e7 ac 3b d3 ef 57 be d9 7d 43 bc 25 de b0 3e
       0.0052765966 -0.2108758 -0.01193186 0.34544483
000160 d6 f6 cd be 36 8b b5 3d ea 28 8a 40 f3 28 e4 c0
       -0.40227383 0.08864443 4.3174944 -7.1299987
000170 9f b8 ce bc e1 eb c1 3d df fa 10 bc 1b 2e 79 3d
       -0.025234519 0.094688185 -0.008848875 0.060834985
000180 9d 56 16 3d d7 c0 35 3f e6 58 f1 bd bb a2 6d 3d
       0.036703695 0.70997375 -0.11784534 0.05801652
000190 65 73 88 be 0c 40 e8 bc 47 94 84 3e 03 e9 0b 3e
       -0.2665054 -0.028350852 0.25894377 0.13663106
0001a0 7f a8 ca bd 59 cd a4 3e 72 61 ad 3c c2 b6 43 3e
       -0.09895419 0.32187918 0.02116463 0.19112685
0001b0 89 fa 2c bc cf c2 4c bd 88 88 36 bd c7 e4 93 be
       -0.010557779 -0.04999047 -0.0445638 -0.2888548
0001c0 28 ed b1 bc 15 5e 75 be 46 e1 d0 3b 93 a2 8e 3e
       -0.02171953 -0.2396167 0.006374511 0.2785841
0001d0 41 bc 8b bf 7d 0c 8e 3e 5a 0b 6f 3e 1b 72 04 be
       -1.0916826 0.27743903 0.23344174 -0.12934153
0001e0 26 fd a0 3a a3 06 35 3c b4 df ae be 15 98 2d bf
       0.0012282475 0.011048946 -0.34155047 -0.67810184
0001f0 5b a6 fa be fe 85 6c bd 27 db 8c c0 3f 02 00 bd
       -0.48955044 -0.057744972 -4.401752 -0.031252142
000200 98 9e d3 be 25 69 8f 3e 50 ee eb be 12 8b e2 bd
       -0.41331935 0.28009906 -0.46080256 -0.11061682
000210 83 13 d1 3d d4 fb 91 bd 35 bf 7a bf cf 15 1c be
       0.102088 -0.071281105 -0.9794801 -0.15242694
000220 9c 7e cb bd 34 7b 06 be 71 33 0a be 88 5f 6e c0
       -0.09936258 -0.13132936 -0.13496186 -3.7245808
000230 ed da 31 3b a5 d9 55 bf 3d 55 c3 be fa 59 8d c0
       0.0027138547 -0.83535224 -0.3815097 -4.4172335
000240 6d 0a 42 3d 02 77 18 bf 53 77 e8 3e c1 04 e9 be
       0.047373224 -0.5955659 0.45403537 -0.4551144
000250 67 ad b5 3d 18 64 05 bc d9 8e 26 be dc ce d6 be
       0.088709645 -0.00814154 -0.1626543 -0.41954696
000260 7f 82 1a 3d 60 a9 23 be 39 ff 4b bf 76 d4 35 3e
       0.037722107 -0.1598258 -0.79686314 0.17756829
000270 90 17 18 be b4 25 05 be 21 ed fc be 95 3e a7 3e
       -0.14852738 -0.13002664 -0.49399665 0.32664934
000280 da c1 3f be 60 cb 48 bd ac f8 98 bd f3 f7 46 bf
       -0.18726292 -0.04902208 -0.074693054 -0.7772209
000290 13 e2 ea 3d 74 16 83 c0 13 96 f3 bc 2a e4 18 3d
       0.114689015 -4.096491 -0.029734647 0.03732697
0002a0 2b 31 7c bf 1d 1d 6c 3c fd 60 a0 3e db 93 1c bd
       -0.98512524 0.014411238 0.31323996 -0.038226943
0002b0 68 34 c9 3b 7b 4a e4 bb f0 ca 4b bc a2 8c 73 c0
       0.0061402805 -0.0069668866 -0.012438521 -3.8054585
0002c0 6e 28 4d bc 37 53 9f bd 23 11 17 3c a8 53 1d 40
       -0.012521846 -0.07779544 0.009220394 2.458231
0002d0 47 2d 3c bd ff bf 5d 3e 84 38 b8 bd 51 85 a4 be
       -0.045941617 0.21655272 -0.089951545 -0.32132962
0002e0 34 98 1c 3e b6 b2 f7 3a c7 60 ac bf c3 9e 5c be
       0.15292436 0.0018897865 -1.3467034 -0.21544938
0002f0 33 7f e5 3c 18 d6 bd 3d bc f3 d6 3a 29 f9 c1 be
       0.028014755 0.09269351 0.0016399543 -0.37885407
000300 2b 0d d2 3d 81 f5 9a c0 62 77 74 3e 25 92 e5 be
       0.10256418 -4.8424687 0.23873666 -0.44838062
000310 cb 3f da bc e7 5e 61 3e fa 23 2b 3e 4c 58 c3 c0
       -0.026641747 0.22008859 0.16712943 -6.1045284
000320 3c 11 15 3d 56 68 93 bd 0c f2 c6 bd e5 66 2e 3e
       0.03639339 -0.07197635 -0.097141355 0.17031439
000330 71 e0 d8 c0 7a b7 71 bd 77 8d 8e 3e 31 16 05 be
       -6.7773976 -0.059012868 0.27842304 -0.12996747
000340 6c f3 41 be 61 d1 5a be fa cf df be d4 90 24 bd
       -0.18940514 -0.21368934 -0.4371336 -0.04017718
000350 a4 83 6e be a0 98 38 3d d8 0d 8c 3d 6c d4 24 c0
       -0.23292404 0.04506743 0.06838578 -2.5754652
000360 d8 ed 81 be d9 b2 89 be da 0c 9e 3d 47 81 5f bf
       -0.25376773 -0.26894262 0.07717295 -0.87306637
000370 f9 34 47 be eb 80 3c bd 95 01 1b be c8 0d 44 3e
       -0.19453801 -0.046021383 -0.15137322 0.19145882
000380 98 07 1a be 99 0b ff bc 04 c5 59 3e 09 23 7f bf
       -0.1504196 -0.03113346 0.21266562 -0.99662834
000390 2f 52 f4 bd 38 bc fe bd 54 18 94 c0 40 47 b2 be
       -0.11929738 -0.12438244 -4.6279697 -0.34819984
0003a0 63 a3 b8 3d 9e 3c 98 c0 09 51 cc bd 6d ba 4c 3d
       0.090155385 -4.7573996 -0.09976394 0.049982477
0003b0 34 67 ce bd 9d 8b 60 be 97 be a7 3c 82 7d 9c be
       -0.10078278 -0.21928258 0.020476623 -0.30564505
0003c0 62 e4 a5 3d e2 d8 bf be b1 d7 6a bf 84 3b 1e bf
       0.08100201 -0.37470156 -0.9173537 -0.61809564
0003d0 d1 3a 12 be e8 b9 5f bc 3a 01 9e 3e 35 6f f5 bf
       -0.14280249 -0.013655163 0.3086031 -1.9174563
0003e0 a6 09 84 be d7 ad 81 be 0b 1c ac 3c b1 09 49 3d
       -0.2578861 -0.25327942 0.021009466 0.049081508
0003f0 f5 49 a0 bd ff 4b 3d bd 9a d7 b7 3c 80 5f 8a 3e
       -0.07826606 -0.046215054 0.022441674 0.27025986

fc2.bias f4 [256]
000000 c3 49 1e 3f 25 e0 8a bd 66 02 94 bd f7 74 0a 3e
       0.618313 -0.067810334 -0.0722702 0.13521181
000010 55 e5 8a bd af e3 13 bd 1e ec 1c 3f 6f d8 02 3e
       -0.06782023 -0.036105808 0.61297786 0.12777875
000020 36 11 ff 3d aa 29 83 3d dd 33 49 3d d2 b4 1f 3f
       0.124544546 0.06404431 0.049121726 0.62385285
000030 9e f9 c0 3d ff 83 8b 3c 5b e3 23 3f 73 83 97 ba
       0.09422611 0.017030714 0.6401879 -0.0011559561
000040 2e d2 4d bd 88 8a 2d 3f 03 59 2b 3f 86 d2 1b 3f
       -0.05024927 0.67789507 0.66932696 0.6086811
000050 2a 78 cc bd 8c f7 2e 3e ca ad b0 bc da 17 0f 3d
       -0.09983857 0.17086619 -0.021567244 0.034934856
000060 1c c6 77 bc 1c 41 3e 3f 21 df d2 be 32 19 b3 3e
       -0.015122917 0.743181 -0.4118586 0.3498016
000070 19 98 f3 3e c2 e9 ba bd c2 2c 06 3f 10 51 fa bd
       0.4757698 -0.09126617 0.52412045 -0.12222493
000080 5e 94 91 bd 53 23 0e 3f a2 0d 0a 3f 6f 69 10 3f
       -0.07108377 0.5552265 0.5392705 0.5641088
000090 f4 44 39 bd 48 93 47 3d 96 20 02 be b3 b0 14 3f
       -0.045231774 0.048724443 -0.12707743 0.5808212
0000a0 a5 57 9d bd b5 5c 4d be 65 32 b4 bd d7 83 0b 3f
       -0.076827325 -0.20054896 -0.087986745 0.54498047
0000b0 34 a4 83 bc d5 0a 7b be 05 9b f5 3c 69 35 75 3d
       -0.01606951 -0.24515851 0.029981146 0.05986539
0000c0 85 07 db 3d b1 14 0a be 08 4b 04 3d 35 9b 79 bd
       0.106947936 -0.13484456 0.032298118 -0.060939033
0000d0 c4 b8 25 3f c1 51 a4 be e3 a1 04 3c 6e aa 03 3d
       0.64735055 -0.32093623 0.008095237 0.032144956
0000e0 52 26 2e 3f 5e 27 a7 3b 7b 70 bd 3c ce 97 15 3f
       0.6802722 0.0051011285 0.023124924 0.5843476
0000f0 1b c3 a1 bd db e7 86 bd 85 5a 95 bd 96 85 5c 3d
       -0.078985415 -0.06587192 -0.07292656 0.053838335
000100 61 3c 71 bc 38 80 2f 3f ca 73 74 3c bd 67 00 3f
       -0.014723868 0.6855502 0.014920184 0.5015829
000110 57 b8 92 3e 32 65 72 bb 84 ff 1f 3f 6e 6d da bd
       0.28656265 -0.0036986587 0.6249926 -0.10665403
000120 e8 84 2a 3f 3d bb 16 3f 2f 1b 50 3d 1f c6 1d 3e
       0.6660905 0.5887945 0.050807174 0.15407608
000130 9d 40 93 3e ef 0b 5d be 2a ab 74 3a 96 c5 20 3f
       0.28760234 -0.21586584 0.0009333367 0.6280149
000140 43 b8 3a 3d 4a c2 51 bc a9 09 05 be c6 dc 84 be
       0.045585882 -0.01280267 -0.12991966 -0.25949687
000150 73 2d 23 3d ba 72 26 3f 83 2f 1f 3f 49 94 7e be
       0.039838266 0.6501881 0.6218187 -0.24861254
000160 f0 7f f4 bd 04 d7 9a bd f4 6d a7 bb cf 70 14 bb
       -0.11938465 -0.07560542 -0.005109543 -0.0022650247
000170 ac 74 17 3f 42 3f 03 3d b3 6b 1c be d4 95 b8 be
       0.591624 0.03204275 -0.15275459 -0.3605181
000180 77 04 f3 bd 4a 3d 2f be 6e 75 1c 3c 9e 62 09 3f
       -0.11866086 -0.17113224 0.009549482 0.536661
000190 f0 b0 17 3f 07 b8 07 be f7 b2 26 3f d4 35 c6 3e
       0.5925436 -0.13253795 0.6511683 0.38712943
0001a0 ae c0 0d 3f 8a b6 84 be 30 53 25 3f aa 15 be 3e
       0.5537213 -0.25920516 0.6458006 0.37125903
0001b0 1e f5 1d 3f 26 0c 1e 3d 75 4f 9d be 0c d2 02 3f
       0.61702144 0.038585804 -0.30724683 0.51101756
0001c0 dd 81 1c 3f 9d 94 a2 bd f2 26 1d 3f 48 e4 08 3f
       0.61135656 -0.07938502 0.6138755 0.5347333
0001d0 de 1c 65 3b b4 0a 83 3b 85 47 5e bd db ef ad bd
       0.0034959833 0.0039990786 -0.054267425 -0.084930144
0001e0 e1 7a 13 3f 83 83 21 3f f2 97 16 3d 35 78 24 3f
       0.57609373 0.63091296 0.036766 0.6424592
0001f0 9b fa c4 3e 73 74 22 3f 11 92 24 3f 09 ef 6b bc
       0.38472447 0.6345894 0.6428538 -0.014400252
000200 67 8c 93 be 75 8a 16 3f 7a 02 ad be 66 b6 16 bc
       -0.28818056 0.5880502 -0.33790952 -0.009198761
000210 f0 de 11 3f f2 10 06 3f cb 0a 1b 3f cf e1 75 bd
       0.569808 0.52369606 0.60563344 -0.0600298
000220 8d a9 2d 3f 08 5e e8 be 3c 7c 2f be c7 78 c9 39
       0.6783684 -0.4538424 -0.17137235 0.00038427694
000230 03 ce 1d 3f 83 92 69 bd 16 29 15 3d 48 de ea 3e
       0.61642474 -0.05702449 0.036416136 0.45872712
000240 9c 66 8d bd 7b 8e 1b 3f d7 84 24 3f 0d ff d3 bd
       -0.06904337 0.6076428 0.642652 -0.103513815
000250 8d 69 17 bd 31 10 ef bc 36 1d 11 bd 45 dd 18 3f
       -0.036965895 -0.029182525 -0.03542825 0.5971263
000260 c8 00 46 bd f3 e4 0e be 5d ee d6 3e 0f b5 d2 bc
       -0.04834059 -0.13954525 0.41978732 -0.025721101
000270 83 c1 07 3f 96 53 68 bd a0 e3 5b bd cf c2 b5 be
       0.5302965 -0.05672034 -0.053683877 -0.3550019
000280 4b 6b 4b bd 6c b1 08 3f 57 d5 46 3e 8a 9f fa 3d
       -0.04966287 0.53395724 0.1941732 0.12237461
000290 3f e9 03 3f c4 64 5c be 9f 06 10 3f 1f 30 c9 3c
       0.5152778 -0.21522814 0.56260103 0.024559079
0002a0 42 56 04 bc 03 e0 96 bd 7b 6e 18 3f 22 12 da 3d
       -0.008077206 -0.073669456 0.5954358 0.1064799
0002b0 db 9e 99 bc 07 57 ca 3d 0a 7e 04 3f 65 cc 24 3e
       -0.018752506 0.098798804 0.5175482 0.16093595
0002c0 a5 f7 03 bd 31 8f 1c 3f 52 05 af bd da a2 0a 3f
       -0.032218594 0.6115599 -0.08545937 0.5415474
0002d0 d5 b2 41 3e 06 30 16 be 38 e6 1d 3f c4 30 87 be
       0.18915875 -0.14666757 0.6167941 -0.26404393
0002e0 98 09 97 be 56 d8 ee 3e 4c fa c7 3e 0f 59 81 3e
       -0.29499507 0.46649426 0.3905815 0.2526326
0002f0 d8 b8 99 3c 21 14 07 3f 1e 7c 32 bc 42 57 18 3f
       0.018764898 0.5276509 -0.01089385 0.59508145
000300 3b da 2b 3f 85 bb 2b 3f 37 c3 72 bd 86 06 2d bc
       0.6712987 0.6708301 -0.059268203 -0.010560637
000310 b7 50 03 3f 35 3c 24 3f c5 39 0a 3d 3f cf 1b 3e
       0.51295036 0.6415437 0.0337465 0.15215777
000320 71 dc 07 3f ac f7 82 3e b3 d3 e5 3e 48 8b 1d 3f
       0.5307074 0.25579584 0.44888076 0.6154065
000330 d2 4d 16 3f 1b c0 45 bd b9 41 17 3f a7 18 33 3f
       0.58712494 -0.04827891 0.5908466 0.6995949
000340 90 3a c0 bc 5f ee 94 bd 2b 48 4b ba 8d 21 24 3f
       -0.023465425 -0.07272028 -0.00077545893 0.64113694
000350 10 5a 6b be c8 b1 0f 3f dc 2a 30 be d3 a0 21 3f
       -0.22983575 0.5613065 -0.1720385 0.63136023
000360 de 83 07 3c fc bf a4 be 34 09 1d 3f ce a3 19 3e
       0.008271186 -0.32177722 0.6134217 0.15003893
000370 ff bf 47 3d 2b 6e 1d 3f 62 74 fc bd aa de b2 3d
       0.048767086 0.6149623 -0.12326886 0.08733876
000380 b8 2e 13 3f 80 ae 0f 3f b6 92 60 bd 42 a3 db 3e
       0.5749316 0.5612564 -0.054827414 0.42897993
000390 a6 f9 23 be 49 be fd bd 60 bd 70 bd 95 3b 1c 3f
       -0.16013202 -0.1238981 -0.058774352 0.61028415
0003a0 b4 c0 cd 3d 99 9f 1e 3f ba 6e 27 3f 87 f0 02 be
       0.10046521 0.61962277 0.6540333 -0.12787066
0003b0 ff 9f 75 bd 74 f8 0c 3f 54 8f 25 bc d9 e6 0e 3f
       -0.059967037 0.5506661 -0.010104973 0.55820996
0003c0 03 54 0a 3f 78 46 0f 3f 7a 23 2c 3f ca 24 1a 3f
       0.5403444 0.559669 0.6724163 0.60212386
0003d0 60 a6 1d 3f 61 e4 1b 3f f0 1b 81 bd b0 2d ca 3a
       0.61581993 0.60895354 -0.06304157 0.0015424993
0003e0 40 a5 0f 3f 0e a4 45 3d d4 2e e3 3e b0 41 1a 3f
       0.56111526 0.048252158 0.44371665 0.6025648
0003f0 ff ac e1 bb 55 51 b6 bd f4 4d 3e 3c e4 41 39 bc
       -0.006887078 -0.089022316 0.011615265 -0.011307213

v.weight f4 [1, 256]
000000 7b cd 93 3e 10 94 4a bb b0 67 ac 3c 4b 2b b3 bf
       0.28867707 -0.0030911006 0.021045536 -1.3997587
000010 eb a4 10 bd 9f 8b 1f 3d 48 e5 47 3e 56 05 9f bf
       -0.035313528 0.038951512 0.19521058 -1.2423503
000020 d0 80 fa bf 38 30 05 c0 b4 2e 36 bf bc 8b 96 3e
       -1.957056 -2.081068 -0.71165013 0.29403484
000030 40 ba e7 bf 1d d7 44 bc 23 7c c8 3e cd e8 50 3d
       -1.8103714 -0.012014178 0.3915721 0.051003266
000040 01 0b 9d 3c a3 f2 8b 3e b4 8d 99 3e 4a 35 92 3e
       0.019170286 0.27333555 0.29990923 0.2855628
000050 c5 c2 39 40 f5 7a bc bf 62 24 2e 3d 6b 3d ac bc
       2.9025128 -1.4725024 0.042515166 -0.02102538
000060 18 ab 98 ba 68 39 e4 3e 41 20 f0 be 9d 0d 4b c0
       -0.001164767 0.44575047 -0.46899608 -3.172706
000070 fa 15 2c 3e 2b b6 be 3b 62 5d c5 bf e9 6a 2f 3a
       0.16805258 0.005820056 -1.5419123 0.0006691651
000080 b6 a1 38 b9 06 ad 7f 3e 2d 1d 84 3e 27 3f a1 3e
       -0.0001760785 0.24968347 0.2580351 0.31493494
000090 b1 de 15 c0 14 65 05 3d e0 ea 9c bf 21 ed 8d 3e
       -2.341717 0.0325671 -1.2259178 0.27719977
0000a0 06 98 3d bf fd a0 21 3f 4f ff 92 b8 ab fc 7b 3e
       -0.74060094 0.63136274 -7.0093774e-05 0.24608104
0000b0 cc de 7a bd 04 71 64 bf fb 3e 9d 3b f1 d2 55 bf
       -0.061247632 -0.8923495 0.0047987676 -0.83524996
0000c0 c4 a5 aa bf 4e 23 4b b8 30 87 04 3a d6 36 39 3f
       -1.3331838 -4.843185e-05 0.0005055545 0.723493
0000d0 56 4a 92 3e b0 ae de 3f d3 50 38 3b 61 88 67 bf
       0.2857234 1.739706 0.0028124347 -0.9044247
0000e0 51 04 69 3f 3b 62 bd bf 81 63 3f 3d 64 2a 96 3e
       0.9102221 -1.4795603 0.046725754 0.29329216
0000f0 94 72 59 bf 6d e5 3c bf cf 79 a4 3f 2d e8 1a c0
       -0.8494046 -0.73787576 1.2849673 -2.420421
000100 87 be 9b 3b e2 25 94 3e 75 3f 32 bc 22 11 86 bf
       0.0047529372 0.28935152 -0.010879387 -1.0473979
000110 16 73 ba be 38 31 33 3d c0 99 82 3e 76 e6 7e bb
       -0.3641593 0.04374811 0.25507927 -0.003889469
000120 2d b6 87 3e da bc bf 3e b8 11 d5 3c 81 43 a8 bf
       0.26506177 0.3744877 0.026009426 -1.31456
000130 f9 44 20 c0 b1 e6 b9 3f 1b b1 4c 3f c9 23 86 3e
       -2.5042098 1.4523526 0.7995774 0.26199177
000140 c7 5b 22 c0 84 88 c5 3b 80 87 db 39 1a 7c 91 3e
       -2.5368516 0.006028237 0.0004187189 0.28414994
000150 04 57 f5 3a a4 ec c5 3e 99 48 98 3e 8b 32 91 bf
       0.0018717949 0.38657105 0.29742888 -1.134355
000160 fb 3d 15 3c 83 76 b9 bf da cd cd bc ed a3 69 3c
       0.009109016 -1.4489292 -0.025122572 0.014260274
000170 bc bd 67 3e d5 56 fb bf b2 c7 b8 3a 39 58 04 bc
       0.22630972 -1.9635874 0.00140976 -0.008077675
000180 35 73 10 3c ee fb 09 3f 93 ff de bf 7d 1c 92 3e
       0.00881653 0.5390004 -1.7421745 0.2853736
000190 a3 a5 78 3e 21 82 87 be e3 4a 99 3e ad 6d 6c bf
       0.24281935 -0.26466468 0.29939947 -0.9235485
0001a0 c9 b5 33 3e 2e 5c aa 3c 77 f3 99 3e aa d1 a1 bf
       0.17549814 0.020795908 0.3006856 -1.2642109
0001b0 9d 8f b6 bf 8c 32 c9 bc de 7d d9 3f b0 52 6c 3e
       -1.4262577 -0.024560235 1.6991537 0.23078418
0001c0 4a e9 95 3e 40 fb d0 bb 3d 8a a3 3e d5 97 8a 3e
       0.29279548 -0.0063776076 0.31941405 0.27068964
0001d0 a4 61 21 3d cf 2e eb 3b a3 5d a5 3c a9 7a dc be
       0.039399758 0.007177211 0.020186251 -0.43062332
0001e0 14 47 bf bf 78 78 8b 3e 43 65 43 3d a1 85 9c 3e
       -1.4943566 0.27240348 0.047703993 0.305707
0001f0 07 be 23 c0 98 2c 88 3e 73 42 a2 3e 53 f7 cb bc
       -2.5584733 0.26596522 0.31691322 -0.024898207
000200 66 2e cc bf f7 db 83 3e 63 cc a4 be ff ca 79 3d
       -1.595166 0.25753757 -0.32187185 0.060984608
000210 52 46 91 3e 38 8d 60 3e 97 ea a3 3e 7c 72 bd bc
       0.28373963 0.2192887 0.32014915 -0.02312588
000220 20 db 86 3e 32 31 ea 3f 1f 2b 07 bb 2e be f8 3c
       0.26339054 1.8296263 -0.0020625067 0.030364122
000230 f4 2a a5 3e 08 de 83 3c 03 07 c4 bf a6 65 78 bf
       0.32259333 0.016097084 -1.531464 -0.97030103
000240 98 9f e4 3c 90 20 98 3e ab aa 92 3e e6 07 bb ba
       0.027908131 0.29712343 0.28645834 -0.0014269322
000250 23 cb e0 ba 6b 2a 77 bd 7d 83 8c bf 78 f1 81 3e
       -0.0017150383 -0.060343187 -1.0977627 0.2537954
000260 5b 86 86 bf 06 59 a2 bc 1c 09 72 bf 0e 42 06 3b
       -1.0509752 -0.01981784 -0.9454515 0.002048615
000270 00 6b 84 3e a5 bc 9a bc 3c 75 7d bc c1 96 2f bf
       0.25862885 -0.01888878 -0.015469845 -0.6858941
000280 26 0d 24 ba da f5 86 3e b0 4f 07 c0 7f 6e ec bf
       -0.0006258063 0.26359445 -2.1142387 -1.8471221
000290 ee 46 80 bf c6 62 b1 3f 0c 21 65 3e 47 77 b9 3c
       -1.0021646 1.3858268 0.22375888 0.022639884
0002a0 d8 12 f1 3c 50 dd 28 3d 75 d8 95 3e 90 32 dc bf
       0.02942793 0.041226685 0.29266706 -1.720293
0002b0 21 41 ba 3a 04 f0 99 bf 9d 94 b7 bf 22 04 08 c0
       0.0014210084 -1.2026372 -1.4342228 -2.1252522
0002c0 d7 e4 ad 3f b3 c4 89 3e 54 1f 77 ba 77 10 90 3e
       1.3585461 0.26907882 -0.00094269705 0.28137562
0002d0 67 ce 97 bf e4 4f 04 bb 82 3a a1 3e 4b d9 20 bf
       -1.1859864 -0.002018922 0.3148995 -0.6283156
0002e0 9d bc e0 be a8 c6 94 bf 67 c3 5e c0 ac 7e c9 bf
       -0.438939 -1.1623125 -3.4806764 -1.5741782
0002f0 6e 45 f0 3c dc 72 8b 3e 27 f6 12 bc c8 88 84 3e
       0.029329982 0.27236068 -0.00896982 0.25885606
000300 be ad a5 3e 8a a6 a3 3e a3 c1 ad 3c e4 c5 a5 bf
       0.32359117 0.31962997 0.021210497 -1.2951016
000310 61 a1 6e 3e 62 67 7a 3f 60 75 62 bd a1 61 6e bf
       0.23303749 0.97814 -0.05528772 -0.9311772
000320 d0 a3 86 3e 41 cc 70 bf 95 ea 92 bf ce 8e 9b 3e
       0.26296854 -0.94061667 -1.1477839 0.3038239
000330 ec af b5 bf b2 87 ed 3c 25 39 9c 3e a7 0a d6 3e
       -1.4194312 0.028995369 0.30512348 0.41805002
000340 51 38 4b bf 95 00 db 3b 22 51 ac bf 40 00 89 3e
       -0.79382807 0.006683419 -1.346226 0.26758003
000350 dd 15 82 bf df 34 7b 3e 86 46 ca ba c1 c7 ad 3e
       -1.0162922 0.24531887 -0.0015432395 0.33941463
000360 67 3d 3f 3d ed df dc bd 50 7e 6b 3e 82 08 e7 bf
       0.046689417 -0.10784898 0.22997403 -1.8049471
000370 d9 12 9d bf 6d 65 7e 3e 59 39 70 bb 43 7c 9c bf
       -1.2271377 0.24843378 -0.0036655276 -1.2225422
000380 b9 3a 52 3e 6e 08 6d 3e fe 24 5d 3b 90 2c 4f bf
       0.20530213 0.23147747 0.0033743973 -0.8092737
000390 2d 3f d1 38 e8 92 fb bb eb dc f2 3c b3 4d 92 3e
       9.977664e-05 -0.0076774247 0.029646358 0.28574905
0003a0 d6 b3 cb bf c3 24 8a 3e 9d 35 7a 3e 5d 8f b3 bb
       -1.5914257 0.26981172 0.24434514 -0.0054797367
0003b0 78 1b 84 bf c8 97 90 3e f9 44 33 3c cb c9 a1 3e
       -1.0320883 0.282408 0.010941737 0.31599268
0003c0 1a 5e 59 3e f2 e2 59 3e 0a 66 68 3e f6 53 95 3e
       0.21227303 0.21277979 0.22695175 0.2916562
0003d0 f4 a6 e7 bf 82 d4 8d 3e ba 42 aa bb b0 cf bc bf
       -1.8097825 0.27701193 -0.0051959427 -1.4750881
0003e0 92 5d 89 3e 66 71 a9 3c 85 35 89 bf 36 c1 88 3e
       0.268292 0.020683955 -1.0719458 0.26709908
0003f0 da 68 be 3c 0a d2 f9 3c 7f 76 3b 3b 71 4b d6 3c
       0.023243356 0.030495662 0.0028604565 0.02615902
