SAC_own/sac/critic_2_sac.pth (torch, 296570 bytes, 5 tensors)

fc1.weight f4 [256, 28]
0	0xbf82cf7b	-1.0219568
1	0xc03399ca	-2.8062615
2	0x3f0d08fd	0.5509184
3	0xbf16a5c3	-0.5884668
4	0xbfb6c094	-1.427752
5	0xbf865d14	-1.0497155
6	0x3df9b9a4	0.12193611
7	0xbe92dc59	-0.28683737
8	0x3e83de27	0.25755426
9	0xbe9fbcbf	-0.3119869
10	0xbd990077	-0.07470792
11	0xbf305601	-0.6888123
12	0x3e4a18c2	0.19736007
13	0xbeb72d7e	-0.35776895
14	0x3d9e37c0	0.07725477
15	0xbe80602c	-0.25073373
16	0xbe8db84a	-0.27679664
17	0xbeb02013	-0.3439947
18	0xbebdd1cb	-0.37074122
19	0xbd491402	-0.049091347
20	0xbe987ef4	-0.29784358
21	0xbd88cfea	-0.066802815
22	0x3c98c33a	0.018647779
23	0xbe492813	-0.19644193
24	0xbe9f3dba	-0.3110178
25	0x3f282227	0.6567711
26	0xbeb7f7ac	-0.35931146
27	0xbea6e8bc	-0.32599437
28	0x3ed39942	0.41327864
29	0xbf61c0c6	-0.88184774
30	0x3fde9f6e	1.7392404
31	0xc053e488	-3.3108234
32	0xc00ac1fe	-2.1680903
33	0x3e62f70f	0.22164558
34	0x3f196dbf	0.59933084
35	0x3f564ce0	0.8371105
36	0xbf97ba4b	-1.1853727
37	0x3fd9190b	1.6960768
38	0x3f6e57c2	0.9310266
39	0x3fbb61fe	1.463928
40	0xbe82e2e8	-0.2556374
41	0x3eb4198b	0.35175738
42	0xbf482332	-0.78178704
43	0xbf397716	-0.72447336
44	0xbf027ea3	-0.5097448
45	0xbedc821f	-0.43068025
46	0xbf1a6a75	-0.6031869
47	0xbe946ace	-0.28987736
48	0xbef1d2e5	-0.47231212
49	0xbeed7a1a	-0.4638222
50	0x3ca4166e	0.020030227
51	0x3e5dcc37	0.21659933
52	0xbfcab63c	-1.5836864
53	0x3dd3bc0d	0.10338602
54	0xbf186bfb	-0.59539765
55	0x3c8dd650	0.017314106
56	0xbefa0ff2	-0.4884029
57	0xc059d1e1	-3.403435
58	0x3f97b6e1	1.1852685
59	0x400e9483	2.2278144
60	0xbed31752	-0.4122873
61	0x3f36feda	0.7148262
62	0x3ee4ddb3	0.44700393
63	0xbebd5679	-0.36980036
64	0x3eef0fff	0.46691892
65	0xbf65f339	-0.89824253
66	0x3d9ee783	0.07759001
67	0xbe991568	-0.29899144
68	0xbf37fdd0	-0.7187166
69	0xbe66eef3	-0.2255209
70	0x3e659bf8	0.22422779
71	0xbe145d47	-0.14488707
72	0x3c163b1a	0.009169364
73	0x3cabcf47	0.020972861
74	0xbb093858	-0.0020938125
75	0xbcf601c2	-0.030030135
76	0xbe971912	-0.29511315
77	0x3d0d89e0	0.034555316
78	0xbd36f551	-0.044667546
79	0x3e3d2482	0.18470958
80	0x3f464309	0.7744604
81	0x3f7f853a	0.9981266
82	0x3f1e311c	0.61793685
83	0xbd94dd9c	-0.07268831
84	0x3faf6324	1.370213
85	0x3f004da0	0.50118446
86	0xc008bb77	-2.136442
87	0xbda740e3	-0.08166673
88	0x3fe3b4c2	1.7789538
89	0x3ceb30ca	0.028709788
90	0x3f2a8fde	0.66625774
91	0x3ece6d7d	0.40317908
92	0xbfc94bcc	-1.5726256
93	0xbe1c5c2f	-0.1526954
94	0xbdafccff	-0.08584022
95	0x3eaca8df	0.33722588
96	0xbec24e0a	-0.37950164
97	0x3ef57399	0.47939757
98	0xbeff8320	-0.49904728
99	0xbf0da38e	-0.5532769
100	0xbe9e74b3	-0.3094841
101	0xbf158fca	-0.5842253
102	0xbecd9a28	-0.40156674
103	0xbf0b98dc	-0.5453012
104	0xbefbcf02	-0.49181372
105	0xbeb493c1	-0.35268977
106	0xbf006819	-0.5015884
107	0xbf30fee7	-0.6913895
108	0xbd1a2719	-0.037634943
109	0xbd3ed25d	-0.046587337
110	0xbe2a3076	-0.16620049
111	0x3e3733b9	0.17890824
112	0x3e833e85	0.25633636
113	0xbd59e00f	-0.053192195
114	0x3f3b5e47	0.7319073
115	0x3d01cb89	0.031688247
116	0xbfa6503f	-1.2993239
117	0xbe62952f	-0.22127222
118	0x3efaa844	0.489565
119	0xbbdf99bf	-0.006823748
120	0xbde39257	-0.111118965
121	0xbfae746c	-1.3629279
122	0xbf1e7f7f	-0.61913294
123	0xbf9158b5	-1.1355196
124	0xbd552617	-0.05203828
125	0xbf2220cf	-0.6333131
126	0x3ee876fd	0.4540328
127	0x3ed6f9ab	0.41987357
128	0x3edbc247	0.4292166
129	0x3e9c894b	0.30573496
130	0x3ea5a392	0.32351357
131	0x3d9574af	0.07297646
132	0x3e1c2bfe	0.15251157
133	0xbe7aaab2	-0.24479178
134	0x3e132f22	0.14373448
135	0x3e4d4368	0.20045245
136	0xbed0324c	-0.40663373
137	0x3eeabfb6	0.4584939
138	0xbf45f489	-0.77326256
139	0xbf04a166	-0.51808774
140	0xbfe7fa28	-1.8123217
141	0xc03aaf07	-2.9169328
142	0xbee0a65a	-0.43876916
143	0x3fa1c85e	1.2639272
144	0x3f4869ed	0.7828663
145	0x3dbc6119	0.091982074
146	0xbe80470a	-0.25054199
147	0xbf1634a1	-0.58674055
148	0xbe0987b4	-0.13430673
149	0x3f2dbc2c	0.6786525
150	0x3cc051e3	0.023476547
151	0x3f4c8c1a	0.7990128
152	0xbcd8053b	-0.026369682
153	0xbf69ba0f	-0.9129953
154	0xbf001d15	-0.50044376
155	0xbe674491	-0.2258475
156	0xbe4e63b4	-0.20155221
157	0xbed7944d	-0.42105332
158	0xbec917c3	-0.3927594
159	0xbeb8a839	-0.36065844
160	0xbc71ff0a	-0.014770279
161	0xbe2e3f7d	-0.17016406
162	0xbe1855fb	-0.14876549
163	0x3e1a0703	0.15041737
164	0xbe908b42	-0.28231245
165	0xbf3e57a9	-0.7435251
166	0xbf7b54fa	-0.9817654
167	0x3eca9836	0.39569253
168	0xbf7e2646	-0.9927715
169	0xba258d9d	-0.00063153525
170	0x4030153b	2.7512958
171	0x3f36ff48	0.7148328
172	0xbe5cf2d0	-0.21577
173	0xbe7554f1	-0.23958184
174	0x3ec14a14	0.3775183
175	0x3bbe2113	0.0058022826
176	0x3e2090b7	0.15680204
177	0xbf3ee809	-0.7457281
178	0xbe9e1dca	-0.30882102
179	0x3f3a2575	0.72713405
180	0xbf7a1057	-0.9768118
181	0x3f195daa	0.59908545
182	0xbeaf044e	-0.34182972
183	0xbed754f8	-0.42057014
184	0xbec557d0	-0.38543558
185	0xbeaf323b	-0.3421801
186	0xbebeafd7	-0.3724353
187	0xbec366c9	-0.38164356
188	0xbf2a5867	-0.6654114
189	0xbea6c911	-0.32575276
190	0x3ed9eeb4	0.4256493
191	0x3ea48f32	0.321405
192	0xbf2abfcc	-0.6669891
193	0x3ea4583b	0.32098565
194	0x3e4d9fb8	0.20080459
195	0x3f1b1492	0.6057826
196	0x40071563	2.1106803
197	0xbf1ec67f	-0.6202163
198	0xbe82d0f4	-0.25550044
199	0x3f54ee47	0.8317608
200	0x3f4d1288	0.801064
201	0x3cf921c1	0.030411603
202	0x3ea3babe	0.3197841
203	0x3e75e8eb	0.24014632
204	0x3f1d0d00	0.6134796
205	0xbe8ffe70	-0.28123808
206	0x3f453833	0.7703888
207	0xbe823928	-0.25434232
208	0x3ed7f842	0.42181593
209	0x3f8a83b8	1.0821447
210	0xbde92e9b	-0.113858424
211	0xbe54c3b8	-0.20777786
212	0xbea07909	-0.31342342
213	0xbe77b4c7	-0.24190055
214	0xbecb57fd	-0.39715567
215	0xbddaab33	-0.10677185
216	0xbda1e905	-0.07905773
217	0xbe47d34c	-0.19514197
218	0xbe95db59	-0.2926891
219	0x3dbbcb83	0.09169676
220	0x3fb1eb7f	1.3899993
221	0xbe78768f	-0.24263977
222	0xbdb23f75	-0.0870351
223	0x3e4a64a7	0.19764958
224	0x3f7daf65	0.99095756
225	0x3f4c7983	0.7987291
226	0x3eab57ea	0.3346551
227	0xbee58e93	-0.44835338
228	0x3ea25fd2	0.3171373
229	0xbd0ea87c	-0.034828648
230	0xbe07beaa	-0.13256326
231	0xbe7020db	-0.23450033
232	0xbe3c52fd	-0.18391033
233	0x3e30d379	0.1726817
234	0xbcca6602	-0.024706844
235	0x3e1142ef	0.1418569
236	0x3d953131	0.07284773
237	0xbe26fd84	-0.16307646
238	0xbaa61966	-0.0012672364
239	0x3dca8e98	0.09890479
240	0x3e138a5a	0.14408246
241	0xbe2477a4	-0.16061264
242	0x3e302048	0.17199814
243	0x3e75aa78	0.2399081
244	0x3e7d5603	0.24739842
245	0x3e0a8c09	0.13529982
246	0xbe306c44	-0.172288
247	0x3f25fba9	0.6483713
248	0x3de42cfc	0.111413926
249	0xbcd541ff	-0.026032446
250	0x3d78a72d	0.060706306
251	0x3df5b89d	0.11998103
252	0x3f3a71fc	0.72830176
253	0xbe3437a4	-0.1759935
254	0x3fbced41	1.4759904
255	0xbc8dcc8c	-0.01730945

fc1.bias f4 [256]
0	0xbeb385bd	-0.35062972
1	0x3f10c761	0.5655423
2	0x3db20851	0.086929925
3	0xbe2253e1	-0.1585231
4	0xbe3d4331	-0.18482663
5	0x3efc3f17	0.49266884
6	0x3f042ce8	0.5163102
7	0x3db14c02	0.086570755
8	0x3e95d2c4	0.29262364
9	0x3f8cf1f0	1.1011333
10	0x3e2d9e4b	0.16954915
11	0x3eae9ecb	0.34105524
12	0xbe8906f6	-0.26763123
13	0xbee25e10	-0.4421239
14	0xbecd313a	-0.4007662
15	0xbd7b19cd	-0.061303902
16	0xbd7b96e9	-0.061423216
17	0xbec89b1a	-0.39180833
18	0x3f832600	1.0245972
19	0xbecaab5a	-0.39583856
20	0xbef94dba	-0.48692113
21	0x3f0a918c	0.54128337
22	0xbf02ae86	-0.5104755
23	0x3e70c3d6	0.23512205
24	0x3d862297	0.06549566
25	0xbecc0251	-0.39845517
26	0x3f2b9907	0.67030376
27	0xbdcf3354	-0.10117212
28	0xbee4fb27	-0.44722864
29	0x3e3fbc9b	0.18724291
30	0x3dd4e03b	0.10394331
31	0xbf08f326	-0.53496015
32	0xbf08d521	-0.5345021
33	0xbec49c01	-0.38400272
34	0xbe4c9985	-0.19980438
35	0x3ebcb074	0.36853373
36	0xbe98b3ca	-0.29824668
37	0xbf0fdc94	-0.5619595
38	0xbeac32cb	-0.33632502
39	0xbe3b9e39	-0.18322076
40	0x3e3a7429	0.18208374
41	0x3e839131	0.2569671
42	0xbefa717f	-0.48914716
43	0xbeb9385e	-0.36175817
44	0x3ecf8c9c	0.40536964
45	0xbeadf7c4	-0.33978093
46	0xbdbc6a07	-0.091999106
47	0xbdfc03a2	-0.123053804
48	0x3d83abd2	0.064292565
49	0x3f10d1d0	0.5657015
50	0x3ee41128	0.4454434
51	0xbe9777b2	-0.29583508
52	0x3e8dd150	0.27698755
53	0x3f150a2f	0.58218664
54	0xbf0e97ba	-0.55700266
55	0xbf01646e	-0.5054387
56	0xbe55c201	-0.20874788
57	0x3e6eb5e8	0.23311579
58	0x3f1ebad8	0.6200385
59	0xbe9d48bb	-0.3071955
60	0x3f0fbfe0	0.56152153
61	0x3f201168	0.6252656
62	0xbf2c4df8	-0.6730647
63	0xbd2f25f6	-0.04276081
64	0x3f425f89	0.75927025
65	0x3e18ca63	0.14920954
66	0xbf53dcde	-0.8275889
67	0x3efb05b2	0.49027783
68	0xbe82764d	-0.2548088
69	0x3ea37625	0.31926075
70	0x3f2b6a1e	0.66958797
71	0xbe9171fc	-0.28407276
72	0x3ea1018d	0.31446496
73	0xbe80cd8c	-0.2515682
74	0x3e3a921b	0.18219797
75	0x3e0a7883	0.13522534
76	0x3e34a519	0.17641105
77	0x3e82b4d6	0.25528592
78	0xbe36830f	-0.17823432
79	0xbd9f35fe	-0.0777397
80	0x3f6217da	0.88317645
81	0x3f00a851	0.5025683
82	0xbeb4caa1	-0.35310844
83	0x3e3cb086	0.18426713
84	0xbe3a1afb	-0.18174355
85	0xbed0a6e4	-0.40752327
86	0xbebaec08	-0.36508203
87	0x3e62692f	0.22110437
88	0x3ef66455	0.48123422
89	0xbe427439	-0.18989648
90	0x3ea0b080	0.3138466
91	0xbe50242c	-0.20326298
92	0xbeeba1c8	-0.46021867
93	0xbd028162	-0.03186167
94	0xbe6cab58	-0.23112237
95	0x3e82ae46	0.25523585
96	0xbebd66e4	-0.36992562
97	0xbebebffd	-0.3725585
98	0x3e774a94	0.24149543
99	0x3f32d1be	0.6985129
100	0x3ecf869e	0.40532392
101	0x3f029d97	0.51021713
102	0x3ed7b40a	0.42129546
103	0xbda6895d	-0.08131669
104	0xbeca6e03	-0.39537057
105	0xbede5dbe	-0.43430895
106	0x3f1b125e	0.605749
107	0x3ec24871	0.37945893
108	0xbeb10ae1	-0.34578612
109	0xbd9cf40b	-0.07663735
110	0x3d8787ca	0.066176966
111	0x3edcaed4	0.43102133
112	0xbf1c7f55	-0.61131793
113	0xbe455b4f	-0.19273113
114	0x3ed7f4a8	0.42178845
115	0xbf5d5b0a	-0.8646704
116	0xbec0361c	-0.37541282
117	0x3ef0b3d2	0.47012192
118	0x3d9a3673	0.075299166
119	0x3e9c41d5	0.30518976
120	0x3e91262f	0.28349444
121	0xbecb7068	-0.39734197
122	0x3e24bcdc	0.16087669
123	0xbdec7e39	-0.115475126
124	0x3e5c45b0	0.21510959
125	0xbef957be	-0.48699754
126	0xbec9b76b	-0.3939775
127	0x3efc98f6	0.4933545
128	0xbf59c071	-0.8505927
129	0xbea2b980	-0.3178215
130	0xbf0ffdf4	-0.56246877
131	0xbdc53f94	-0.09631267
132	0x3db9945e	0.09061502
133	0x3f3ba839	0.7330356
134	0x3d74a09b	0.059723478
135	0x3ef380b9	0.47559145
136	0xbe7722cf	-0.24134372
137	0x3f27ff14	0.65623593
138	0xbf31c46d	-0.69440347
139	0xbe7c2f7b	-0.24627487
140	0xbe9e123a	-0.3087328
141	0xbeff74ea	-0.49893886
142	0xbee3c98d	-0.4448971
143	0x3c7355c5	0.014851992
144	0x3efeddf9	0.49778727
145	0x3f0e69e7	0.55630344
146	0xbd9de0a7	-0.07708865
147	0xbc12910e	-0.008945717
148	0xbec94c4a	-0.39316016
149	0x3f1cc337	0.61235374
150	0xbf28e59c	-0.65975356
151	0x3d9e7641	0.07737399
152	0xbef899b0	-0.48554754
153	0x3f6499ea	0.89297354
154	0xbda75c4c	-0.08171901
155	0x3de92990	0.113848805
156	0x3e89bd65	0.2690231
157	0x3d60bb88	0.054866344
158	0x3dacc89d	0.084367014
159	0xbed7ebe1	-0.4217215
160	0xbe1bf4f1	-0.15230156
161	0xbcc2ae66	-0.0237648
162	0x3e8bc194	0.27296126
163	0xbf2f43d8	-0.68462896
164	0xbd2f2154	-0.042756394
165	0xbe2eb7fa	-0.17062369
166	0xbeacb32a	-0.3373044
167	0xbeba2645	-0.36357322
168	0x3f2f209c	0.6840913
169	0xbe65111c	-0.22369808
170	0x3da5473d	0.08070228
171	0xb9c62294	-0.00037791266
172	0xbe171c56	-0.14756903
173	0x3f701afb	0.9379117
174	0xbeb9cc08	-0.36288476
175	0xbcd78692	-0.026309285
176	0x3bb186a2	0.005417661
177	0x3f0bba76	0.5458139
178	0x3f8d52c1	1.104088
179	0xbee027d2	-0.4378038
180	0x3eec4705	0.46147934
181	0x3b206d07	0.0024479048
182	0x3e308bd4	0.1724084
183	0xbec2376d	-0.37932912
184	0x3eb5d9b8	0.3551767
185	0x3f86876f	1.0510081
186	0x3d5b77a5	0.0535809
187	0xbeb16e68	-0.34654546
188	0xbc957ee0	-0.018248975
189	0x3d74a828	0.05973068
190	0x3f02317f	0.50856775
191	0x3f33bebb	0.70212907
192	0xbefbf764	-0.49212182
193	0xbe12adbb	-0.14324085
194	0xbe3382b3	-0.17530327
195	0xbed5fa76	-0.4179265
196	0xbf2dbd80	-0.6786728
197	0xbe9ee270	-0.31032133
198	0xbf17d745	-0.5931285
199	0x3eed1a51	0.4630914
200	0xbd698bd8	-0.05701813
201	0x3dc947bb	0.098281346
202	0xbf154501	-0.58308417
203	0xbe0cbce7	-0.13743936
204	0xbe40d40f	-0.18830894
205	0xbc397b02	-0.011320831
206	0xbef59207	-0.47962973
207	0xbe59758c	-0.21236247
208	0x3f22ab93	0.6354305
209	0xbeeb2a80	-0.45930862
210	0xbf18bec3	-0.5966608
211	0xbd586b20	-0.052836537
212	0x3da10d33	0.07863846
213	0x3e4ff4ec	0.20308274
214	0x3dbae1f9	0.09125132
215	0x3f1663b3	0.5874588
216	0xbf29e7f0	-0.66369534
217	0x3f87f053	1.0620216
218	0xbdfbcb37	-0.122946195
219	0xbea24c20	-0.31698704
220	0xbc1d4336	-0.009598544
221	0xbebf5bb2	-0.37374645
222	0xbed00cd4	-0.40634787
223	0xbf1577fd	-0.5838621
224	0x3eb0731d	0.34462824
225	0x3f20b229	0.6277185
226	0xbdfc001e	-0.1230471
227	0x3f124086	0.57129705
228	0xbe49eb6f	-0.19718717
229	0x3f3666b2	0.7125045
230	0xbe4736af	-0.19454454
231	0xbe9c7399	-0.30556944
232	0x3f039023	0.5139181
233	0x3ef4b410	0.47793627
234	0xbf684747	-0.9073376
235	0xbedf8f8b	-0.43664202
236	0x3d65f7f3	0.056144666
237	0x3f1b16bb	0.6058156
238	0xbe0b5e8f	-0.1361029
239	0xbe1ee5b7	-0.15517317
240	0xbeb95de1	-0.36204436
241	0xbec093ff	-0.37612912
242	0xbe0abb15	-0.13547929
243	0x3f72312c	0.9460628
244	0xbf16b263	-0.58865947
245	0x3d81ca2c	0.06337389
246	0xbefd584f	-0.49481437
247	0x3ed3a221	0.41334632
248	0x3e82191c	0.25409782
249	0x3f50952d	0.81477624
250	0xbf989a9b	-1.1922182
251	0xbecceecd	-0.4002594
252	0x3f8456b4	1.033896
253	0xbec4ac30	-0.3841262
254	0x3ee0f495	0.439366
255	0xbee8b780	-0.454525

fc2.weight f4 [256, 256]
0	0xbf5377eb	-0.82604855
1	0x3cad21dd	0.021134311
2	0xbdf1bf51	-0.11804069
3	0xbf5672ce	-0.8376893
4	0xbe8fb764	-0.28069603
5	0x3e12f551	0.14351393
6	0xbba2c96c	-0.004967859
7	0x3e5d6375	0.21619971
8	0xbe8e55b2	-0.27799755
9	0x3e0cd888	0.13754475
10	0x3e05e598	0.13075864
11	0x3ddfe034	0.10931435
12	0x3ea5ea70	0.32405424
13	0xbe905eee	-0.28197426
14	0xbd3cf473	-0.046131562
15	0xbc8722fb	-0.016496172
16	0xbe8628af	-0.26202914
17	0xbdee7b1b	-0.11644574
18	0x3e2214f9	0.15828313
19	0x3cdc2ba4	0.026876278
20	0x3bb8ea01	0.00564313
21	0xbe76681a	-0.24063149
22	0x3e9c77d9	0.30560187
23	0xbdd8d015	-0.105865635
24	0x4025a6ea	2.5883126
25	0xbd95bdab	-0.07311567
26	0x3efb8b12	0.4912954
27	0x3c56f178	0.013119094
28	0xbe095f83	-0.13415341
29	0x3dc62d2f	0.09676587
30	0xbce738da	-0.028225351
31	0xbdfdca8b	-0.12392148
32	0xbe64471a	-0.22292748
33	0xbf0cba35	-0.5497163
34	0x3df49982	0.11943342
35	0x3e96d4d0	0.29459238
36	0xbeaa3397	-0.33242485
37	0xbde7dcef	-0.113214366
38	0xbe8ae9c0	-0.27131462
39	0x404c01bf	3.1876066
40	0x3e1916d6	0.14950117
41	0xbe29b918	-0.16574514
42	0xbed3ae5f	-0.41343972
43	0x3d342798	0.043983072
44	0xbe73e46c	-0.23817605
45	0x3b1fd182	0.002438635
46	0x3f0fe2fd	0.5620573
47	0xbe964645	-0.29350486
48	0xbd2550bf	-0.04036021
49	0xbeb14f10	-0.34630632
50	0xbea316bc	-0.31853282
51	0x3ece9d9b	0.40354618
52	0x3eaf1a9c	0.3419999
53	0xbe314907	-0.17313014
54	0xbdcb80a5	-0.09936646
55	0xbdeb41ab	-0.114871345
56	0xbd8cb98b	-0.06871327
57	0xbeabcc18	-0.3355415
58	0xbe9e72eb	-0.3094705
59	0xbe94fefb	-0.29100785
60	0x3e7164ea	0.23573652
61	0xbe1953fc	-0.14973444
62	0x3e627839	0.22116174
63	0xbe8b4dad	-0.272077
64	0x3f1299b4	0.5726578
65	0xbe7e248a	-0.24818626
66	0xbe94e84b	-0.29083475
67	0xbf80362d	-1.0016533
68	0x3f12782d	0.57214624
69	0xbe00b753	-0.12569933
70	0x3da972d2	0.08273853
71	0xbefaccb2	-0.48984295
72	0xbe1ae51f	-0.15126465
73	0xbeefaed3	-0.46813068
74	0x3e0e48b2	0.13894919
75	0xbe432a83	-0.19059186
76	0xbed4b650	-0.41545343
77	0xbeaaa889	-0.33331707
78	0xbd2b5b35	-0.04183503
79	0xbec9fd15	-0.394509
80	0xbeb2bae9	-0.34908226
81	0xbe408cb3	-0.18803672
82	0xbfa34707	-1.2756051
83	0x3d913571	0.07090271
84	0xbe70ebf2	-0.23527506
85	0xbe0fedc3	-0.14055543
86	0x3e45181d	0.1924748
87	0xbe11a3a3	-0.14222579
88	0x3da19351	0.078894265
89	0x3f09686e	0.5367497
90	0xbe6e5a31	-0.23276593
91	0xbe7c6a18	-0.24649847
92	0xbf8587cd	-1.0432068
93	0xbe226ac4	-0.1586104
94	0x3daa2fc9	0.083098955
95	0xbea4981a	-0.32147294
96	0x3f9e7be0	1.2381554
97	0xbedc6912	-0.43048912
98	0xbd4a3057	-0.049362507
99	0xbdf56ecf	-0.11984026
100	0xbe1abc23	-0.15110831
101	0xbe6d8560	-0.2319541
102	0x3c982090	0.018570215
103	0x401353bc	2.3019857
104	0x3dadc915	0.08485619
105	0x3e50fefc	0.20409769
106	0xbe916a06	-0.28401202
107	0xbeda1726	-0.42595786
108	0xbeb0987c	-0.34491336
109	0xbec48b8d	-0.3838772
110	0xbdedde8e	-0.116147146
111	0xbd1c71c2	-0.038194425
112	0xbdf329ad	-0.118731834
113	0xbea22bce	-0.31674045
114	0x3dd9e22c	0.10638842
115	0xbeb8f0b2	-0.36121136
116	0xbcb14d56	-0.021643322
117	0x3d92c9b9	0.07167382
118	0x3d54256e	0.05179351
119	0xbe82931a	-0.25502855
120	0x3e34f5ac	0.17671841
121	0x3cdf9fac	0.027297817
122	0xbd3e68c3	-0.046486627
123	0x3ff2ae81	1.8959504
124	0xbe1ab37f	-0.15107535
125	0xbee0ffa1	-0.4394503
126	0xbd4dc62c	-0.05023782
127	0xbdfa2cef	-0.12215602
128	0xbecc6221	-0.39918616
129	0xbe5fd25c	-0.2185759
130	0xbc907208	-0.0176325
131	0xbf2c9d86	-0.6742786
132	0xbe5853c9	-0.21125712
133	0xbe99083b	-0.29889092
134	0xbd9cb0d5	-0.076509155
135	0x3f9530a2	1.1655467
136	0xbe54b5fa	-0.20772544
137	0xbe48ab9c	-0.19596714
138	0xbe95e350	-0.29274988
139	0xbc31cd6b	-0.010852198
140	0xbab9e524	-0.0014182669
141	0xbf91da4d	-1.1394745
142	0x3e96f6a2	0.2948504
143	0x3d00a1ce	0.03140431
144	0x3bb61d3c	0.005557684
145	0xbedac93d	-0.42731658
146	0x3e824fff	0.25451657
147	0x3f8b1186	1.0864723
148	0x3e50ad32	0.20378569
149	0x3d940082	0.07226659
150	0xbe37bd68	-0.17943347
151	0x3d19f2ce	0.037585072
152	0x3f849ab6	1.0359714
153	0xbe6e8a6a	-0.23294988
154	0xbe1b90c9	-0.1519195
155	0xbd167cc1	-0.03674007
156	0x3e87ee02	0.26548773
157	0x3d8f429d	0.06995127
158	0xbe3486da	-0.17629567
159	0xbeb54ca8	-0.35410047
160	0x400f657a	2.2405686
161	0x3e2ca366	0.16859207
162	0xbf702669	-0.9380861
163	0xbe872be5	-0.26400676
164	0xbe856d7c	-0.26060092
165	0xbec6dd84	-0.38840878
166	0x3fd0b2ef	1.6304606
167	0xbdf239ad	-0.11827407
168	0xbe2dc174	-0.16968328
169	0xbea159f6	-0.31513947
170	0xbe0b6bd9	-0.1361536
171	0x3f380ef3	0.7189781
172	0xbe678a61	-0.22611381
173	0x3e245d37	0.16051184
174	0x3ee986b5	0.45610586
175	0x3d8c843b	0.068611585
176	0x3f2376a6	0.6385292
177	0xbdbcd46d	-0.092202045
178	0x3cc2461e	0.023715075
179	0x3f6062c6	0.87650716
180	0x3df403d4	0.11914793
181	0xbbe81eb7	-0.0070837396
182	0x3c737f8c	0.0148619525
183	0xbdf7035c	-0.120611876
184	0x3dbaec59	0.09127111
185	0x3d039cc9	0.032131944
186	0xbeb0bf4b	-0.34520945
187	0xbe4bd03f	-0.19903658
188	0xbe98d9f9	-0.298538
189	0x4001e4e0	2.0295944
190	0x3e7ff187	0.24994479
191	0x3e562a1f	0.20914505
192	0xbe0c267d	-0.13686557
193	0x3cf660e8	0.030075505
194	0xbe02e184	-0.1278134
195	0x3d9429c0	0.07234526
196	0xbeeab8b2	-0.45844036
197	0xbe8eac8b	-0.27866015
198	0xbe830d5b	-0.25596127
199	0xbcf6e3ee	-0.030137982
200	0x400e1f71	2.220669
201	0x3e8abb3f	0.27095982
202	0xbefd4f35	-0.49474493
203	0x4033a86f	2.8071554
204	0x3ecd694e	0.40119404
205	0x3e220890	0.15823579
206	0xbe9683f6	-0.29397553
207	0xbe4005af	-0.18752168
208	0xbd0a0b40	-0.033702135
209	0x3e642e08	0.22283185
210	0x3c405f04	0.0117414035
211	0xbf845858	-1.033946
212	0xbe4722cc	-0.19446868
213	0x3d582a60	0.052774787
214	0xbf6986c7	-0.9122128
215	0x3e2761e7	0.1634594
216	0xbf2cf5fe	-0.67562854
217	0xbe0c7e49	-0.13720049
218	0x3e066c53	0.1312726
219	0xbe11ae6f	-0.14226697
220	0xbe83b814	-0.25726378
221	0x3deeeb6a	0.116659954
222	0x3fa63044	1.298348
223	0xbdaa99ad	-0.083300926
224	0x3e0ebf99	0.13940276
225	0xbefe7e9d	-0.49705973
226	0xbe0b2d81	-0.13591577
227	0xbdcba6e6	-0.09943943
228	0xbd58d920	-0.05294144
229	0x3daeae1f	0.08529305
230	0x3d7eedee	0.062238626
231	0xbfddeb69	-1.7337466
232	0x3e33bc7d	0.17552371
233	0xbe8c0d8e	-0.2735409
234	0xbf178199	-0.59182125
235	0xbea0db2f	-0.31417224
236	0xbd957dfd	-0.07299421
237	0xbeb6b6a8	-0.3568623
238	0x3f07e856	0.5308889
239	0xbe5c4535	-0.21510775
240	0xbf0c5753	-0.54820746
241	0xbe2c4119	-0.16821708
242	0xbcc6d071	-0.024269314
243	0xbe2b8bed	-0.16752596
244	0xbce852d6	-0.028359812
245	0x3ff6a0ef	1.9267863
246	0xbd85565d	-0.06510613
247	0xbbccb053	-0.0062466054
248	0xbfa36e26	-1.276799
249	0xbd181d85	-0.037137527
250	0x3e6894fc	0.22713083
251	0x3ffc100b	1.9692396
252	0xbe8a6ffb	-0.2703856
253	0xbf246b87	-0.64226574
254	0x3c086680	0.008325219
255	0xbe030d08	-0.1279794

fc2.bias f4 [256]
0	0xbe2be0b2	-0.16784933
1	0xbf539c6b	-0.8266055
2	0x3f7ad1e5	0.97976524
3	0x3f2d862f	0.6778287
4	0xbf41fa5d	-0.7577265
5	0x3f7c4306	0.9853977
6	0x3f360b86	0.71111333
7	0xbf5106a7	-0.81650776
8	0x3f6c90f4	0.9240868
9	0xbd0dd5d6	-0.034627758
10	0xbd747aed	-0.059687544
11	0xbf960e83	-1.1723179
12	0x3f5d8c97	0.8654265
13	0x3c52352b	0.012830059
14	0xbf043102	-0.5163728
15	0xbed3e1fc	-0.4138335
16	0x3f754ef0	0.95823574
17	0xbd196a47	-0.03745487
18	0x3f8651d7	1.0493726
19	0xbf1df4f5	-0.617019
20	0x3f5ece98	0.8703399
21	0x3f5daa2e	0.865878
22	0xbea90d09	-0.33017758
23	0x3f702bc0	0.9381676
24	0xbd83d065	-0.064362325
25	0x3f0a92c1	0.5413018
26	0x3f7d72e4	0.99003434
27	0x3f6e4ea7	0.93088764
28	0x3f6a2ed4	0.91477704
29	0x3f69e525	0.9136527
30	0xbf0f6401	-0.5601197
31	0x3f757d69	0.95894486
32	0xbeaab826	-0.3334362
33	0x3f637bd7	0.8886084
34	0x3e6267fe	0.22109982
35	0x3e9257c8	0.28582597
36	0xbf02c158	-0.5107627
37	0x3f752c7b	0.95770997
38	0xbe3219d7	-0.1739267
39	0x3f5c117c	0.8596418
40	0xbe5860be	-0.21130654
41	0xbd029053	-0.03187592
42	0xbd534fb0	-0.051589668
43	0x3c8a089a	0.016849805
44	0xbc8a4804	-0.016880043
45	0xbf3d4c97	-0.7394499
46	0xbf16ef7a	-0.5895916
47	0xbe5b03b1	-0.21388127
48	0x3f757577	0.9588236
49	0x3f657a34	0.8963959
50	0xbf44d6b9	-0.7689014
51	0xbe0f72ef	-0.14008687
52	0xbd82c710	-0.063856244
53	0x3ef76d17	0.48325416
54	0xbd93237f	-0.07184505
55	0x3efaf3d0	0.4901414
56	0x3f5f320c	0.8718574
57	0x3f758ad1	0.9591494
58	0xbeb9e0a3	-0.36304197
59	0xbe6c49fc	-0.23075098
60	0xbc7b6831	-0.015344665
61	0x3f65d9f8	0.8978572
62	0x3f7b42fc	0.98149085
63	0x3e3cf385	0.1845227
64	0x3f5b3463	0.8562681
65	0xbeeef26e	-0.46669334
66	0xbec76a16	-0.38948125
67	0xbe101b41	-0.14072897
68	0xbe0d6da1	-0.13811351
69	0xbe3a95c2	-0.1822119
70	0xbd5aa54a	-0.05338029
71	0xbeb286dc	-0.34868515
72	0x3f9ee9ed	1.2415138
73	0xbf201b29	-0.62541443
74	0x3f47550a	0.77864134
75	0x3db3d2b6	0.08780424
76	0xba9f4bc2	-0.0012153315
77	0xbd3a2efb	-0.04545496
78	0xbe24ea1e	-0.16104934
79	0x3dc1060e	0.09424983
80	0x3f6ad9db	0.9173867
81	0x3f6d6878	0.9273753
82	0xbd48be22	-0.04900945
83	0xbd13e735	-0.036109168
84	0xbd4df77a	-0.05028484
85	0xbf47ea37	-0.7809176
86	0xbd9475b9	-0.07249016
87	0xbd8b91c1	-0.0681491
88	0xbdcf476b	-0.10121044
89	0xbe3ec186	-0.18628511
90	0xbe8144e9	-0.25247887
91	0x3f73a30e	0.95170677
92	0xbd5053ec	-0.050861284
93	0xbf4bdb9f	-0.7963199
94	0xbd9ad682	-0.07560445
95	0x3f764102	0.96192944
96	0xbd8a312e	-0.067476615
97	0x3f0bf25d	0.5466669
98	0x3de0f6bf	0.10984563
99	0xbc02cf56	-0.007984003
100	0xbef85d1c	-0.48508537
101	0x3ed96a11	0.42463735
102	0x3f6455a3	0.8919317
103	0xbf43aea7	-0.76438373
104	0x3f7e6140	0.9936714
105	0xbcfb9fc7	-0.030715836
106	0x3eaa4539	0.33255938
107	0xbf2c36e0	-0.6727123
108	0xbecd18a9	-0.40057877
109	0xbd99cbfe	-0.075096115
110	0x3f61f0e5	0.882582
111	0x3e936e57	0.2879512
112	0xbd6b870f	-0.05750185
113	0x3f3ee083	0.7456133
114	0x3b98f17d	0.0046674595
115	0xbf6c194b	-0.92226094
116	0x3f9d0bbb	1.2269205
117	0xbf4747a0	-0.77843666
118	0x3f6abca3	0.91694087
119	0x3d8fc70a	0.070203856
120	0x3f656074	0.896003
121	0x3f19c047	0.60059017
122	0xbe46f457	-0.19429146
123	0xbda60521	-0.08106447
124	0x3f717f3e	0.9433478
125	0x3f6a9d3b	0.91646165
126	0x3e1a20aa	0.15051523
127	0x3f810f32	1.0082762
128	0xbf4440ae	-0.76661193
129	0xbf57d661	-0.8431149
130	0xbdac8e0e	-0.08425532
131	0xbbe43d57	-0.00696532
132	0x3d8031bb	0.06259485
133	0x3f76908a	0.963143
134	0x3f551c9a	0.8324677
135	0xbd33a1a4	-0.043855324
136	0x3d991128	0.074739754
137	0xbeae8965	-0.340892
138	0x3f707140	0.93922806
139	0x3cd229f4	0.02565477
140	0x3f87eab4	1.0618501
141	0x3f6f182f	0.93396276
142	0xbef7e975	-0.484203
143	0x3f5452f7	0.82939094
144	0x3f67ad23	0.9049856
145	0xbebe22cf	-0.37135932
146	0x3abadab2	0.001425585
147	0x3f7062d3	0.93900794
148	0x3f2ce064	0.6752989
149	0xbf23756e	-0.6385106
150	0xbed60d72	-0.41807133
151	0xbd9aac38	-0.07552379
152	0x3f6502ed	0.8945759
153	0x3f0ffc04	0.5624392
154	0x3f6ce757	0.92540497
155	0x3dcc7a90	0.099843144
156	0xbd974d42	-0.07387783
157	0xbd4ae93c	-0.049538836
158	0xba9a1bcb	-0.001175755
159	0xbd012f69	-0.031539354
160	0x3f6e3b96	0.9305967
161	0xbd9276f2	-0.07151593
162	0xbbea21fa	-0.0071451636
163	0xbeebad82	-0.46030813
164	0x3f66c79c	0.9014833
165	0xbed98e6d	-0.42491475
166	0xbd6057f7	-0.05477139
167	0x3dea5abb	0.11443087
168	0xbd91d7a9	-0.07121212
169	0x3f67d1b8	0.9055438
170	0x3f8b271d	1.0871311
171	0x3f79b5f8	0.9754329
172	0xbd665b9e	-0.056239717
173	0xbf5a18db	-0.85194176
174	0xbce81cd1	-0.028334053
175	0xbf0dee8a	-0.55442107
176	0x3f6ab174	0.9167702
177	0xbf99f3ec	-1.2027564
178	0xbe6ef733	-0.23336487
179	0x3f78046e	0.9688176
180	0xbf5c750b	-0.86116093
181	0x3f739cdb	0.9516122
182	0x3f7a9a71	0.9789191
183	0xbefc35fa	-0.4925993
184	0x3d43fe7f	0.04785013
185	0x3f7f3c30	0.99701214
186	0xbe021f63	-0.12707286
187	0x3f66254a	0.8990065
188	0x3f604a61	0.87613493
189	0x3f665647	0.899754
190	0x3dbff24d	0.09372387
191	0xbe60a265	-0.21936949
192	0xbf4ae4de	-0.79255474
193	0xbd0faf0b	-0.035079043
194	0x3f7d776c	0.9901035
195	0xbe0891cc	-0.13336867
196	0x3effae8f	0.49937865
197	0x3f8d22f2	1.102629
198	0x3f858fb4	1.043448
199	0x3f6cd2d9	0.9250923
200	0xbf3d8225	-0.7402671
201	0x3f626682	0.88437665
202	0x3f5cf1ef	0.8630666
203	0x3f6fa332	0.9360839
204	0x3f79f337	0.9763674
205	0x3f1f837f	0.6231002
206	0x3f37fd5a	0.7187096
207	0xbed78046	-0.42090052
208	0x3f6efe50	0.933568
209	0xbdc8ace6	-0.09798603
210	0xbd6e6097	-0.058197584
211	0xbe1f8605	-0.15578468
212	0x3f65bef0	0.8974447
213	0x3e3f7edf	0.18700741
214	0xbd5bb169	-0.05363599
215	0x3f74921f	0.95535463
216	0xbf0187ec	-0.50598025
217	0x3f778d1f	0.9669971
218	0x3d617ac3	0.055048715
219	0x3f6e8f18	0.93187094
220	0xbd72f90c	-0.05931954
221	0xbed7c760	-0.421443
222	0xbf3e601f	-0.7436542
223	0xbd97e74e	-0.07417165
224	0x3f6c1043	0.92212313
225	0xbe0acf52	-0.13555649
226	0x3e114cf9	0.14189519
227	0xbe2fbc48	-0.17161667
228	0xbf566891	-0.83753306
229	0x3ed36f93	0.41296062
230	0x3f5f48a0	0.8722019
231	0xbf156998	-0.5836425
232	0xbd8fa710	-0.070142865
233	0xbd9ac08e	-0.07556258
234	0x3ed3d00a	0.4136966
235	0x39dd1af1	0.00042172478
236	0xbedf4864	-0.43609917
237	0xbee5502f	-0.44787738
238	0xbeebb8e9	-0.46039513
239	0x3bc4db6c	0.0060076024
240	0x3f7dd8df	0.99159044
241	0x3f658bf5	0.8966668
242	0xbd83ee66	-0.06441955
243	0x3f6d3a6c	0.9266727
244	0xbf3f3e2b	-0.74704236
245	0xbd110cb9	-0.035412524
246	0x3f5492ff	0.830368
247	0x3e73a03d	0.23791595
248	0x3f7d7c0d	0.9901741
249	0x3dbe6546	0.0929666
250	0x3e6fe61f	0.23427628
251	0xbf1c8eef	-0.611556
252	0xbd2afab2	-0.041742988
253	0x3d93bc0d	0.07213602
254	0x3df4eb7b	0.11958977
255	0x3d176dc5	0.03696992

q.weight f4 [1, 256]
0	0xbf1bb700	-0.6082611
1	0xbe641c88	-0.22276509
2	0x3dd33a0a	0.103138044
3	0x3eec1cd4	0.46115744
4	0xbf58cba5	-0.84685737
5	0x3ec118ed	0.3771433
6	0xbea48938	-0.3213594
7	0xbe41eba5	-0.18937548
8	0x3ebeda91	0.37276128
9	0x3c5fa025	0.013649021
10	0xbd29ba01	-0.041437153
11	0x4059701b	3.3974674
12	0x3e8dd3bd	0.27700606
13	0x3c9facd4	0.01949159
14	0xc09ac948	-4.8370705
15	0xbec36e8b	-0.38170275
16	0x3f03d44e	0.51495826
17	0x3c63865f	0.013887017
18	0x3e6c9b0b	0.23106019
19	0xc0cd4d25	-6.415667
20	0x3eb42892	0.35187203
21	0x3ea2ed22	0.31821543
22	0xc06cd7d0	-3.7006721
23	0x3e989733	0.29802856
24	0x3c16ff27	0.0092161065
25	0x3e8cecb6	0.27524346
26	0x3ecfca98	0.40584254
27	0x3f02779f	0.5096378
28	0x3f0934c5	0.53596145
29	0x3e612b99	0.21989287
30	0xbed28721	-0.4111872
31	0x3ec6d8c0	0.38837242
32	0xc0a8ea61	-5.2786107
33	0x3ec77e75	0.38963667
34	0xc0b17d20	-5.546524
35	0xc0d9ec41	-6.8100896
36	0xc02f3b3a	-2.73799
37	0x3ee303de	0.44338888
38	0xbfff77b9	-1.9958411
39	0x3eaa0f29	0.3321469
40	0xbf0b66ea	-0.5445391
41	0x3ccc9c99	0.024977015
42	0xbec5fc8b	-0.38669237
43	0xbbbcbda8	-0.0057599135
44	0xbcda024f	-0.026612429
45	0xc053744f	-3.303974
46	0x3ff3d8c4	1.9050527
47	0xc0a9330f	-5.2874827
48	0x3ed6a08f	0.4191937
49	0x3eb2828c	0.34865224
50	0xbf8f141d	-1.1178013
51	0xc0b43b4c	-5.6322384
52	0x3bcf1244	0.006319316
53	0x3e9098a2	0.2824145
54	0xbeee01de	-0.464858
55	0x3ed1d663	0.40983877
56	0x3e270a3f	0.16312502
57	0x3e8ca4c4	0.27469456
58	0xc08828e4	-4.2549915
59	0xc097f946	-4.749179
60	0x3c975bb4	0.018476345
61	0x3ecce09a	0.40015107
62	0x3ec02697	0.37529442
63	0xc05407b3	-3.31297
64	0x3e83c04d	0.2573265
65	0xbe570ebc	-0.21001714
66	0xbe95d0a2	-0.29260737
67	0xbed75df5	-0.4206387
68	0xbede0bf6	-0.433685
69	0xbdea6a0e	-0.114460096
70	0xbeaab881	-0.3334389
71	0x3fb227ba	1.3918374
72	0xc073b345	-3.8078167
73	0xbe466430	-0.19374156
74	0x3d034a39	0.032053206
75	0xc0a94161	-5.289231
76	0xbba5abfc	-0.0050559025
77	0x3cb6f4c9	0.02233352
78	0xc0a065f8	-5.0124474
79	0x3ee3bdd1	0.44480756
80	0x3f0e5bc5	0.5560878
81	0x3e59259f	0.21205758
82	0xbb61aa83	-0.0034433908
83	0xba079151	-0.0005171495
84	0xbcc614d5	-0.024179855
85	0xbedfc0ac	-0.43701684
86	0xbd12cb2a	-0.035838284
87	0x3b3bb6bd	0.0028642856
88	0xbf14a762	-0.58067906
89	0xbf0f4080	-0.55957794
90	0x40131326	2.2980437
91	0x3e97caa4	0.2964679
92	0xbee59d14	-0.44846404
93	0xbe4c49cb	-0.19950025
94	0xbab20258	-0.0013581021
95	0x3ecfc34d	0.4057869
96	0x3bd5504e	0.006509817
97	0x3ec9167e	0.39274973
98	0xc01dbd04	-2.4646616
99	0x3bb3c1e1	0.0054857587
100	0xbefc84fe	-0.49320215
101	0xc0cafafe	-6.3431387
102	0x3e997250	0.29970026
103	0xbe4731eb	-0.19452636
104	0x3ecf69c6	0.40510386
105	0x3b1adaa7	0.0023628862
106	0xc0d29674	-6.580866
107	0x3eaeed25	0.34165302
108	0xc08941f8	-4.289303
109	0x3d18dd7f	0.03732061
110	0x3eb16b59	0.34652212
111	0x3e8cdedc	0.27513778
112	0xbce17b83	-0.027524715
113	0xbf1c841b	-0.61139077
114	0xc0e01fbc	-7.003874
115	0x3e5315a1	0.2061372
116	0x3ed03cc3	0.40671358
117	0x3e85cac5	0.26131263
118	0x3e973ee3	0.29540166
119	0xc043798d	-3.0542939
120	0x3e88168b	0.265797
121	0xc09f9380	-4.9867554
122	0xc0f1daf3	-7.557977
123	0x3c8fe65f	0.017565904
124	0x3ec12a12	0.3772741
125	0x3f0033a1	0.5007878
126	0xc077ebd1	-3.873768
127	0x3ee0dba3	0.4391757
128	0xbe43a4bf	-0.19105814
129	0xbe9a3739	-0.30120257
130	0x3d1b755a	0.037953712
131	0xc097b1b9	-4.7404447
132	0xbffc8865	-1.9729124
133	0x3ea48313	0.32131252
134	0x3d4d6591	0.05014569
135	0xbc326c66	-0.010890102
136	0xc08b2cd9	-4.3492246
137	0xc111e910	-9.1194
138	0x3e4a75db	0.19771521
139	0x3c8a4f2a	0.016883451
140	0x3ec2cbe4	0.3804618
141	0x3e18cd83	0.14922146
142	0xbf4d99a6	-0.80312574
143	0x3e12450f	0.14284156
144	0x3e5aaae1	0.21354248
145	0x3fb38797	1.4025754
146	0xbbc7c3eb	-0.0060963533
147	0x3e8ea547	0.27860472
148	0x3f1bfa8f	0.609292
149	0xc0870ea3	-4.2205367
150	0xbee64765	-0.44976345
151	0xbece88a6	-0.4033863
152	0x3ebe6bf6	0.37191743
153	0x3e91a525	0.28446308
154	0x3ebcda2b	0.368852
155	0xc08b10be	-4.3457937
156	0xbd480885	-0.04883625
157	0x3c846e70	0.016165942
158	0x3a9b4918	0.0011847345
159	0x3c17e746	0.0092714485
160	0x3e6b7013	0.22991972
161	0x3c90c6af	0.017672865
162	0xbbff59de	-0.0077926954
163	0xbf2b40ca	-0.66895735
164	0x3e0ef0d0	0.1395905
165	0xc0bd90ae	-5.923911
166	0xba805bc5	-0.0009792974
167	0xc053f986	-3.3121047
168	0xbc1261a5	-0.008934413
169	0x3eba2f8c	0.363644
170	0x3eb4df68	0.35326695
171	0x3ed70717	0.41997597
172	0xbd70ce44	-0.05879046
173	0xbd91c86c	-0.071183056
174	0x3d14aa29	0.03629509
175	0xbe845295	-0.25844255
176	0x3d5f4729	0.054511223
177	0x3ff7bbe0	1.935421
178	0xc10610ee	-8.379133
179	0x3ea3e083	0.32007226
180	0xbeb597d1	-0.3546739
181	0x3ec26eda	0.37975198
182	0x3f1347da	0.5753151
183	0xbe6d29e3	-0.2316051
184	0xbf98aa9d	-1.1927067
185	0x3f0edb88	0.5580373
186	0xbedb1c48	-0.42795014
187	0x3dc84528	0.097788155
188	0x3e19ac60	0.15007162
189	0x3eb7d732	0.35906368
190	0xc01ad864	-2.4194574
191	0xc0c17df2	-6.046624
192	0xbef1991d	-0.4718713
193	0x3c6f27e2	0.014596911
194	0x3ef2f07f	0.4744911
195	0xc0c7e7bf	-6.2470393
196	0x3e9d03fd	0.30667105
197	0x3ed0229f	0.40651414
198	0x3f4601de	0.773466
199	0x3eaccc29	0.33749512
200	0xbee1111a	-0.4395836
201	0x3e235f1d	0.15954252
202	0x3e5974af	0.21235918
203	0x3e4276a6	0.18990573
204	0x3eb3fe0e	0.35154766
205	0x3e93278d	0.28741112
206	0x3e7d46ec	0.24734086
207	0xc06ad64c	-3.6693296
208	0x3ed7d967	0.42158052
209	0xc0635237	-3.551893
210	0x3d22bdec	0.039731905
211	0x4077d7e8	3.8725529
212	0x3ea4fbe9	0.32223442
213	0xc0d2386b	-6.569387
214	0xbd0ce744	-0.03440024
215	0x3eb57d03	0.3544694
216	0xc057e926	-3.3736053
217	0x3ec3ecf2	0.38266712
218	0xc0a00035	-5.0000253
219	0x3ea18c18	0.31552196
220	0x3b1bdc42	0.0023782407
221	0x3e97a0e7	0.29614946
222	0xbeb34944	-0.35016835
223	0xbcbe1e41	-0.023207786
224	0x3ecb8ccd	0.3975586
225	0xc143f549	-12.247384
226	0xc0a694da	-5.2056704
227	0xbefae1dc	-0.49000442
228	0xbeb8b8e7	-0.3607857
229	0xc0685f2b	-3.6308086
230	0x3da76a10	0.08174527
231	0xbe6d3998	-0.23166502
232	0xbefb13ef	-0.49038646
233	0xbd376d7b	-0.044782143
234	0x3f397b2c	0.7245357
235	0xbd156526	-0.036473416
236	0xc0693709	-3.643984
237	0xc0ccab24	-6.395891
238	0xbe9dd8ac	-0.3082937
239	0xbb60479e	-0.0034222375
240	0x3edd8f93	0.432736
241	0x3e45c14d	0.1931202
242	0xbcf65e93	-0.030074393
243	0x3e2c63e7	0.16834985
244	0xbe777edd	-0.24169488
245	0x3cdb56d3	0.0267748
246	0xc06a5e1b	-3.6619937
247	0xc0b838eb	-5.756948
248	0x3ea29dca	0.31761009
249	0xc0022019	-2.033209
250	0x3f9b6c0e	1.2142351
251	0x3eb54f96	0.35412282
252	0x3b88b357	0.0041717696
253	0xc0af4497	-5.477123
254	0xc0863305	-4.193728
255	0xbbeb4296	-0.0071795685
