SAC_own/sac/target_value_sac.pth (torch, 292514 bytes, 5 tensors)

fc1.weight f4 [256, 24]
000000 e4 c9 06 be 97 a2 b7 bf 34 78 7e be f6 39 98 3f
       -0.13162953 -1.4346493 -0.24850541 1.1892688
000010 5f f5 3a be d0 69 38 3d 18 e5 47 3e 5e 24 16 be
       -0.18257664 0.045022786 0.19520986 -0.1466231
000020 2e 8b 9b bc 66 6c 20 bd ec 33 83 3c be 39 94 3e
       -0.018987264 -0.039165877 0.01601597 0.28950304
000030 e6 72 a1 bd 87 c5 b3 be ce 47 14 bf fe 71 94 be
       -0.07883243 -0.3511164 -0.57922065 -0.2899322
000040 91 e5 4c be e3 3e 67 be 2d 3a 83 be 7d 41 01 be
       -0.20009448 -0.22582583 -0.25630322 -0.12622638
000050 17 be a8 bc 76 ea 9e be 07 ce a3 bd a6 02 22 3e
       -0.020598454 -0.31038254 -0.07998281 0.15821323
000060 1c 5a fd be 38 d5 98 bd cf 58 cb 3d 08 f9 38 c0
       -0.4948281 -0.07462543 0.09929048 -2.8901997
000070 51 46 b6 bf 75 15 35 be 62 9f 3e bf 35 e3 b0 3d
       -1.4240209 -0.17683966 -0.7446195 0.08637086
000080 f8 35 23 3f 58 9f 80 3d b7 f4 48 bb f3 93 28 3f
       0.63754225 0.062803924 -0.003066344 0.6585075
000090 32 81 b5 3e bc 03 f1 3e 8e a1 ff 3d 63 9a 6a 3d
       0.3545013 0.47073162 0.12481986 0.05727614
0000a0 bf e0 d3 bd 4d a3 2d be 60 a8 28 ba 65 e3 73 bd
       -0.10345601 -0.16956826 -0.0006433781 -0.059543032
0000b0 71 26 d4 bd 11 3d 15 bc f7 a0 7c bd 6d a9 1b bf
       -0.103588946 -0.009108798 -0.061676946 -0.608054
0000c0 07 c2 a5 bb 79 ec d8 3e 31 5a d1 bd 57 85 3f be
       -0.0050585303 0.42367914 -0.10222281 -0.18703209
0000d0 e6 42 90 bc 2c a4 82 3d bf 62 3b 3e 7d 31 0c bd
       -0.017610025 0.063789696 0.18299387 -0.034226883
0000e0 8f 7c b8 be a2 ee d1 3d 08 8b 43 bd c8 ad 38 be
       -0.3603253 0.10250594 -0.047740012 -0.18035042
0000f0 9e d9 af 3d df 50 32 3e a1 94 c7 be ad 41 08 bf
       0.08586429 0.17413662 -0.38980582 -0.53225213
000100 47 08 ac be 5e c2 1d bf de 29 13 bf a2 0e d5 be
       -0.33600065 -0.61624706 -0.5748576 -0.41612726
000110 69 0b c5 be bf 37 25 bf 34 af f9 bd a1 ce 4e bd
       -0.38485268 -0.64538187 -0.121916205 -0.050490025
000120 f9 9d 23 3e 63 41 d9 3f a3 ec bd 3e 48 a9 5c 3f
       0.1597823 1.697308 0.37094602 0.861958
000130 e0 e6 11 be 6e 1b d1 3d bf f8 23 bd 55 e1 d5 bd
       -0.14248228 0.1021031 -0.040032145 -0.10443369
000140 62 fa 2c c0 dd 75 8b 3e e6 c8 2d bc 92 e8 a8 3c
       -2.7027822 0.2723836 -0.01060698 0.02061871
000150 34 8e a4 3c 29 ee 03 3c f2 7c be be 31 d7 c2 bd
       0.020087339 0.008052387 -0.372047 -0.09513701
000160 4e b0 af be 00 55 5a be 8c 58 50 be 7e fc 47 3e
       -0.34314197 -0.21321487 -0.20346278 0.19529912
000170 5d 9f 42 3d 53 4c 3d 3e 47 b5 10 bc b4 89 9d 3f
       0.047515262 0.18486147 -0.008832282 1.2307649
000180 56 04 2f 3f d0 5c cf 3e c7 3e 3e c0 a1 f5 54 bf
       0.6836599 0.40500498 -2.9725816 -0.831873
000190 71 d5 ca 3e 60 fa b5 3d cc ec 85 bd 30 f2 40 be
       0.39615968 0.08885646 -0.06539306 -0.18842387
0001a0 89 19 58 bf 9f 59 3c 3d 6e 68 26 be 8b df 69 3f
       -0.84413964 0.045983907 -0.16250774 0.91356725
0001b0 5e 8f 99 bd e2 ef d6 be 01 0a 4f bf 18 aa 3c bf
       -0.07498048 -0.4197989 -0.8087464 -0.7369704
0001c0 57 2d 24 bf 19 8d 45 bf c6 dd 17 bf 7d 8f 0d bf
       -0.64131683 -0.7716842 -0.59322774 -0.5529707
0001d0 68 ed 30 bf 50 ce 3a bf c5 5c 87 be 97 47 a9 be
       -0.69112253 -0.7297106 -0.26437965 -0.3306243
0001e0 1d 9e 0f 40 ad 34 f1 3f 48 e8 7e bf 29 27 b0 3e
       2.2440255 1.88442 -0.99573183 0.34404877
0001f0 bb 77 a1 3e 01 75 ce 3d 59 8e 4e bd 43 7d 77 bd
       0.3153666 0.100809105 -0.050428722 -0.060422193
000200 dd 43 5f 3e 20 14 a0 3f 6a ec 22 bd 6d 64 1b 3f
       0.21803232 1.2506142 -0.039776243 0.6070011
000210 20 a8 30 be 9f 3a ab bc 29 cc d0 3d 49 ad 9f 3d
       -0.17251635 -0.020901976 0.101951905 0.077967234
000220 74 53 52 3e db 9b 83 3e 40 c8 a0 3d 15 6b d2 3e
       0.20539647 0.25704846 0.07850695 0.41097322
000230 71 36 83 3e e5 59 8a 3e 25 5a 2d be 87 33 2d 3d
       0.25627473 0.2702171 -0.16928919 0.04228547
000240 6a c2 e0 bd c2 ba 9f c0 c4 69 12 bf e6 74 1c c0
       -0.109745815 -4.9915476 -0.57192636 -2.444635
000250 fc c5 70 be f0 71 a7 bd 08 e4 cf bc df 18 32 3c
       -0.23513025 -0.08176029 -0.025377288 0.010870188
000260 3c 47 0e 3d 15 a0 5a 3f 95 01 15 bf 0b 0d 3b 3e
       0.034735903 0.85400516 -0.5820554 0.18266694
000270 41 a4 d4 bd 45 1c 89 3e b2 5e 67 bf 98 3f 71 bf
       -0.103828914 0.2677938 -0.9037887 -0.9423766
000280 ce 50 1c bf f5 01 07 bf 7a 72 f8 be 59 c0 7f be
       -0.610608 -0.5273736 -0.4852484 -0.24975719
000290 6c 2f 38 be 93 13 ff 3d a0 0c a2 be 25 14 d1 3e
       -0.1798684 0.12454905 -0.31650257 0.40835682
0002a0 30 0c 23 c0 c2 4e ac c0 36 3c c1 3f 4a 19 ad 3f
       -2.5476189 -5.384614 1.50965 1.3523343
0002b0 7f b3 81 bd 9c 19 3d be 4e ab 8c 3e 95 1e 89 be
       -0.06333064 -0.184668 0.27474445 -0.26781145
0002c0 68 66 24 3e 96 e6 03 be a1 02 2b be 29 92 71 3e
       0.1605469 -0.1288093 -0.16700222 0.23590912
0002d0 89 4d c0 bd 36 76 9c bd ad a3 f8 bd 26 dc c3 bd
       -0.09389789 -0.076397344 -0.12140594 -0.09563474
0002e0 8f 9a 22 be 10 7d 9c bd d5 87 ba be b3 af 6e bd
       -0.15879272 -0.07641041 -0.36431757 -0.05827303
0002f0 ea 9f 39 be dc da 7c bd 01 1a 8c be b2 81 8e be
       -0.18127409 -0.061732158 -0.2736359 -0.27833325
000300 36 39 11 bf 60 9e 17 c0 e2 0c a1 be 76 f5 c0 be
       -0.5672792 -2.3690414 -0.3145514 -0.37687272
000310 a0 58 81 bf ae bc c0 3e 45 a9 1c bd 4e 24 c8 be
       -1.0105171 0.3764395 -0.038247366 -0.39090198
000320 55 6c 6a bf 14 28 a5 be 61 e9 10 3f 94 5d d4 3e
       -0.9157155 -0.3225714 0.5660611 0.41477644
000330 5c 90 05 3f d9 9e 6c bf 70 68 34 be 42 30 8d be
       0.521734 -0.9242988 -0.17617965 -0.2757588
000340 df 1a 8e 3c 9d 46 0d bc 47 9f 86 be 44 62 a4 bd
       0.017346798 -0.008622793 -0.26293394 -0.08026555
000350 1f c2 92 3d 23 5e 6d 3d c7 23 86 3d 14 07 96 bd
       0.07165932 0.057951104 0.06549793 -0.07325569
000360 8c b5 b1 bd 27 0b b6 bf e9 b0 96 bf a8 42 4b 3e
       -0.086772054 -1.4222153 -1.1772739 0.19849646
000370 a6 c5 93 3f c9 1b 0b 3e eb 42 8c 3e 81 d7 fe be
       1.1544693 0.13584818 0.27394804 -0.4977379
000380 d8 7e 87 3e 78 c9 99 3e 3a 43 a2 be 99 cc 01 be
       0.26463962 0.3003652 -0.31691915 -0.12675704
000390 c5 a0 93 bd ad 62 79 bf 75 fa ce be 05 1c dd be
       -0.07208399 -0.9741619 -0.4042546 -0.4318544
0003a0 46 a8 5a be 09 97 d6 be f1 dc 37 be 29 f2 cf be
       -0.21353254 -0.41912106 -0.17955376 -0.4061444
0003b0 93 80 b9 be ac b0 06 be 69 46 e3 bc 7a a2 3e bc
       -0.36230907 -0.13153332 -0.027743535 -0.011635417
0003c0 f1 67 1c bf a4 f1 86 c0 00 cd c0 3d 62 49 a8 bf
       -0.610961 -4.216997 0.09414101 -1.3147395
0003d0 aa 6c 51 bc ac 50 97 3d 5f 8b 4d bf 40 d8 1b 3e
       -0.012782255 0.07388434 -0.8029079 0.15219212
0003e0 48 d2 84 be 6a 65 4a bf 94 a9 2d be a4 04 de be
       -0.25941682 -0.79060996 -0.1695922 -0.43362916
0003f0 b0 6e ce be 41 f7 4e be 8f 57 20 bf 2d 16 0c bf
       -0.40318823 -0.20211507 -0.62633604 -0.5472134

fc1.bias f4 [256]
000000 8d 56 1d 3e 79 ae e9 be 54 c1 83 3e 18 4a 6b 3f
       0.15365048 -0.45640925 0.25733435 0.91909933
000010 76 57 91 be 77 e0 57 be be 6f dc 3e 33 73 e3 be
       -0.2838704 -0.2108172 0.43054003 -0.44423828
000020 48 f4 c3 be 51 23 57 3e 2b 67 e4 3c c9 96 fb bb
       -0.3827231 0.21009566 0.027881226 -0.007677887
000030 5a 23 5d bc 32 32 43 be e5 43 49 be 1c 6c a0 be
       -0.013497198 -0.19062117 -0.19654806 -0.3133248
000040 cd e7 88 be 7a e4 0e bf 57 16 ac bd 23 39 e6 bd
       -0.2673935 -0.5581738 -0.084026985 -0.11241367
000050 05 55 01 bf 47 4a 29 bd d9 bf 5f be a5 d3 f0 be
       -0.50520355 -0.041330602 -0.21850528 -0.47036472
000060 d9 de 11 3d 5e ed a1 bd 38 19 ef bd c4 2a 19 3f
       0.035612915 -0.07906602 -0.11674732 0.5983088
000070 96 2c 41 3f 89 a1 47 3e 23 f6 11 bf a4 fb c3 bd
       0.7545866 0.19495215 -0.570162 -0.09569481
000080 39 a1 f6 3c 51 30 cc be 73 15 0a bf 03 4d 11 3f
       0.030106174 -0.39880612 -0.5393898 0.56758136
000090 68 c6 69 3f d8 6c 2a bf 10 12 db 3e 58 ee 34 3d
       0.9131837 -0.6657233 0.42787218 0.044172615
0000a0 18 1c 41 be f2 50 3f be e6 d0 6c bf f0 13 8d be
       -0.18858373 -0.18683222 -0.92506254 -0.27554274
0000b0 26 da b0 bc 31 79 05 be af eb 8b 3e 03 ba ec be
       -0.021588396 -0.13034512 0.2732825 -0.46235666
0000c0 1d a5 40 3d 97 65 a4 bd ba b8 d1 be 26 ee 7c bf
       0.047032464 -0.08027189 -0.40961248 -0.98800886
0000d0 e5 73 c7 be f3 45 e4 be a8 fe 43 be 78 99 f9 be
       -0.38955608 -0.44584617 -0.19140112 -0.487499
0000e0 61 a6 d7 be a0 d3 0c 3e 59 9b cc be 0f 8c 90 3e
       -0.42119125 0.13752604 -0.3996227 0.28231856
0000f0 9a 0b fd be da a6 37 be a5 a2 18 3d 34 72 9b 3e
       -0.49422914 -0.17934743 0.037264485 0.30360568
000100 14 bc 2d bc d2 93 c5 be ea 49 69 3e 17 dc 4e bf
       -0.010603923 -0.3858934 0.22782102 -0.8080458
000110 80 61 36 bf 95 4d 00 bf 7c f4 76 be fe 2a 40 be
       -0.71242523 -0.5011838 -0.24116701 -0.187664
000120 2a bd 74 bd 0e 4e 54 3e 07 8b ef be db 2b 61 be
       -0.059750713 0.207329 -0.46785757 -0.21989386
000130 97 7e a4 3d a3 ca a0 be d7 aa 26 be f2 34 36 be
       0.080319576 -0.314046 -0.16276108 -0.17793635
000140 6e 2f 84 be d5 2c cb be 05 4b 86 3e f7 cf a5 3e
       -0.25817436 -0.39682642 0.2622911 0.32385227
000150 fc eb 10 bf ba b5 18 3e 94 a4 01 3f 69 7c fe 3e
       -0.56610084 0.14913073 0.5064175 0.49704292
000160 46 bb ac be 5e d9 15 be b1 c6 41 bf 44 ee 1d 3f
       -0.33736628 -0.146337 -0.75693804 0.6169169
000170 28 30 28 3e a4 d7 d1 3e dc 1d 04 bf 31 75 28 be
       0.1642462 0.40984833 -0.5160806 -0.16450955
000180 d2 72 28 bf 38 6c 1b bf 5e 0b 96 be 20 78 1b bf
       -0.658002 -0.60712004 -0.29305547 -0.6073017
000190 11 14 63 bb 7c d2 35 bf fb b0 d4 3d 54 f5 87 be
       -0.0034649412 -0.710243 0.10385319 -0.26554358
0001a0 74 6c 34 bf 9f 40 23 bf 04 72 fd 3b c9 8e 52 3f
       -0.70477986 -0.6377048 0.007734539 0.8224912
0001b0 f8 eb 54 3e c2 74 ef bd fe b5 c9 be b7 4e 20 bf
       0.2079314 -0.11692192 -0.39396662 -0.6262011
0001c0 64 e2 b5 3e e2 03 2d bf bd 5b 5c be 41 ca 41 3f
       0.35524285 -0.6758405 -0.2151937 0.7569924
0001d0 05 80 c1 3e ee 07 88 3f dc 82 d9 be 1b 53 00 bf
       0.37792984 1.062742 -0.4248265 -0.5012681
0001e0 08 98 27 bf 72 c1 dd 3d ff de 07 3f 7a 33 38 3d
       -0.65466356 0.108279124 0.5307464 0.044970967
0001f0 02 55 45 bf 45 0a 90 be bc 4a 0d 3e 36 79 1c be
       -0.77082837 -0.28132835 0.1379804 -0.15280613
000200 c7 35 35 bf 5e 3f 3b 3f 23 dc eb be 85 24 07 bf
       -0.7078518 0.73143566 -0.46066388 -0.527901
000210 89 ec 17 bf 95 36 9d 3c ee cf 94 bd f4 25 bb 3e
       -0.593453 0.019191066 -0.07266222 0.36552393
000220 e1 64 57 3d 63 f1 67 3d eb 00 e8 3d 2d 98 b8 3e
       0.05258644 0.05662669 0.113283 0.360536
000230 1a fd a2 be 57 2c a0 be ff 20 f2 3d 3a fb 84 be
       -0.31833726 -0.3128383 0.118227 -0.2597292
000240 9a 8e 87 be 7c 2a 05 3d b5 5b 09 bf 81 bd 31 3f
       -0.26475984 0.03251122 -0.5365556 0.69429785
000250 7b ba 71 3e 47 28 60 bf 93 42 77 bf 7b 59 fa be
       0.23606293 -0.8756146 -0.9658596 -0.48896393
000260 60 2d 3a be e9 f2 41 be 65 9c f7 be 3f 61 84 3c
       -0.18181372 -0.18940319 -0.48361507 0.016159652
000270 c4 62 8b be 6d 91 75 bf 67 94 89 be 93 ca 66 3f
       -0.2722379 -0.9592503 -0.26871035 0.90152854
000280 fb 12 1e bf 8d 62 b6 bd bb 7a 26 bd 4b 57 02 3e
       -0.6174771 -0.08905516 -0.04064439 0.12728612
000290 26 2d 39 bf 95 3d 01 bf 55 85 0d bf e6 3e 14 bf
       -0.72334516 -0.5048459 -0.55281574 -0.57908475
0002a0 28 6f f9 be d9 d1 0e bf 4e 24 6d 3f 6c d6 0b bf
       -0.48717618 -0.5578895 0.9263352 -0.54624057
0002b0 00 67 44 bf 51 f8 e4 be dc a4 72 be 97 36 8d 3e
       -0.76719666 -0.447207 -0.23695701 0.2758071
0002c0 af bf ae 3e 65 d8 12 bf b7 80 2f 3f 89 2c 59 bf
       0.34130618 -0.5736144 0.6855578 -0.8483358
0002d0 b8 98 2f bf 35 62 2b 3f 14 a4 3d be 77 40 e0 bd
       -0.68592405 0.6694673 -0.18519622 -0.10949796
0002e0 2a 32 6d bd dd 2b 0f bf 2a ae d3 3d 35 b4 06 bf
       -0.05790917 -0.55926305 0.103359535 -0.52618724
0002f0 8c 43 41 bf a7 a4 b9 3e da 85 5a be b5 ba 68 bd
       -0.75493693 0.36258432 -0.21340123 -0.056818683
000300 cf e3 26 3f ee bb e3 3d 78 46 b1 be cf a9 3e 3e
       0.6519136 0.11119829 -0.34624076 0.18619464
000310 a1 af db 3e 62 dc 14 bf 26 14 b6 3c 4d ec 95 3e
       0.42907432 -0.5814878 0.022226404 0.29281846
000320 3f 38 2d 3e bc 24 15 bf bc fe f0 be 7e fa 90 be
       0.16915987 -0.5825918 -0.47069347 -0.2831611
000330 c6 17 9e 3e bf 4b db be 1f 3e 48 3f 6a b9 31 bf
       0.30877513 -0.42831227 0.7821979 -0.69423544
000340 28 75 76 be 72 38 0c bf fc ab 9c 3e bc 20 f0 3d
       -0.24068129 -0.5477363 0.30599964 0.117249936
000350 72 2a 3e 3e 8c e4 95 be 58 d1 0e bf 56 29 94 be
       0.18570879 -0.2927593 -0.55788183 -0.28937787
000360 41 27 09 3f 8d f9 86 bd 96 d5 2c 3e 42 53 96 3e
       0.5357552 -0.06590567 0.16878352 0.29360396
000370 31 e3 cd bb 1d f6 3b 3e a6 16 16 bf 64 c9 c0 be
       -0.006283187 0.18355604 -0.5862831 -0.3765365
000380 f3 b9 d4 be 16 b0 0d be 9c a8 8f bd 5e f9 d1 bd
       -0.41548118 -0.13836703 -0.070145816 -0.10252641
000390 ee 1e 48 bf d8 5f f8 bd a5 0e 33 3d 23 15 39 bf
       -0.78172195 -0.12127656 0.043715138 -0.7229788
0003a0 da 66 0c 3f 03 1e 8a 3e d7 6d 2c bf be 87 0f 3f
       0.5484444 0.26976022 -0.673551 0.560665
0003b0 56 c0 b1 be 4b ae ec be 6e 23 76 be 4d 5e e8 3d
       -0.34717053 -0.46226725 -0.24036953 0.113461114
0003c0 ba 3c 99 bc 36 86 1d bf 1d 1e c7 be 67 a1 20 be
       -0.018705714 -0.61532915 -0.38890162 -0.1568657
0003d0 98 2a df bd 20 0a b9 3e ef 66 4a 3f 0f c1 be ba
       -0.10896796 0.36140537 0.79063314 -0.0014553386
0003e0 e1 cf 9e bd dd bf 4d be a8 24 3e 3e e5 39 9e be
       -0.077544935 -0.20092721 0.18568671 -0.30903545
0003f0 8c c9 1b 3e 4d 82 84 be 7a 2b 56 be 1e b3 10 3f
       0.15213603 -0.25880662 -0.20915022 0.5652331

fc2.weight f4 [256, 256]
000000 6b bc e6 bd 23 ed 37 3d ed f6 08 be 22 af ad 3e
       -0.112664066 0.044903886 -0.13375445 0.33922678
000010 8c dc 8f 3f 8b fc c2 3a a1 fb e8 bb 03 ea 78 c0
       1.123918 0.0014876289 -0.0071100746 -3.889283
000020 ec 7c 4f bf 68 96 02 bd 45 2f 99 c0 1d 3b 57 be
       -0.8104999 -0.03188172 -4.78702 -0.21018644
000030 6b 4a 6a 3d bc 58 ec be 1a d7 da be f8 c5 90 be
       0.057199877 -0.4616145 -0.42742234 -0.28276038
000040 76 01 7d bd 34 20 f0 3d 33 dc e5 bd 5e 3e c1 be
       -0.06176897 0.11724892 -0.1122364 -0.37742895
000050 b5 d6 81 be 4d df 9a 3d f1 eb b4 bd f6 49 99 3d
       -0.2535912 0.075621225 -0.08834065 0.0748481
000060 18 4a 9a bb dd 60 8c bf 39 1d 29 bf 63 23 e4 bd
       -0.0047085397 -1.096706 -0.66060215 -0.11139562
000070 49 7d 67 be 8f f1 d7 3e c1 51 11 bf 72 0e ee bd
       -0.22606386 0.42176482 -0.5676537 -0.11623849
000080 a4 f1 9e 3e 5e 23 12 bf 73 0d 6e bc 2b 6d d3 bd
       0.31043732 -0.57085216 -0.014529574 -0.103235565
000090 7e a5 95 3e 7e 76 a6 be 27 68 2e c0 a9 9c 4c be
       0.29227823 -0.32512277 -2.725107 -0.19981636
0000a0 0f 35 a5 bd 33 e3 08 be 09 7a e1 be ee b7 38 bf
       -0.08066761 -0.1336792 -0.44038418 -0.72155654
0000b0 b6 7f 5c be b3 04 1f bd dc a3 06 bf fd dd 82 c0
       -0.21533093 -0.03882284 -0.5259378 -4.089598
0000c0 4b b1 7f be f3 d9 f5 bf 32 13 61 3f a8 98 c8 bd
       -0.24969976 -1.9207138 0.87919915 -0.09794742
0000d0 6c 11 c7 3e bd b1 19 be 08 7c b6 bd 75 0d 9e bf
       0.3888048 -0.15009208 -0.08910376 -1.2347857
0000e0 58 15 5d bc 3f 46 fe bc 6d b1 07 bd ed fc 17 bf
       -0.013493858 -0.031039355 -0.03312819 -0.5937031
0000f0 d6 87 85 bd 3d 3c c4 bc 12 eb 62 3c ba e7 0a 3e
       -0.06520049 -0.023954505 0.01384999 0.13564959
000100 b8 18 c2 c0 23 20 c3 bd 69 39 10 3d a9 00 cc be
       -6.0655174 -0.09527614 0.035211 -0.39844254
000110 cd f2 1d 3f 65 19 83 be c0 50 be bf bf da fb bd
       0.6169861 -0.25605312 -1.4868393 -0.12297582
000120 a1 c1 26 bf ce 60 2d c0 d4 ea 33 bf 0e 51 51 be
       -0.65139204 -2.7090335 -0.70280194 -0.20441076
000130 82 03 61 bc 88 56 7b be ca 85 60 c0 16 fb 88 3d
       -0.0137337465 -0.24544728 -3.5081658 0.06688516
000140 39 8e 99 bf 86 65 a4 be 54 00 11 bf 8a 1d 68 c0
       -1.1996528 -0.32108706 -0.56641126 -3.626803
000150 1a 8b 37 be 5a ef 57 be 1f c2 0f 3d 6f d5 31 3e
       -0.17924157 -0.21087399 0.035097238 0.17366575
000160 c9 57 0b bf bf 21 b1 bd 3d 4a 8b 40 7f d2 d4 c0
       -0.54430825 -0.08649015 4.3528123 -6.6506953
000170 ee 47 30 be eb ad 90 3e c8 e3 00 be 38 8e 75 3c
       -0.17214939 0.2825769 -0.12586892 0.014987521
000180 a3 0b 7c bc 10 72 37 bf 6b b4 f8 3d ad af f7 3c
       -0.015383634 -0.7165842 0.12143787 0.030235136
000190 a3 2a f0 be 49 4e 4a bc 57 b4 e0 3d 4a 93 22 3e
       -0.4690753 -0.012347766 0.10971897 0.15876499
0001a0 e8 f3 9d bd 2a f0 6d 3d a0 67 22 be fd 0c 9e 3d
       -0.07712537 0.058090366 -0.15859842 0.07717321
0001b0 92 4e ab bd 2f a0 b6 bd ac 75 9b bd c4 d3 88 be
       -0.083645955 -0.08917271 -0.075908035 -0.26724064
0001c0 f0 3c 2b be a4 c4 f5 be b1 2b 33 3e 23 bd bf 3e
       -0.16722465 -0.48001587 0.17497136 0.37448987
0001d0 92 54 89 bf cd 07 a7 3e 9d 30 09 3e 7f 60 66 be
       -1.0728934 0.3262314 0.13397451 -0.22497748
0001e0 40 07 af 3d 42 dc 9e bd 10 dc d4 be bf 0f 92 3d
       0.08546305 -0.077568546 -0.41574144 0.071319096
0001f0 2c ac 2a be 00 73 d3 bd 44 9b 87 c0 38 0f 35 3f
       -0.16667241 -0.10324669 -4.2377033 0.70726347
000200 44 99 37 bf 2f de 75 3e e5 6f 95 bf fb 8a e2 bd
       -0.7171824 0.24010538 -1.1674773 -0.11061665
000210 d8 bf a7 3d 9f c6 ad be 45 30 04 c0 2f 64 cc be
       0.08190888 -0.33940598 -2.0654461 -0.39920184
000220 39 3a 3d 3d 56 86 a8 be f7 7a a6 bd 82 2f 9a c0
       0.046198104 -0.3291499 -0.081289224 -4.8182993
000230 91 c2 4f 3d f7 8e 27 bf a9 1e a6 3d 84 75 86 c0
       0.050722662 -0.6545252 0.08111317 -4.201845
000240 16 58 98 3d af 8e 51 bf 62 77 e8 3e 17 84 0c bf
       0.07438676 -0.8185834 0.45403582 -0.54889053
000250 72 86 ec be fd 74 23 bd 66 8e db bd ac 2c 32 bf
       -0.46196324 -0.03990649 -0.1072052 -0.69599414
000260 1d 83 1a 3d fd 46 1e be fb 3b 4f bf 4a e0 3b 3c
       0.037722696 -0.15456767 -0.809509 0.011467049
000270 6b 4b 6c be 80 88 a3 be 97 16 03 bf f5 98 ba 3e
       -0.23075645 -0.3194008 -0.51206344 0.36444822
000280 85 b0 91 be a3 bf f8 bc 7d 8e 8b be c6 9c a6 bf
       -0.28454986 -0.030364817 -0.27257147 -1.3016593
000290 96 21 05 3e a5 26 83 c0 6c 02 85 3e 6b 79 39 bf
       0.13001093 -4.0984674 0.2597841 -0.72450894
0002a0 19 53 d7 bf 9c 3c 16 bd aa 7f b6 3e d7 57 c8 be
       -1.6822234 -0.036678895 0.35644275 -0.39129516
0002b0 b2 b6 9e bc 0c 5b 3c be 17 c9 3b bc 39 86 4f c0
       -0.019374225 -0.18394107 -0.011461518 -3.2425673
0002c0 2f b4 47 be f5 ae ec bd 06 9c a6 bd fe 11 24 3f
       -0.19502328 -0.11556808 -0.08135228 0.64089954
0002d0 0e de 19 be 52 b8 34 3e 65 07 9c be 7a 57 5c bf
       -0.15026113 0.17648438 -0.30474392 -0.8607098
0002e0 2a de 21 3c bf 66 1f bd 95 9e a6 bf b8 a3 9d be
       0.009879628 -0.038916346 -1.3017145 -0.3078897
0002f0 f1 c0 40 be 76 2c 94 bd 75 42 08 3e 7b c5 35 bf
       -0.18823601 -0.07235043 0.13306601 -0.71004456
000300 f2 21 2b 3c e5 44 98 c0 42 40 e0 3d 70 d6 ce be
       0.010445105 -4.75841 0.10949756 -0.40397978
000310 cd 66 99 bd cb ca 33 bd 6e 56 10 bf 44 82 c3 c0
       -0.07490311 -0.04389457 -0.5638188 -6.1096516
000320 62 a8 a8 be c6 60 d3 bc fc bf e8 bd 0e 16 2e 3f
       -0.32940966 -0.025802981 -0.11364743 0.680024
000330 de ad af c0 58 31 4d 3e 8e 41 64 3e 94 33 95 be
       -5.489974 0.20038354 0.22290632 -0.29140913
000340 d3 68 5f be 8d 88 9b be ed 9d 7a bf 9c 8f 49 be
       -0.21817331 -0.30377617 -0.97897226 -0.19683689
000350 87 f4 f0 be 57 a1 2d bc 87 aa 21 bc a5 c0 13 c0
       -0.4706156 -0.010597548 -0.009867317 -2.308633
000360 f6 13 b6 be 96 57 1e be b2 70 04 3e 04 81 51 bf
       -0.35562104 -0.15463099 0.12933615 -0.8183749
000370 a4 e0 21 be 03 aa d3 bd 6f 8a e4 bd 07 27 dc 3d
       -0.1580835 -0.103351615 -0.111592166 0.107496314
000380 b8 5e 47 bf e0 19 e7 3d 48 54 45 3e 20 db 0d bf
       -0.77878904 0.11284232 0.19270432 -0.55412483
000390 7a bb 88 be bd d3 05 be ae 55 a0 c0 59 6b 09 bf
       -0.26705533 -0.13069053 -5.010459 -0.53679425
0003a0 8d 1d 6d 3d a1 01 96 c0 60 db b6 bd d4 5a d1 3c
       0.05788951 -4.687699 -0.08928561 0.025556006
0003b0 0a 99 71 be 5f e9 a3 be ce d6 11 be ef d5 b6 be
       -0.23593536 -0.32013986 -0.14242098 -0.35710093
0003c0 c6 a6 05 3e fd 64 92 be e3 2b 5b bf f1 14 48 bf
       0.130519 -0.28592673 -0.8561384 -0.78156954
0003d0 2f 14 63 bd be bb 70 3b 6b af 82 3e 9f c9 87 c0
       -0.05543917 0.0036732997 0.25524458 -4.243362
0003e0 0d 0b c0 bd fd 5a e5 bf 8e 9b b6 bc 6a 73 ee 3c
       -0.09377108 -1.7918392 -0.022290971 0.029107768
0003f0 28 88 0e be 45 8a 8e be 75 c8 05 3f c9 f2 37 3e
       -0.13919127 -0.27839866 0.52259 0.17963709

fc2.bias f4 [256]
000000 1f b9 88 3f fd df 8a bd 46 02 94 bd c9 7b cf be
       1.0681494 -0.067810036 -0.07226996 -0.40524128
000010 fe 67 9e bd 06 e3 13 bd 4b 5e 20 3f 65 d6 1b 3e
       -0.07734679 -0.03610518 0.6264388 0.15218504
000020 9b ff 74 be fc 6d 84 3b 4d 8a 52 bd 2e 7c 8d 3f
       -0.23925631 0.0040414315 -0.051401425 1.1053522
000030 af 84 55 bd 0c 84 8b 3c 37 a4 97 3f 26 83 97 ba
       -0.05212849 0.017030738 1.1846989 -0.0011559471
000040 81 d1 4d bd 8f 60 90 3f 8a ca 93 3f 0a 97 8a 3f
       -0.050248627 1.1279467 1.1546185 1.0827343
000050 7c a2 2f be ae f6 41 bd 14 a7 fe bc 74 18 0f 3d
       -0.17151827 -0.047354393 -0.031085528 0.03493543
000060 24 c6 77 bc ea 03 a9 3f be 27 f4 be e4 72 84 3e
       -0.015122924 1.320432 -0.4768657 0.25868905
000070 30 2f c1 3e a8 e9 ba bd 71 59 12 3f ec 50 fa bd
       0.37731314 -0.09126598 0.57167727 -0.12222466
000080 66 94 91 bd 78 0b 59 3f 40 fe 72 3f 52 f3 87 3f
       -0.07108383 0.84783125 0.94919205 1.062113
000090 e6 57 99 bd d8 93 47 3d 76 15 9c be 54 69 82 3f
       -0.074874684 0.04872498 -0.30485123 1.0188394
0000a0 89 5f c4 bd 51 5c 4d be 20 32 b4 bd 97 b4 34 3f
       -0.095885344 -0.20054747 -0.08798623 0.7058806
0000b0 34 a4 83 bc 9a 40 fe be 73 9b f5 3c 38 41 cc be
       -0.01606951 -0.49658662 0.02998135 -0.39893508
0000c0 ef 77 25 3e 15 14 0a be 3f 4f b8 3c c8 a9 42 be
       0.16159032 -0.13484223 0.022498725 -0.19010079
0000d0 ca 01 8e 3f 97 10 ae be 54 a2 04 3c 01 f9 55 3c
       1.1094296 -0.33997032 0.008095343 0.013059855
0000e0 08 0d aa 3f e6 3d 15 be d2 f7 63 3c b4 11 88 3f
       1.3285227 -0.14574394 0.013914065 1.0630403
0000f0 97 c2 a1 bd 5c e8 86 bd 32 1b f5 bd 34 81 70 bd
       -0.07898443 -0.06587288 -0.11968078 -0.058716968
000100 ec 3b 71 bc e2 ff 94 3f 23 74 74 3c 6b da 0f 3f
       -0.014723759 1.1640589 0.014920267 0.56192654
000110 bc 44 1d be cc 64 72 bb 37 46 81 3f da 6c da bd
       -0.15358251 -0.003698635 1.0099553 -0.10665293
000120 0a 5a 8e 3f 88 c1 8f 3f 71 1b 50 3d e3 66 f1 3d
       1.1121228 1.1230936 0.05080742 0.11787202
000130 47 a2 3c 3e 8b 90 e1 be 45 ae 88 be 92 47 86 3f
       0.18421279 -0.4405559 -0.26695457 1.0490592
000140 03 d2 f4 3c 1a c2 51 bc 75 09 05 be 15 8e c1 be
       0.029885298 -0.012802625 -0.12991889 -0.37803712
000150 de 2d 23 3d d6 8e 99 3f 4e 3d 8e 3f 75 0b 8d be
       0.039838664 1.1996715 1.1112459 -0.27547804
000160 dc 7f f4 bd e4 81 f9 bd 5f 6d a7 bb 6e 70 14 bb
       -0.1193845 -0.12182978 -0.0051094736 -0.002265002
000170 21 9a 62 3f 39 7d 2c bd 66 6b 1c be 38 75 bd be
       0.8851643 -0.04211161 -0.15275344 -0.37003493
000180 2c 04 f3 bd 97 3c 2f be 59 c1 4e bd 6c 31 7e 3f
       -0.1186603 -0.17112957 -0.05047736 0.9929416
000190 42 84 43 3f 65 b7 07 be c1 41 91 3f 69 c2 d8 3e
       0.76373684 -0.13253553 1.1348191 0.42335823
0001a0 a4 19 01 3f d3 5d d7 be fd 19 91 3f d4 b5 bd 3e
       0.5042975 -0.4206377 1.1336056 0.37052786
0001b0 61 42 39 3f 62 08 ee 3c 16 84 ef be 75 0f 1d 3f
       0.7236691 0.029056732 -0.4678046 0.6135171
0001c0 66 49 8b 3f f7 93 a2 bd 94 ff 8e 3f f8 b3 79 3f
       1.0881774 -0.07938378 1.1171746 0.97540236
0001d0 92 1d 65 3b 4c 0b 83 3b ca 46 5e bd da 48 0f bf
       0.0034960252 0.0039991494 -0.05426673 -0.5597054
0001e0 9a bf 1b 3f 3d 5d 8a 3f fd 97 16 3d 9d a9 90 3f
       0.60839236 1.0809704 0.03676604 1.1301762
0001f0 21 53 9e 3e d1 7a 88 3f 4c 33 92 3f b1 05 c4 bc
       0.30922797 1.066248 1.1421905 -0.023928495
000200 4e 8c 93 be 75 12 80 3f 1f d8 86 be ae b5 16 bc
       -0.2881798 1.0005633 -0.26336762 -0.009198589
000210 86 e5 83 3f 40 9d 06 3f c9 f3 8d 3f a5 fc 89 bd
       1.030442 0.52583694 1.1090022 -0.06737641
000220 fd 42 90 3f c2 c4 66 bf df 7b 2f be 6d 75 0f bc
       1.1270443 -0.9014398 -0.17137097 -0.008756024
000230 5f 1f 8f 3f d5 4b 88 bd b1 d7 9f bd 2b 03 00 3f
       1.1181449 -0.06655089 -0.07804812 0.50004834
000240 15 66 8d bd 37 b8 8a 3f 6d 28 8f 3f c2 fe d3 bd
       -0.06904236 1.0837468 1.1184212 -0.103513256
000250 5e 69 17 bd ab 0f ef bc 5d cf df bd d2 b7 7e 3f
       -0.03696572 -0.029182276 -0.10928223 0.9949924
000260 0a 77 e9 be e5 e4 0e be 35 b7 00 3f 12 b5 d2 bc
       -0.45598632 -0.13954504 0.5027955 -0.025721107
000270 40 fd 6e 3f 73 53 68 bd 12 e3 5b bd da 0c 58 bf
       0.9335518 -0.05672021 -0.053683348 -0.8439461
000280 a9 6a 4b bd f8 94 70 3f 11 f7 ec 3b 95 1d d4 3d
       -0.049662266 0.9397731 0.007231601 0.10357205
000290 bc 6d 2b 3f 03 12 75 be 77 c1 61 3f 58 30 c9 3c
       0.66964316 -0.23932652 0.8818583 0.024559185
0002a0 c5 55 04 bc de df 96 bd 56 61 89 3f 91 30 0d 3e
       -0.00807709 -0.07366918 1.073283 0.13788058
0002b0 03 cb e5 bc a9 2a 35 3e 88 7b 12 3f 56 f7 11 bc
       -0.028050905 0.17692055 0.57219744 -0.008909067
0002c0 b5 7d 4e be 3f 92 87 3f 1f 05 af bd 95 2b 7f 3f
       -0.20165141 1.0591506 -0.08545899 0.99675876
0002d0 07 8d b2 3d 4e 2f 16 be 96 09 8f 3f 82 ee 2f bf
       0.08718305 -0.14666483 1.11748 -0.6872331
0002e0 86 30 40 bf f0 c9 08 3f 8a d4 b8 3e 61 81 0c be
       -0.7507404 0.5343313 0.36099654 -0.13721229
0002f0 8d b9 99 3c 0c 45 76 3f 0f 14 a6 bc 5c ba 83 3f
       0.018765235 0.9619911 -0.020273237 1.0291247
000300 e8 1e 98 3f b1 be 96 3f 8c c2 72 bd 4a 2e ff 3d
       1.1884432 1.1776944 -0.059267566 0.12460001
000310 5d 99 3e 3f 4b dd a5 3f 5c 3a 0a 3d d0 2c 42 be
       0.74452764 1.2958158 0.033747062 -0.18962407
000320 b7 1e 6e 3f c0 21 87 3e 1a aa f1 3e e7 1e 8c 3f
       0.9301562 0.26392937 0.4720009 1.0946931
000330 3d d0 2e 3f e1 bf 45 bd 88 c8 8a 3f 3c 0c a2 3f
       0.68286496 -0.048278693 1.0842447 1.2659984
000340 99 3a c0 bc 36 ee 94 bd b8 b0 9f bd e8 8d 8a 3f
       -0.023465442 -0.07271998 -0.07797378 1.0824556
000350 39 f0 18 bf ae d2 6f 3f e0 2a 30 be 45 bf 93 3f
       -0.5974155 0.93680847 -0.17203856 1.1542746
000360 9c 84 07 3c 21 c8 3e bf ec a9 31 3f dd be c3 3d
       0.008271363 -0.7452412 0.69399905 0.09557889
000370 9e 64 9d be 57 c6 63 3f cc 73 fc bd d4 c0 81 3c
       -0.30740827 0.8897452 -0.12326774 0.015839018
000380 fe 57 59 3f ff a8 37 3f 4b 92 60 bd 89 1c dc 3e
       0.8489989 0.7174224 -0.054827016 0.4299052
000390 ff f8 23 be 44 be fd bd 5c bd 70 bd ce ec 89 3f
       -0.16012953 -0.12389806 -0.058774337 1.0775392
0003a0 21 e0 01 3e cd a9 89 3f 01 e6 88 3f f5 ef 02 be
       0.12683155 1.0754944 1.0695192 -0.12786849
0003b0 3f cb cc be 44 84 80 3f 3f 8f 25 bc 14 00 87 3f
       -0.39998814 1.0040364 -0.010104953 1.0546899
0003c0 37 0b 36 3f cc ae d9 3e ab 32 82 3f 63 a5 88 3f
       0.7111086 0.42516172 1.0171713 1.0675472
0003d0 64 cb 37 3f 07 a6 88 3f 35 1b 81 bd 7c 72 16 bd
       0.71794724 1.0675668 -0.063040175 -0.036730275
0003e0 d7 5a 80 3f 65 59 1f 3d 7a 1b f3 3e 7c c5 83 3f
       1.0027722 0.038903613 0.474819 1.0294642
0003f0 53 ac e1 bb 18 51 b6 bd 00 a5 ca 39 70 41 39 bc
       -0.0068869977 -0.08902186 0.00038651377 -0.011307105

v.weight f4 [1, 256]
000000 b7 31 82 3e 98 94 4a bb 5e 68 ac 3c 76 3e c0 bf
       0.25428554 -0.0030911323 0.02104586 -1.5019062
000010 11 4b d3 bc 2d 8c 1f 3d 77 3a 60 bf 83 d9 cd bf
       -0.02579263 0.03895204 -0.8758921 -1.6082004
000020 4f 9f ec bf ac 62 0f c0 74 9f 3c bf 10 bc 9c 3e
       -1.8486117 -2.2403975 -0.73680806 0.3061223
000030 58 e9 d9 bf d8 d7 44 bc 7d b8 de 3e e9 e8 50 3d
       -1.7024336 -0.012014352 0.43500128 0.05100337
000040 8d 0b 9d 3c 97 50 88 3e 74 fd a5 3e e8 b7 92 3e
       0.019170547 0.26623985 0.32419932 0.28655934
000050 a1 e2 08 40 cb ad ca bf ac 0f 08 3d 2e 3e ac bc
       2.1388323 -1.5834287 0.03321807 -0.021025743
000060 76 aa 98 ba e5 58 08 3f c4 ff d4 bf a6 11 45 c0
       -0.0011647481 0.5326064 -1.6640553 -3.0792022
000070 4f ca 03 c0 4f b6 be 3b 2c 36 b9 bf 76 6b 2f 3a
       -2.059223 0.0058200727 -1.4469657 0.0006691733
000080 48 a1 38 b9 f2 f5 50 3d 32 f1 41 3e a5 84 a6 3e
       -0.0001760769 0.0510158 0.18939665 0.32523075
000090 7d 0e 16 c0 a4 65 05 3d 1e f1 a9 bf 20 82 6e 3e
       -2.3446343 0.032567635 -1.3276708 0.23291826
0000a0 ef b7 38 bf c6 a1 21 3f e6 fe 92 b8 83 30 ec bb
       -0.7215566 0.6313747 -7.009301e-05 -0.0072079315
0000b0 cc de 7a bd 0f 5b 26 bf 1d 3f 9d 3b 3a 24 0f bf
       -0.061247632 -0.64982694 0.0047987835 -0.5591465
0000c0 a9 48 b7 bf 90 23 4b b8 29 97 4e bc 5d ab 3b 3f
       -1.4319049 -4.843209e-05 -0.012609282 0.73308355
0000d0 60 83 87 3e c1 13 dd 3f 97 51 38 3b 79 51 5d bf
       0.2646742 1.7271653 0.0028124803 -0.8645244
0000e0 ef fc 7f 3f d7 6b bd bf e5 a0 11 3d bb 04 97 3e
       0.9999532 -1.4798535 0.03555383 0.29495797
0000f0 d9 72 59 bf 78 e5 3c bf 0d 24 91 3f 22 96 e6 bf
       -0.8494087 -0.7378764 1.1339127 -1.8014567
000100 f6 bd 9b 3b 55 9b 9d 3e af 3f 32 bc eb f2 66 bf
       0.0047528697 0.3078257 -0.010879441 -0.90214413
000110 b4 f3 f0 be df 31 33 3d 17 f7 22 3e 5c e6 7e bb
       -0.4706093 0.043748733 0.1591457 -0.003889463
000120 18 97 8c 3e 7c 1c dc 3e 89 12 d5 3c de 2d a3 bf
       0.27459025 0.42990482 0.026009815 -1.2748373
000130 4d 54 14 c0 11 db b9 3f 01 5c 52 3e 59 09 69 3e
       -2.3176453 1.4519979 0.20542909 0.22757472
000140 e5 7b 1a c0 69 88 c5 3b a9 87 db 39 75 62 d0 3e
       -2.413812 0.0060282242 0.0004187201 0.40700117
000150 7b 57 f5 3a 6a dd e0 3e b5 8a a2 3e f5 0c 93 bf
       0.0018718088 0.43918926 0.3174645 -1.1488329
000160 e6 3d 15 3c 97 a1 b3 bf 60 ce cd bc 2a a4 69 3c
       0.009108996 -1.4033688 -0.025122821 0.014260331
000170 2e 00 c3 3d 51 ff 02 c0 57 c8 b8 3a 78 43 be 3a
       0.09521519 -2.0468333 0.0014097792 0.0014515957
000180 8e 72 10 3c a4 fc 09 3f f9 3d da bf 6b a7 7d 3e
       0.0088163745 0.53901124 -1.7050163 0.24770896
000190 ef a4 9b be 44 82 87 be 0f 88 a1 3e 99 c5 44 bf
       -0.30399272 -0.26466572 0.31549117 -0.7686401
0001a0 9a 0d d4 3b c5 39 ad 3e 12 83 a6 3e ea 4d 86 bf
       0.006471348 0.33833137 0.32521874 -1.0492527
0001b0 0a 78 ab bf 0b 53 76 bc 92 af d2 3f 75 2b 10 bc
       -1.3396008 -0.015034447 1.645983 -0.008799423
0001c0 4e c6 95 3e a9 fb d0 bb af ab b6 3e 61 cd 7e 3e
       0.29252857 -0.0063776565 0.3567786 0.24883033
0001d0 b6 61 21 3d 7a 2f eb 3b 06 5e a5 3c 54 d9 45 be
       0.039399825 0.0071772905 0.020186435 -0.19321185
0001e0 3c 38 ae bf 9b c9 83 3e 88 65 43 3d c1 50 9e 3e
       -1.3610911 0.2573975 0.04770425 0.30920985
0001f0 e8 1b 34 c0 dd 1e 67 3e f3 7e a8 3e 83 d0 7b bc
       -2.8142033 0.22570367 0.32909355 -0.015369537
000200 c0 2e cc bf 45 3b 56 3e db 0b 1a bf 8c ca 79 3d
       -1.5951767 0.20921047 -0.6017434 0.06098418
000210 54 5a 8e 3e 29 92 30 bf 79 31 ad 3e 28 56 44 bc
       0.2780329 -0.6897302 0.33826807 -0.011983432
000220 68 7b 88 3e 97 2d f1 3f c5 2a 07 bb 8b 26 f3 3b
       0.26656651 1.8842038 -0.0020624858 0.007420366
000230 90 b0 ad 3e 69 4e d7 3b d9 92 b4 bf e2 b4 19 bf
       0.3392377 0.0065706265 -1.4107314 -0.6004163
000240 ca 9f e4 3c 80 54 98 3e b2 94 9a 3e 1f 08 bb ba
       0.027908225 0.29751968 0.3019157 -0.0014269388
000250 8b ca e0 ba ab 2a 77 bd 10 20 83 bf a6 3a 34 3e
       -0.0017150206 -0.060343426 -1.024416 0.17600498
000260 5c 00 ff be 5e 59 a2 bc f9 59 5d bf f5 41 06 3b
       -0.49804962 -0.019818004 -0.8646541 0.002048609
000270 85 a1 42 3e ed bc 9a bc 9b 75 7d bc 46 87 02 bf
       0.19006927 -0.018888915 -0.015469934 -0.5098766
000280 4e 0d 24 ba 6e 2c 42 3e c6 44 af bf e6 eb d8 bf
       -0.0006258086 0.18962261 -1.3692863 -1.694699
000290 b9 25 8a bf 7f 57 be 3f c4 39 f0 3d 57 77 b9 3c
       -1.0792762 1.4870452 0.11729768 0.022639913
0002a0 4b 13 f1 3c 1e de 28 3d d3 44 9d 3e 51 d4 e3 bf
       0.029428145 0.041227452 0.3071657 -1.7799169
0002b0 8c 21 f8 bb 8a 83 9f bf ce 7e a7 bf dc 2e ff bf
       -0.0075723585 -1.2462018 -1.3085573 -1.9936175
0002c0 e2 b6 8a 3f 19 50 89 3e f4 1e 77 ba 56 33 88 3e
       1.0837061 0.26818922 -0.00094269146 0.26601666
0002d0 ef 90 32 bf 4c 50 04 bb e9 cb ae 3e 6e a2 86 bf
       -0.697524 -0.0020189462 0.34139946 -1.051832
0002e0 55 67 ef be 20 48 6f bf 8d 92 7a c0 6b ce b1 bf
       -0.46758524 -0.9346943 -3.9151947 -1.3891119
0002f0 d3 45 f0 3c 6b 8b 62 3e 84 72 fa 39 7d 3b 78 3e
       0.02933017 0.22123496 0.00047769037 0.24241443
000300 00 a9 bf 3e 58 d2 b2 3e ae c1 ad 3c d5 e2 33 c0
       0.37433624 0.34926105 0.021210518 -2.8107197
000310 87 f6 12 3f 51 bf 8b 3f e2 75 62 bd 09 ba 36 bf
       0.5740742 1.091776 -0.055288203 -0.7137762
000320 f3 08 32 3e de 85 62 bf 54 89 7f bf be ef a2 3e
       0.17386226 -0.88485515 -0.9981892 0.31823534
000330 80 a3 ab bf 42 88 ed 3c 9a 10 ac 3e a0 77 fe 3e
       -1.3409271 0.028995637 0.33606416 0.49700642
000340 a8 38 4b bf 82 00 db 3b cd b1 a6 bf 21 73 81 3e
       -0.79383326 0.00668341 -1.302301 0.2528315
000350 31 42 ca be a2 b3 18 3e 40 47 ca ba d1 f5 c3 3e
       -0.39503625 0.14912274 -0.0015432611 0.3827348
000360 77 3d 3f 3d e0 7d 1a be ac 2a 76 bf e5 72 2f c0
       0.046689477 -0.1508708 -0.9615886 -2.7413876
000370 d7 aa bf bf 60 be e0 3c 1b 3a 70 bb be 44 a7 bf
       -1.4974011 0.027434528 -0.0036655727 -1.3067853
000380 56 00 0a 3f 11 f2 17 3b f2 24 5d 3b 3a a7 a5 be
       0.5390676 0.0023185054 0.0033743945 -0.32354146
000390 da 3e d1 38 93 93 fb bb 1b dd f2 3c 0c 82 8e 3e
       9.9776036e-05 -0.0076775043 0.029646447 0.27833593
0003a0 5f c7 d3 bf 60 83 8c 3e ae 88 6a 3e d8 8e b3 bb
       -1.6545218 0.2744398 0.22903702 -0.005479675
0003b0 90 7d 2f bf 8f 46 80 3e 67 45 33 3c 81 dc a5 3e
       -0.6855097 0.25053832 0.01094184 0.32394794
0003c0 e3 79 33 3f cc 96 84 bf 30 09 18 3e 59 3a 91 3e
       0.7010786 -1.035852 0.14847255 0.28364828
0003d0 6c 72 d8 bf d3 ee 85 3e 5f 42 aa bb 6e ae b2 bf
       -1.6909919 0.2615877 -0.0051959003 -1.3959482
0003e0 a3 d8 82 3e 81 a9 5c 3c a1 b4 41 bf 00 3c 60 3e
       0.25555906 0.013468147 -0.7566624 0.21897888
0003f0 f7 68 be 3c 5b d2 f9 3c 04 3b 7d b9 d1 4b d6 3c
       0.02324341 0.030495813 -0.00024149945 0.026159199
