SAC_own_hardcore/sac_500/critic_1_sac.pth (torch, 531386 bytes, 5 tensors)

fc1.weight f4 [400, 28]
00000000: 66be 95be e82b e8bf ddca a93f 89eb c2be
00000010: e612 48bf 2be7 213e be3c 45bf db00 313f
00000020: e0c7 02be a443 483f 621d 2bbd 20c8 4a3e
00000030: 7263 9d3e 9334 713d 60bc d33e 2bcc f73c
00000040: 85b4 863d 73f7 e83c b54c bbbd f443 a53a
00000050: 044e f33c 9286 493e 0df3 e63d e5cc 6bbd
00000060: 0af9 303e e839 613e 9f69 833e d5ec 98be
00000070: 2ac4 12be 8a9a 67be 80c1 0a3f 0d3e da3e
00000080: a954 8e3b 38f6 603d be05 903d c207 30bf
00000090: b1a4 ff3c 921b 113e 71fc 0cbe 66fa 2e3e
000000a0: 35b1 d4bb efc7 a8bd 8f2e 0dbe fd0b 053e
000000b0: 78e4 483e 418a 9a3e f58f 933d ecad f3be
000000c0: 328d 72be 417e 913d d4d0 603e 409c 9a3d
000000d0: c2cb 593c 4f86 14be 1d06 a9bc 3902 b33d
000000e0: 91d6 7b3e 06f4 6fbe 5ed5 b33e 51ba 7ebe
000000f0: c8c9 763e a25e 2abf 20b6 c7bd 1fe9 b03d
00000100: bfa7 06bc 872c febc 727d 99be 8374 833e
00000110: 2d53 14be fda6 27bd d7df 483e 5bf7 cc3e
00000120: e00a 763e 4aa1 a13d e7f8 583e a7d4 2c3e
00000130: 4506 953e 4566 883e 86b6 e83d f245 a73e
00000140: efb7 36bd 2579 103d e575 0bbe 4ff7 a0bd
00000150: 3057 d7be 5637 39bf bf53 a83e 54c0 153f
00000160: 070e 29bc c5df 35bf 9b93 02bf 6c26 103f
00000170: d870 3bbf b0b9 603e 0239 593e 4a5a 02be
00000180: fc4f dd3e 9adf cc3e 13db 76bd 57c6 333e
00000190: 3561 94bd d4a2 113e e969 0b3e ac20 61be
000001a0: 67f8 afbc 29d5 f53c 21d3 d6bd efa9 d3bd
000001b0: d187 2cbf 1112 223b 506f f93e b4c4 43bd
000001c0: 0927 74bc b4d8 8bbf b8c9 963c 11f5 263e
000001d0: 02d5 29bc f1a1 2c3e cb19 0d3c 4413 3b3b
000001e0: 4dad 2b3e 494f 813d 2751 7a3c 2025 31be
000001f0: 714e 123d 9c1d 393c cd90 583e d539 01bd
00000200: da30 04be 56e2 26bb c375 20be 08f4 003e
00000210: 2156 253e 7ed3 603e 5927 bb3d dfa9 ab3c
00000220: cdcb 2d3c 1914 8bbe a70f 673e 0bac bc3c
00000230: 46d2 a7bf 673d 22bf d818 14be a1fd 9bbd
00000240: 08ea ea3e 752a 183f c8b0 73bc 314f 5f3e
00000250: 747a 63be 0973 3f3f 0ad3 a03c 591f 9dbe
00000260: 1a13 5d3e a666 1fbd cc22 293f 4d9a 723f
00000270: 2bda 4b3f 0717 d23e 193c 95be 9ac4 15bf
00000280: a869 2fbf eabc 85bf 18cd 7ebf 902d 32bf
00000290: c2e4 9a3e 4e1a f13d 76cd fb3d bdc9 ddbd
000002a0: 96b4 ea3e 9592 543f d9ac 46bf dd02 e73e
000002b0: d55c 583e 2a00 65bd 5808 a0be 5c8c f6bb
000002c0: e25c 883d a410 f8bd 48a1 a93d d37d 92be
000002d0: 4f94 0abe d776 16bc d278 983e 902e ce3d
000002e0: 1a70 bdbc 2956 7a3c c8fc 50bd 446b 783e
000002f0: 3166 a33d 7164 053e 0f4a af3e 1437 a53d
00000300: be6d 733d 0fdf a8be 170f 023e e46e 8a3e
00000310: 37d9 85bc 007f 2ebf 0215 863f dc89 a1bf
00000320: 2ff6 3ebf 2188 bebe 2264 c4bb 2132 573e
00000330: 3cee 743e a420 3bbd bef9 72be fd48 eebd
00000340: 4299 103e e4fe f1be b4ef 203f 4491 843e
00000350: 9088 563e 91a2 65bd 0620 cabd 45e5 4abe
00000360: 7963 573e 9393 bd3c 40d0 8f3c 2d1f e03d
00000370: ba22 0e3f 6261 ba3e 9851 17bf 9c5c b33d
00000380: 5809 97be b7a4 0dbf 135f 2e3f 8d3e 90bf
00000390: 34df 83be 1887 683d 6f83 4e3d 8165 1dbe
000003a0: 9f99 4c3e 5592 42bf 76ae 6a3e 4455 00be
000003b0: f4c4 0a3d 0684 a53e 6045 16be 6983 01bc
000003c0: a74d 70be f30b d8be ad49 66be 3354 82be
000003d0: 6bbc 84be cf6f a4be e4a7 f0bd 0034 40be
000003e0: 5e59 cfbc f998 f03d dcc1 673e cbe2 0dbe
000003f0: d559 003f 7bd6 4240 4eda d4be 9b7e 9bbe
-0.29246825 -1.8138399 1.3265034 -0.38070324 -0.78153837 0.1581084 -0.7704581 0.6914193
-0.12771559 0.7822821 -0.04177607 0.19802904 0.30739933 0.05888803 0.41354656 0.030248722
0.065774 0.028438305 -0.0914549 0.0012608753 0.029700287 0.19680241 0.11276827 -0.05756845
0.17282501 0.21994746 0.2566652 -0.29868189 -0.14332643 -0.22617546 0.5420151 0.42625466
0.0043435884 0.054922312 0.07032345 -0.6876184 0.03120646 0.14170673 -0.13768174 0.17087707
-0.0064908513 -0.08241259 -0.13787292 0.12992854 0.19618404 0.30183604 0.07205192 -0.4759363
-0.23686674 0.07104159 0.21954662 0.075493336 0.013293209 -0.1450436 -0.020632798 0.08740658
0.2459357 -0.23432931 0.35123724 -0.24875762 0.24100411 -0.6655065 -0.097515345 0.08638214
-0.008218705 -0.031027092 -0.2997852 0.2567483 -0.14484854 -0.040930737 0.19616638 0.40032467
0.24027586 0.078920916 0.21188699 0.16877995 0.29106346 0.26640525 0.113629386 0.32670552
-0.044609006 0.035271782 -0.13619192 -0.0785967 -0.42058706 -0.7235006 0.32876393 0.58496594
-0.010318286 -0.7104457 -0.5100648 0.5630863 -0.7321906 0.21945834 0.21213153 -0.12729755
0.43225086 0.40014344 -0.06026752 0.1755613 -0.07245103 0.1422227 0.1361462 -0.2198512
-0.021480752 0.03000887 -0.104894884 -0.10335147 -0.6739474 0.0024730007 0.48717737 -0.047795013
-0.014901885 -1.0925508 0.018406734 0.16304423 -0.010365726 0.1685865 0.008612107 0.0028545419
0.16765328 0.063139506 0.015278137 -0.17299318 0.03571934 0.011298563 0.21148987 -0.031549294
-0.1290926 -0.0025464497 -0.15669923 0.1259309 0.16146137 0.21955678 0.09138364 0.020955024
0.010607672 -0.2716377 0.22564565 0.023031255 -1.3111045 -0.6337494 -0.14462602 -0.07616735
0.45881677 0.59439784 -0.014873691 0.21807553 -0.22214681 0.74784905 0.019631881 -0.3068798
0.21589318 -0.038916253 0.6606872 0.94766694 0.7962977 0.41033193 -0.29147413 -0.58503115
-0.68520594 -1.0448277 -0.995317 -0.6960077 0.30252653 0.11772595 0.12295048 -0.10829494
0.458409 0.83036166 -0.77607495 0.45119372 0.21129163 -0.05590836 -0.31256366 -0.0075240564
0.06658341 -0.12112549 0.08282715 -0.2861162 -0.13533138 -0.009183607 0.2977968 0.10067475
-0.023124743 0.015279331 -0.05102232 0.24259669 0.07978476 0.13026597 0.3423619 0.08067146
0.05943083 -0.3298268 0.12701069 0.27037728 -0.016338928 -0.68162537 1.0475161 -1.2620196
-0.74594396 -0.37213233 -0.005993382 0.21015216 0.23919004 -0.045685425 -0.23728082 -0.11635015
0.14120963 -0.4726478 0.6286576 0.2589208 0.20950532 -0.05606324 -0.09869389 -0.19814022
0.2103404 0.023141658 0.017555356 0.10943446 0.5552174 0.36402422 -0.5910888 0.08757898
-0.29499316 -0.5532946 0.6811382 -1.1269089 -0.25756228 0.05676946 0.050418314 -0.15370752
0.19980477 -0.76004535 0.22918114 -0.12532526 0.033879235 0.32327288 -0.14674902 -0.007904866
-0.23467122 -0.42196617 -0.22489043 -0.25454864 -0.25925002 -0.32116553 -0.117507726 -0.18769836
-0.025311168 0.11747927 0.22632545 -0.13856046 0.5013707 3.0443408 -0.41572803 -0.3037003

fc1.bias f4 [400]
00000000: a7b5 8c3e 3eaf 8b3e c4e5 713d f4a0 863d
00000010: 1d40 883d c0d7 03bf 5818 783d 94bf 3a3e
00000020: 37f5 bdbc cfa5 53be 94da 76be 5ea3 aebc
00000030: 2c57 be3d dcb0 6b3f a1b6 5bbe 6e20 a53e
00000040: 1729 963e 8120 fbbd 521e 013e 5a23 f83d
00000050: 1b3b 2f3e 7966 e4bc cd94 0f3e 32d8 2f3f
00000060: 43e1 4fbe cb96 943d aae3 a23c 6e24 c63e
00000070: 182e 523e a5f0 2b3f d0b4 f7bc 3b8e 603e
00000080: ceb1 3abe 805c 0f3e 2b57 01be feac 82be
00000090: 4210 45be 7b15 7bbe e748 1a3e 0996 473e
000000a0: 6ce6 69be d013 e9bd a40c ab3e 5ef2 6cbe
000000b0: 1d02 843d 8834 03be 333a f9bd ecd0 a33e
000000c0: 71fd e53e 7437 d33e e97f 723e d001 343e
000000d0: d164 463e 51fc c73e a37c adbd 7a7b 4cbd
000000e0: a0e2 2dbe 4de1 d93d c3a0 4cbd ee24 ad3d
000000f0: 0127 343e 7402 17bd 9196 7e3e 8412 e4bc
00000100: c1f6 103f 5793 74be 9509 953e 28e0 1dbe
00000110: f9fe 863e a276 b6bd d633 063e 770d 88bd
00000120: d59d 243d 68ef c2bc e564 8b3e e4e2 8f3d
00000130: c638 3f3f 759e a93d dd2f 50be 5836 8e3a
00000140: 9d39 b0bd 6be2 323e 4184 46be 435a 24be
00000150: c316 bdbe 2c92 2d3f aaa0 cc3d e112 133f
00000160: ecfa 063f ea35 7b3e 3caf 8d3c 8f4d 0cbe
00000170: e9f5 4f3e b6cc aebe f472 9c3e 5ddc a8bd
00000180: 35f9 e7be ae22 a43c 8805 5d3d a5e9 a4be
00000190: 3dac a23d 974a f03d b62c 8d3c ed07 a53e
000001a0: 5bc3 3b3e 7701 f9be d01f ecbd 9184 3fbe
000001b0: 45df ac3e a7c1 a63e 4e99 a23d c6a1 1d3e
000001c0: 6a64 213f dbfc 633e b54d ce3c 1bba 603e
000001d0: 62b4 02be 0815 8ebe cac5 f0be 999e 5e3d
000001e0: cade e63e f220 3c3e 02ba 5e3d 8684 93be
000001f0: d386 153f 30f8 9fbe 5a84 be3e 7f64 b43d
00000200: 92dd 1bbe 057b 483e 843a e43e 4002 82bc
00000210: a40c 2ebe fb37 a03c 3ad1 cc3e c5c8 00bc
00000220: b0bf 8cbe 7754 d9bd e75a 67bd 003b b7bd
00000230: e04c d03d c270 b6bb 938a 00be 6770 a1bd
00000240: 5d8c 7dbd 5608 1dbd 2821 373f ef36 ae3d
00000250: 2695 e23d 0be7 33bd 052e ba3e 42e7 153e
00000260: 55b2 e73e c1a7 273d 09cb 823e c87b 47bd
00000270: 6224 433e 33a0 213e fd6d f3be f602 6fbe
00000280: 7b4a 663e f576 8bbe 98bc b3bd 5832 8f39
00000290: 5bd5 c8bd 8063 e3bd 70b5 04be d4a0 fe3b
000002a0: 2b3c 1f3f b4e5 063e ec63 8f3e 442f 05be
000002b0: b42c f23d 73b4 5c3b 136f 88be 6adb 723e
000002c0: fe52 123e 4f2e 68be f7f8 8dbe a162 e23d
000002d0: 9519 033e cafa 2e3e f510 1d3f 524c 75bc
000002e0: 81f2 99bd 2272 1abe 358d be3e 0370 a6bd
000002f0: e9a4 21be 7152 c7bd 89db b43e b30d 213f
00000300: 23d0 28bc c7bb c93e 3960 fb3d d1f0 f13c
00000310: 9172 57bd 9aab 193e c233 f9ba 0720 a43d
00000320: 878d 53be 378a 753e 2658 a53e 4d56 2bbe
00000330: b275 dd3d d279 b2be d86b 823c 46d5 303e
00000340: 0dce 29bf 222c dd3d 0c11 743e edb2 1c3d
00000350: 1f53 923e 3220 503d c6b8 353b 5364 c1be
00000360: 8181 1ebd c902 0e3f 140d 233f f145 e4bc
00000370: d3b6 383e e911 c7be efb4 c93d 4b39 273f
00000380: 845d d83e 8fe3 813e cb5e 963e 40fc 273d
00000390: f0d3 dd3d a748 613e e2f4 833e 2d06 2f3e
000003a0: 3553 3dbe e732 1e3f 9d3b efbd e066 173e
000003b0: e9d1 00bd c34b 123e f92b 20be aebe 583d
000003c0: 02c4 143e 107e 093e 54c9 693e 0649 34be
000003d0: 2cde abbe 4254 e93e 5295 72bc 8b64 1c3e
000003e0: 3751 a83d 79ca 0f3f 0fd9 b6bd 78c2 9f3e
000003f0: 7c43 ecbd 1e87 123f 53ff 263f 826b 6b3e
0.2748234 0.27282137 0.059057012 0.06573668 0.06652854 -0.51501083 0.06057009 0.18237144
-0.023188217 -0.2066872 -0.24106818 -0.021318134 0.092939705 0.9206674 -0.21456386 0.32251304
0.29328224 -0.12262059 0.12609223 0.12116118 0.1711239 -0.027880894 0.14021607 0.6868926
-0.20300774 0.07255324 0.01988395 0.3869967 0.20525396 0.6716407 -0.030237585 0.21929257
-0.1823189 0.1400013 -0.12630908 -0.25522608 -0.19244483 -0.24519913 0.15066873 0.19490828
-0.22841805 -0.11380732 0.33408082 -0.2313933 0.064457156 -0.12813008 -0.12169304 0.31995332
0.44919923 0.41253245 0.23681606 0.17578816 0.19374396 0.3905969 -0.08471038 -0.049922444
-0.16980982 0.10638676 -0.049958 0.084543094 0.17593004 -0.036867574 0.24862124 -0.02784086
0.56626517 -0.2388433 0.29108873 -0.1541754 0.26366404 -0.08909346 0.13105711 -0.06643193
0.040189583 -0.023795798 0.27225414 0.07025698 0.74696004 0.082821764 -0.20330758 0.0010849936
-0.08604739 0.17469184 -0.19386388 -0.16050057 -0.36931428 0.67801166 0.09991582 0.5745068
0.52726626 0.24532285 0.017295472 -0.13701461 0.20308651 -0.34140557 0.30556452 -0.08245156
-0.45307317 0.020036068 0.053960353 -0.32209507 0.07943008 0.11732977 0.017233234 0.3223261
0.18336241 -0.4863393 -0.11529505 -0.18702914 0.3376409 0.3256962 0.07939397 0.15393743
0.63043845 0.22264425 0.025183538 0.21945994 -0.12764123 -0.2775042 -0.470259 0.05435047
0.4509185 0.18371943 0.05437661 -0.28812045 0.5840885 -0.3124404 0.3721035 0.088082306
-0.15221241 0.19578178 0.44575894 -0.015870214 -0.1699701 0.019557944 0.40003377 -0.007860367
-0.27489996 -0.106118135 -0.056483176 -0.089468 0.10170913 -0.005567641 -0.12552862 -0.07882767
-0.06190144 -0.038338028 0.7153497 0.085065715 0.11063604 -0.04392151 0.36363235 0.14638999
0.45253244 0.040931467 0.2554553 -0.04870203 0.19056848 0.15783767 -0.47544852 -0.23340973
0.2248935 -0.27239195 -0.08776206 0.00027312594 -0.09806319 -0.111029625 -0.12959838 0.007770637
0.62201184 0.13173562 0.28005922 -0.13006312 0.11824933 0.0033676892 -0.26647243 0.23716512
0.14289472 -0.22673915 -0.27729008 0.11053968 0.12802728 0.17087856 0.61354 -0.014971809
-0.07516957 -0.150826 0.37217107 -0.08126833 -0.15785564 -0.09732521 0.35323742 0.6291153
-0.01030353 0.39401075 0.122742124 0.029533776 -0.052599493 0.15006867 -0.0019012617 0.08013921
-0.20659457 0.23978506 0.32293814 -0.1673214 0.10813464 -0.34858567 0.015920565 0.17268857
-0.66330034 0.10799433 0.23834628 0.038256574 0.2857904 0.050811954 0.0027728542 -0.37771854
-0.038697723 0.55473 0.6369183 -0.027865382 0.18038492 -0.38880852 0.098489635 0.653218
0.42258847 0.25368926 0.29369196 0.04101205 0.108314395 0.22000371 0.25772768 0.170922
-0.18488772 0.6179642 -0.11681292 0.14785337 -0.031450186 0.14286713 -0.15641774 0.05291622
0.14527896 0.13426995 0.22830707 -0.17605981 -0.3356794 0.45572096 -0.014806109 0.15272729
0.082186155 0.56168324 -0.089281194 0.31203055 -0.11536309 0.5723742 0.65233344 0.2299023

fc2.weight f4 [300, 400]
00000000: fb69 57bd c234 8fbc d1cb 6bbd ab90 2bbc
00000010: cc26 d13b b686 90bc 3496 46bb a34b 003d
00000020: bef2 70bc ad46 203d 9bb6 4d3c db49 aa3c
00000030: 6896 14bd b750 ba3c e967 b6bc 04a1 23bd
00000040: d959 bfba 6cf8 27bc 1471 babc 207b d3bc
00000050: 4a07 42bc 4a35 13bd 54b1 0d3d ba4b 4abd
00000060: b276 063d b047 51bb c0a6 1d3a 45b0 e33c
00000070: b0ba 7f3b 5197 e23c 80d8 23ba 6dca 8d3b
00000080: adb6 71bd 2378 c2bc dddb 1d3d 0d00 62bd
00000090: ec5f 293c 935d 49bc 1083 603c 25fb 4dbd
000000a0: 2efa bd3c 3caf 80bc 55d7 42bc 98a1 f03b
000000b0: 58df 13bc e53d b1bc 98ff b03b 121d 873a
000000c0: 0e9b ffbc 26ad 08bc 8984 cf3a 0a13 873c
000000d0: becd 033c 370f d73c b2b7 e83c 2708 97bb
000000e0: eebe ad3b cc61 2d3c 4e81 b7bb b5ae 9f3c
000000f0: 42a0 30bd aa5d 78bd 5c1a 563c 87d3 40bd
00000100: 9bf8 95bb 3d8f b4bc 5b5c 83bd b72e c5bc
00000110: 4c35 783c a816 973b 840f 503c 8067 3cbd
00000120: 2107 3b39 2171 28bc 942e 9cbc a2b8 023c
00000130: ebed cb3b 63d1 093d 317f 443d 7343 f23c
00000140: 707b 5ebd 28ca 3fbd a9a0 1cbd c1f6 92bc
00000150: 5d81 a83c 201e 79bd 8d81 dbbc 3459 6abc
00000160: 0613 cfbc c0d7 c0bc 3d6e dbbc daac 75bc
00000170: 1c39 83bd af41 443b f65b a9bc c151 a7bc
00000180: 3afc 27bd daf1 9d3c a730 323c 81b9 24bd
00000190: 2cc4 533c d326 62bd b313 d93c 6612 07bd
000001a0: 78a5 bc3c 96e8 81bc 2742 cfbc 4edd 0f3c
000001b0: 16d6 f9ba be49 7abd 27f1 f6bc dc6f 5bbd
000001c0: 2c08 44bd f275 fd3c a8b6 49bd 39ca 29bd
000001d0: 79a6 98bc 8057 2dbd 789f 593c dd9c 0f3c
000001e0: 7348 60bd f22f e3bc c802 25bc 208a 15bc
000001f0: 2fda 1fbd f89e 833c ea69 b5bc ec1a 313d
00000200: 00bb 2cb9 9668 f2bc 9ce7 47bd 6e5a 27bd
00000210: 053e 53bd 3843 36bd 5a49 83bc fdd1 0e3d
00000220: b0c7 9abb 9d6c 2fbd 99c8 08bd 7e31 b6bc
00000230: 240f 893b 8796 53bd d6d3 9f3c b41a eebc
00000240: d75c 29bd 0b9b 23bb 4921 e5ba 1b16 893c
00000250: 5eeb e43c 8c29 62bd bb51 563b caee 993c
00000260: f787 4abd 98de 393c 75ae 5fbc 979c adbc
00000270: 95cd 003d 2b3b 2abd d563 50bd f324 e4bc
00000280: b713 a5bc 63ab 16bd f052 0dbd c9ed f73b
00000290: 324b 863c 1a4e b03c 3822 c6bb 7f3c 433b
000002a0: 8397 543b d7a7 2b3c f938 cb3a 0048 7d3a
000002b0: f260 e6bb f8ae cd3c 6f19 2ebd 6e3f 913c
000002c0: e95b 9eba ab7f 88bc c3c2 423d d0c2 823c
000002d0: b1e3 cb3c e63e 06bd 3f87 28bc fc4d 0dbd
000002e0: 6153 943c ecc4 e7bc 032c 47bd 326b e8bb
000002f0: 947f 98bc 80c6 173d e0aa 28bd ac74 793c
00000300: 8a68 ddb9 5cda cd3c 4d6d 763c 3cf8 c53c
00000310: c1ac 23bc b4ac 453c 84bb 8c3a d756 cb3c
00000320: 138b 32bd be21 153d 9830 3cbd 8f1c 39bd
00000330: 959d 13bd 8a01 d73c ae81 083d 419a 38bd
00000340: 98ed bb3b efe1 b7bc 38b5 0bbd 46c0 17bd
00000350: 000a fd3c 7a57 57bd 509d 7e3b 04c8 7c3c
00000360: 98ba 0dbd f76c 50bd 7abc 5dbd 7f89 1f3d
00000370: 4529 183d 25b5 75bc 6397 23bd 929e 533c
00000380: ebec 6dbd 6266 e03c 3233 c53c 2745 f63b
00000390: f572 0dbd db08 ca3c d51d a33c bf11 333c
000003a0: ee34 143c 4eba 58bd 07c3 c2bc 3130 46bd
000003b0: 35ba 07bd 238c 203d 74b6 dabc b8bc eb3c
000003c0: d03f 1abd 97a3 d73c 0127 82bd 50cb df3b
000003d0: fafc 61bd 8147 fc3b fca8 4bbd 206d 9dbc
000003e0: 9e79 103d f58d 373c c357 90bc 2bb7 303c
000003f0: 3d37 27bd 3aad 57bd 4d2d 19bd 673b a7bc
-0.052591305 -0.017481212 -0.05756742 -0.010471503 0.006382799 -0.01764236 -0.003030193 0.031322133
-0.014706312 0.0391299 0.012555744 0.02078717 -0.03627625 0.022743566 -0.022266345 -0.03994848
-0.001459892 -0.0102520995 -0.022758998 -0.025815547 -0.011842558 -0.035939492 0.03459294 -0.049388625
0.03282804 -0.0031933598 0.00060139224 0.027794013 0.0039021187 0.027660044 -0.00062502176 0.0043271095
-0.059012104 -0.023738926 0.038539756 -0.05517583 0.010337811 -0.012290376 0.013703123 -0.05028834
0.023190584 -0.015708558 -0.0118921595 0.007343482 -0.009025417 -0.021635959 0.005401563 0.0010308346
-0.031201866 -0.008342063 0.0015832345 0.01648857 0.008044658 0.026252372 0.028407905 -0.004609126
0.0053023016 0.010582399 -0.005600131 0.019492486 -0.043121584 -0.0606362 0.013067808 -0.04707673
-0.004576755 -0.022040958 -0.064141 -0.024070127 0.015149426 0.004610855 0.012699012 -0.045997143
0.00017836365 -0.010280878 -0.019065179 0.00797859 0.0062234304 0.033646952 0.04797286 0.029573178
-0.054316938 -0.04682365 -0.038239155 -0.017939927 0.020569498 -0.060819745 -0.026795173 -0.014303494
-0.025277626 -0.023540378 -0.026785964 -0.014994824 -0.06407377 0.0029946377 -0.020673733 -0.020424725
-0.041012026 0.019280363 0.010875857 -0.040215973 0.012925189 -0.055212807 0.026498651 -0.03297653
0.02302812 -0.015857976 -0.025300099 0.0087807905 -0.0019060995 -0.061105482 -0.030144287 -0.053573474
-0.047859356 0.03094003 -0.04924646 -0.04145262 -0.018634068 -0.042319775 0.013282649 0.008765426
-0.054756593 -0.027732823 -0.010071464 -0.00912717 -0.039026435 0.016067013 -0.02214523 0.043238565
-0.00016472861 -0.029590886 -0.048804864 -0.040857725 -0.05157282 -0.0444977 -0.016026188 0.03486823
-0.0047235116 -0.04282819 -0.03339443 -0.022240397 0.004182713 -0.051657226 0.019510191 -0.029065467
-0.041348305 -0.002496424 -0.0017481233 0.016734174 0.027944263 -0.055215403 0.0032702524 0.018790621
-0.049446072 0.011344574 -0.013652434 -0.021192832 0.03144606 -0.041560333 -0.050876457 -0.02784965
-0.020151002 -0.03678454 -0.034502923 0.007566188 0.016393278 0.021521617 -0.0060465597 0.0029790697
0.003243894 0.010477028 0.001550465 0.0009661913 -0.0070305998 0.025107846 -0.042504724 0.017730441
-0.0012081835 -0.01666244 0.04754902 0.015962034 0.024888845 -0.03277483 -0.010286151 -0.0344982
0.018106164 -0.028292142 -0.048625957 -0.007092857 -0.018615521 0.03705454 -0.041178584 0.015225571
-0.00042230292 0.025128536 0.015040708 0.024166219 -0.009989918 0.012065101 0.0010737036 0.024821682
-0.043589663 0.036409132 -0.04594478 -0.04519325 -0.036038954 0.026245851 0.033326797 -0.045068983
0.0057351105 -0.0224466 -0.03410837 -0.0370486 0.030888557 -0.05257366 0.003885109 0.015428547
-0.034601778 -0.050885167 -0.054134823 0.038949486 0.037148733 -0.0149968015 -0.039939296 0.012916224
-0.05808727 0.02739257 0.024072263 0.007515568 -0.03453346 0.024662426 0.019911686 0.010929524
0.009045823 -0.05291205 -0.023774637 -0.048385803 -0.033136565 0.039196145 -0.026698329 0.028776512
-0.037658513 0.026323123 -0.06355096 0.0068296567 -0.055172898 0.0076989536 -0.049721703 -0.019217074
0.035272233 0.011203279 -0.017619973 0.010785858 -0.040824164 -0.052655436 -0.037396718 -0.020414067

fc2.bias f4 [300]
00000000: 6678 72bd 1ccb 4e3e b24f 913e 3a49 893e
00000010: 0611 6a3e 968b 9b3c db7e 793d 84a4 363e
00000020: 17e5 b03c 713b 713e a783 0d3e f4b9 2a3e
00000030: 8316 18bd d565 843e 119d d63d c051 053b
00000040: 9a55 1a3e f398 d83d 6f1e 153e e170 893e
00000050: f27b 473e b283 78bc 72db 16bd 8965 683e
00000060: e176 553e c55a 08bd 577f f83d 6176 0e3e
00000070: 0ea0 c83d 810e 763e d7be 0abe e7fd 623e
00000080: 19c7 663e e5bd 513e b2a8 b33d db07 7a3d
00000090: f21a 2a3d 3287 87bd 7aa6 803c 3b82 f53d
000000a0: aae5 9d3e 92bc f83b e63b 583e 58da 0f3e
000000b0: 2043 1a3d f55f 3a3e f300 833e 7d47 1b3e
000000c0: 6e7a 0b3e 3a00 fdbc 0c34 713d 6e64 883d
000000d0: 4ea5 a13b b9bc 0d3e a724 553e f624 a7bb
000000e0: 84cb 793d 4c69 4b3e 6b94 8a3e d6c3 5e3e
000000f0: cf48 1a3e abe6 e63d 4c39 3f3f c120 453e
00000100: d720 6dbd 5ffe d43d e37c 873d bf3a 023d
00000110: 0b5b 313e 8876 7c3e 9033 313e 7af2 db3d
00000120: 7e58 0c3e ef18 a3bc 006f cd3d fc30 183e
00000130: 110e 603e 7aa3 4b3e a686 863e 8705 513e
00000140: 88e9 fa3d 8ec6 103e 4b91 963d 666f 1a3e
00000150: 01ba 683e 5e95 213d c224 283e b65b 4ebe
00000160: 52a5 013d 5e00 cf3d 4c86 843d 456e 4c3e
00000170: fd11 2e3c 246c 213e ad4f 143e c63f 00bd
00000180: 1a07 493e 1db1 b53d 0c7d 23bd f8f6 1c3e
00000190: dbef 5dbd 40ac 0a3e 3888 663e 223b 373e
000001a0: ac68 8b3e b553 213e d11e a13d fcc9 503e
000001b0: 5b7e e5bd 8527 303e c36e e0bb 1220 ff3d
000001c0: 6d8b 203e 188c 363e 2aab 0f3e cab4 fa3d
000001d0: b041 ddbc ec71 f83d acea e63d 1109 0a3d
000001e0: 02a9 543e 7453 983e 4850 1a3e 1452 16bc
000001f0: ca8f 8e3e ad53 283e 38b9 053e 1aa8 003e
00000200: b1f1 1a3e 81c1 4a3e 6fe6 343e b17b 803e
00000210: a23c 4f3e 2318 65bd 3ba1 41bc 73ee 25bd
00000220: bb96 c8bc 8ac1 213e 293c b13d 6421 403e
00000230: 4956 2f3e 1e11 433e 43ad 8a3e 2f20 eb3c
00000240: 97d1 243e d008 2f3e ed55 973e 81f9 943e
00000250: 166e 20bd 4515 47bd 86f2 66bd 592f 9c3e
00000260: 887e ad3b 4cc2 b538 6542 c63c 4f35 193e
00000270: e02e 01bd 80b1 42bd de5a ef3d 69da 82bd
00000280: 2ff9 4f3e e064 1f3e 7fd0 523e 1d03 003e
00000290: 040b 47bd cc78 283e cfb1 fcbc 3a27 d03d
000002a0: 1308 633d 401f 953d a508 0c3e 563e e23d
000002b0: 1705 eb3d e1ab 613e 48c2 88bc f7cb 0abc
000002c0: 0ef5 153e a71a 4c3e fd9d 863e ea10 363e
000002d0: aa94 24bd 50a5 213e 6cfb 18bd 7b44 303d
000002e0: 7021 6b3e a30e 523e 3712 79bc 48c9 c3bb
000002f0: 376b 6f3e 95dd 463e c6ec 563e 0361 133e
00000300: 6b34 803e 69c7 2e3e fafc 80bc a188 713e
00000310: ffb9 263e 81b3 5f3e 9962 4e3e b7b1 1c3e
00000320: 5dcc 193e 84f4 7a3e 34fd 423e b35e 163e
00000330: 57db 183e 50cb 2d3e 0d95 023e 4174 ba3a
00000340: 2831 7d3e 7504 4b3e 2009 663e 832f c9bd
00000350: f2e0 0b3e 207f 4ebe 3731 783e e2d6 ea3d
00000360: 50ba ce3c 468c 363d 4e2f 943e 9656 113e
00000370: 39ad 4ebe 0b4b 723d 719e 913c 8c0e 8e3e
00000380: fcc5 233e 9f34 24bc c1e1 013e 2e8b 1b3e
00000390: b315 08bd 14f8 573e 5abd 783e 312f 3c3e
000003a0: f5b3 093e 8522 9b3d e18c 803e 02dd 783e
000003b0: e5cb 173e 3daf 0d3e 1d4d 4f3e 7ce1 913e
000003c0: f7b4 913e de91 a8bd 5466 3b3e 85cd e03d
000003d0: 88f6 e73c d291 c7bc 9665 28bd 5e9e 65bd
000003e0: f1e4 be3d 06cd fdba 1388 8b3c 033a 3dbc
000003f0: 0c2a e83d ec19 be3d 893f df3b 7c6c d63d
-0.059196852 0.20194668 0.28381115 0.2681368 0.22858056 0.018987458 0.060911994 0.17836195
0.021593614 0.23557831 0.13819753 0.16672498 -0.037130844 0.25858942 0.10479177 0.0020342916
0.15071717 0.10576048 0.1456239 0.26843932 0.19480875 -0.015168117 -0.036830373 0.22694983
0.2084613 -0.03328969 0.12133663 0.13912345 0.09796153 0.2402897 -0.13549362 0.22167169
0.22536887 0.20482595 0.087724105 0.061042648 0.041529603 -0.06617583 0.015704382 0.1198773
0.30839282 0.0075908387 0.211166 0.14048135 0.03766167 0.18200667 0.25586662 0.1516399
0.13620922 -0.030883897 0.058887526 0.066597804 0.004933036 0.13841523 0.20814763 -0.0051008416
0.060985103 0.19864386 0.2706636 0.21754393 0.15066837 0.11274465 0.74696803 0.19250776
-0.057892647 0.1040008 0.06615617 0.031794306 0.17319886 0.24654591 0.17304826 0.10739608
0.13705632 -0.01990935 0.10030937 0.14862436 0.21880366 0.1988658 0.26274604 0.20412265
0.12251574 0.14138243 0.07351931 0.15081558 0.22727205 0.03944909 0.16420272 -0.20152172
0.031651802 0.10107492 0.064709276 0.1996394 0.010624406 0.15763909 0.14483519 -0.03131082
0.19631615 0.08871672 -0.039914176 0.15328586 -0.054183822 0.1354227 0.22512901 0.17893651
0.27228296 0.15754588 0.07867206 0.20389551 -0.11205741 0.17202576 -0.0068491413 0.12457289
0.15678187 0.17826879 0.14030138 0.12241514 -0.027008861 0.12131104 0.11275229 0.033700053
0.20767596 0.2975117 0.15069687 -0.009174842 0.27844077 0.1643817 0.13058937 0.12564126
0.1513126 0.19800378 0.17666028 0.2509437 0.20237973 -0.05593122 -0.0118182255 -0.040510606
-0.024485936 0.15796486 0.08654053 0.18762738 0.17122759 0.19049498 0.27085313 0.02870187
0.16095577 0.17093205 0.29557744 0.29096606 -0.039167486 -0.04860427 -0.056383632 0.30504873
0.0052946247 8.666943e-05 0.024201581 0.14961742 -0.031538844 -0.04753256 0.116872534 -0.06389315
0.203099 0.15565825 0.20587347 0.12501188 -0.04859449 0.1645233 -0.030846504 0.10163732
0.055427622 0.07281351 0.13675173 0.11047046 0.1147558 0.22038223 -0.016694203 -0.008471481
0.14644262 0.19932042 0.2629241 0.1777989 -0.04018084 0.15785718 -0.03734915 0.043034058
0.22961974 0.20513396 -0.015202097 -0.0059749223 0.23380743 0.19420464 0.2098876 0.14392476
0.25039992 0.17068256 -0.015745629 0.23587276 0.1628189 0.21845819 0.201548 0.15302168
0.15019365 0.24507338 0.19041902 0.14684562 0.14927422 0.16972089 0.12752171 0.001422532
0.24725783 0.19825919 0.22464418 -0.09823515 0.13660029 -0.20165682 0.24237524 0.11466767
0.025235325 0.04456737 0.2894234 0.14193186 -0.20183267 0.059153598 0.017775746 0.27745473
0.15993494 -0.0100223115 0.12683775 0.15189812 -0.03322382 0.21090728 0.24290982 0.18377377
0.13447554 0.075749435 0.25107482 0.24303058 0.14823873 0.1383638 0.2024426 0.28492343
0.28458378 -0.08230947 0.18300754 0.109767 0.028315797 -0.024361525 -0.041112505 -0.056059234
0.09321011 -0.001936347 0.017032659 -0.011549476 0.11336145 0.09282288 0.006812994 0.104699105

q.weight f4 [1, 300]
00000000: 1aa2 043d d8af e03f 87cf 303f 4ec1 f83e
00000010: 5579 523f c7e1 10bc 7c09 8abe 5359 1a3f
00000020: 3155 a4be dbf4 f83e 668d 08bf a9e6 31c0
00000030: dd44 353d 9262 093f cb1c d3bf f823 14bb
00000040: e8ac bbbf 2e20 1d3f 6ef4 f9be ce20 263f
00000050: 060c d33e efe8 bc3b afc7 353c 2ab9 423f
00000060: a3bd f73e c9a1 3a3d b092 aebf b8bb 00bf
00000070: 5fc7 d5be 508d 1b3f fefc 58bf 698c 273f
00000080: 6580 5cc0 8c23 1c3f 255b 17c0 1c95 a1be
00000090: 2410 d2bf 6698 8e3c e1ae 55bd 31a0 bebe
000000a0: f1eb 3f3f 2168 cb3f 5058 053f 145a cf3e
000000b0: df4b 89be 52e0 823f 6cbf 033f bedb f93e
000000c0: 9e2e 0f3f 117b 1bbd 72f9 c9be 6743 cebf
000000d0: d258 4440 4ee0 f9be 14b4 10c0 7310 85be
000000e0: ee42 c7be 4974 1a3f 74fd fc3e fb86 1c3f
000000f0: 1d3d 443f 118b 053f 072f e2c0 3e6c 0a3f
00000100: be16 013d 500c eb3e 0938 94be efaa b0be
00000110: c65b ffbe 75d0 1d3f 53e7 04bf 48e3 0e3f
00000120: a053 09bf 1d5e dc3c 2b1f 0f3f 3495 edbe
00000130: a620 153f 84aa 193f f5de 1f3f 4276 f7be
00000140: e3ed df3e 411c f3be 66c1 c8be bfd5 de3e
00000150: e1e8 4c3f 7d38 a0be 65dd d33e f82a fb3f
00000160: 8c8c 8fbe 67eb c7bf adbd f0bf 3dc3 3ac0
00000170: a9e8 ba3c 05f6 e33e fe2f f7be b60f b23c
00000180: 5a68 e5be 08cf cfbe 9e83 07bd ae3c 23c0
00000190: df4b dcbe 8efe 60bf ee39 243f 982b 643f
000001a0: 0d21 373f f133 d3bf 6005 cabe d23c 113f
000001b0: c448 03bf 5762 0d3f 5c31 093d 6fa7 d1be
000001c0: 1759 00bf 224f 0c3f e535 e8bf be53 353f
000001d0: 3aa7 1abd d8ce 433f 1dd0 24c0 1720 c6bf
000001e0: 3cc3 f6bf b7a4 46c0 6e2d 05c0 c0aa a63a
000001f0: ddd0 303f 3c2f ea3e d030 b6bf e695 fabe
00000200: 3918 edbe 36b6 cdbf e013 d23f f898 1b3f
00000210: 1949 593f ef8d 553c 3a32 b0be 56df a7bf
00000220: 0815 103d 3d24 cfbf 56ce e63e 95de 37c0
00000230: 931b ed3e 8792 323f a3b4 213f a126 de3c
00000240: 8f27 c13e a735 333f 8108 313f f86e 2c3f
00000250: 8ea1 b43c dbc2 ff3c 2625 3abd 270e 2f3f
00000260: bc80 b63c f646 b13f 14d9 253d cdf1 f8be
00000270: b860 6e3c 9cfc 28bd e988 26c0 49c5 e0bb
00000280: f8dd 6d3f 9335 f5be 17b5 2a3f d013 483f
00000290: 2a47 9a3c abe7 f5bf 8f8e ddba 44ff e0bf
000002a0: 270c cebe cf4e cfbe 27c2 01bf 43e8 19c0
000002b0: e145 f83e adc3 3f3f 1119 e7bb ae12 0b3b
000002c0: 8717 01c0 ac49 f0be 2206 2cc0 8c10 09bf
000002d0: 3c07 423c f274 043f 3419 b73c 9c50 dcbf
000002e0: dc7d 153f 2c8b 093f 5b02 343d 4ed5 653a
000002f0: 0131 5e3f 8aa2 043f d2bc e6be c3f3 f93e
00000300: 369d 4d3f 7584 e8be c0ef f0bc 3074 2bc0
00000310: 1d0c f03e 0674 eebf e784 363f 9128 c3bf
00000320: a2f6 fbbe 504c 223f b238 f53e 9be0 723f
00000330: 33c9 efbe 0e20 ec3e 1fd3 fdbe aa3c b1be
00000340: e6cb 493f 658c fa3e b82d 0b3f b4c1 ecbe
00000350: 50a4 d6be 32fa a040 8aba 273f 2eba c8be
00000360: 9d4b b6bf be6a 8ebe f696 3b3f a61c fbbe
00000370: d4ab 76bf a215 b140 a0f0 0f3c 5729 1a3f
00000380: d30e 043f 8bed a5be 8160 f0be d4fc 3a3f
00000390: e066 383d 446d ffbe 610a 433f 913b f6be
000003a0: 63d2 eabe d7b0 e0bf 08f2 053f 2fa1 e43f
000003b0: 6c90 e43e ce88 9d3f 5cfa 04c0 1ee2 3d3f
000003c0: a7ff 213f 52ab 75bf 42dd 6b3f 9ba8 ffbe
000003d0: a782 0fbd 786a 023d ce0f 023d c6f2 d3bf
000003e0: e22f fabf c456 9ebe 2962 24be f386 88be
000003f0: a11c c0be 7efe 043f 7169 1a3d 761c 34bf
0.032381155 1.7553663 0.6906666 0.4858498 0.8221639 -0.008842892 -0.2696036 0.6029255
-0.32096246 0.4862431 -0.53340757 -2.7797034 0.044255126 0.5366603 -1.6493162 -0.0022604447
-1.4662142 0.6137723 -0.48819298 0.64893806 0.4122011 0.0057650725 0.011094972 0.7606379
0.4838687 0.045564447 -1.3638515 -0.50286436 -0.4175367 0.607625 -0.84761035 0.65448624
-3.4453366 0.6099174 -2.364938 -0.31559074 -1.6411176 0.017406654 -0.05216873 -0.3723159
0.74969393 1.5891153 0.5208788 0.40498412 -0.26815698 1.0224707 0.5146396 0.48800462
0.5593051 -0.037959162 -0.39448124 -1.611432 3.0679212 -0.48803943 -2.260991 -0.25989112
-0.3891825 0.6033369 0.4941212 0.61143464 0.7665575 0.52165323 -7.0682406 0.54071414
0.03151583 0.4590783 -0.28949 -0.34505412 -0.49874705 0.61646205 -0.5191547 0.55815554
-0.53643227 0.026900345 0.55906934 -0.46402895 0.5825294 0.6002581 0.6244958 -0.4833241
0.4373618 -0.47482494 -0.3921005 0.4352245 0.80042845 -0.31293097 0.41379848 1.9622488
-0.28036916 -1.5618714 -1.8807884 -2.9181664 0.02281602 0.44523636 -0.48278803 0.021736007
-0.44806176 -0.4058764 -0.033084504 -2.5505786 -0.43026635 -0.8788842 0.64150894 0.8912902
0.71534806 -1.6500226 -0.39457226 0.5673343 -0.51282907 0.5522818 0.03349434 -0.40948054
-0.5013594 0.5480825 -1.8141447 0.70830905 -0.037757136 0.76487494 -2.5752022 -1.5478543
-1.9278331 -3.1038034 -2.0808978 0.0012715682 0.690687 0.45739162 -1.4233646 -0.48942488
-0.46307543 -1.6071231 1.6412315 0.60780287 0.84877163 0.013034328 -0.3441332 -1.3115032
0.035176307 -1.6182934 0.45079297 -2.8729603 0.463101 0.69754833 0.63166255 0.02711803
0.37725493 0.7000374 0.691536 0.67356825 0.022049692 0.031220844 -0.045445584 0.6838097
0.022278182 1.384978 0.040490225 -0.4862198 0.014549427 -0.041256532 -2.6021063 -0.0068594557
0.9291682 -0.47892436 0.6668257 0.7815523 0.018832762 -1.9211324 -0.0016903448 -1.7577901
-0.40243647 -0.40489814 -0.5068688 -2.4048011 0.48490813 0.7490795 -0.0070525487 0.002122085
-2.017061 -0.46931207 -2.6878743 -0.53540874 0.011842545 0.51740944 0.022350885 -1.72121
0.5839517 0.53727984 0.04394756 0.00087674416 0.86793524 0.51810515 -0.45065933 0.48818788
0.8031801 -0.45413557 -0.029411197 -2.6789665 0.46884242 -1.8629158 0.7129654 -1.5246755
-0.49211603 0.63397694 0.47894818 0.9487397 -0.4683319 0.46118206 -0.49575135 -0.34616596
0.7882675 0.48935238 0.54366636 -0.46241534 -0.41922235 5.0305414 0.6551901 -0.39204544
-1.4241825 -0.27815813 0.73277223 -0.49045295 -0.9635594 5.5338907 0.008785397 0.6021933
0.5158512 -0.32407793 -0.46948627 0.73042035 0.045019984 -0.4988805 0.7618771 -0.4809232
-0.45863637 -1.7553967 0.52322435 1.7861689 0.44641435 1.2307374 -2.0777807 0.7417315
0.6328072 -0.9596454 0.9213449 -0.49933323 -0.03503671 0.031839818 0.031753354 -1.6558464
-1.9545863 -0.30925572 -0.1605307 -0.26665458 -0.37521842 0.51950824 0.037698213 -0.7035593
