SAC_own_hardcore/sac_500/value_sac.pth (torch, 524956 bytes, 5 tensors)

fc1.weight f4 [400, 24]
000000 bb da 05 40 46 ae 25 bf ea 96 80 3e 89 ed ef be
       2.0914752 -0.64719045 0.25115138 -0.46860912
000010 a2 77 0f 3f 46 97 bd bd d4 f1 b9 3e 64 a6 30 bd
       0.5604192 -0.09257369 0.36317313 -0.043127432
000020 db 9f a1 3d c4 f3 26 3f 75 22 70 bc f5 8e f7 3d
       0.07891818 0.65215707 -0.014656653 0.12087814
000030 4d 01 41 ba a7 a6 46 bc f6 8f 03 3e aa d4 af 3d
       -0.00073625596 -0.012124694 0.12847885 0.08585484
000040 d5 e2 5a 3e 9f ec 72 bd 83 a3 1d be 88 db b6 be
       0.21375592 -0.05930769 -0.15394406 -0.35714364
000050 dc 30 0d bf 0a 16 ab 3e 3d 7f bf 3d 23 f5 ad bd
       -0.5515268 0.33415252 0.09350441 -0.08494022
000060 11 2c 5c bf 61 f2 46 bf 65 47 08 3f 8f 8b 0a bf
       -0.8600474 -0.7771359 0.5323394 -0.541192
000070 0a 50 cb bc bc 83 02 bd c8 27 42 3e ee db 36 bd
       -0.024818439 -0.031863913 0.18960488 -0.044643335
000080 23 d1 0e be 94 e9 05 bf a0 7e 1a be 13 16 82 be
       -0.13946967 -0.52309537 -0.15087366 -0.25407466
000090 ca 5a 35 bd e3 10 1e 3d ed 1a 18 bd 35 c0 89 3c
       -0.044276036 0.038590323 -0.037135053 0.016815284
0000a0 1d 63 16 be d9 ee 43 be 4e b7 c9 3d b0 75 8c 3d
       -0.14686246 -0.19134082 0.09849416 0.068583846
0000b0 de af 79 bc e0 f1 02 3d ea 41 f2 bd ad 46 1f 3e
       -0.015239684 0.03196895 -0.11828978 0.15554304
0000c0 24 b8 1c be e1 a5 d8 3c 35 b0 05 3f d9 da 9c 3e
       -0.15304619 0.026446285 0.52221996 0.30635718
0000d0 98 d2 a2 bf d4 59 ed bd 48 39 41 be f8 ef c1 bd
       -1.2720518 -0.11589399 -0.18869507 -0.094695985
0000e0 00 e3 75 3e 77 df 2b 3e 9c 5b df be a5 21 cd be
       0.24012375 0.16784464 -0.4362458 -0.4006473
0000f0 e5 30 2b bb c8 46 07 3d cb 7a 6f bd f7 56 2f be
       -0.0026121673 0.033026487 -0.058466714 -0.17123018
000100 0a b2 02 3f c5 ec 1e 3f 60 a0 7b 3e 2b 05 ce 3e
       0.51052916 0.6208003 0.24572897 0.40238318
000110 d1 66 7e 3e 16 51 c4 3d fb ab 85 3d 4b 15 08 3c
       0.24843909 0.095857784 0.06526943 0.008305858
000120 94 97 25 3f ec ef c9 3f 26 a3 22 bf 7d f3 85 bf
       0.64684415 1.5776343 -0.63530195 -1.0464932
000130 a1 a8 cd 3d d5 e0 97 3d e9 4a a0 3e 34 61 5d 3e
       0.10041929 0.0741593 0.31307152 0.21619111
000140 5f 68 9d 3d ba f0 38 3e 96 35 0e 3c b3 fe 65 be
       0.07685923 0.1806058 0.008679768 -0.22460441
000150 58 6e 92 3d 6b 33 a7 bd 0c c3 d4 be 1d 2d 3e 3d
       0.07149953 -0.08164104 -0.4155506 0.046429742
000160 47 5a 8d be d5 30 6b 3e 3d 97 31 3f 9f 57 0c 3f
       -0.2760794 0.22967847 0.69371396 0.548212
000170 c2 83 2d 3e fd 7c a4 be c8 31 7f be ac dc 7e be
       0.16944793 -0.32126608 -0.24921334 -0.24888867
000180 80 5d 26 bf fd 7d 63 c0 38 c7 af 3f 1a 6d 42 3e
       -0.6498642 -3.5545647 1.3732672 0.18986931
000190 1f 16 70 bf 9c 0e 4f be d6 c8 60 bf 8a eb 47 bc
       -0.93783754 -0.20220417 -0.8780645 -0.012202153
0001a0 b9 f7 40 bc 95 3e 87 3e 4c 3f 40 bd c2 b1 cd 3d
       -0.011777812 0.26414934 -0.046935365 0.1004367
0001b0 19 3b 5f bb 08 7f 4b bd 12 fd a0 3e 0a c7 91 3e
       -0.0034062325 -0.049681693 0.31443077 0.28472167
0001c0 de 02 b2 3e cf 13 38 bd 2b 4d 2c be be a0 a3 be
       0.34767812 -0.044940766 -0.16826312 -0.31958574
0001d0 2f 54 8c bd c0 1d 24 be b3 88 06 3e cf 40 c2 3c
       -0.06851994 -0.16026974 0.13138084 0.023712544
0001e0 2a 75 cf 3e 32 37 33 3e f8 85 d6 3e 4b 37 28 3f
       0.40519077 0.17501524 0.41899085 0.6570937
0001f0 56 a1 b6 3e 80 9e 90 3d ba 49 6c 3e de 5a ee bd
       0.35669965 0.070614815 0.23075 -0.11638425
000200 f9 ec 08 bb ba 15 d6 be 73 bb 95 3e 7b 33 d5 bd
       -0.00208932 -0.4181345 0.29244575 -0.1041021
000210 71 1e 45 3e 7c d9 0e 3d 11 46 57 3c 68 00 a6 bd
       0.19249894 0.034875378 0.013139264 -0.08105546
000220 82 0e 5f 3e 7e 24 31 bb 5a ba 08 bd 88 12 a0 bd
       0.21782878 -0.0027029808 -0.033380844 -0.078160346
000230 ba 2a 0c be 36 d7 29 3e ea d6 4a 3e f3 58 53 3d
       -0.13688174 0.16586003 0.19808546 0.0515985
000240 08 1b 2a 3f be e6 78 3f 6b 7f e3 bc 82 46 46 3f
       0.66447496 0.97227085 -0.027770719 0.77451336
000250 50 9a 6d bd 64 4e 69 3d 02 ea a3 be 72 4a d2 3d
       -0.058008492 0.056959525 -0.3201447 0.102681056
000260 23 d7 15 be 4f 3f 5b bd c0 5c b5 3e f4 7d a2 be
       -0.1463285 -0.053527173 0.35422325 -0.3173672
000270 43 ba f8 3d 26 9d 58 be e5 5f 8c 3d 77 e8 5e bd
       0.121449016 -0.21153697 0.06854228 -0.054420915
000280 e5 fc 50 3e d5 0c 42 3e ed 2f 0c 3e dd 41 b4 3d
       0.20408972 0.18950208 0.13690157 0.08801625
000290 26 cd 7d bd 48 60 df 3e 5d d8 f5 3e c0 76 9c 3e
       -0.061963223 0.43628144 0.48016635 0.3055935
0002a0 3b 6c fd bd 0e ff 70 3f b5 f0 c6 3d 19 09 34 be
       -0.12374159 0.9413918 0.0971388 -0.17581595
0002b0 3e 12 bd 3d e1 ab bd 3d 0c 21 15 3f 07 19 ab bd
       0.09231995 0.09261299 0.5825355 -0.08354383
0002c0 92 b7 65 3e 56 4d 5b be e0 53 2d 3c ee 31 ef 3d
       0.22433308 -0.2141622 0.010579079 0.11679445
0002d0 ec ab 27 bd dc 50 b2 be 79 ae 11 3f 64 7b 11 3f
       -0.04093544 -0.34827316 0.5690685 0.56828904
0002e0 d0 bf a1 3e 65 00 de 3d fc 87 c5 3d 29 45 24 3d
       0.31591654 0.10839919 0.096450776 0.04010502
0002f0 ed c8 8d be 7a 9c 10 bf f9 4f 47 be df 8a 66 be
       -0.27692357 -0.56488764 -0.19464101 -0.22513913
000300 0e 36 03 bf 7d ec c8 bf 70 80 a3 3e 79 1e 95 3d
       -0.51254356 -1.569717 0.31933928 0.07281203
000310 72 0e 10 bf 55 f5 53 bd 94 7a d9 be ef 20 03 3e
       -0.5627204 -0.05174764 -0.42476332 0.12805532
000320 48 0d 66 be 7e 75 f1 be 5c 55 4a 3d 5e e9 ae bd
       -0.22466004 -0.47159952 0.04939781 -0.08540605
000330 bf b1 f7 bd 79 de 83 3b c2 77 39 3e f5 f6 9d 3e
       -0.12094449 0.0040243235 0.1811209 0.30852476
000340 22 ef a3 3e b6 6e e3 3e 80 3e ca 3e 3b 18 3f bb
       0.3201838 0.44420403 0.3950081 -0.002915873
000350 bf 71 8c 3e 90 fa 29 3d 99 6d 9b 3e 64 f7 66 3e
       0.2743053 0.04149872 0.30357054 0.2255531
000360 cc d2 6b bd e3 4b 02 bf 68 79 14 be e6 22 2b 3d
       -0.05757408 -0.50897044 -0.14499438 0.04178133
000370 c0 46 98 3c ea 52 81 be 56 e6 03 3c 84 6b 8b be
       0.018588424 -0.2525857 0.008050522 -0.27230465
000380 54 32 22 bd 07 cb 00 bf 1f a7 c4 be 15 d6 73 3e
       -0.039598778 -0.50309795 -0.38408753 0.23812135
000390 de 3a b5 3d b8 ce 12 3e e2 02 01 3f a3 62 f2 3e
       0.08849119 0.1433667 0.50395024 0.4734088
0003a0 10 4a d9 bc ef f4 de bd bc 28 4e bd 49 69 61 be
       -0.026524574 -0.10886561 -0.050331816 -0.2201282
0003b0 2b ec e1 be 2c 49 7b bd 52 a0 9a 3d 1e d1 01 bc
       -0.44125494 -0.06134908 0.0755011 -0.007923393
0003c0 ef 35 4e c0 11 2f 25 c0 d2 1b 25 40 e2 e1 dd 3f
       -3.2220418 -2.5809977 2.579823 1.7334559
0003d0 54 da 38 bf 08 db 3b be 03 6b c6 3d df 36 8d be
       -0.7220814 -0.18345273 0.096883796 -0.27580926
0003e0 5f 8a ab bc ad 15 1e 3f fc 73 94 bd 5c f5 4a 3e
       -0.020940004 0.61751825 -0.07248685 0.1982016
0003f0 60 f4 11 3d 53 8c 2a bd bd bc 37 3f 50 2f 68 3f
       0.035633445 -0.04163773 0.71772367 0.90697193

fc1.bias f4 [400]
000000 dc ab 09 be 81 90 2e be eb 2a 0f be 71 0f 39 be
       -0.13444465 -0.17047311 -0.13981216 -0.18072297
000010 ab b4 35 3e 7f 23 d9 3d 73 0e 54 3d d0 29 9f 3e
       0.177447 0.106024735 0.051771592 0.31086588
000020 c4 b4 87 3e 1d ea f2 3c 2f 76 a5 be b2 14 97 3e
       0.265051 0.02965265 -0.3231673 0.29507977
000030 66 a7 d5 3d c6 d4 ae 3e e0 ed 07 be c1 94 29 3e
       0.10432319 0.34146708 -0.13274336 0.16560651
000040 55 5e b0 3e cd 62 51 3e b3 7c bf 3e 97 fd 7f 3e
       0.3444697 0.20447846 0.37399825 0.2499908
000050 5c 61 98 3e 99 ff d0 3d a6 26 c6 be a1 47 0a be
       0.2976178 0.102050014 -0.3870136 -0.13503887
000060 39 f8 82 bb b3 95 48 3d 18 dc 6d 3d d6 3b 9b 3e
       -0.0039968756 0.04897089 0.058071226 0.3031909
000070 4c 14 1c 3e d1 49 af 3e 05 e8 5b 3e 8a 5b b5 3e
       0.15242118 0.34236005 0.21475227 0.354214
000080 96 9e c8 bd 7e 44 97 3e 50 37 bd 3d 98 5e 95 3c
       -0.09795873 0.29544443 0.09239066 0.018233582
000090 ec f8 6e bd 80 b5 ec 3d 57 8c 45 3d 07 fe 21 3e
       -0.05834286 0.11558056 0.04822954 0.1581956
0000a0 ac 7d 2a bd 32 70 ca 3e e1 2e 51 3e e2 74 72 bc
       -0.041623756 0.39538723 0.20428039 -0.014798375
0000b0 30 e4 10 3e d9 08 2e bf 21 b2 87 be b9 c8 96 3d
       0.14149547 -0.6798225 -0.2650309 0.073625036
0000c0 4c 4c 85 3d d6 6f 25 3e fa 41 ea be a0 45 0c be
       0.06508693 0.16155943 -0.4575346 -0.13698435
0000d0 bf 9d fb 3d 4d 38 03 bf 81 e9 37 3e 4c c3 aa be
       0.12285947 -0.51257783 0.17960168 -0.33352125
0000e0 34 1b ab be 84 29 b4 3c 74 36 a3 3c 7f 6f 86 bd
       -0.33419192 0.021992452 0.019923426 -0.06564235
0000f0 d2 23 10 3e 2b 15 69 3e bd 3c 9a be 1b 59 a0 3d
       0.14076164 0.22761981 -0.30124465 0.078294955
000100 0a 16 6b 3e 83 8d a3 3e af ad 78 3e 5c 0e 49 3b
       0.22957626 0.31943902 0.24285005 0.0030678725
000110 94 d9 f5 be 93 60 a2 be 10 08 5d bd f7 90 6f 3d
       -0.4801756 -0.31714305 -0.053962767 0.05848786
000120 19 66 50 3e aa 53 78 be 78 ee fa 3d ca 6d 58 3e
       0.20351447 -0.24250665 0.122525156 0.21135631
000130 d5 a7 72 be dd ff b2 be 5b b6 a6 3e 00 a6 02 bf
       -0.23696835 -0.34960833 0.32561 -0.51034546
000140 7c 40 11 3e 3b 4e 38 3e 3f 4d 30 3e 2e 97 ab 3e
       0.14184755 0.17998593 0.17216967 0.33513778
000150 43 9c 0f bd 7d 35 b6 be d4 65 17 3e 7f 14 91 3e
       -0.035061132 -0.35587683 0.14784938 0.2833595
000160 a4 fe 54 bf 68 06 d3 3d 9f 29 c2 bc ac 69 78 bc
       -0.8320105 0.10303956 -0.023701487 -0.015161913
000170 68 3d c1 bd 76 31 f3 3c 4e d7 2b 3e df c6 0a be
       -0.094355404 0.02968667 0.16781351 -0.13552426
000180 8a f2 95 3e cc 9e 02 3f 23 1d 0b bf 29 7a 34 be
       0.29286605 0.51023555 -0.54341334 -0.17624725
000190 d6 78 bf 3e e3 b7 dc be 8b 44 ea bd 9f 74 a9 be
       0.37396878 -0.43109044 -0.11438855 -0.33096787
0001a0 25 23 75 3e 3b 10 2d 3d e0 47 6a 3e 6d a4 e3 bc
       0.23939188 0.042251807 0.2287898 -0.027788365
0001b0 7a fa 09 bf 65 82 b7 be c0 92 2b 3e df 73 38 3d
       -0.5389782 -0.3584167 0.167552 0.04503238
0001c0 c5 f3 ef 3c e1 66 04 3e e7 5f a5 3d c3 26 a6 be
       0.029291043 0.1292987 0.080749325 -0.32451448
0001d0 a3 b6 ae 3e 5f 60 51 3c 4a 4c 3e 3d 71 4f 7f 3e
       0.34123716 0.012779324 0.046459474 0.24932648
0001e0 09 0c 40 be 87 51 0e 3e b8 15 fa bd 9a 78 d9 3e
       -0.18754591 0.13898288 -0.12211174 0.42474824
0001f0 7f bd 46 be d1 c8 56 3e 96 c5 e1 3e 91 9b 97 bd
       -0.19408225 0.20975043 0.4409606 -0.07402719
000200 36 d1 16 3e c7 76 3c 3e bc c1 5f bd dd 2d 80 be
       0.14728245 0.18404685 -0.05462812 -0.2503499
000210 6f 97 95 bd 73 1c 9b 3d f6 91 38 3e 83 d7 ae bb
       -0.07304274 0.07573786 0.1802443 -0.0053357496
000220 ad 77 70 3e d1 09 0a be 96 d9 e3 3d b8 35 9b be
       0.23483153 -0.13480307 0.111254856 -0.30314422
000230 98 8c c7 3e 52 5f 27 3e 6b 7a a6 3e 04 20 48 3e
       0.38974452 0.16344956 0.32515272 0.19543463
000240 4c 5c 54 bb a5 a2 7e 3d d6 96 c7 3d 20 ee 99 bb
       -0.0032403646 0.06216683 0.097455665 -0.004697576
000250 e4 86 0a 3e b3 22 2b be 5a f0 6b 3d d2 9d f2 be
       0.13528019 -0.16712455 0.057602264 -0.47386032
000260 2d 24 1f 3e 8c c4 34 bd 56 35 2d be 02 d8 52 bd
       0.15541144 -0.044132754 -0.16914877 -0.051475532
000270 0a d3 38 be 89 63 19 bd 4e e5 c4 3e d0 a0 00 bd
       -0.18049255 -0.03744844 0.38456196 -0.031403363
000280 84 8b e0 bd b1 b1 81 3e 4b f5 40 be 90 e6 14 3e
       -0.109641105 0.2533088 -0.18843572 0.14541078
000290 71 18 17 be 0c 3f 24 be bf 95 08 3e ab 1a a1 3e
       -0.14755417 -0.16039675 0.13338374 0.3146566
0002a0 78 02 02 3e d3 eb c1 be a1 cf 5b be 26 29 af bc
       0.12696254 -0.37875232 -0.21465923 -0.021381926
0002b0 37 78 df bd 43 d3 77 3e 6b 1d 89 3e 7c a1 55 be
       -0.10911601 0.24201684 0.26780257 -0.20862383
0002c0 dd 9c ea be ca fb 00 3e e4 5a 38 be 2b 1b e0 3c
       -0.45822802 0.1259605 -0.18003422 0.027356705
0002d0 f8 3c 12 be 79 10 f9 be a9 df 2c bd b2 4b a6 bd
       -0.1428107 -0.4864538 -0.042205486 -0.081199065
0002e0 fa 7f 17 be 38 ad 60 3e 6a d9 98 be 99 5a 1d be
       -0.14794913 0.21941078 -0.29853374 -0.15366592
0002f0 3c cf 2c bf 0f 1e 90 3d 76 9b ed bd 15 ca 43 3d
       -0.67503715 0.07036983 -0.116019174 0.047800142
000300 c4 e3 b6 3d 72 a7 a3 3e 0e f1 a4 3d b3 c9 5a be
       0.089301616 0.31963688 0.0805379 -0.21366005
000310 5b e1 7d be 90 2d db 3e 0e c1 c8 bc 3b a4 42 be
       -0.24792998 0.428082 -0.024506118 -0.19007961
000320 bb 18 10 bd 53 d1 bc 3e 67 8d bc be 51 09 34 3e
       -0.035179835 0.36878452 -0.3682663 0.17581679
000330 c9 33 c3 3a 95 d0 64 3d 9c 8d 3a 3e e3 28 34 3d
       0.0014892753 0.05586298 0.18218082 0.043984305
000340 b4 8c ce 3e 41 11 40 3d 30 48 68 3d ea d1 d8 3e
       0.40341723 0.046891455 0.05670947 0.42347652
000350 8d 9c cd bd 29 48 03 3e 48 58 c3 bd 81 d0 1c 3e
       -0.10039625 0.12820496 -0.09538323 0.15313913
000360 60 fe 1e 3d a8 0a a6 3e 57 de 74 bd 27 06 c4 bd
       0.03881681 0.32430005 -0.059782352 -0.09571486
000370 c1 72 a7 3e 25 50 f8 be 97 9f 43 bf 38 fe 5c 3e
       0.32704738 -0.48498645 -0.7641539 0.21581352
000380 fb 66 ad 3e 38 63 11 be e4 67 0a bf 2f 59 30 3e
       0.3386763 -0.14198005 -0.54064775 0.17221521
000390 4d 2c 4f 3d 23 df 85 be 5a ec 23 be b7 d3 fa 3e
       0.050579358 -0.26146802 -0.1600813 0.4898965
0003a0 08 f0 7b be d2 12 ba be dd 0b 90 3e 77 b6 fa 3d
       -0.24603283 -0.36342484 0.2813405 0.12241834
0003b0 13 05 82 3e ee e2 af bd e2 16 33 be 13 5a 86 be
       0.25394496 -0.08588205 -0.17489198 -0.26240596
0003c0 f9 1a 11 3e e0 6e d2 be 13 39 a3 3d 57 3d 10 be
       0.14170446 -0.41100216 0.079698704 -0.140859
0003d0 67 7d 65 bd a9 79 2b 3d e7 18 c3 bd c6 57 c1 3d
       -0.056027796 0.04186407 -0.09526234 0.094405696
0003e0 07 3b ca be 64 fd af 3e 07 ea 68 be 4c c0 24 3e
       -0.3949816 0.3437301 -0.22745524 0.1608898
0003f0 8c 35 cf be 09 6c 99 be ea 2c f1 bd 11 fb 92 bd
       -0.4047054 -0.29965237 -0.11776145 -0.07176793

fc2.weight f4 [300, 400]
000000 28 68 0d 3f d4 bf 97 bf e7 bb 80 3e 76 d0 88 be
       0.55237055 -1.1855416 0.25143358 -0.26721543
000010 81 8b 07 3e cb 10 97 be ff e1 ba 3b f2 b2 c0 be
       0.1323681 -0.29505 0.0057032104 -0.37636524
000020 b5 1f 9f 3e 22 38 ec bd 21 70 e7 3f e5 ff 43 bf
       0.31078878 -0.11534144 1.8081094 -0.7656234
000030 da 92 96 bc 35 7c 5f bf 99 9c 06 bd 78 91 0e bd
       -0.018380571 -0.872989 -0.032864187 -0.0348067
000040 d8 db 22 3c c7 7a 7b 3c 22 96 93 3f 3b 21 89 bc
       0.00994011 0.015349097 1.1530192 -0.016739478
000050 c0 14 2a 3f b9 5a c6 be 04 3e 8b be 4f 4b 74 bf
       0.6643791 -0.3874109 -0.27195752 -0.9542741
000060 6c 4a f3 3d 7c 0a d3 3d 4d 25 54 bf 24 98 ef 3e
       0.11879429 0.10304734 -0.82869416 0.46795762
000070 ae de 84 3e f5 ae 4e 3c 67 4c 22 bc 23 3d d1 bd
       0.2595114 0.012614955 -0.009905911 -0.10216739
000080 26 c6 15 3e 29 f0 63 3e 5f a5 50 3d 3f 65 9b 3d
       0.14626369 0.22259583 0.05093896 0.075876705
000090 8d ec 9c 3f 5d e8 0d 3e 66 c5 d2 3c da ef d5 bd
       1.225969 0.13858171 0.025728893 -0.10446139
0000a0 95 3d cc 3d 2a 46 d9 3e ca fd c1 bd f8 a7 5b 3e
       0.09972683 0.42436343 -0.094722345 0.21450794
0000b0 17 51 f6 3d 01 02 d2 be 52 5b 2c be 8e 73 c3 bd
       0.120271854 -0.41017154 -0.16831711 -0.09543525
0000c0 29 d9 de 3e fb bb 26 3e 2e 83 d7 be 3f 08 92 be
       0.43525055 0.16282646 -0.4209227 -0.28521916
0000d0 df 0c 43 3e f2 ca 01 3d 7e 51 35 3e 79 14 d7 3f
       0.19047879 0.031687684 0.17706868 1.6803123
0000e0 7b 46 99 be b4 6d 0a 3d a3 15 24 bf 2d a0 ab 3e
       -0.29936585 0.033796027 -0.64095515 0.33520642
0000f0 3c b1 40 3f 4e b2 51 3e 06 2e 64 bf 61 d6 1e 3f
       0.7527044 0.20478174 -0.89132726 0.62045866
000100 ba 92 35 3d 3c 6d eb bd ad ae c7 3d 82 31 c1 bc
       0.044329382 -0.11495444 0.09750114 -0.023583177
000110 14 8d 89 be 46 23 92 bf 2c 4f f8 3d cf 4e c9 3d
       -0.26865447 -1.1417015 0.12124476 0.09829485
000120 b6 de 78 3e 88 56 05 3e e0 4a 6d 3e 4d e1 09 3f
       0.24303707 0.1302129 0.23173094 0.53859407
000130 b8 24 76 3f e9 37 22 be ee 02 05 3f 71 cc 82 3d
       0.9614978 -0.1584164 0.51957595 0.0638665
000140 90 60 ce be d4 6b 50 bd a4 6e 9e 3e d7 d3 03 bd
       -0.40308046 -0.050884083 0.30943787 -0.032184448
000150 c1 58 31 bd 3a c6 4a bd 34 ac ac 3d 85 6e e6 bd
       -0.043297533 -0.04950545 0.08431283 -0.11251549
000160 f5 32 0c bf 6a be 20 bf ad 38 b1 be 5f 96 05 3e
       -0.54765254 -0.6279055 -0.34613553 0.13045643
000170 dc b1 a0 3e 5a 50 02 bd 17 0d a8 be 3f 93 a9 be
       0.31385696 -0.03181491 -0.32822487 -0.33120152
000180 b2 30 9e 3e 6a 7d 60 3d 3d 72 2e bf 24 9e 2e be
       0.30896527 0.054807104 -0.68143064 -0.17052513
000190 ca 80 cc bb d3 89 ed bd b6 8b fd be c6 97 9b be
       -0.006240939 -0.115985535 -0.49520653 -0.3038923
0001a0 65 c6 13 3e 09 7e a9 be cf dc 55 3f 22 34 26 3f
       0.1443115 -0.3310397 0.8354005 0.649233
0001b0 2d be 00 bf 6d a8 74 3e 59 61 89 3f c8 bb e6 3e
       -0.50290185 0.23892374 1.0732833 0.4506514
0001c0 7b a3 ba bd 3c 65 67 3d 43 0f 85 40 8e 0d 11 bf
       -0.09113213 0.05649303 4.158113 -0.5666131
0001d0 5b 96 1f be c3 ae 9d bd 69 c7 80 3e f7 39 e2 3d
       -0.155847 -0.07699349 0.25152138 0.11046212
0001e0 c3 f9 20 be fc 3c 84 3e 67 59 54 bf f2 d5 02 3c
       -0.15720277 0.25827777 -0.8294892 0.007985579
0001f0 6a f0 96 be 49 c7 99 3e f8 a8 ae 3e 42 d8 34 3e
       -0.29480296 0.30034855 0.34113288 0.17660621
000200 91 07 91 bd d2 df 50 3e cf 83 b6 bd 28 1e fd 3d
       -0.07081521 0.2039788 -0.08911859 0.123592675
000210 c8 62 72 bd b6 bb 09 3d 3e e0 2f be e9 05 fe bf
       -0.059176236 0.03362628 -0.17175385 -1.9845554
000220 92 fa 02 3f af 4c 96 3e 3f cc 28 3e cf 6d 7a 3e
       0.5116359 0.2935538 0.16484164 0.24455951
000230 2d e2 07 bf 66 b1 58 3e 7f 83 c9 3d 32 6a 0d 3f
       -0.5307949 0.21161422 0.09839534 0.55240166
000240 8c 01 c4 be 79 21 20 3e 35 a5 74 3d ab c8 20 be
       -0.3828243 0.15637769 0.059727866 -0.15701549
000250 ab fc cb 3b 14 01 33 3d f3 be 16 3f 05 96 4a be
       0.0062251887 0.0437022 0.58885115 -0.1978379
000260 bb 76 93 3f a2 f7 cd 3c 9f 6f bd bd ac d5 9a bd
       1.1520609 0.025142495 -0.09249806 -0.07560286
000270 c2 26 36 3e 93 16 e9 3d 99 ac 37 bc 1f c1 c2 3e
       0.17788222 0.11381259 -0.011210584 0.38037965
000280 e3 71 84 be 2f cd f8 3e c2 3b e8 be 31 41 01 be
       -0.2586814 0.48594043 -0.45358092 -0.12622525
000290 9c 3e f6 3d 42 3f ac 3f b8 62 e5 3e b7 82 b3 bd
       0.120236605 1.3456805 0.4480188 -0.08765166
0002a0 65 53 5f bd b5 70 b8 be 5e f8 84 bd 44 57 e8 3d
       -0.05452289 -0.3602349 -0.06492685 0.113447696
0002b0 5c ba 57 be 88 45 4a 3d dd 4c 6d 3e 74 12 35 3c
       -0.21067184 0.049382716 0.23173852 0.011051763
0002c0 83 40 4c 3e 74 b0 50 3f f6 98 94 3d 6a d8 08 3f
       0.19946484 0.81519246 0.072557375 0.5345522
0002d0 56 e4 b8 bd 6b 72 c3 be 7e 45 95 be cc af 5c 3d
       -0.090279266 -0.3817323 -0.2915458 0.05387859
0002e0 41 2a e7 bd f4 53 86 3e 05 a4 84 be f0 3b 27 be
       -0.11287356 0.26235926 -0.25906387 -0.16331458
0002f0 64 e7 42 be ce 44 2e be c5 ce ac be 63 6e 16 bf
       -0.19033581 -0.17018434 -0.33751503 -0.58762187
000300 c1 e1 23 bd 90 a4 7c be ea ba 0f be 71 4b 4b bd
       -0.040010218 -0.2467215 -0.14036146 -0.049632493
000310 e8 65 12 40 95 35 c3 3f 56 85 b8 3e d5 52 04 3e
       2.2874699 1.5250727 0.36039227 0.12922223
000320 1f c5 80 be 0f d9 3b 3e 59 9b d7 be 9f b6 5e bd
       -0.2515039 0.1834452 -0.42110708 -0.05437338
000330 d4 80 65 3e a0 9f 10 3f 17 af 8b bc 51 61 a6 be
       0.22412425 0.5649357 -0.017051263 -0.32496122
000340 88 2f 02 3e 79 0c 59 bc d2 e7 8a 3d 85 7e d7 3d
       0.12713444 -0.013247603 0.067824975 0.105221786
000350 f7 bb 12 bd 5b af f2 3e 4e 35 93 3e 2c 3c 99 3e
       -0.03582379 0.4739941 0.28751606 0.2992872
000360 f0 04 11 3e c0 60 9c 3e a9 87 52 3e b3 01 db 3e
       0.1416204 0.30542564 0.20559563 0.42774734
000370 3a 92 4f 3e 71 72 6e bf 6e 2a 4f bf c4 fd d0 bd
       0.20270625 -0.93143374 -0.8092412 -0.10204652
000380 c6 78 63 3d 47 5b f3 be 0a 7f 02 bd fe e9 32 3f
       0.0555351 -0.47530577 -0.031859435 0.69888294
000390 c6 52 c6 3e ff 02 4a bf f3 69 d3 be 76 16 9d bd
       0.38735026 -0.7891082 -0.4129177 -0.076703
0003a0 10 af 9d 3e f7 2b 43 3f 01 fa 33 3e 50 23 05 3e
       0.30797625 0.7623896 0.17575838 0.13001752
0003b0 0f 24 36 bf 71 8e 3e 3e 6d d3 2d be 66 3d 61 3d
       -0.7114877 0.18609025 -0.16975184 0.054990195
0003c0 92 95 91 bd eb 8e a0 3c ad dc 43 be 5a d3 4e 3f
       -0.071086064 0.019599399 -0.1912715 0.80791247
0003d0 62 aa d5 3d 11 6b 17 3e 66 5f e3 3c 6f 79 d0 bd
       0.104328886 0.14786936 0.02775545 -0.101794116
0003e0 92 50 da be ef fc 4d bd 67 89 3a bf 50 2b 53 bc
       -0.42639595 -0.050290044 -0.7286591 -0.0128887445
0003f0 0e 18 0c bf 91 f5 06 3e 7c d4 f9 3e ea a4 84 bd
       -0.54724205 0.13179614 0.48794925 -0.06476767

fc2.bias f4 [300]
000000 f1 b8 ab 3e 00 49 1e 3d 49 40 8c bd a9 23 c5 3b
       0.33539537 0.038643837 -0.06848199 0.006016214
000010 17 5a 21 bd f2 00 5d 3e 91 6e 14 3d 38 06 8d 3e
       -0.039392557 0.21582392 0.036238257 0.27543807
000020 6b cb f5 bc e0 04 8e 3e 93 10 ab 3c 9e f0 43 bd
       -0.030004224 0.27738094 0.020881927 -0.047836892
000030 9a 35 85 3c 00 3b 72 3e 0c 48 d4 3b cb 59 91 3e
       0.01626091 0.23655319 0.006478315 0.2838882
000040 92 53 16 3e da de 18 3d de 1d 82 3e e9 0c a5 3e
       0.14680317 0.037321903 0.25413412 0.32236412
000050 8e 20 59 3b 60 f9 78 3e 10 34 94 3e ef 32 62 3e
       0.0033130976 0.24313879 0.2894597 0.22089742
000060 4e 4f 1e bc 7e 5e 53 bc 06 a2 a3 bc e5 2f c7 3e
       -0.009662462 -0.012900947 -0.01997472 0.38903728
000070 f7 2d ff 39 3a 06 71 be 98 90 ac 3e 2a 1c 2e 3e
       0.00048671637 -0.23537531 0.33704066 0.17002931
000080 fb db 9e 3c 7f f2 88 3e 5b 27 3c 3d 68 db 5e 3e
       0.019392004 0.2674751 0.04593597 0.21763384
000090 51 82 03 3e ae 99 7e 3e 87 25 b8 3e 7d dc b5 3c
       0.1284268 0.24863312 0.3596613 0.022199864
0000a0 0a a2 70 bc f4 60 88 3e 92 53 75 3e f6 89 58 bd
       -0.014687071 0.2663647 0.23957661 -0.052865945
0000b0 8d 26 cd 3b bb 68 51 3b 7a 77 f4 3d f8 20 b3 ba
       0.006260699 0.0031953293 0.11936851 -0.0013666442
0000c0 45 31 4b bc b0 bf 05 3d a2 33 c9 bc 39 f1 86 3e
       -0.0124018835 0.03265351 -0.024560753 0.26355913
0000d0 85 ad 19 bd d2 5b 98 3e 96 2d 2d bd 39 9f d2 3e
       -0.037518997 0.29757553 -0.042279802 0.41137102
0000e0 1d 9d a2 3e ae 6c 85 3e 74 0a 5e bb 2e af fb 3e
       0.31760493 0.2605948 -0.0033880742 0.4915709
0000f0 39 f2 8a 3e fd 9e 68 bd f2 19 dc bc 79 79 a3 3e
       0.27137926 -0.056792248 -0.02686784 0.31928614
000100 cc 67 44 bd 4c a4 77 3e d6 b6 a9 3a ed 3f 9d 3e
       -0.04795055 0.24183768 0.0012948166 0.30712834
000110 47 59 8e bd 5b 66 02 3e bd 61 93 3c c5 99 94 3e
       -0.06950622 0.12734358 0.017990941 0.29023567
000120 d2 dd c6 bd 93 64 36 bc 7c 93 aa 3e ec ed 23 bd
       -0.097102776 -0.011132377 0.33315647 -0.04002182
000130 75 c9 12 3e b2 c4 8c be 2b ca 7f 3c 53 f8 80 3e
       0.14334662 -0.27493817 0.015612165 0.25189456
000140 9b 3f 7c 3e bc d2 2b 3e a6 aa 15 bd eb 2d ee 3c
       0.24633639 0.16779608 -0.036539696 0.02907463
000150 d5 f4 18 3f 37 b8 b3 3e f9 5d 73 3e a6 e6 a1 3e
       0.59748584 0.35101482 0.23766316 0.31621283
000160 58 6d 94 bc cf 2c 17 3e 9e 78 91 3e c5 6f 89 3e
       -0.018118545 0.14763187 0.28412336 0.26843086
000170 08 0b 8a 3e e1 f8 3d 3d 0a 2c a4 3e 4b 79 8c 3c
       0.2696154 0.046379928 0.3206485 0.01714768
000180 12 fd 18 bd 44 61 34 bd ec db 15 bc a1 a8 87 3e
       -0.03735072 -0.044038072 -0.009146672 0.2649584
000190 1d 2d 4b bd d4 72 3a bd a6 ee 0f bc 55 bd 64 3d
       -0.04960357 -0.045519665 -0.008784926 0.055844624
0001a0 15 df 9a bd 06 e5 85 3c 5f 07 8d 3e c0 f9 68 3e
       -0.07562081 0.016344558 0.27544686 0.22751522
0001b0 64 78 95 3e 3e 61 a6 3e 1b 26 5d 3e f9 24 75 3e
       0.29193413 0.32496065 0.21596567 0.23939885
0001c0 1a 24 94 3e bd 33 4d bd f8 9f bf 3e ec 7e f3 bb
       0.28933793 -0.05009817 0.37426734 -0.0074309018
0001d0 17 a1 a5 3e 65 68 96 3e 14 a1 96 3e 71 ca b1 bb
       0.32349464 0.29376522 0.29419768 -0.005425744
0001e0 89 c1 88 3e 0c b0 57 3e 06 7f bf bc 28 15 30 3d
       0.26710156 0.2106325 -0.023376 0.042988926
0001f0 99 4e d4 3d fc e9 86 3e c9 2c 92 3c f1 17 0e 3e
       0.10366554 0.2635039 0.01784362 0.1387632
000200 a9 d4 23 3e 4f 06 98 3e 7c af 8b 3d 60 e2 10 3e
       0.15999092 0.29692313 0.0682058 0.14148855
000210 d1 0e 14 bd e7 0d 8a 3e 7e b5 84 3e 5a 7c bb bc
       -0.036146943 0.26963732 0.25919718 -0.022886444
000220 ec 5d 9e bb 1b 91 91 3e f6 a9 4a bd 27 9f 94 3e
       -0.0048329737 0.2843102 -0.049478494 0.29027674
000230 e7 18 da bc 43 77 96 3e 37 a8 59 3e f8 e2 09 3c
       -0.026623202 0.29387864 0.21255575 0.00841593
000240 73 ff 9a 3e 80 fa 91 3e 92 cd 50 bd 2a 24 14 3d
       0.30273017 0.2851143 -0.050977297 0.0361673
000250 69 3d 3c 3c e5 48 80 3e 84 87 7d 3e 67 49 41 bd
       0.011489251 0.25055614 0.24758726 -0.047189143
000260 27 57 fa 3d 96 ea 84 3c 58 85 02 3e d2 54 ae bc
       0.12223654 0.01622514 0.12746179 -0.02128068
000270 e4 48 98 3e 3d 4d 6c bd 91 73 0b bd 0f 7c b0 3e
       0.2974311 -0.057690848 -0.03404576 0.3446965
000280 f3 4a 1f 3e 77 e1 90 3e 15 f5 05 bd b4 70 19 bd
       0.15555935 0.28297016 -0.03270443 -0.037460998
000290 da 37 51 3e 61 36 93 3e bf 91 56 3e e6 24 b6 3e
       0.20431462 0.28752425 0.20954035 0.35575026
0002a0 f6 21 96 3e 94 e9 85 3d c2 f4 39 3c 49 52 70 bc
       0.29322785 0.06538692 0.011349859 -0.014668056
0002b0 02 ac 85 bd 30 ee b4 3e 5f 89 f4 3c 1f 04 3b bd
       -0.065269485 0.35337973 0.02985066 -0.045658227
0002c0 0b c1 e5 3d d0 05 a1 3e 14 ee 1a bd 26 4b 0e 3e
       0.11218461 0.31449747 -0.037824705 0.13895854
0002d0 6a 60 77 3e 17 3e 08 3d 84 cb 3f 3e 26 92 59 bb
       0.24157873 0.03326234 0.18729979 -0.0033198684
0002e0 79 b6 f1 3d 91 77 19 bc 0b 19 88 3e d5 ef ab 3e
       0.11802382 -0.009366886 0.26581606 0.33581415
0002f0 de 18 19 3e db b7 ef 3c d1 e3 26 bd 7f 43 7e 3e
       0.14950892 0.029262474 -0.040744606 0.24830435
000300 2f a1 5f bd 6f 8f 07 bd 15 50 99 3e 24 8f 80 3e
       -0.054597076 -0.033095773 0.2994391 0.25109208
000310 e4 32 e7 3d b0 21 6a 3e e9 ba 89 bb 41 d8 6d 3e
       0.112890035 0.22864413 -0.0042031896 0.23227026
000320 9c 92 42 bd 35 c2 85 3e d0 6e 98 3e 15 db 51 3b
       -0.0475031 0.2612473 0.29772043 0.0032021452
000330 07 b0 61 3e e7 0c 9e 3e f6 cd 97 3e e5 29 9b 3e
       0.22039805 0.3086922 0.29649323 0.303054
000340 2a b2 44 3e fc 07 eb bc b9 f9 ec bc b8 f7 63 3e
       0.19208589 -0.02869033 -0.02892767 0.22262466
000350 47 67 58 3e d0 92 5f 3e 75 ca 8e 3e 49 3c 72 3e
       0.21133147 0.21833348 0.27888837 0.2365581
000360 b8 b9 0c 3c 8e bf 8c 3e e9 06 dd bc e9 99 91 3e
       0.008589201 0.27489895 -0.026980834 0.28437737
000370 34 37 80 3e 0c d0 46 bb d5 bc 53 3e 0e 36 94 3b
       0.25042117 -0.0030336408 0.20677502 0.0045230454
000380 22 e8 99 3e 1d e5 32 3e 12 43 af 3e 7b c6 96 3e
       0.30059916 0.17470212 0.34230858 0.29448304
000390 86 d3 4d bd 77 9f 9b 3e 63 c4 a1 3e 7f 00 9a 3e
       -0.050250553 0.303951 0.31595144 0.30078503
0003a0 4a 80 72 3e 6d 4d fa ba 0f d8 24 bd cb 86 17 3e
       0.23681751 -0.0019096561 -0.040245112 0.14797513
0003b0 83 80 c0 3e e2 74 78 bd a3 e2 12 bd 86 89 00 3f
       0.37598047 -0.060658343 -0.03586067 0.50209844
0003c0 80 97 bc 3d e6 87 35 3e 5e 14 9d 3e 0e 89 0f 3f
       0.09208584 0.17727622 0.306796 0.56068504
0003d0 58 4e 87 3e 10 38 85 3e 02 66 b2 3e b3 c0 6d 3e
       0.2642696 0.26019335 0.3484345 0.2321804
0003e0 24 42 15 3d 01 b1 37 bd 65 c5 8e 3e e2 e2 44 3e
       0.03644003 -0.04484654 0.27884975 0.19227174
0003f0 fc aa e8 bc 65 e9 82 bd 7c 59 e6 3d ad e4 ea 3d
       -0.028401844 -0.06392173 0.112475365 0.11469398

v.weight f4 [1, 300]
000000 14 63 5d 3f fb a0 a4 3c 17 d3 a7 be ed 5f 03 3c
       0.86479306 0.020096293 -0.32778236 0.008018476
000010 aa 27 af 3b 47 5a 1d 3e 81 40 c5 bc 38 72 19 3e
       0.0053453045 0.1536647 -0.02407861 0.14984977
000020 39 a2 21 3b 14 d3 86 bf b4 69 5f bf a2 e5 9b 3c
       0.0024663343 -1.0533166 -0.87270665 0.019030396
000030 ed 9e a6 bc bd d2 39 3e d6 74 1e bd 30 2b a9 bf
       -0.020339454 0.18146797 -0.038685642 -1.3216305
000040 54 2c 50 bf 08 e7 52 bc cc 7f 92 bf 7a e1 0b 3e
       -0.8131764 -0.012872465 -1.144525 0.13660231
000050 b0 de 38 3d a4 3e 49 3e aa 90 51 3e 41 40 03 bf
       0.045134246 0.19652802 0.20465341 -0.5126992
000060 f1 5b 73 bf dc 74 00 bd f5 84 1b bc 43 ed 44 3f
       -0.95062166 -0.031361446 -0.009492149 0.7692453
000070 20 04 32 3d 74 3c d8 be ec 4f 1f 3e 75 6f 37 bf
       0.043460965 -0.42233622 0.15557832 -0.71654445
000080 5f c5 1b 3d 51 a9 ad 3d ef 18 3b bf bd a6 1a 3e
       0.038030025 0.0847956 -0.7308492 0.15102668
000090 db fc 88 bf a4 76 20 3e da e1 34 3e aa 2f 8c 3b
       -1.0702165 0.15670258 0.1766428 0.004278143
0000a0 53 dc 65 3d 7e 61 53 3e ee 8d d0 3d bf d5 c6 bb
       0.05611832 0.20642659 0.10183321 -0.006067961
0000b0 f9 3c dc bc 36 44 c2 3c a5 ee 5f bf 99 dd 41 bc
       -0.026884543 0.023714166 -0.8747352 -0.011832618
0000c0 8c 9b 8c bc 75 df 38 bd e0 14 4a bb 3f cc 30 3e
       -0.017164014 -0.04513498 -0.0030835196 0.17265414
0000d0 d8 e2 9f bc 54 33 41 3e 30 31 27 bd 65 ca 1e c0
       -0.019517347 0.18867236 -0.040818393 -2.4811032
0000e0 31 db 29 bf eb 62 d4 3d ed 8b 28 bf fd a7 3c bf
       -0.66350085 0.103704296 -0.6583851 -0.7369383
0000f0 76 d8 f7 3d 35 ed 8a bb 38 fb ee 3c 2b 7d 2d 3e
       0.121018335 -0.004239703 0.029172525 0.16942279
000100 ee d5 3f 3d 40 e8 2e 3e 3f d5 22 bd 88 b3 11 3e
       0.04683488 0.17080784 -0.03975415 0.14228642
000110 58 d4 9e bf 4b 0c bd be e0 4b 1d bf ea 6e 1d 3e
       -1.2408552 -0.3692344 -0.614439 0.15374342
000120 6b 14 ef be 0a 52 08 3c 95 4c 39 3e 32 19 d5 bc
       -0.46695265 0.008320341 0.1809562 -0.02601299
000130 21 71 d3 be ce 30 7a be a9 ad 5b 3c 8b e6 41 3e
       -0.41297248 -0.2443268 0.013408103 0.18935601
000140 e9 c2 27 bf ec a5 8a bf ef 6a 05 bc 5a da e9 be
       -0.65531784 -1.0831885 -0.008143171 -0.45674402
000150 ce 9d 1f c0 17 73 60 3e 0a 89 80 3f 30 37 b8 3d
       -2.4940066 0.21918903 1.0041821 0.08994901
000160 bb 34 3f bc 83 2a 62 bf ab 8f 9d bf 8a 1d 0f 3e
       -0.011670287 -0.8834612 -1.2309469 0.13976112
000170 0e 5c 25 3e 44 ce a5 3a 29 a5 ff 3d 62 f6 ea 3c
       0.16148397 0.0012649973 0.12482674 0.028681938
000180 31 00 ad 3b 18 b0 41 3c dc a5 2f 3d 41 28 5a bf
       0.005279564 0.011821769 0.042882785 -0.8521767
000190 c2 f9 23 3d 87 ad 02 3c a4 2d 85 bc 37 29 fd be
       0.04003311 0.007975942 -0.016257115 -0.49445507
0001a0 f2 6d 6c bf e7 70 d8 ba 83 9c 19 3e 76 bb 41 3e
       -0.92355263 -0.001651314 0.1500111 0.18919167
0001b0 fe 63 17 3e b0 57 5c 3e 38 51 1c 3e c0 8b 37 3e
       0.14784238 0.21517825 0.15265357 0.17924404
0001c0 9e ba 4d 3e 05 f0 06 bd a8 46 04 c0 85 27 15 bd
       0.2009072 -0.032943744 -2.0668125 -0.036414642
0001d0 8b f9 1f 3e fe ab 03 3e b8 69 0d 3e 05 a2 0a 3b
       0.15622537 0.12858579 0.1380986 0.00211537
0001e0 17 04 40 bf 11 46 37 bf 01 2b fd bc 68 dd 3f 3d
       -0.7500624 -0.7159129 -0.030904295 0.04684201
0001f0 14 a8 27 bf 7c d4 b9 3d 41 cf 88 3b e9 7d 93 3f
       -0.6549084 0.09073731 0.004175097 1.15228
000200 49 5d 25 bf 0c 41 26 3e 6c 07 0a bf 1c 7e 22 bf
       -0.64595467 0.16235751 -0.53917575 -0.6347368
000210 49 c2 75 be 47 ed 6f bf fa c8 a5 bf 72 08 38 bd
       -0.23999895 -0.9372143 -1.2951958 -0.04492993
000220 5b 70 24 bc a6 74 52 3e 5f 28 b8 bc 3b 43 42 3e
       -0.010036553 0.2055231 -0.022480188 0.18970959
000230 11 d1 be bc 2c 59 69 3e b7 69 3d 3e f1 e1 79 bb
       -0.02329305 0.22787923 0.18497358 -0.0038129056
000240 5f 2d 7d 3e 9a f4 4a 3e 77 3e d7 3c 37 c7 50 3d
       0.24724339 0.1981987 0.026274903 0.050971236
000250 26 c2 3b bf c7 92 0b 3e 82 8f 25 bf b8 12 ca 3c
       -0.7334312 0.1363021 -0.646721 0.024667129
000260 c8 77 5d bf b7 a6 a4 3c ac 9b d4 bf cf db b5 ba
       -0.86510897 0.020099027 -1.6610007 -0.0013874712
000270 7d 88 33 3e 63 7a 2b 3c 3e d0 90 3c cf 52 35 3e
       0.17532535 0.010466191 0.017677423 0.1770737
000280 2a da 32 bf b6 8c ef 3d 4e e6 41 3b df aa 0a bd
       -0.6986414 0.1169676 0.0029586735 -0.03385436
000290 73 3d 98 bf 83 91 92 bf 9c f8 2a bf 1f aa 37 3e
       -1.1893753 -1.1450657 -0.667856 0.1793599
0002a0 07 c9 15 bf 15 a6 10 bf 88 b9 cf be 56 06 30 bd
       -0.5850987 -0.5650342 -0.40571237 -0.042974792
0002b0 1b c8 75 bf dd 47 6b 3f fe 7d c4 3c 5a 3a 1f 3d
       -0.9600846 0.9190653 0.023985859 0.038874008
0002c0 46 c2 4a bf e1 4d 14 3e 8f e1 0d 3d 09 a6 41 bf
       -0.7920269 0.14482833 0.034638938 -0.75643975
0002d0 c2 d2 1f bf 69 76 24 bc 39 f1 22 bf 4d a4 a1 bc
       -0.62430966 -0.010037997 -0.63649327 -0.019731665
0002e0 0d 14 30 bf c8 99 b0 bb 17 b8 d4 3d c2 40 49 3e
       -0.68780595 -0.005389426 0.10386675 0.1965361
0002f0 39 38 97 be 1e df 35 bb d4 7f 0b bd 5c fc 96 3d
       -0.29535082 -0.0027751396 -0.034057453 0.073723525
000300 73 99 71 ba 8b 7b bc bb 89 f3 3f 3e d4 6c 46 3e
       -0.0009216286 -0.005752032 0.18745245 0.19377452
000310 2d 7f 2d bf 4c c1 e9 be 7f 31 d9 ba 3b 9f a1 bf
       -0.6777218 -0.45655286 -0.0016570537 -1.2626718
000320 a4 7a 0c bc fd 5d 31 3e 45 3f 63 3e 97 80 05 3d
       -0.008574162 0.1732101 0.22192104 0.032593336
000330 58 ba 6c bf 0d de 58 3e 42 ab 29 3e 8b e7 77 3f
       -0.9247184 0.21178456 0.16569236 0.9683768
000340 19 e5 f0 be e3 26 0d bd d4 73 11 3d e9 08 0d 3e
       -0.47049788 -0.034460913 0.035510853 0.1377293
000350 64 b2 46 3e 3e 1c 34 bf 14 68 18 3e 08 88 63 3d
       0.19403988 -0.70355594 0.14883453 0.05554965
000360 3a 69 30 3d 30 e0 37 bf de 8a 1c 3d 55 75 37 3e
       0.043069102 -0.7182646 0.03821837 0.17915852
000370 5e 4f c8 bf 13 bf 76 3b 65 e4 87 bf 32 74 22 bc
       -1.5649221 0.003765051 -1.0616575 -0.009915398
000380 8a 00 5e bf 6e 7f 66 3f 8d b6 5f 3e 58 38 21 3e
       -0.8671957 0.9003819 0.21846981 0.1574415
000390 a3 00 19 bf bc 35 38 3e 83 6a 31 3e b9 ad 13 3e
       -0.59766597 0.17989248 0.17325787 0.14421739
0003a0 ce 16 4d 3e cc 74 d6 3c a0 9f ff bc ad 6f 71 bf
       0.2002823 0.02617874 -0.031204045 -0.9431103
0003b0 da 29 27 c0 4b b3 de 3c cb e1 6b bc ee 69 c5 bf
       -2.6119294 0.027185103 -0.014397095 -1.5422952
0003c0 6b 34 a6 be 4b 9b 2e bf 08 01 62 3e f3 69 06 c0
       -0.32461867 -0.6820571 0.22070706 -2.1002166
0003d0 c1 fe 7b bf 29 e6 2a 3e 17 85 c4 bf 27 1e 94 bf
       -0.984356 0.16689362 -1.5353116 -1.1571702
0003e0 d7 31 ca 3c eb bf 09 bc c2 89 3d 3e e0 a3 44 bf
       0.024681969 -0.008407573 0.18509582 -0.76812553
0003f0 be 82 70 3c 67 81 8f bf 04 8d 8e bf 11 b5 36 bf
       0.014679609 -1.1211365 -1.1136785 -0.71370035
