SAC_own_hardcore/sac_0/actor_sac.pth (torch, 533976 bytes, 8 tensors)

fc1.weight f4 [400, 24]
000000 20 dc 02 be a9 21 06 3e 7d d3 16 be f4 aa db bd
       -0.12779284 0.13098778 -0.14729114 -0.10725966
000010 59 c8 34 bd b8 b1 fb 3c 85 bc 45 be e7 ae e4 bd
       -0.04413638 0.030724391 -0.19310196 -0.111661725
000020 81 c4 a0 3d 3e 5b be 3c 3a be 89 3d 52 f0 e8 bd
       0.0784998 0.023236867 0.06725736 -0.113739625
000030 3a 85 2f be 66 48 57 bd a8 35 bd 3d 4d 43 cb bc
       -0.17140666 -0.05255928 0.0923875 -0.024812365
000040 6b 6d 1c 3d 1c bc 5d 3d a8 d5 ec 3d 6c 4f 25 bd
       0.038190287 0.054134473 0.11564189 -0.040358946
000050 28 8e 82 3d 88 02 3a 3e 41 a4 d5 3c 6e a1 30 bd
       0.063747704 0.18165028 0.026079299 -0.0431227
000060 44 aa d2 bd 8b 4b fc 3d 1c d3 33 be f4 6e d7 3d
       -0.10286382 0.12319096 -0.17561 0.105192095
000070 72 b6 05 be c7 59 55 3e 0a cc 47 3e 91 61 2e 3e
       -0.13057879 0.20835029 0.19511428 0.17029406
000080 2b 38 86 bc 93 36 23 be e9 07 f6 3c 9a ae e8 3d
       -0.016384205 -0.15938787 0.030033069 0.113614276
000090 f8 19 4e 3d 22 b3 ed 3d ad f2 07 be 2c 29 9f 3d
       0.050317734 0.116064325 -0.13276167 0.07771525
0000a0 8e 98 0a 3e 7c 72 92 bd 51 5a 1b be d4 5d ad 3d
       0.13534757 -0.071507424 -0.15171172 0.08465162
0000b0 d4 58 4c 3e 4f d5 7f 3d ec b8 0d bd 9c 0f 7a 3d
       0.1995576 0.062459286 -0.034600183 0.061050043
0000c0 4e e5 0a 3e 9d fc bb bd 3a 92 fd 3c ab 0c 1c be
       0.13564035 -0.091790415 0.030953515 -0.15239207
0000d0 71 8d 11 be 53 d8 05 3e 9a c8 0e 3d 92 c4 13 bd
       -0.14214112 0.13070802 0.034859277 -0.036076136
0000e0 ec d6 60 bc db 0c e7 bc 9c b2 e6 bb 31 c3 38 be
       -0.013723116 -0.028204372 -0.007040335 -0.1804321
0000f0 91 35 35 3e c4 08 ba bd 78 ee 98 3d 1b e7 d9 bd
       0.17696215 -0.09083703 0.07467359 -0.10639783
000100 d9 9f f0 bd 68 07 67 bd df 07 52 3e 76 5f 70 bd
       -0.117492385 -0.056403548 0.20510815 -0.05868479
000110 3f 47 be 3d 1f 6e ef 3d 2d f4 45 be cc f0 9a 3d
       0.09290933 0.11690926 -0.19331427 0.075654596
000120 33 70 46 3c c4 2a 34 3e 62 31 de 3d 35 dd 1f 3e
       0.012111711 0.17594439 0.10849263 0.15611728
000130 e2 1b cb bc 45 e2 3b be 77 98 93 bd c7 6b b7 bc
       -0.024793569 -0.18348034 -0.07206815 -0.02239026
000140 ae 11 f0 bd fe 93 5b 3d bf d1 93 bd 4e f0 2b 3d
       -0.11722122 0.053607933 -0.0721774 0.04197722
000150 9f 9e 6a 3b 26 54 00 bd 05 ac 34 bd dc 63 2a 3e
       0.0035800112 -0.03133025 -0.044109363 0.16639656
000160 99 2e 92 bd e8 84 96 3d 18 ec e4 3b 0a b6 10 bd
       -0.07137794 0.073495686 0.0069861524 -0.035329856
000170 9c 0a 18 3e 14 d6 0b 3e ef c5 b4 bd 5a 9d 9f bd
       0.14847797 0.13655883 -0.08826815 -0.07793684
000180 a3 78 ea 3d 75 2b 70 bd fe ca 21 3e 55 a9 15 bd
       0.11448791 -0.058635194 0.15800092 -0.03653844
000190 cf 33 f3 3d 15 67 f4 bd e0 f7 95 bd 45 75 d7 bc
       0.11875116 -0.11933724 -0.07322669 -0.026301036
0001a0 dd 2c 88 3d bb 3e 3f be 0c 3b 21 3e 38 de 16 3d
       0.06649182 -0.18676274 0.15745181 0.036833018
0001b0 87 c4 c9 3d ef 7f 1c 3e d8 bf 6d 3d ae ac 0e be
       0.09851938 0.15283178 0.058044285 -0.1393306
0001c0 4e b1 72 bd e1 9d 91 3c 0a 96 ac bd 16 cf db ba
       -0.059251122 0.017775478 -0.08427055 -0.001677009
0001d0 98 ee 52 be fe c0 e6 bc 94 e4 b5 3b 2c 2e 98 bc
       -0.20598829 -0.028168198 0.0055509303 -0.018576704
0001e0 b0 e2 d8 3d 72 e9 1f 3e 1b 2f 48 3e 68 de 1c 3e
       0.10590112 0.15616396 0.1954922 0.15319216
0001f0 57 a9 2f 3e 76 ae 0e be 69 ec fd bd 2b dc 4e bd
       0.17154442 -0.13933739 -0.12398607 -0.050502937
000200 bb b1 17 be fa ef 22 bb e2 e0 c2 bb 73 06 4a 3e
       -0.14813893 -0.0024862275 -0.0059472183 0.19729023
000210 8f 71 33 3e 27 6c 44 bd 3c 71 d1 3d 9f 46 0e 3e
       0.17523788 -0.047954705 0.10226676 0.13894127
000220 bc 94 15 3d 6d 72 a7 bd 99 d5 c7 3d dc 63 26 3d
       0.036518797 -0.08176122 0.097575374 0.040622577
000230 77 f8 3e 3e b6 c4 ae bc 9a 18 ce 3d 01 ad cb 3d
       0.1864947 -0.021334033 0.10063286 0.09945107
000240 33 18 0e 3e 51 c3 5f 3d 14 a8 49 bc 41 8e 9b bd
       0.13876419 0.054629628 -0.012308139 -0.07595492
000250 a7 bc 22 3e d3 35 cf bd bf d1 1d 3e 21 c4 fe bd
       0.15892278 -0.10117688 0.15412043 -0.12439752
000260 ec 56 31 3e c4 9b 03 be a4 bc 14 3d 26 a6 23 3c
       0.17318314 -0.12852389 0.036312714 0.009988343
000270 68 27 8e 3d 7f c3 81 bd 4d c2 7f bb e5 66 07 3e
       0.0694111 -0.06336116 -0.0039025724 0.13222845
000280 60 ec 91 3b 75 1a 0a 3e 47 30 36 bd d5 4f 4f bd
       0.004453227 0.13486655 -0.044479635 -0.050613243
000290 32 91 a9 3d 96 b3 40 3d a0 c4 da bd cb a0 b4 bd
       0.08279647 0.047046266 -0.106820345 -0.08819731
0002a0 8b aa 02 bd 12 70 3c bd e1 31 5e bd 60 14 0d be
       -0.031900924 -0.046005316 -0.054246787 -0.13777304
0002b0 f7 c9 37 3e 34 2f 3b bc 7e 5e 07 3e 57 f0 ea 3d
       0.17948137 -0.011424828 0.1321964 0.114716224
0002c0 60 2f 89 3d b8 e0 3e 3e 0d f3 16 be ae 01 37 bc
       0.06698489 0.18640411 -0.14741154 -0.011169834
0002d0 5f 87 36 3e da 87 e2 bd 10 aa 4e 3d 18 d6 0b 3e
       0.17825077 -0.11061068 0.050455153 0.13655889
0002e0 69 b1 d6 3d 5c b4 1d be 12 3c bb 3b 4b 67 0e bd
       0.10483057 -0.15400833 0.005713948 -0.034766477
0002f0 49 83 f0 bb 7b 92 a7 3d 5a 1d 21 3e fa ef 35 be
       -0.007339869 0.08182236 0.15733853 -0.17767325
000300 72 ff 52 3e 57 79 2e 3d 0f b1 8c bd 10 19 84 bc
       0.20605257 0.042596187 -0.06869709 -0.016125232
000310 c1 06 0e 3c f6 ac 24 3e 29 fa 5b bd 2f 9a 9d bd
       0.008668602 0.16081604 -0.05370537 -0.07695424
000320 45 0d ee bd 61 64 1c 3e 69 ed 0d be d4 3d 41 be
       -0.11623625 0.15272667 -0.13860096 -0.18871242
000330 e7 ed 95 3d 98 be 9a bd 4d e6 d7 bd bb fc ee 3c
       0.07320767 -0.07555884 -0.10541973 0.029173246
000340 28 26 27 3e a0 6e 0a 3e 5a 9e 8d bd 82 9c 30 3e
       0.16323149 0.13518763 -0.06914969 0.17247203
000350 23 5b 19 be 28 a6 58 bd 36 fe 81 3d ea cf d9 bd
       -0.14976172 -0.052892834 0.06347315 -0.106353596
000360 c7 8e f3 3d 25 bc 02 be 5c d7 8e 3d 47 d6 ce bc
       0.11892467 -0.12767084 0.0697467 -0.02524866
000370 4d 99 4d bc b3 52 2c be d8 d1 35 be ed b0 08 3e
       -0.012548757 -0.16828422 -0.1775583 0.13348742
000380 e1 d8 0b 3e 88 30 2f bd 7c 23 ca 3d 93 1e 8c 3c
       0.13656951 -0.042770892 0.09870049 0.017104423
000390 56 55 f5 3d 32 4a 39 bc bc 16 bf bd c9 2d b7 bd
       0.11979167 -0.011309193 -0.09330508 -0.0894428
0003a0 3e c3 44 be cc da d1 3d a0 83 b9 bd 0a 2c f6 bd
       -0.19215104 0.1024681 -0.090583086 -0.120201185
0003b0 88 37 a2 3d 64 98 ce 3d 90 64 28 be cd 9c e2 3d
       0.07920748 0.1008766 -0.16444612 0.110650636
0003c0 e1 11 13 bd 77 d6 1f be 6a bf 48 be 6a 2c 30 be
       -0.035905723 -0.15609156 -0.19604269 -0.17204443
0003d0 61 ac 03 be d2 e9 e1 bc 12 6a 17 3e 6e 38 42 bd
       -0.12858726 -0.027577315 0.14786556 -0.047417097
0003e0 80 34 46 3e c5 b5 83 bd 20 50 09 be 11 17 35 3d
       0.19355965 -0.06431154 -0.13409472 0.04421145
0003f0 35 e5 00 be 1b 77 09 be 6d 1b 67 3d 3d 1f 39 3e
       -0.12587436 -0.13424341 0.05642264 0.18078323

fc1.bias f4 [400]
000000 d0 09 09 3e fb d8 19 3e 29 c1 43 3e e2 56 b8 3d
       0.1338265 0.15024178 0.19116654 0.090009466
000010 2c 2f 5d bd 6e 17 01 be 63 2d 2b be df 85 40 3d
       -0.054000065 -0.12606594 -0.16716532 0.04700267
000020 ec c9 c7 3d e5 81 fe bd 61 62 37 bd ad bc 1c bd
       0.097553104 -0.12427119 -0.044771556 -0.038265873
000030 9e 53 04 bd 73 0e 85 3d da 99 dd 3d da b9 cd bd
       -0.032306306 0.064968966 0.108203605 -0.10045214
000040 da db b0 bd 32 c5 4d be f3 a4 9f bd 88 40 3f 3e
       -0.08635683 -0.20094755 -0.077951334 0.1867696
000050 f5 be f5 bd 8c 59 18 3e 62 fb 86 3d ce fb d2 bd
       -0.11999313 0.1487791 0.06590916 -0.10301934
000060 80 8e 13 3e 18 4f 82 bd ad 2e c8 3c a7 ca ab bd
       0.14409828 -0.06362742 0.02443632 -0.08388262
000070 f1 01 0e be 28 91 df 3d 1c ba 64 3d ac e5 f0 3d
       -0.13867928 0.10916358 0.05584155 0.117625564
000080 86 44 da 3c 5a bc ce 3d 42 85 b0 bd c7 d9 ed bd
       0.026644003 0.10094519 -0.08619167 -0.11613803
000090 cb 38 23 be fe 26 34 3c d6 1a d7 bc 87 b7 17 be
       -0.15939634 0.010995625 -0.026257914 -0.14816104
0000a0 47 ca 16 be ef 4d 4c be a1 71 39 bd 71 f5 4f 3e
       -0.147256 -0.19951604 -0.04527438 0.20308472
0000b0 b2 0a 93 bb 41 59 19 3e 1a 9a 40 3d 60 14 47 3d
       -0.004487359 0.14975454 0.047021963 0.048603415
0000c0 9d 1e 00 3e 30 08 4a 3e e8 27 38 3e c5 96 b9 3d
       0.12511678 0.19729686 0.17983973 0.0906196
0000d0 d5 9e 4c be 3a f4 f6 bd 00 a2 8b bc b7 ff bf bb
       -0.19982465 -0.12058301 -0.017045021 -0.005859341
0000e0 18 ba a0 3d f8 6c c6 bc 69 2c fc 3d 72 47 2c 3d
       0.078479946 -0.024221882 0.12313158 0.042060323
0000f0 f9 fc f4 bd 25 70 09 3e ca c6 3b 3d 25 e8 42 be
       -0.11962313 0.13421686 0.045843877 -0.19033869
000100 7d 6d ad bd e2 02 c4 bd dc 79 34 3d ef b6 92 bd
       -0.08468149 -0.09570862 0.044061527 -0.07163798
000110 dc ba 86 3d 39 93 b7 3d 77 3f 47 be 96 bc 72 3c
       0.06578609 0.08963627 -0.19457804 0.01481547
000120 01 36 28 be 88 ae 2b be 6b 3f 2a be 32 4f 94 3b
       -0.16426851 -0.16765797 -0.16625755 0.0045260424
000130 de c6 5b 3c c7 f8 1e 3e 3b 32 cf 3d 36 6c e8 3d
       0.013414113 0.15524589 0.101170026 0.113487646
000140 a8 e3 22 3d ca 74 dc 3d a1 ce 96 3b 1f e1 da bd
       0.03976789 0.10764463 0.004602269 -0.1068747
000150 8e d5 3d be 1c 42 58 bd b1 a7 42 3e 4c 2f 82 3d
       -0.18538496 -0.05279742 0.19009282 0.063566774
000160 aa 1d f7 bd 91 06 08 3e 43 b9 2a be 26 5d 26 be
       -0.12066205 0.13283755 -0.16672234 -0.16246471
000170 02 67 a2 bd 2f ba 01 3e 03 7e 28 3e 2b 98 a7 bc
       -0.079298034 0.1266868 0.1645432 -0.020458302
000180 e2 bd c4 3c 3d bd e6 bd 09 00 3f be 2f 8a 5e 3d
       0.024016324 -0.11266563 -0.18652357 0.054331
000190 75 11 37 3e 79 b2 79 bc e4 37 ac 3d 84 08 d2 bd
       0.17877753 -0.015240305 0.08409098 -0.102555305
0001a0 73 5e 80 bd 61 56 35 be d8 3c 9a bd d0 bd b5 bc
       -0.06268015 -0.17708732 -0.07531136 -0.022185236
0001b0 22 46 b0 bd 5d 72 ad 3d a9 4f 50 3e e8 b8 cb 3b
       -0.08607127 0.08469079 0.20342888 0.006217111
0001c0 76 6d de bd d1 cd 20 3e d5 60 93 3d 50 ec c9 3d
       -0.10860722 0.15703513 0.071962036 0.09859526
0001d0 6c c4 30 be 2b e3 1b be de 3d 66 bc 59 72 48 3d
       -0.17262429 -0.15223376 -0.014052836 0.048937175
0001e0 f6 52 d8 3d 5b aa fc 3d c9 df 29 3e c8 10 3c 3e
       0.105626985 0.1233718 0.16589274 0.18365777
0001f0 ca cd b5 3d 68 9e 4b 3e b9 97 47 be 14 d2 ce bd
       0.08877142 0.19884646 -0.19491471 -0.10098663
000200 ed 66 01 be 3f 54 0b be 8b a5 b8 3d 77 79 52 be
       -0.1263692 -0.13606356 0.0901595 -0.20554148
000210 b0 14 62 3d cc 83 8b 3d 07 5f f9 bc 0c 30 e1 bd
       0.05519551 0.06812248 -0.03044082 -0.10995492
000220 0b 94 aa 3d 21 90 51 bd 01 b9 e5 bd 70 bc 37 be
       0.08329018 -0.051162843 -0.11216927 -0.17942977
000230 fc ab f8 3d da 05 3e 3c e3 af b3 3d 42 e1 03 3c
       0.121421784 0.011598075 0.08773782 0.008049311
000240 cb 0b a8 bd 51 c4 ff bd 98 bc 38 3e 37 9d ca 3d
       -0.08205374 -0.12488616 0.18040693 0.098932676
000250 a5 2e 21 3e 55 d0 26 3e b8 47 d4 3d 5e f5 3d 3e
       0.1574045 0.1629041 0.10365242 0.18550631
000260 82 77 dc bd fd 56 37 be 22 77 00 3b e8 c4 f0 bd
       -0.10764982 -0.17904277 0.0019602259 -0.11756307
000270 8e 29 14 3e 0e ae 60 3d 6e 3f 0b bd e1 21 1c 3e
       0.14468977 0.05485349 -0.03399604 0.15247299
000280 a1 52 47 be 53 81 2d 3e 4f 93 41 3e 0b ac 14 3d
       -0.19465114 0.16943865 0.1890385 0.036296885
000290 e8 6d eb 3d 38 2f aa 3d 8b f9 c7 bd a9 e6 f8 3d
       0.11495572 0.083097875 -0.097643934 0.1215337
0002a0 ee 62 cb bd 7a 62 e1 3d dd d1 7d 3c 2d e6 f9 bd
       -0.09930979 0.11005111 0.01549193 -0.12202106
0002b0 51 37 d6 3d 22 d5 35 3d 8b 16 d0 3c 12 09 1d be
       0.104597695 0.044392712 0.025401374 -0.15335491
0002c0 65 fa 89 3d 3d 62 0c be dd d1 a9 3c 7d 19 b6 bd
       0.06737212 -0.1370935 0.020729953 -0.0889158
0002d0 39 6d 20 be fb bb 3a 3e c7 f5 40 be 34 5c d7 3d
       -0.15666665 0.18235771 -0.18843757 0.10515633
0002e0 71 a4 2b be 09 8f 4f be 64 28 04 bd a0 10 a9 3d
       -0.16761948 -0.20269407 -0.032265082 0.08255124
0002f0 05 0d 7d 3d 20 d7 98 bd f6 82 d2 bd 6c b5 88 3d
       0.061779995 -0.07462907 -0.10278885 0.066752285
000300 df 8a 23 3e 91 4c bc bd ff 0a 73 3d a7 03 2a be
       0.15970944 -0.091942914 0.05933666 -0.16602956
000310 d3 02 db 3d 42 7c d8 3d ae 49 f4 3d 7f 34 e6 3d
       0.10693898 0.10570575 0.11928116 0.112404816
000320 05 b6 46 be fc be 0c be a6 fc e7 bd 8d 4d 35 3e
       -0.19405372 -0.1374473 -0.11327486 0.17705365
000330 38 47 2a bd e2 e0 22 bd 00 a5 29 be eb cd 1e 3e
       -0.041571826 -0.039765246 -0.16566849 0.15508239
000340 d3 b3 4c be 0f bb e1 bd ac b7 0f 3c 7f 7a ed 3d
       -0.19990472 -0.11022007 0.008771818 0.1159563
000350 72 4f 2c be 8e 41 30 be 18 9b 43 3e d7 2b 8b 3d
       -0.16827181 -0.17212507 0.19102132 0.06795471
000360 80 8b 9e 3c 53 18 13 3e 5c 6b 07 3c f1 ec 68 bd
       0.019353628 0.14364748 0.008265343 -0.05686659
000370 30 5d c7 bd 12 e4 90 3d 6e 57 37 be de ab 2a be
       -0.09734571 0.07074751 -0.17904446 -0.16667125
000380 09 07 6b 3d 96 19 8d bc c2 45 50 3e c1 04 ec 3d
       0.057379756 -0.017224114 0.2033911 0.11524344
000390 ec c5 f0 3d f3 e7 0f 3e 60 b5 52 3e 18 47 17 bd
       0.117565006 0.14053325 0.20577002 -0.036933035
0003a0 fd ea 37 3e 18 24 b6 bd 1a 43 d8 3d 7b 5c df 3d
       0.17960735 -0.08893603 0.105596736 0.10906311
0003b0 ee cd e3 bc 86 19 3b 3d 3d f9 1c 3e fe 64 10 be
       -0.027808156 0.045678638 0.15329452 -0.14101025
0003c0 41 41 c2 3c bc ef 7d 3a 07 64 1a be e9 24 83 bc
       0.023712756 0.0009686907 -0.1507722 -0.016008811
0003d0 98 7f 40 3e 2e 8e f1 bd 25 dc 64 3d 5b e5 79 3d
       0.18798673 -0.11794697 0.05587401 0.061009746
0003e0 55 97 94 3d dd 79 af 3d df 26 4a be 80 8d 95 3b
       0.07255427 0.085681655 -0.1974139 0.0045639873
0003f0 7f c7 15 be 84 23 29 3e 2d 18 23 be fa a3 8e ba
       -0.14626883 0.16517454 -0.15927191 -0.0010882609

fc2.weight f4 [300, 400]
000000 bc 7c ae 3c 5f d7 f4 bc 2d 8e e1 3b 42 7c 08 bd
       0.021299712 -0.029887853 0.0068834038 -0.033321626
000010 f7 ab 21 bd 36 34 54 3c d8 91 31 bd 27 e5 b1 bc
       -0.03947064 0.012951901 -0.043351978 -0.021715714
000020 23 bf ac bc d6 42 19 3d 66 c7 92 3c 77 c4 3c 3d
       -0.021087235 0.037417255 0.017917346 0.0460858
000030 e6 88 1a bc d6 8f f8 3c 79 d5 1f 3c aa 39 32 3d
       -0.009432053 0.030342024 0.009755486 0.043512024
000040 8c 99 aa 3b 4f 24 12 bd 32 0a f6 bc c4 a4 e1 3c
       0.0052062925 -0.035679158 -0.030034158 0.027544387
000050 85 4f 9e 3c 68 2d 88 3c 01 c2 98 3c e2 a4 e8 bc
       0.019325027 0.016623214 0.018647196 -0.028398935
000060 7f 33 4b 3b 9f 12 ee bc f7 a4 33 bd 02 3f 98 3c
       0.0031006036 -0.029061614 -0.043858495 0.018584732
000070 14 a8 da bc 55 4a 1f 3d 3b d8 c5 3b 83 cc 42 ba
       -0.026691474 0.038889248 0.0060377396 -0.00074309873
000080 d9 8a f2 bc 78 ce 31 bd ab c8 11 3d 10 44 39 3d
       -0.029607223 -0.043409795 0.035591763 0.045230925
000090 31 dd d0 bc e6 f0 9d 3c 5c c1 5c 3c e0 8e 4c 3c
       -0.025496097 0.019279908 0.013473835 0.012485236
0000a0 ad 22 06 3d 58 d5 2f bd ab b1 e3 3c 80 72 d2 3b
       0.032747913 -0.04292807 0.02779468 0.006422341
0000b0 61 7d ac 3c 5d ba 91 3b e1 81 96 3c 31 4c 78 bc
       0.02105588 0.004447265 0.018372478 -0.015154884
0000c0 22 7a 96 3c 35 f1 18 bd cc 74 30 3d ad e8 b7 bc
       0.018368784 -0.037339408 0.043080136 -0.022449816
0000d0 2f b9 44 3d bd bc 41 3d d0 04 bb bb 21 27 12 bd
       0.048028167 0.047299135 -0.005707361 -0.035681847
0000e0 02 1f b8 3c a0 fd bf bc 4d 3f 47 bd 00 0b 0f 3d
       0.022475723 -0.023436368 -0.048644353 0.0349226
0000f0 f9 20 8b bc d3 ad 14 bd d6 72 71 bb 5f e6 31 bc
       -0.016983496 -0.036298584 -0.003684213 -0.010858147
000100 0b 39 0e 3d ab c4 04 bd de 65 af bc af 55 33 3d
       0.03472237 -0.03241412 -0.021410879 0.043782886
000110 a4 8c 0f bc 5d 72 af 3b 28 7a ea bc eb 4b 4b 3d
       -0.008761559 0.0053542093 -0.028622702 0.049632948
000120 70 c3 26 bd d8 2b 12 3d af 22 23 3d 9a e3 24 bd
       -0.040713727 0.035686344 0.039828 -0.04025612
000130 25 96 0c bd ae bc ea 3c 5e 3d 67 3c 72 4f f5 3c
       -0.034322876 0.028654423 0.014113752 0.029945109
000140 eb 06 e0 bc 6f 09 73 3c e9 73 6a bb ad 26 02 3d
       -0.027347049 0.014833792 -0.0035774654 0.031775165
000150 4a c6 ac bc 0c 54 1b bc c3 af 25 bd 39 b8 41 39
       -0.021090645 -0.009480488 -0.040450823 0.00018474543
000160 40 6c 80 3a b2 ce 04 bd c2 a7 fa 3c 53 f9 5a bc
       0.0009797886 -0.032423683 0.030597571 -0.013365108
000170 d4 48 8e 3c 52 a0 1a bd 68 cb 6d bc 0e d0 ec ba
       0.017368712 -0.03775055 -0.014513828 -0.0018067376
000180 9a 00 10 bd 12 9b 8d 3c f4 7e 01 3c c8 f9 61 3c
       -0.035156824 0.017285857 0.007903803 0.013792463
000190 92 75 05 bd 95 d3 ff 3c 59 29 b8 bc 11 1a 69 3a
       -0.032582827 0.03122882 -0.022480654 0.0008892129
0001a0 7e b9 f9 3c 3c f7 fc bc 08 c3 39 bc c3 ed b4 bc
       0.030483957 -0.03087961 -0.011338003 -0.02208603
0001b0 de a9 d2 bc 7e d1 b6 bc 01 c1 d5 bb 33 34 64 3c
       -0.025715765 -0.02231669 -0.006523252 0.013928461
0001c0 0b a6 29 bd c5 cf c1 bc 6e c7 4a bd 93 13 1c bd
       -0.041418117 -0.023658643 -0.049506597 -0.038104605
0001d0 66 78 9c 3c 76 55 cf 3c 2d b6 d6 bc ab b1 d7 bc
       0.01910038 0.025309306 -0.026209915 -0.026329836
0001e0 76 be 43 bd bb ee a1 3c 80 88 ea bb 06 37 01 bd
       -0.04778906 0.019767156 -0.0071573853 -0.031546615
0001f0 48 d6 0b 3c d3 18 60 3c 7c 37 6a 3c a6 d6 04 3b
       0.008534975 0.013677794 0.014295455 0.0020269542
000200 69 64 15 3d 3e b0 7d 3a 67 9f ee bb c3 c9 3e 3b
       0.03647271 0.0009677446 -0.007282186 0.0029111959
000210 3e 92 74 3c da 51 00 3d 92 2a 0c 3c 0f 70 18 3d
       0.014927445 0.03132806 0.008555071 0.037216242
000220 52 cf 3e bd cd 10 ab bc 4b 18 0f bc ad 3a c3 bc
       -0.046584435 -0.020882035 -0.008733819 -0.02383169
000230 ff 29 a8 bc 76 df ff 3c 38 e9 5e 3c 8d c6 ac bc
       -0.020527838 0.031234484 0.013605408 -0.02109077
000240 15 f3 b2 3c aa 94 11 bd 85 f1 34 bc e3 e4 c3 bc
       0.021844426 -0.035542168 -0.011043911 -0.023912853
000250 bd 36 ec bb 2d 41 f9 bc f4 c5 52 bc 69 98 06 bc
       -0.0072086737 -0.030426586 -0.0128645785 -0.008215048
000260 48 e7 06 bd 44 96 53 bd ed 3d c9 bc 5f 88 1a 3d
       -0.03293541 -0.051656976 -0.024565661 0.03772771
000270 be ce f7 bb be 06 08 bd 21 ef 64 3c 49 0d 2f bd
       -0.0075624874 -0.033209555 0.013973028 -0.04273728
000280 8e c6 1a bd 78 5b 02 bd 66 a7 ff bc d3 41 20 bd
       -0.037787013 -0.031825513 -0.031207751 -0.039125275
000290 04 8c e0 bc c0 7f f9 ba 3a a9 2b 3d 8b 76 3d 3d
       -0.027410515 -0.0019035265 0.041909434 0.04625563
0002a0 6a 6d 2c 3d 37 17 2e bd 6d ca ba bb 96 53 b3 3c
       0.042096533 -0.04250261 -0.0057004006 0.021890443
0002b0 e9 f6 1a 3c 56 0e 54 bc 66 3a 86 bc 2f 13 02 3d
       0.009458282 -0.012942871 -0.016385268 0.031756576
0002c0 d5 ad e9 3b 13 cb 05 bd e2 7d f2 3c 4e e4 93 3c
       0.007131318 -0.03266437 0.029601041 0.0180532
0002d0 80 06 68 3a 30 4c b8 3a 73 3a cb bc 6b 69 39 bd
       0.0008851066 0.0014060792 -0.024808144 -0.04526655
0002e0 00 09 c7 b9 69 6d 02 3d 1c 89 b2 bb 7d d5 42 3d
       -0.00037962943 0.031842623 -0.0054484736 0.04756688
0002f0 97 02 30 3a 9d eb bf 3b d4 b8 19 3c 0c 20 07 3c
       0.0006714253 0.0058569447 0.009382445 0.008247387
000300 34 35 1a 3c 8d b3 de 3c 87 a2 94 bc 81 f3 32 bd
       0.009412099 0.027185226 -0.018143905 -0.043689255
000310 27 29 0b 3d 79 89 ca 3b 08 fd 28 bd e9 1c 57 bd
       0.033974793 0.006180939 -0.041256934 -0.052517805
000320 07 85 13 bd e1 52 99 3c 24 23 b9 3c 13 75 d3 bc
       -0.036015537 0.018716278 0.022599764 -0.025812661
000330 01 9d 00 bd db 6f 15 3d 86 3e 34 bd 7d 10 73 bc
       -0.03139973 0.036483627 -0.04400494 -0.014835474
000340 7a 73 db bc ba 18 f9 3c ab b5 2b 3d 30 f5 43 3c
       -0.026788462 0.030407298 0.0419213 0.011960313
000350 2c ce d3 3b e8 b8 0f 3c f5 00 ce 3c a8 e2 f2 bc
       0.0064637866 0.008772112 0.02514694 -0.029649094
000360 7b c8 cf bb c0 f9 ae 3a fe f2 d9 3c ee ca fa 3c
       -0.006341038 0.0013349578 0.026605126 0.030614343
000370 92 6f 88 3c 8c aa 3f 3c 2b 01 13 bd 01 d8 b4 3c
       0.016654763 0.011698376 -0.035889786 0.022075655
000380 d5 4f 85 3b dc 6d ba 3c 79 1e fb 3b 91 e7 2e 3d
       0.0040683546 0.022757463 0.0076635447 0.042701308
000390 27 ab 0c bd 6b 97 24 bd 17 18 ce bc c3 41 14 bd
       -0.03434291 -0.040183466 -0.025157971 -0.036195528
0003a0 4c 93 19 3a 21 65 28 3d 68 1a 40 3c e7 47 a3 3c
       0.0005858436 0.04111207 0.011725046 0.019931747
0003b0 58 52 55 bc 04 a9 16 3d af 08 11 bd f9 1e 1a bc
       -0.013020121 0.03678228 -0.035408672 -0.0094067985
0003c0 38 d9 db 3b 52 ae e8 bb c7 17 32 bd a8 79 17 3d
       0.006709244 -0.0071008587 -0.043479707 0.036981255
0003d0 fe 6d 19 bd 20 ab 18 3c fa 61 3d 3c a8 30 d3 3c
       -0.037458412 0.009318143 0.011559004 0.025780037
0003e0 60 69 15 bd 61 a3 c7 bb 0e a9 22 3c 7d 7f 2c 3d
       -0.036477447 -0.0060924743 0.009928001 0.04211377
0003f0 a0 c3 d1 bc 55 7f 8a 3c ac eb 04 bc 6f ea 30 bd
       -0.025605977 0.01690642 -0.008112829 -0.043192323

fc2.bias f4 [300]
000000 d3 a6 1c bc 3b 00 67 3c 77 f0 0a 3d 17 d3 b4 bc
       -0.009561258 0.014099176 0.03392073 -0.022073312
000010 c9 2a d1 bc b8 e1 69 3c 19 a5 91 3c d2 b6 be bc
       -0.025533097 0.014275007 0.01777892 -0.023280535
000020 50 4e ee bc 66 bc 0d b9 1e ad d9 bc 4b 85 0a 3d
       -0.029090077 -0.00013516992 -0.026571807 0.033818524
000030 71 26 ce bc c7 d0 85 3c 93 16 b9 3c 10 0e 67 bc
       -0.025164815 0.016334904 0.022593772 -0.014102474
000040 6a 58 5a 3d ce b2 14 3d a9 ee 23 bd 24 30 79 bb
       0.053306974 0.036303334 -0.040022526 -0.0038023079
000050 14 c6 a4 bb a1 e9 41 3d a7 69 90 3c 36 07 19 3d
       -0.0050284956 0.047341947 0.017628504 0.037360393
000060 c1 c9 3a bd 66 dd 31 3d e2 33 76 bc a9 0d c0 bc
       -0.045602564 0.043424033 -0.015027018 -0.023444014
000070 38 79 2d bc 1e 72 6b 3c bf b6 45 bd 9e 50 22 3d
       -0.010587983 0.014370469 -0.048269983 0.039627664
000080 e7 a4 f2 bc 7f df 19 bd 99 0b 10 bd 1e ba 97 bc
       -0.029619647 -0.037566658 -0.03516731 -0.018521365
000090 72 45 87 bc 74 94 07 bd 40 f5 a5 3c 09 ca 46 3d
       -0.016512606 -0.03310056 0.020258546 0.04853252
0000a0 b4 9a 7b 3c 78 86 42 3d 4b 02 32 bd 08 cd 66 bb
       0.015356708 0.04749152 -0.043459218 -0.0035217423
0000b0 41 08 19 3c 08 61 2e bd 71 1e 42 bd b1 da ac bc
       0.009340347 -0.042573005 -0.047392312 -0.021100374
0000c0 c1 ac ff bb 3b 93 bf 3a 80 40 cd bc af 3a ae bc
       -0.0078025763 0.0014616022 -0.02505517 -0.021268217
0000d0 ef f3 6b 3c 89 aa 77 b9 48 ab 7d 3c d8 94 a5 3b
       0.01440142 -0.00023619285 0.015482731 0.005053144
0000e0 8a ce 50 bd 6e 64 cc 3b 17 22 12 3d 9d 8e 9f bc
       -0.05097822 0.006237558 0.03567704 -0.019477183
0000f0 4e 64 cb 3c eb ca 1e 3d 8a 1f 43 3c 19 df ae 3b
       0.024828102 0.038767736 0.011909375 0.005336654
000100 2b 77 df bb e7 db 05 3d cd b2 d9 bb 7f e5 46 bc
       -0.006819626 0.03268042 -0.006643629 -0.012139677
000110 ba 48 38 bd 52 ce 3f 3c c1 52 d6 bc 90 98 a2 3b
       -0.044991232 0.011706905 -0.026162507 0.0049620345
000120 c0 ef 6c 3c 60 bc 31 3d 44 fe d4 bc bf 94 13 bd
       0.014461458 0.04339254 -0.02600015 -0.036030527
000130 7e d1 73 bb 56 18 03 bd 26 3d 09 3c 01 6d 0e 3d
       -0.0037203724 -0.03200563 0.008376395 0.034771923
000140 47 1d 79 bc 7f 61 32 bd 17 be 55 3d 29 e0 8a 3b
       -0.015204734 -0.04355001 0.052183237 0.0042381478
000150 34 8f b7 3b e0 94 2b bd d3 38 a8 3a ca fe a3 bc
       0.005601788 -0.041890025 0.0012834318 -0.020018954
000160 07 53 c9 bc d0 59 f2 3b a2 1e e5 3c 02 45 82 3c
       -0.024575723 0.0073959604 0.027968708 0.015902046
000170 0b 55 c0 3c 57 d7 c7 3c 30 56 51 3b 94 fc 44 bc
       0.023478052 0.024394674 0.003194224 -0.01202311
000180 ac 85 89 3c 7c 36 a8 3c b7 15 42 bd 01 d7 71 3c
       0.016787373 0.020533793 -0.04738399 0.014760734
000190 f8 0e af 3c 56 0b 10 bd 1c a9 05 bd 49 8b 1a 3c
       0.021369442 -0.03516706 -0.03263198 0.009432622
0001a0 89 57 2a 3b 02 d4 13 3d 70 a2 d5 bc f1 d6 92 3c
       0.0025992116 0.03609086 -0.026078433 0.017924758
0001b0 16 89 cb bb 4b db bb 3c fb fa 69 bc a8 3c b6 3c
       -0.0062114103 0.022931715 -0.01428103 0.02224572
0001c0 f0 5b 16 bd 69 47 4f bd 59 f1 3e 3d 32 e9 e8 bc
       -0.036708772 -0.05060521 0.046616886 -0.028431509
0001d0 7d 6f 3e bd 1d 7c 91 bc 62 41 e3 3c df 28 34 3d
       -0.046493042 -0.017759377 0.027741138 0.04398429
0001e0 a0 58 28 bd f2 96 49 bd b9 f9 24 bd bd a6 22 3c
       -0.041100144 -0.04921622 -0.040277217 0.009927449
0001f0 c6 cd 82 bc ec 59 0a bd 9c d0 2f 3d 74 be ec ba
       -0.015967261 -0.033777162 0.042923555 -0.001806213
000200 cd 4a f6 bc 2e fd d3 bc 71 cc 1a 3d ef 05 01 3d
       -0.030064965 -0.025877561 0.037792627 0.0314998
000210 31 73 3e 3d 68 7c e4 bc 70 8a b7 bc d1 fd 4d 3c
       0.046496574 -0.027891353 -0.02240488 0.012572722
000220 bb be fe bb 90 d2 bd bb 98 19 c9 bb e7 bd 07 bd
       -0.0077742017 -0.0057929233 -0.006137084 -0.03314009
000230 7d c1 6f bc 5e 68 02 bd 6e 59 40 bd 28 c0 a2 3c
       -0.014633534 -0.031837814 -0.046960287 0.019867018
000240 e4 65 14 bd 90 0b 89 3c 87 69 2f bd 3a 2d 2c bc
       -0.036229983 0.016729146 -0.042825248 -0.01050883
000250 e1 8c 4a bd 4c 94 16 bc 7b 42 4a bd 0e c0 b0 3c
       -0.04945076 -0.00919063 -0.049379807 0.021575954
000260 79 c9 ef bc e8 12 09 3c 74 8f 05 bb d7 4c 8e 3c
       -0.029270874 0.008366324 -0.0020379694 0.017370624
000270 4b 16 c1 bc f9 f1 0f 3d 85 5a 0a 3d 5f ef 3b bd
       -0.0235702 0.035142872 0.033777732 -0.04588258
000280 e9 86 14 3d 49 3e 50 bc 7d 21 50 bb 35 e4 45 bd
       0.036261473 -0.012710162 -0.0031758242 -0.04831334
000290 68 ad bb bc 17 aa 40 bd 72 88 b5 bc 5b c5 44 3d
       -0.022909835 -0.04703721 -0.022159789 0.048039775
0002a0 d2 87 bb bb 78 85 d7 bc 3a 77 f0 bc 70 9b fe 3c
       -0.005722978 -0.02630876 -0.029353727 0.031079978
0002b0 a5 f2 2d 3c e2 7a 34 3d 2e aa 02 bb c1 64 9e bb
       0.010616933 0.044062503 -0.001993786 -0.004833788
0002c0 07 2f b4 bc a3 96 3e bd 00 01 89 3a 9c a4 8e bc
       -0.02199508 -0.046530377 0.0010452569 -0.017412476
0002d0 db 8a e2 3c 28 2c 28 bd 38 8f 4f 3b 96 92 41 3c
       0.027654102 -0.041057736 0.0031671058 0.011814734
0002e0 95 a6 41 3c d1 0b e4 bc 8b 7b 58 bd ed 77 4c bd
       0.011819501 -0.027837666 -0.052852195 -0.049919058
0002f0 0d db ed bc 20 b0 02 bb f7 2d 41 3c 35 c0 44 bd
       -0.029035116 -0.0019941404 0.011790744 -0.048034865
000300 dc af 65 3c a5 25 b0 bc 9b 6b d5 ba ba 50 5a bc
       0.014018979 -0.021502325 -0.0016282679 -0.013324911
000310 e9 2d e1 bc c8 ef 99 bc cd 58 ea bb 37 d9 24 bd
       -0.027487712 -0.018791094 -0.007151699 -0.040246215
000320 5d 72 f7 ba 21 0f 43 3d 5c b4 07 bd a8 f8 1b bd
       -0.0018878687 0.04762185 -0.03313099 -0.038078934
000330 65 ba 31 bd 63 7a 2d bd 91 38 ff bc 56 41 a8 3c
       -0.04339065 -0.042353045 -0.031154903 0.020538967
000340 d8 3d b9 3b 61 02 0d 3d 6b 06 7e bc a6 cc 6f bc
       0.0056531243 0.034426097 -0.01550446 -0.014636194
000350 10 92 1a 3d 76 d1 3f 3c 29 c8 38 bd 32 f9 8d bc
       0.037736952 0.011707654 -0.045112763 -0.01733074
000360 1c 8e e0 3c 17 f3 06 3d 21 b7 d5 3c db 3f 7e bc
       0.027411513 0.032946672 0.0260883 -0.015518154
000370 c9 ca f3 3c 93 9f 52 bd 88 c6 15 3d 7c 06 c0 bb
       0.029759781 -0.051421713 0.036566287 -0.005860148
000380 18 5d db 3c e2 ae ad 3c 29 1c 30 bd 8a 52 c6 3c
       0.026777789 0.021201555 -0.042995606 0.02420928
000390 5e d0 54 3c f1 2b b8 3c 93 04 c3 3c 41 43 36 3d
       0.012989132 0.02248189 0.023805892 0.044497732
0003a0 1f 26 0c bd c2 c6 e6 3c eb 33 ec 3c 01 c8 e2 bc
       -0.034216043 0.028170947 0.02883335 -0.02768326
0003b0 85 d7 35 3d 81 aa 1a 3d 2b 94 77 bc a7 4f 14 bc
       0.04439499 0.03776026 -0.01511101 -0.009052194
0003c0 d0 4b fe bc ef 13 8f 3c e6 26 4b bc 96 5f 4e 3a
       -0.03104201 0.01746556 -0.012399411 0.000787252
0003d0 3a e4 f9 bc d2 d4 2a bd d9 48 07 3d d5 3b 3a bc
       -0.030504335 -0.041706868 0.033028457 -0.011366804
0003e0 40 e5 99 bc 76 ea f0 3c 24 fe 8b 3c 65 26 98 bc
       -0.018786073 0.029408675 0.017088957 -0.018572995
0003f0 6f 13 dc bc e5 31 26 bd 98 9d f4 bb 8c 12 93 b8
       -0.026864735 -0.040574927 -0.0074650757 -7.012961e-05

mu.weight f4 [4, 300]
000000 c4 72 0b bd dd 65 a9 bc f8 45 ae 3c 4a 8c 3e bc
       -0.034044996 -0.020678455 0.021273598 -0.011630127
000010 7f a6 1f 3d f7 3f 8e bb d2 6c e9 3c 43 f4 94 3d
       0.038977142 -0.0043411213 0.028494272 0.07273152
000020 98 bb a0 ba 6a 7c 2a 3d a7 45 83 bc 85 b8 02 bc
       -0.0012262939 0.041622557 -0.016024424 -0.007978563
000030 dc 18 b7 bc ee f0 f1 bb 72 65 b0 3b 92 71 39 bd
       -0.022350721 -0.0073834574 0.005383187 -0.045274325
000040 02 de 5d bd 3d 9b e3 3c 1c 04 04 39 5d 1c 0a bc
       -0.0541668 0.027783984 0.00012590032 -0.008429614
000050 88 02 55 bc 0e 08 5b bd 30 e4 21 3d 4a 17 26 bd
       -0.013001092 -0.05347448 0.039524257 -0.040549554
000060 65 f9 17 3d 41 92 08 3d 5c bb 0e bd 4d 34 30 3c
       0.037103076 0.033342604 -0.03484665 0.010754657
000070 16 27 ef bc 29 c9 d5 3c 3f ae 8c bb 41 72 3f 3d
       -0.029193442 0.026096897 -0.0042932327 0.04673982
000080 84 ba 30 bd 1a a2 eb 3c b6 4a 28 3d cd 3b cb 3c
       -0.043146625 0.02876382 0.041086875 0.024808789
000090 e8 bf c6 3c e5 4f 14 3d 7e 96 22 3d b4 e4 87 3d
       0.02426143 0.036209006 0.0396943 0.066354185
0000a0 c0 21 e4 3c 6e 00 31 3d ac f8 55 bd 4c 31 ab 3c
       0.027848125 0.0432133 -0.052239105 0.02089753
0000b0 b3 dd 4b 3d 22 4b 93 bc 30 24 8d 3c 5e 7e 45 3d
       0.049771976 -0.017980162 0.01722917 0.048216216
0000c0 63 76 39 3c 52 1d ea 3c 92 3c 2c 3d 55 5a 16 3d
       0.0113197295 0.028578434 0.04204995 0.03670724
0000d0 5d e8 25 3d a8 a7 46 bd e3 cf 48 3d 9d c7 6f 3d
       0.040504802 -0.048499733 0.04902638 0.058539975
0000e0 0d bb 1b bd e6 a7 44 bd 7e 7e 08 bd cf fb 28 3d
       -0.038020182 -0.048011683 -0.033323757 0.04125577
0000f0 b4 ee ba bc de 99 28 bd ef 1b 28 3d 0e da ae 3b
       -0.0228189 -0.041162364 0.041042265 0.0053360527
000100 be 07 3f bc 40 66 fe 3c 47 04 88 3c d3 ec 80 bd
       -0.011659561 0.031054616 0.016603602 -0.06295171
000110 aa 77 15 3d 21 94 73 bd cd 3a df 3b 86 ca 96 bc
       0.036491074 -0.05946744 0.0068124295 -0.018407118
000120 c9 3b f6 bc 21 a8 ca bc 6d a3 3c bd 32 b2 c2 bc
       -0.030057805 -0.024738373 -0.046054292 -0.02376661
000130 54 28 35 bd 42 66 62 3b 84 58 05 3c dc 08 5c bc
       -0.044227913 0.0034545814 0.00813878 -0.013429847
000140 d4 0d 16 3d 1d 21 64 bd fe be 2f bc 11 66 49 bd
       0.03663428 -0.05569564 -0.010726688 -0.049169604
000150 fb 2e 16 3d 2d ab e1 bc a7 f4 5d bd 1b 67 dc bc
       0.036665898 -0.027547443 -0.054188397 -0.026904633
000160 6c 62 d7 bd cc 39 0f 3d 45 ff 56 bd 9c fd 27 bc
       -0.10516819 0.03496723 -0.052489538 -0.010253336
000170 08 e7 02 3d d0 b5 e6 bc a0 24 80 3a 12 39 06 3d
       0.03195861 -0.028162867 0.000977654 0.03276927
000180 40 dd 96 3b 22 1c 1b bb 04 ad f6 3c 2e eb 2d bd
       0.004604012 -0.0023667892 0.030111797 -0.042460613
000190 81 d5 0d 3c ab 1c 05 3d 01 7e 4b bd 0b ee dc bc
       0.00865686 0.032498043 -0.049680714 -0.026968976
0001a0 29 a7 ae 3d 69 3f 9b bd e8 36 aa 3b 68 62 80 bb
       0.08527977 -0.07580454 0.0051945336 -0.003917981
0001b0 6d 3a 52 bd 42 da 6e 3d fe 77 bf 3c b4 19 80 3d
       -0.05132525 0.058313616 0.023372646 0.062549025
0001c0 a7 69 1e bd c9 27 0c bd 54 7a 0c bd 79 85 3f bd
       -0.038674977 -0.03421763 -0.03429635 -0.04675815
0001d0 6a ff 3e 3d ea d3 dd bc a6 9a 8e bc eb 12 df 3b
       0.0466303 -0.027078588 -0.017407726 0.006807675
0001e0 a6 a8 6a bc 25 84 61 bd c6 63 22 3d be bf c4 3c
       -0.0143224355 -0.055057663 0.039645933 0.024017211
0001f0 a9 34 1e bd 7c 83 de 3b 35 58 66 bd 21 c6 40 bd
       -0.03862444 0.0067905765 -0.056236465 -0.04706395
000200 e7 0f 5b bc 29 92 5f 3d 85 32 a3 bd 04 0a 3c bd
       -0.013370491 0.05458275 -0.0796862 -0.04590799
000210 76 fa ef 3c 75 66 4c bc ae d0 66 bd 10 44 b4 bb
       0.029294234 -0.0124756 -0.056351356 -0.0055012777
000220 c3 ca 30 bd 5d 6a 42 bd 34 92 58 3d fd c2 9c 3d
       -0.04316212 -0.047464717 0.052873805 0.076543786
000230 e2 6d 32 3d 07 8f 2e bd 8d c8 2a bd 42 1e 81 3d
       0.043561824 -0.04261687 -0.041695166 0.06304599
000240 6d cb 1a 3d 6b 07 61 bc a5 fb 11 bd 8f 1f 5e bd
       0.03779166 -0.013734679 -0.035640378 -0.054229315
000250 b9 54 a2 bd e4 45 62 3d 34 99 d0 3c 54 a2 44 3d
       -0.07926316 0.055242434 0.025463678 0.04800637
000260 6d 4a f4 bc fd dc c8 3b c2 a4 fc 3c ee c7 20 bd
       -0.029820645 0.0061298595 0.030840281 -0.039253168
000270 5d ea 9e 3c 3f 65 34 bc bb d5 7c bd 9b 3d 0e 3d
       0.019398862 -0.011010467 -0.061727267 0.03472672
000280 92 4d 0c 3d 9d 17 39 bd 63 61 2d 3d 14 f7 4d bd
       0.034253664 -0.045188535 0.042329203 -0.05028446
000290 73 2b 7c 3d 82 ca 36 bd d4 4f a4 3b bd df 69 bd
       0.061564874 -0.04462672 0.005014399 -0.05709814
0002a0 b4 6c d8 3c 23 77 7a 3c dd 40 a4 3c a6 1a 12 3c
       0.026419021 0.0152871935 0.02005046 0.008917486
0002b0 75 11 41 bd a6 be b1 3b 01 21 0c 3d 72 17 6d bd
       -0.04713579 0.0054243384 0.034211162 -0.057883687
0002c0 6b a3 4f bd ab d0 08 bd ec 6c 8a 3c 57 52 94 bb
       -0.050692957 -0.033402126 0.016897641 -0.0045264172
0002d0 ae 73 93 bd ca ab 91 bb 02 3e 38 3d 11 7a 0f 3d
       -0.071997985 -0.0044455277 0.04498101 0.03502852
0002e0 4a 9f 11 3b 4c ea 20 bc f3 3a 09 3c f6 88 90 bc
       0.0022220188 -0.009821486 0.008375871 -0.017643433
0002f0 68 15 32 3c 02 c9 95 bc 09 1f 4f bd d5 f3 dd bc
       0.010869361 -0.018284325 -0.050566707 -0.027093807
000300 6b 89 72 bd 2b 6a 42 3c 5b fb 3a bc 23 c2 07 bd
       -0.059213083 0.011866133 -0.011412467 -0.033144128
000310 25 3f e7 bb e9 78 dc 3c 6b d3 df bc 2d 15 90 3d
       -0.007057088 0.026913123 -0.027322492 0.07035289
000320 23 2b 7b bd 2b 2e 6d 3d d2 90 19 3d 01 da 33 bd
       -0.061320435 0.057905357 0.037491627 -0.043909077
000330 d7 76 57 bd d0 8d b4 bc eb 7a ce 3d 85 33 20 3d
       -0.05260357 -0.022040278 0.100820385 0.039111633
000340 cb 96 2e bc c5 78 ef bc 12 01 52 bd 6c e3 5b 3d
       -0.010656069 -0.029232392 -0.051270552 0.053683683
000350 b2 18 58 bd f3 f9 b2 bd 15 ca c7 3c 8e 2a 7f 39
       -0.052757926 -0.0873908 0.024388352 0.00024334548
000360 0f e0 f3 bc da cf 20 bd d6 ce 19 bd e7 f6 bf 3c
       -0.029769925 -0.039260723 -0.03755077 0.023433162
000370 9d fe 25 bd 02 f7 7b 3d 53 b1 4b 3d 54 5e c5 ba
       -0.04052602 0.061514862 0.049729656 -0.0015058019
000380 8a 16 06 3d b4 54 0f bb d6 b8 7a 3c 4f 42 6e 3c
       0.03273634 -0.0021870555 0.015302857 0.014542176
000390 2c 97 1e bd cb a9 a0 bc a7 61 08 3c f6 07 19 3d
       -0.038718387 -0.019612214 0.008324063 0.037361108
0003a0 5f b2 58 bc e9 f9 7b 3d 13 40 22 bb f7 99 11 bd
       -0.013226121 0.06151763 -0.002475743 -0.035547223
0003b0 3e 9f 16 bd 45 9c 1e 3d 50 25 78 bd 50 40 fe bc
       -0.03677296 0.03872325 -0.06058246 -0.031036526
0003c0 fc 75 d0 bc 95 bf 27 3c 4b fd 7d 3d 3d 59 df bc
       -0.025446884 0.010238548 0.062009137 -0.027264232
0003d0 3a 5c 51 3d 14 e2 1a bd 75 2e 06 bd 8b e6 2a b9
       0.051113345 -0.03781326 -0.03275915 -0.00016298347
0003e0 fe 18 ba 3c 92 a6 2c 3b d1 19 12 3c 98 3a 30 bb
       0.022716995 0.00263444 0.008917288 -0.0026890393
0003f0 dc 4f 7f bc 4e 82 ed 3c c9 17 35 3d 9c 6d 3c 3d
       -0.015583005 0.028992798 0.044212136 0.04600297

mu.bias f4 [4]
000000 2d 78 38 3c d1 b7 e2 bb 8b 21 f1 3b 23 c5 06 bd
       0.011259121 -0.0069188853 0.007358735 -0.032902848

sigma.weight f4 [4, 300]
000000 d6 7f 32 bd bb e2 54 3d 2f fb d4 bc 2b 2b a9 bc
       -0.043578945 0.05197404 -0.02599868 -0.020650467
000010 70 cf d3 bc 4f b7 30 3c 60 6c 34 bd 00 88 33 bd
       -0.02585575 0.010785892 -0.044048667 -0.04383087
000020 25 1e 0b 3d 92 ee c0 3c 31 b7 14 b8 1a a2 0d 3d
       0.033964295 0.02355126 -3.545656e-05 0.03457842
000030 da f6 40 bd 0c 13 cb bb 3f a8 4a bd 31 1f 07 bd
       -0.047110416 -0.006197339 -0.04947686 -0.03298873
000040 c1 5f a5 bb f1 32 be 3c 1b fb e3 bb 57 96 6d 3d
       -0.005046815 0.02321765 -0.0069574243 0.058004703
000050 11 72 22 bc e4 87 1c bd 10 48 57 3d 80 a9 0e 3d
       -0.009914891 -0.038215533 0.05255896 0.034829617
000060 a5 cb d0 bc 35 f9 30 bc a0 ed 51 3b 2e 82 ab bc
       -0.02548773 -0.010801603 0.0032032505 -0.020936098
000070 68 83 35 bc 08 f1 0a bd f1 ca 4f bd 32 21 2f 3d
       -0.011078693 -0.03392127 -0.05073065 0.042756267
000080 d1 d7 68 3d 9f 9a 0b bd d8 81 28 3c 63 65 37 bd
       0.056846444 -0.034083005 0.010284863 -0.044774424
000090 28 0e 6c bd 1a 84 42 3d 3d 7c 1c 3d b3 60 83 3d
       -0.057630688 0.047489263 0.03820442 0.06414928
0000a0 3c fa 40 3d 10 6d 74 3d 3c 0c 57 bd bd c3 36 3d
       0.047113642 0.059674323 -0.052501902 0.044620264
0000b0 93 cc 18 bc b2 28 13 bd 48 8a 84 bc 6b 38 f1 bc
       -0.009326118 -0.035927482 -0.016179219 -0.029445847
0000c0 af 50 33 3d 72 52 3c 3d 2d d3 65 3c 79 e8 19 bd
       0.043778118 0.045977063 0.014027399 -0.03757522
0000d0 ee 12 48 3c 3b aa 53 3d 82 ca a5 bb bd f8 88 bc
       0.012211544 0.051676016 -0.005059541 -0.01672017
0000e0 d8 dc 85 3b 3a 13 22 bc 6e 94 1b 3d 61 a2 32 3d
       0.0040851645 -0.009892279 0.03798335 0.043611888
0000f0 da bd 56 3d e8 65 1c bd 8f c7 35 bd 37 a3 4d 3d
       0.05242715 -0.038183123 -0.044379767 0.050204482
000100 e9 7e 45 3c 36 a6 33 3d 1e 63 3a 3d 1d 3d d5 bc
       0.0120541835 0.043859683 0.04550468 -0.026030118
000110 d9 7c 42 bc 93 e9 36 3d 89 d9 34 3d f3 a3 f4 bc
       -0.011870586 0.044656347 0.04415277 -0.029863333
000120 5e 94 ee 3c 6f 7b 17 bb 7e dd 96 bc 2f b1 ad ba
       0.029123481 -0.0023114344 -0.018416163 -0.0013251657
000130 77 55 9a 3c 10 bb 5d 3d 0b 42 2e bd dc 36 5b 3d
       0.018839581 0.054133475 -0.042543452 0.053519115
000140 e5 64 6f 3d 5a 74 ec 3c fd c1 c5 3c 00 f4 7e bc
       0.05844583 0.028864074 0.024140352 -0.015561104
000150 a4 ee 61 3d 19 2e 48 bc cd 93 63 3d 18 e3 58 bd
       0.055159226 -0.012218022 0.055560876 -0.05295095
000160 d8 83 1b 3d 0f 9b 7c 3c f2 5b a3 3c 45 e9 5a bc
       0.037967533 0.015417828 0.019941304 -0.01336128
000170 b2 26 4d 3c ec e5 46 3c 4a 56 53 3d 42 02 06 bc
       0.012521433 0.012139779 0.051595964 -0.008179249
000180 12 4f 77 3d de 2d 91 bc c4 87 cc 3c 0f 28 ee 3c
       0.06037814 -0.017722066 0.024967082 0.029071836
000190 d5 05 cf ba a5 74 57 3d d9 ae ff bb 0b 23 0f bd
       -0.0015794585 0.052601475 -0.007802826 -0.03494553
0001a0 08 43 83 3c 1c 0c 01 bd ce 09 27 3d 86 a3 15 3c
       0.016023174 -0.03150569 0.040780835 0.009133225
0001b0 06 ce 6d 3c e4 c8 08 bc db ef 1b bd 00 dc c1 3c
       0.014514452 -0.008348677 -0.03807054 0.023664474
0001c0 70 cf 04 3b 7f e5 cb 3c 93 d6 ac bb 7c fd 17 3d
       0.0020265244 0.024889706 -0.0052746027 0.037106976
0001d0 8c 7f 0d 3d 5d bb 53 bd 44 00 13 bd 2a a9 21 bd
       0.034545466 -0.051692355 -0.035888925 -0.039467968
0001e0 55 5d 28 3d 0c 6f b0 bc 8f cf 54 bb 4d 49 27 bd
       0.041104633 -0.021537326 -0.0032472347 -0.04084139
0001f0 44 e8 cc bc 2e 5b f7 bc 30 6b 0f 3d 38 7f 4d bc
       -0.025013097 -0.030194845 0.03501433 -0.012542538
000200 57 25 34 3d 83 03 19 3d 15 00 3e bc 31 da 7d bb
       0.043980923 0.037356865 -0.011596699 -0.0038734789
000210 d9 26 2c bd b0 39 78 bc 08 e8 35 bd 63 8a fa 3c
       -0.042029236 -0.0151504725 -0.044410735 0.030583566
000220 f7 1f 73 3c da 64 60 bd c6 f7 02 3d 64 95 bb bb
       0.014839164 -0.05478368 0.031974576 -0.005724596
000230 9d d5 09 bc 0e bb f5 3c 9c 06 0f bd 32 c9 eb 3c
       -0.008412746 0.029996421 -0.034918413 0.02878246
000240 b1 16 8e 3b 9b ea a4 3b a1 4f cf bc 0f 34 3c 3d
       0.004336201 0.00503285 -0.025306525 0.045948084
000250 ba 86 69 3d 2f 6b fc 3c c2 26 4d 3d 40 bd a9 3b
       0.05701325 0.030812828 0.05008579 0.005180031
000260 8d a3 0e bd 95 ac f9 3c e8 25 b3 3c e3 7c 37 3d
       -0.034823943 0.030477801 0.021868661 0.044796836
000270 2f bf 48 3d 86 6b 87 bb 25 56 ea bc db bc bc bc
       0.049010452 -0.004132691 -0.02860553 -0.023039272
000280 85 26 c3 3c 1e a8 09 3c 39 48 4c 3d 82 ba 6c bc
       0.023822078 0.008401899 0.049873564 -0.014448764
000290 df af 2a 3d 20 24 a7 3c 6e 4c ba 3c e5 85 31 3d
       0.04167163 0.020402968 0.022741523 0.043340582
0002a0 2c a5 26 3d 3b b7 50 bd 80 29 1e 3d fe 1d 61 3c
       0.040684864 -0.050955992 0.038613796 0.013740061
0002b0 98 45 72 3d b1 3a 12 3d 41 09 20 bc 3f 49 08 3c
       0.0591484 0.035700504 -0.009767831 0.0083182445
0002c0 30 72 e7 3c 5a e0 59 bd 00 ec 68 3d 10 f7 d7 bb
       0.028252691 -0.053192474 0.056865692 -0.0065907314
0002d0 40 81 ae 3c 02 5e 86 bb 29 e2 76 3d 31 3f a4 3c
       0.021301866 -0.004100562 0.060274277 0.020049663
0002e0 1b 7a 2e 3d 04 f2 31 3c 36 5d bf bc 10 b4 b8 3b
       0.042596918 0.010860924 -0.023359876 0.0056366995
0002f0 61 04 dc 3c ca 0b 22 3d 58 93 09 bd c8 05 32 bd
       0.026857557 0.039562024 -0.033587784 -0.043462545
000300 dd 7f e0 3c 37 38 90 3c fa 50 e1 bc ea dd 36 bd
       0.02740472 0.01760493 -0.027504433 -0.044645227
000310 aa 02 43 3d 2e 97 1b bd b9 85 d3 3b 78 06 bd 3a
       0.047609963 -0.037985973 0.00645515 0.0014421484
000320 00 11 5c bc 32 35 44 bc 30 1e 2e 3d a3 96 b1 3c
       -0.0134317875 -0.011975573 0.042509258 0.021678274
000330 ca 8c ac 3c d6 b2 c5 3c ae c6 92 3a 2f e0 88 bb
       0.021063227 0.024133127 0.0011198127 -0.0041771154
000340 69 f8 3a 3d 86 2d 3c 3d e4 e9 a8 3c e0 14 4e 3d
       0.04564706 0.045941852 0.02061934 0.050312877
000350 f2 50 a0 3c 37 c9 97 bc 5d 8b e6 3c 49 9b 93 3c
       0.019569848 -0.018528564 0.028142625 0.018018382
000360 08 37 5d 3c 9d e2 3c 3c 45 7b bf ba 3c be 55 3d
       0.01350189 0.011528638 -0.0014608881 0.052183375
000370 c5 e7 4f bc 7f 86 44 bd 25 31 12 3d 3d 69 aa bc
       -0.0126895355 -0.047979828 0.0356914 -0.020802135
000380 c5 ef 24 bd 08 5d 46 bd ed 72 3b bd b1 8f ee bc
       -0.040267725 -0.048428565 -0.0457639 -0.029121252
000390 c0 05 5f 3d 36 eb ca bc b5 9f 76 3c 60 4c 93 bb
       0.054448843 -0.02477036 0.015052726 -0.0044951886
0003a0 72 e9 11 bd e4 65 54 3d 44 90 ab 3b 4c 37 3e 3d
       -0.03562302 0.051854983 0.0052357037 0.046439454
0003b0 4d d0 a0 bb 54 a5 4e 3d 2d 67 23 bd 18 6f fe 3c
       -0.004907644 0.050450638 -0.039893318 0.031058833
0003c0 d9 61 0e 3d 46 53 1e bc 46 36 74 3d b8 81 05 bd
       0.034761284 -0.009663409 0.05962207 -0.032594413
0003d0 b9 aa 00 bd 8e a3 68 3d c6 c9 3c bd ba 26 9e 3c
       -0.031412814 0.056796603 -0.046090864 0.019305576
0003e0 55 01 61 3d 63 39 40 bd 9a 6c e7 bc c8 f5 0e bc
       0.05493291 -0.04692973 -0.028250027 -0.008725591
0003f0 39 9b 82 bb 90 4b 4d bd 3a 03 49 3d 7a 38 63 3d
       -0.003985789 -0.05012089 0.049075343 0.055473782

sigma.bias f4 [4]
000000 cd a5 24 bd 70 b7 37 3a 99 4f 06 3d a5 9f 1c 3d
       -0.040197182 0.00070082303 0.032790754 0.038238186
