SAC_own_hardcore/sac_0/critic_1_sac.pth (torch, 531386 bytes, 5 tensors)

fc1.weight f4 [400, 28]
-0.031449493 0.1350248 -0.32097757 0.15939932 -0.084801406 0.06518073 -0.17269886 -0.03334059
0.018780492 -0.0023335316 0.0019342778 0.10332304 0.09724892 0.04127184 0.12172838 0.014600987
0.07103414 0.05208386 -0.05481936 0.034188513 0.0019484347 0.008022843 -0.008187558 -0.06881506
0.08601629 0.14827484 -0.18850388 0.040524762 -0.029188378 -0.3264713 0.09998606 0.07168914
0.08404023 0.15200521 0.1375961 -0.25937003 -0.039439183 0.1870416 0.03336214 -0.011984155
0.14825007 -0.19740885 -0.1366514 0.0071371067 0.056348708 0.19267114 0.11765056 -0.15829562
0.026376925 0.12641506 0.014677138 -0.0061675115 -0.14887677 -0.057106726 -0.091662906 0.023200339
0.069575176 -0.07221694 -0.17469916 -0.07201568 0.1422176 -0.23057705 -0.12747085 0.21923615
0.14051263 0.10638057 -0.13184245 0.14673111 0.08777163 -0.046463892 -0.124937184 0.033692017
-0.08321617 -0.15447886 0.046809405 -0.0670511 0.024719683 0.058073375 -0.042393725 0.18334247
-0.025889775 -0.16810822 0.024499372 0.22369558 0.17286333 0.30944437 -0.22311476 0.030153206
0.17067702 0.011174538 -0.20071006 0.20731162 0.13455789 0.14751694 -0.09975467 0.029030202
0.10724394 0.1923821 -0.106718056 0.19031462 -0.108425416 0.1185051 0.15732877 -0.011120355
0.07585721 -0.03088387 -0.146944 -0.12975115 0.1191623 -0.18210776 0.1825719 0.049960554
-0.11786501 0.050643075 -0.21348011 -0.098859645 -0.016573522 0.15364361 -0.12708075 0.05602141
0.13414279 0.02652398 0.110403575 -0.15890026 0.06828878 0.15669267 0.13049752 -0.05738846
-0.13156597 0.03445707 -0.1497246 0.071585454 -0.03523309 0.056004424 -0.025322776 -0.07972274
0.099778585 -0.17817208 0.1563752 0.060065243 -0.07961998 -0.19294055 0.019055793 0.018030444
-0.036152404 -0.16501984 0.08010034 -0.06292536 -0.20417695 0.06710955 -0.18000092 0.086392
-0.18465309 -0.1405626 -0.14111184 -0.1712036 0.104296885 0.12802379 -0.12041074 -0.028620161
0.10767243 -0.122460745 -0.09519322 -0.027479084 0.16420704 -0.15517725 0.050580334 0.25748086
0.049800776 -0.0820823 0.01497687 0.082859784 0.17196138 0.15065005 -0.19719239 -0.016217668
0.10145648 -0.17531575 -0.09206158 -0.20831147 -0.16960055 -0.048050225 0.11012912 -0.011157681
-0.1012718 -0.018655017 -0.14391977 0.13852696 -0.040501013 -0.060831584 0.16927075 0.06969442
0.13860464 -0.11970605 0.1582976 0.102448404 -0.12408061 0.40639338 -0.32891986 -0.21036229
-0.098685 -0.067637905 0.12941682 0.065685384 -0.1770239 0.11286096 -0.1821697 -0.018333571
-0.01254903 -0.23028596 0.1865402 -0.09797277 0.09195991 -0.018847968 0.06331071 -0.01811876
0.15006918 -0.09354768 -0.0069016847 0.16780418 0.044802368 -0.0045503033 -0.20775783 -0.042138726
-0.0579854 -0.2740704 0.14879593 -0.113891646 -0.081187725 -0.106055684 0.21316884 0.061119962
0.1701207 -0.19477695 0.025315857 0.014797092 0.18060446 0.06968351 0.11490053 0.020583063
-0.1416727 -0.1634012 0.030934125 0.182441 0.06558991 -0.1221047 0.09390946 -0.063025236
-0.051922206 -0.01580375 0.046799287 -0.13685696 0.14405282 0.33423582 -0.2087234 -0.07935306
00000000: 2fd1 00bd f143 0a3e 2c57 a4be 9339 233e
00000010: 5cac adbd 797d 853d f8d7 30be 2490 08bd
00000020: 8cd9 993c 2aee 18bb 9887 fd3a 089b d33d
00000030: 712a c73d a90c 293d bb4c f93d fa38 6f3c
00000040: 597a 913d e355 553d 448a 60bd 4109 0c3d
00000050: 9f62 ff3a 3e72 033c 1b25 06bc e9ee 8cbd
00000060: 4f29 b03d 5cd5 173e 2907 41be 4bfd 253d
00000070: 771c efbc 3f27 a7be 7ec5 cc3d c1d1 923d
00000080: 491d ac3d 41a7 1b3e fee5 0c3e 26cc 84be
00000090: fb8a 21bd d587 3f3e bda6 083d 3059 44bc
000000a0: dece 173e 8c25 4abe 58ee 0bbe 64de e93b
000000b0: e7cd 663d 954b 453e c7f2 f03d 3f18 22be
000000c0: 6c14 d83c f372 013e 6178 703c d618 cabb
000000d0: 2773 18be bee8 69bd c3b9 bbbd a30e be3c
000000e0: 6e7d 8e3d 7ae6 93bd 56e4 32be f57c 93bd
000000f0: 7ea1 113e 641c 6cbe b887 02be 717f 603e
00000100: 8be2 0f3e 0ede d93d b501 07be ae40 163e
00000110: 9dc1 b33d ec50 3ebd 11df ffbd a400 0a3d
00000120: 3d6d aabd b52f 1ebe 38bb 3f3d 1652 89bd
00000130: ef80 ca3c 59de 6d3d 0ba5 2dbd 21be 3b3e
00000140: cb16 d4bc 9024 2cbe e8b2 c83c 7410 653e
00000150: 1603 313e 7e6f 9e3e 3278 64be db03 f73c
00000160: f5c5 2e3e 6915 373c f086 4dbe 7f49 543e
00000170: 8bc9 093e ae0e 173e 2d4c ccbd bfd0 ed3c
00000180: b6a2 db3d d0ff 443e ff8e dabd d6e1 423e
00000190: 250e debd cdb2 f23d cb1a 213e 2632 36bc
000001a0: 065b 9b3d 2b00 fdbc 7d78 16be 7cdd 04be
000001b0: 5d0b f43d 757a 3abe 21f4 3a3e 70a3 4c3d
000001c0: 3663 f1bd 1d6f 4f3d 889a 5abe ed76 cabd
000001d0: 32c5 87bc c054 1d3e 7521 02be b576 653d
000001e0: ba5c 093e d148 d93c 451b e23d c0b6 22be
000001f0: fdda 8b3d 0b74 203e 24a1 053e 2910 6bbd
00000200: 3bb9 06be db22 0d3d 6851 19be 659b 923d
00000210: 9350 10bd e564 653d b671 cfbc ad45 a3bd
00000220: b758 cc3d be72 36be d220 203e f906 763d
00000230: cd0f a3bd 3592 45be e51a 9c3c 95b4 933c
00000240: 8b14 14bd f6fa 28be a60b a43d 03df 80bd
00000250: c313 51be bb70 893d 2952 38be 4aee b03d
00000260: b315 3dbe a4ef 0fbe 9f7f 10be ff4f 2fbe
00000270: 9b99 d53d ab18 033e e899 f6bd d474 eabc
00000280: 5d83 dc3d b3cc fabd aaf4 c2bd d11b e1bc
00000290: e425 283e c9e6 1ebe 532d 4f3d 88d4 833e
000002a0: e6fb 4b3d c41a a8bd 8c61 753c 64b2 a93d
000002b0: a516 303e 0244 1a3e cdec 49be eada 84bc
000002c0: 6ac8 cf3d f985 33be c88a bcbd 9a4f 55be
000002d0: c4ab 2dbe 50d0 44bd 608b e13d b5ce 36bc
000002e0: 9767 cfbd 68d2 98bc b45f 13be 03da 0d3e
000002f0: 64e4 25bd 8a2a 79bd 5055 2d3e f3bb 8e3d
00000300: 60ee 0d3e 7228 f5bd c418 223e 78d0 d13d
00000310: fa1d febd cb12 d03e 2f68 a8be 3669 57be
00000320: 5c1b cabd be85 8abd d885 043e 0f86 863d
00000330: c145 35be a623 e73d b28a 3abe 4930 96bc
00000340: 729a 4dbc 15d0 6bbe 6504 3f3e f3a5 c8bd
00000350: 7a55 bc3d 0e67 9abc 0ca9 813d cb6d 94bc
00000360: bcab 193e ed95 bfbd 8727 e2bb dcd4 2b3e
00000370: b082 373d b61a 95bb 78be 54be a899 2cbd
00000380: 1982 6dbd f552 8cbe f65d 183e 0640 e9bd
00000390: c045 a6bd b933 d9bd ef48 5a3e ed58 7a3d
000003a0: 1f34 2e3e 9c73 47be 3363 cf3c 816f 723c
000003b0: 60f0 383e 3ab6 8e3d f850 eb3d d09d a83c
000003c0: a612 11be a552 27be 9069 fd3c d0d1 3a3e
000003d0: 0154 863d 0712 fabd 9a53 c03d 6013 81bd
000003e0: 61ac 54bd de76 81bc 9cb0 3f3d 3b24 0cbe
000003f0: 9582 133e f520 ab3e 96bb 55be db83 a2bd

fc1.bias f4 [400]
0.09605934 0.19006142 -0.059749734 -0.086314976 0.096165225 -0.08836879 0.10693284 0.12219114
0.012245276 -0.072684355 -0.07988099 -0.007670426 0.006905891 0.09642542 -0.11310644 0.18198237
0.21025193 -0.0026578526 0.13028051 0.15354271 0.05614807 -0.033598293 0.15497693 0.18677938
-0.03595785 0.096411854 0.19366243 0.010872349 0.105700836 0.17818294 0.14916606 0.11347235
-0.14300263 0.15863477 -0.057066333 -0.14652601 -0.10696598 0.036479607 0.09654712 0.073829904
-0.14068528 -0.051621903 -0.0772115 -0.1408634 -0.06364126 -0.1698782 0.20343699 0.067339234
-0.016321387 0.1901934 0.080738 -0.07780439 -0.093654945 0.08192744 -0.017030438 -0.11849027
-0.11348527 0.01893312 0.029311754 0.06621577 0.061143525 -0.1040745 0.061379876 -0.18602352
0.18522412 -0.07315568 0.19599207 -0.099440165 -0.15291494 -0.054388423 -0.047919177 0.075021364
-0.05705098 -0.07926827 0.20785454 0.057141714 0.18970987 -0.09356701 -0.11179116 -0.13221677
-0.1518223 0.15705359 -0.031310372 -0.10427289 -0.119380735 0.19505921 -0.030074248 0.034920912
0.15778355 0.112436876 0.018468013 -0.0660965 0.059465565 -0.1425998 -0.08123915 -0.08294855
-0.17404571 0.02423864 -0.10948008 -0.1263921 0.09947209 -0.1250517 -0.09936094 0.03407333
0.061483808 -0.14661889 -0.1472677 -0.12871943 0.20687555 0.12351451 -0.050745584 0.06042476
0.03044451 0.13677722 -0.03993696 -0.00434015 0.01678242 0.012163064 -0.1703352 0.04971967
-0.05698043 0.17579359 -0.07568105 -0.14692718 0.17810328 -0.10235107 0.13338858 0.058153994
-0.044129014 0.19226274 0.15291575 -0.13942367 -0.11363366 0.11078697 0.17958458 -0.06260113
0.06976908 -0.024726842 -0.13418375 -0.11207788 -0.026729882 0.033424105 -0.11206845 0.044859014
-0.14394335 -0.0873415 0.20456702 0.11368508 0.16081418 -0.17733206 0.061121874 -0.017657606
-0.032373805 -0.15351269 0.17441551 0.03868164 0.064124055 0.07868629 -0.15489723 -0.06779067
0.077012755 -0.1147632 -0.17216526 0.027515791 -0.08249662 0.015329014 0.042937823 0.06721981
0.20868804 0.14217809 -0.06935351 -0.09131333 -0.048672426 -0.17256086 -0.09557643 0.037682112
0.052598204 0.017371545 -0.0058297263 0.13524914 0.06585588 0.13575228 0.17458612 -0.052654773
-0.08745905 -0.04861572 0.05643136 -0.079436615 -0.100052305 -0.012128348 0.014225257 0.18155433
0.013197278 0.14023697 0.0023879663 -0.064304814 0.10608747 -0.06280759 -0.18135092 -0.05249513
-0.04343297 0.017166357 0.17206062 -0.05342417 -0.098718956 0.15198845 0.018912334 0.19695714
-0.12962241 -0.007853701 0.18829326 0.008688689 0.1477465 -0.08776975 -0.06896639 -0.19471611
-0.077877 0.17190404 0.082552694 -0.034910582 -0.14151698 -0.04987544 -0.025444154 0.09102703
0.075134814 0.16368477 0.06956149 -0.08241953 0.039647505 0.18220116 -0.020028897 0.06532006
-0.075739086 0.1773211 -0.170858 0.032844476 0.04383053 0.036019836 -0.1780513 -0.033509567
0.021226354 -0.003820476 0.116838224 -0.12380639 -0.10008423 0.09955188 -0.036012124 0.15431969
0.056881383 0.12129286 0.05978982 0.032383543 -0.087784015 0.15179344 0.18142597 -0.01759455
00000000: c2ba c43d 769f 423e 23bc 74bd e8c5 b0bd
00000010: 46f2 c43d b2fa b4bd 9bff da3d 593f fa3d
00000020: 69a0 483c 89db 94bd a598 a3bd 3258 fbbb
00000030: d04a e23b b17a c53d 59a4 e7bd 9659 3a3e
00000040: 484c 573e 5e2f 2ebb 4168 053e 4d3a 1d3e
00000050: 85fb 653d 5d9e 09bd 46b2 1e3e 1843 3f3e
00000060: 8a48 13bd 9473 c53d 724f 463e f021 323c
00000070: ae79 d83d 9775 363e fdbe 183e 3164 e83d
00000080: 486f 12be 2771 223e 63be 69bd ea0a 16be
00000090: fb10 dbbd a46b 153d 7fba c53d 2234 973d
000000a0: cd0f 10be 7d71 53bd 1021 9ebd 7f3e 10be
000000b0: 5956 82bd 8df4 2dbe c951 503e 27e9 893d
000000c0: 6eb4 85bc 0fc2 423e f759 a53d e857 9fbd
000000d0: 2ace bfbd 93c9 a73d 6b83 8bbc 07ab f2bd
000000e0: f76a e8bd a119 9b3c 341f f03c 229c 873d
000000f0: a271 7a3d 0325 d5bd 7769 7b3d f37c 3ebe
00000100: 64ab 3d3e a5d2 95bd 25b2 483e 49a7 cbbd
00000110: bc95 1cbe 65c6 5ebd e646 44bd cda4 993d
00000120: 4aae 69bd 6757 a2bd d2d7 543e 6e0d 6a3d
00000130: 4e43 423e 0fa0 bfbd c4f2 e4bd d563 07be
00000140: 4e77 1bbe a8d2 203e 4e3f 00bd 068d d5bd
00000150: e37d f4bd 9abd 473e 455e f6bc 3b09 0f3d
00000160: 0392 213e 4e45 e63d 3b4a 973c 9a5d 87bd
00000170: 2a92 733d af05 12be b660 a6bd eee0 a9bd
00000180: 0a39 32be 1d90 c63c 1837 e0bd ee6c 01be
00000190: 06b8 cb3d 8e0d 00be c07d cbbd 7a90 0b3d
000001a0: 72d6 7b3d 4323 16be 58cd 16be 07cf 03be
000001b0: 2fd7 533e 2df5 fc3d 9ada 4fbd f47f 773d
000001c0: c466 f93c 540f 0c3e f094 23bd d137 8ebb
000001d0: 497b 893c 9747 473c 5a6c 2ebe daa6 4b3d
000001e0: 5064 69bd 3c03 343e abfe 9abd 1474 16be
000001f0: b560 363e 709d d1bd 0497 083e e232 6e3d
00000200: a0c0 34bd 86e0 443e f295 1c3e 14c5 0ebe
00000210: c4b8 e8bd 47e4 e23d 05e5 373e 0535 80bd
00000220: 17e3 8e3d f28f cabc 7767 09be 1689 e5bd
00000230: a0f8 dabc b7e7 083d 2584 e5bd 16be 373d
00000240: e365 13be 1ae0 b2bd 047a 513e b9d3 e83d
00000250: 79ac 243e 8996 35be ee5a 7a3d afa6 90bc
00000260: 659a 04bd 6e32 1dbe fb99 323e a470 1e3d
00000270: 7953 833d 4726 a13d 619d 1ebe d6d5 8abd
00000280: ddb8 9d3d f808 ebbd 174c 30be cc68 e13c
00000290: fdf3 a8bd 8b26 7b3c 92df 2f3d 8aaa 893d
000002a0: 51b2 553e 2297 113e 3709 8ebd 7c02 bbbd
000002b0: bd5c 47bd cbb3 30be 93bd c3bd 8f58 1a3d
000002c0: 3771 573d c54e 8e3c 4a07 bfbb c07e 0a3e
000002d0: 73df 863d a502 0b3e b4c6 323e 88ac 57bd
000002e0: bb1d b3bd 4721 47bd 9224 673d aaaf a2bd
000002f0: 39e8 ccbd fbb5 46bc 0d11 693c 61e9 393e
00000300: 6539 583c 489a 0f3e 6d7f 1c3b 3eb2 83bd
00000310: 6344 d93d 44a1 80bd 0eb4 39be 2205 57bd
00000320: c5e6 31bd 76a0 8c3c a930 303e 4dd3 5abd
00000330: 2a2d cabd dca2 1b3e 0aee 9a3c 22af 493e
00000340: bdbb 04be cfac 00bc f3cf 403e 015b 0e3c
00000350: dc4a 173e a0c0 b3bd 403e 8dbd a963 47be
00000360: fa7d 9fbd 9d07 303e 6311 a93d 66fe 0ebd
00000370: d4e9 10be 304a 4cbd 4270 d0bc 616c ba3d
00000380: 48e0 993d fb9c 273e 4176 8e3d 92cb a8bd
00000390: 6c65 223d f192 3a3e a413 a4bc 86c6 853d
000003a0: 181d 9bbd aa93 353e 66f5 2ebe ee87 063d
000003b0: a487 333d 8989 133d 1453 36be 5441 09bd
000003c0: e4e2 ad3c f360 7abb e148 ef3d 348e fdbd
000003d0: f6f8 ccbd dbe1 cb3d 7381 13bd fb05 1e3e
000003e0: 74fc 683d 6468 f83d 2ce6 743d 9ba4 043d
000003f0: 1bc8 b3bd bd6f 1b3e bbc7 393e 7222 90bc

fc2.weight f4 [300, 400]
-0.04306174 -0.007951885 -0.048038103 -0.0009420069 0.015912324 -0.008112864 0.0064987903 0.040851284
-0.014706312 0.0391299 0.022084992 0.030316662 -0.03627625 0.032273065 -0.012737554 -0.030420339
0.008069672 -0.0102520995 -0.01322954 -0.016286146 -0.0023135995 -0.035939492 0.04412244 -0.03985913
0.03282804 -0.0031933598 0.00060139224 0.03732356 0.0039021187 0.03718959 -0.00062502176 0.013856133
-0.049482703 -0.023738926 0.038539756 -0.04564768 0.010337811 -0.012290376 0.023232315 -0.05028834
0.023190584 -0.006179201 -0.002362799 0.007343482 -0.009025417 -0.012106618 0.005401563 0.010558355
-0.021672506 0.0011874692 0.011112772 0.02601804 0.017570626 0.035781514 0.028407905 0.0049198084
0.014831934 0.020111723 -0.005600131 0.029021993 -0.033592097 -0.051107094 0.02259701 -0.04707673
0.0049523753 -0.022040958 -0.054611444 -0.024070127 0.015149426 0.004610855 0.012699012 -0.045997143
0.009707427 -0.0007516778 -0.009540881 0.017507885 0.01575301 0.043171797 0.04797286 0.039102722
-0.044787645 -0.037294213 -0.028716756 -0.00841065 0.030099105 -0.05129018 -0.026795173 -0.00477395
-0.015748765 -0.014011286 -0.026785964 -0.005469061 -0.0545443 0.0029946377 -0.011144768 -0.010895352
-0.041012026 0.028797401 0.020404395 -0.03068673 0.012925189 -0.045683295 0.036027685 -0.023447556
0.03255752 -0.015857976 -0.025300099 0.0087807905 -0.0019060995 -0.05157612 -0.030144287 -0.04404423
-0.03832986 0.040469285 -0.04924646 -0.031923078 -0.009105079 -0.042319775 0.022811506 0.018285055
-0.04522706 -0.027732823 -0.010071464 -0.00912717 -0.029496886 0.025596594 -0.012616557 0.043238565
-0.00016472861 -0.02006167 -0.048804864 -0.03132964 -0.05157282 -0.0444977 -0.006496683 0.04439776
-0.0047235116 -0.04282819 -0.023865074 -0.022240397 0.013712289 -0.051657226 0.019510191 -0.019535923
-0.031818945 0.0070331693 0.0077814613 0.026263604 0.03746564 -0.04568651 0.0127996085 0.018790621
-0.049446072 0.011344574 -0.013652434 -0.011663604 0.04097521 -0.03203147 -0.041347466 -0.02784965
-0.020151002 -0.03678454 -0.024973383 0.017095027 0.025922794 0.021521617 -0.0060465597 0.012508642
0.012773059 0.02000663 0.011080071 0.0009661913 0.002498936 0.0346375 -0.042504724 0.02725869
0.008320777 -0.007156442 0.04754902 0.02549162 0.034418352 -0.03277483 -0.00075664 -0.02497008
0.02761442 -0.018763376 -0.048625957 -0.007092857 -0.009085983 0.03705454 -0.041178584 0.024755098
0.009107012 0.03465793 0.024570122 0.033689838 -0.009989918 0.012065101 0.010603235 0.03434879
-0.043589663 0.045938756 -0.03641543 -0.04519325 -0.036038954 0.026245851 0.042856116 -0.035540868
0.0057351105 -0.012918122 -0.03410837 -0.02751938 0.040418066 -0.043044176 0.003885109 0.015428547
-0.034601778 -0.04135554 -0.04460545 0.048478957 0.037148733 -0.0054678246 -0.039939296 0.022445787
-0.048558075 0.02739257 0.033600148 0.017044902 -0.025004042 0.034191106 0.029441182 0.010929524
0.018574584 -0.0433827 -0.014245022 -0.048385803 -0.033136565 0.039196145 -0.017169653 0.038305935
-0.037658513 0.03584923 -0.054022823 0.0068296567 -0.045643367 0.0076989536 -0.040193755 -0.019217074
0.044801764 0.020732397 -0.017619973 0.020194653 -0.03129835 -0.043125905 -0.027867189 -0.020414067
00000000: 8261 30bd a048 02bc 9ac3 44bd 03f1 76ba
00000010: 905a 823c d1eb 04bc cef3 d43b ad53 273d
00000020: bef2 70bc ad46 203d 96eb b43c a65a f83c
00000030: 6896 14bd c330 043d 2cb1 50bc 1334 f9bc
00000040: a836 043c 6cf8 27bc b6c0 58bc 866a 85bc
00000050: c29f 17bb 4a35 13bd bbb9 343d 5443 23bd
00000060: b276 063d b047 51bb c0a6 1d3a 97e0 183d
00000070: b0ba 7f3b 1d54 183d 80d8 23ba d604 633c
00000080: 60ae 4abd 2378 c2bc dddb 1d3d 10f9 3abd
00000090: ec5f 293c 935d 49bc b251 be3c 25fb 4dbd
000000a0: 2efa bd3c e57a cabb 30d9 1abb 98a1 f03b
000000b0: 58df 13bc d65a 46bc 98ff b03b f3fc 2c3c
000000c0: 8a8a b1bc dba4 9b3a 5812 363c c923 d53c
000000d0: 46f0 8f3c a38f 123d b2b7 e83c 5836 a13b
000000e0: a401 733c 57c1 a43c 4e81 b7bb 88bf ed3c
000000f0: de97 09bd ac55 51bd 5d1d b93c 87d3 40bd
00000100: 8947 a23b 3d8f b4bc 40b0 5fbd b72e c5bc
00000110: 4c35 783c a816 973b 840f 503c 8067 3cbd
00000120: e60b 1f3c 3e0c 45ba 5b51 1cbc b26c 8f3c
00000130: 750c 813c e9d4 303d 317f 443d 2d2a 203d
00000140: 4073 37bd d1c1 18bd 673f ebbc d3cc 09bc
00000150: 6692 f63c a715 52bd 8d81 dbbc cc6e 9cbb
00000160: 8e03 81bc 988f 65bc 3d6e dbbc cf35 b3bb
00000170: d869 5fbd af41 443b 8c98 36bc 6b82 32bc
00000180: 3afc 27bd 87e8 eb3c 1e27 a73c bd62 fbbc
00000190: 2cc4 533c 681e 3bbd c491 133d 1715 c0bc
000001a0: 095b 053d 96e8 81bc 2742 cfbc 4edd 0f3c
000001b0: 16d6 f9ba 7b41 53bd 27f1 f6bc b967 34bd
000001c0: c5ff 1cbd 1fc3 253d a8b6 49bd c6c1 02bd
000001d0: 782d 15bc 8057 2dbd 32df ba3c 8aca 953c
000001e0: 0240 39bd f22f e3bc c802 25bc 208a 15bc
000001f0: 74a3 f1bc f3af d13c adb5 4ebc ec1a 313d
00000200: 00bb 2cb9 5f58 a4bc 9ce7 47bd 8253 00bd
00000210: 053e 53bd 3843 36bd 21e2 d4bb 6dda 353d
00000220: b0c7 9abb 9d6c 2fbd b080 c3bc 7e31 b6bc
00000230: 82a9 603c 8796 53bd d6d3 9f3c cd09 a0bc
00000240: 9554 02bd 8076 e63b a1fb fe3b c526 d73c
00000250: 9275 193d c721 3bbd 73b5 513c caee 993c
00000260: f787 4abd 98de 393c 75ae 5fbc b318 3fbc
00000270: 9fd5 273d 6e33 03bd f65b 29bd f324 e4bc
00000280: b713 a5bc 63ab 16bd fb94 ccbc df0a 8c3c
00000290: 0a5c d43c 1a4e b03c 3822 c6bb 0cf1 4c3c
000002a0: 1846 513c f2e4 a33c 3089 353c 0048 7d3a
000002b0: 30c5 233b 0de0 0d3d 6f19 2ebd 9e4d df3c
000002c0: de53 083c 9680 eabb c3c2 423d cdd3 d03c
000002d0: 42fa 0c3d e63e 06bd 4059 46ba 0e8e ccbc
000002e0: a337 e23c a7b5 99bc 032c 47bd 326b e8bb
000002f0: 60dd 14bc 80c6 173d e0aa 28bd 34cb ca3c
00000300: 9435 153c 79f5 0d3d 4847 c93c 5bfe 093d
00000310: c1ac 23bc b4ac 453c 31b9 2d3c 51b1 0c3d
00000320: 138b 32bd 472a 3c3d 5928 15bd 8f1c 39bd
00000330: 959d 13bd 8a01 d73c e589 2f3d 4d93 11bd
00000340: 98ed bb3b 88a6 53bc 38b5 0bbd 5370 e1bc
00000350: 6a8d 253d 174f 30bd 509d 7e3b 04c8 7c3c
00000360: 98ba 0dbd 6d64 29bd 34b4 36bd df91 463d
00000370: 4529 183d 702b b3bb 6397 23bd 3ae0 b73c
00000380: d5e4 46bd 6266 e03c 4fa0 093d c0a1 8b3c
00000390: 47d5 ccbc f90b 0c3d a22e f13c bf11 333c
000003a0: ba29 983c 0fb2 31bd f463 69bc 3130 46bd
000003b0: 35ba 07bd 238c 203d 5fa7 8cbc afe6 1c3d
000003c0: d03f 1abd a4d6 123d 0947 5dbd 50cb df3b
000003d0: 8af4 3abd 8147 fc3b 35a2 24bd 206d 9dbc
000003e0: 0e82 373d fdd6 a93c c357 90bc 426f a53c
000003f0: b332 00bd caa4 30bd bb49 e4bc 673b a7bc

fc2.bias f4 [300]
-0.04966749 0.0382112 0.033195987 0.05002928 0.041674975 0.027387174 0.0069103884 -0.005007135
-0.010832694 0.040793695 -0.02086449 0.026521506 -0.030284734 0.046050504 -0.002500878 0.0029046875
0.040300515 -0.022178583 -0.018682616 0.044464696 0.07254286 -0.0057906583 -0.0141576985 0.026591346
0.07418663 -0.03181086 0.039464492 -0.021459382 0.004360811 0.022559145 -0.030415075 0.047257707
0.021104718 0.044354357 -0.046620127 0.020054884 -0.01265376 -0.052982796 0.015704382 0.023643218
0.053373154 0.0006743249 0.015841622 0.009708883 0.009083703 -0.017412758 0.041122828 0.018361533
-0.00039883814 -0.022564434 -0.035686735 0.035353262 0.004440072 -0.017976344 0.038500708 -0.04730588
-0.0317878 0.033575915 0.07277183 0.0465103 -0.01967359 0.0025954978 0.017388228 0.0040262225
-0.049617767 -0.019837786 0.0238932 0.0039962865 0.014882813 0.011091613 0.015059827 -0.015871951
-0.019620793 -0.011647988 -0.035043743 -0.0143797025 -0.024507558 -0.010774604 0.02952311 0.04162256
0.012966496 0.013047306 -0.0195284 0.023043005 0.025531104 0.012528791 0.043781266 -0.038945667
-0.00517223 -0.054670904 -0.03665708 0.0053887554 0.018878128 0.036532693 -0.014510589 -0.027078243
0.032391384 -0.0013303078 -0.0346267 -0.013497569 0.026636498 0.014792206 -0.0228432 0.016771017
0.04923255 0.008006657 -0.015472822 0.052939534 -0.030866466 0.0248783 0.0020867032 0.03195223
-0.0024001559 0.0284976 -0.050826468 -0.021254411 -0.018641504 -0.03683672 -0.026728708 -0.010165605
0.041142125 -0.030226476 0.031180084 -0.00091809034 0.01098461 0.04956638 0.023883162 -0.034133714
-0.010293249 -0.010270712 0.03510474 0.06053345 0.038535137 -0.049340267 -0.045153156 -0.023610735
-0.0175369 -0.012675038 -0.0016471158 -0.019803738 0.05838229 0.03433348 0.070181325 0.038348828
0.04312197 0.030361768 0.06291453 0.027041493 -0.026296305 -0.04016272 -0.05323751 0.06870947
0.008531191 -0.04467304 0.03390324 -0.01431925 -0.0244257 -0.03802348 -0.0094013205 -0.04667161
-0.000550712 -0.0043501137 -0.016325485 -0.023893401 -0.03907605 -0.008247759 -0.02244574 0.007058042
-0.03809558 -0.020348243 -0.021205025 -0.0370595 0.0039241356 0.03936183 -0.0124917915 -7.800024e-05
0.03609321 0.03569364 -0.04312925 0.020029023 -0.024398495 0.01741424 -0.0352996 -0.020441853
-0.012294857 -0.005114227 -0.0014693514 0.0035221502 0.025543733 0.024802228 0.04692647 0.041665137
0.0074972254 0.004501126 -0.0062457956 0.016807951 0.039512813 0.03235406 -0.012922284 -0.021533165
-0.008727252 0.025960973 0.03241197 -0.05249223 -0.011547214 0.06294442 -0.03070694 -0.028638314
0.0044293986 0.027861852 0.024681242 -0.018871346 0.043493807 -0.05242998 -0.011456289 -0.03989611
-0.011739399 0.009696298 0.04539121 -0.017112575 -0.030155454 0.03405365 0.030382568 0.050130073
0.045358457 -0.04257723 -0.034186732 0.0019683822 -0.02597785 0.052105665 -0.013923889 0.019350825
-0.026875598 0.040209055 0.057501476 0.04223127 0.04539983 -0.033871412 0.009149662 0.03695538
0.046921078 -0.021762198 -0.015193384 -0.023879208 0.036726408 -0.018994682 -0.033578638 -0.033441886
-0.022222327 -0.03392758 0.032057226 -0.046770122 0.01849109 -0.023722615 0.015080471 -0.022557661
00000000: 2370 4bbd 5983 1c3d 84f8 073d 81eb 4c3d
00000010: 61b3 2a3d 115b e03c 8a70 e23b e512 a4bb
00000020: 9d7b 31bc 4a17 273d 02ec aabc a143 d93c
00000030: b117 f8bc 749f 3c3d c5e5 23bb 925c 3e3b
00000040: 2712 253d dcaf b5bc 490c 99bc 9d20 363d
00000050: 5a91 943d 90bf bdbb b1f5 67bc 18d6 d93c
00000060: 29ef 973d 1b4c 02bd 85a5 213d 96cb afbc
00000070: 22e5 8e3b f5cd b83c 0929 f9bc 4c91 413d
00000080: cde3 ac3c eaac 353d bff4 3ebd 244a a43c
00000090: b751 4fbc 7d04 59bd 7aa6 803c 6caf c13c
000000a0: cf9d 5a3d 2ec5 303a 4ac6 813c 0212 1f3c
000000b0: d0d3 143c 33a5 8ebc 6970 283d ed6a 963c
000000c0: 261b d1b9 0cd9 b8bc 412c 12bd 95ce 103d
000000d0: 067e 913b 2043 93bc ebb2 1d3d cfc3 41bd
000000e0: ed33 02bd e686 093d 6609 953d 9681 3e3d
000000f0: 822a a1bc 3a19 2a3b c271 8e3c 67ee 833b
00000100: 003c 4bbd da82 a2bc acbb c33c 48f3 823b
00000110: 0bd7 733c 99b9 353c 7ebd 763c e505 82bc
00000120: c9bb a0bc 34d7 3ebc 078a 0fbd d898 6bbc
00000130: 13c4 c8bc f787 30bc 73da f13c 6b7c 2a3d
00000140: 6d71 543c 5ec4 553c 06fa 9fbc afc4 bc3c
00000150: 9b26 d13c 8f45 4d3c fc53 333d 7e85 1fbd
00000160: cf7b a9bb 99ee 5fbd bc25 16bd 2894 b03b
00000170: 4ea6 9a3c 4ea3 153d d2bd 6dbc 31d3 ddbc
00000180: d4ac 043d b95d aeba bad4 0dbd e824 5dbc
00000190: c934 da3c 025b 723c aa21 bbbc 5f63 893c
000001a0: 12a8 493d 5a2e 033c b881 7dbc 20d7 583d
000001b0: acdb fcbc 94cd cb3c 12c1 083b 57e0 023d
000001c0: ef4b 1dbb cd73 e93c 6a2f 50bd bb1d aebc
000001d0: 11b6 98bc 1ae2 16bd 2af6 dabc a38d 26bc
000001e0: a584 283d 849d f7bc 606d ff3c 00ac 70ba
000001f0: cbf8 333c 1e06 4b3d 9fa6 c33c cbcf 0bbd
00000200: 04a5 28bc 7d46 28bc fdc9 0f3d ecf1 773d
00000210: 05d7 1d3d 0519 4abd 84f2 38bd 4d6b c1bc
00000220: 8ba9 8fbc f6aa 4fbc 09e4 d7ba 733b a2bc
00000230: 4522 6f3d 43a1 0c3d 3abb 8f3d a913 1d3d
00000240: aaa0 303d 3eb9 f83c 55d9 803d 1f86 dd3c
00000250: 596b d7bc aa81 24bd 930f 5abd 8db7 8c3d
00000260: 69c6 0b3c 14fb 36bd 20de 0a3d 4a9b 6abc
00000270: 6818 c8bc 82be 1bbd ff07 1abc bb2a 3fbd
00000280: a85d 10ba 668b 8ebb 06bd 85bc 18bc c3bc
00000290: 350e 20bd 9c21 07bc 21e0 b7bc 2647 e73b
000002a0: 1c0a 1cbd 5cb1 a6bc 29b6 adbc b4cb 17bd
000002b0: 0996 803b df39 213d 5faa 4cbc 0f94 a3b8
000002c0: 79d6 133d 7f33 123d 4ca8 30bd e813 a43c
000002d0: 5adf c7bc 4fa8 8e3c 5096 10bd ac75 a7bc
000002e0: 5e70 49bc 3f95 a7bb 4097 c0ba e0d3 663b
000002f0: 1741 d13c 0b2e cb3c f835 403d 10a9 2a3d
00000300: 49ab f53b 2e7e 933b 88a9 ccbb d4b0 893c
00000310: 30d8 213d b185 043d fdb7 53bc 5266 b0bc
00000320: bffc 0ebc 1bac d43c 6ac2 043d 1802 57bd
00000330: 8730 3dbc 01e9 803d 1f8d fbbc e69a eabc
00000340: 7d24 913b 8a3e e43c 5130 ca3c 1598 9abc
00000350: 9026 323d d2c0 56bd 29b3 3bbc 1a6a 23bd
00000360: 9c56 40bc 39dd 1e3c 22ec 393d ac2f 8cbc
00000370: 9208 f7bc d77b 0b3d dde4 f83c 3155 4d3d
00000380: cac9 393d 7665 2ebd 6307 0cbd f9ff 003b
00000390: 80cf d4bc c06c 553d 0621 64bc 9f85 9e3c
000003a0: 372a dcbc 40b2 243d ab86 6b3d b2fa 2c3d
000003b0: 2cf5 393d c0bc 0abd 77e8 153c 865e 173d
000003c0: 5130 403d a346 b2bc aced 78bc 549e c3bc
000003d0: 6e6e 163d bc9a 9bbc c189 09bd 5cfa 08bd
000003e0: 990b b6bc a5f7 0abd 704e 033d 0792 3fbd
000003f0: a07a 973c ee55 c2bc 1414 773c d8ca b8bc

q.weight f4 [1, 300]
0.041909676 0.052216463 0.13569075 0.06432692 0.13458258 -0.017268764 -0.051872402 0.14293356
-0.15185593 0.08072476 -0.15356307 -0.13450827 0.047843765 0.10827532 -0.10253169 0.0024954346
-0.1147059 0.13332832 -0.11425867 0.13280623 0.0930393 -0.003726881 0.035355534 0.13275258
0.09136757 0.046061788 -0.070405036 -0.11926984 -0.12807311 0.104082756 -0.10733439 0.13019119
-0.12473131 0.07659538 -0.12927254 -0.13565509 -0.11524699 0.024567753 -0.05216873 -0.077257246
0.18417057 0.21501735 0.09281284 0.037961133 -0.11049243 0.23822968 0.0730287 0.107931025
0.12354706 -0.046219777 -0.107122466 -0.123478435 0.03312029 -0.114307866 -0.110918164 -0.07890584
-0.100518115 0.11433124 0.07347827 0.14473043 0.047807872 0.15812685 -0.16949567 0.11204642
0.039772816 0.103655875 -0.10683158 -0.15217528 -0.12746787 0.12194603 -0.13741948 0.116414614
-0.15333948 0.035104014 0.15001209 -0.084758304 0.020530239 0.15174137 0.13879329 -0.10886163
0.09447941 -0.12576568 -0.10906784 0.076277 0.2289645 -0.12434023 0.062270932 0.04970613
-0.101122566 -0.22651672 -0.105155796 -0.15591481 0.031054474 0.089153096 -0.10965657 0.036485422
-0.06766027 -0.112063766 -0.038645957 -0.15690157 -0.08420152 -0.08972082 0.14863494 0.13984592
0.13380593 -0.13583331 -0.109517425 0.14977872 -0.17365342 0.15318024 0.04178431 -0.12256467
-0.12377655 0.10158651 -0.16236167 0.12175998 -0.046108834 0.21585065 -0.16203053 -0.12377027
-0.104111224 -0.086007565 -0.1310333 -0.007009141 0.13246594 0.10882817 -0.09884431 -0.11399646
-0.08687628 -0.11680001 0.1279478 0.13531871 0.1468567 0.016963508 -0.14483495 -0.10894732
0.040524535 -0.09841111 0.09912001 -0.11932454 0.082764246 0.23248582 0.12504207 0.04420258
0.06985902 0.25177026 0.10869838 0.13243388 0.03427002 0.039661646 -0.04978233 0.10026876
0.02592199 0.014345931 0.049595643 -0.107938774 0.023589868 -0.050697036 -0.12412965 0.009416662
0.09456185 -0.09881505 0.15109825 0.12161242 0.028282152 -0.10909021 -0.010089791 -0.16729137
-0.11288674 -0.11592051 -0.13346638 -0.13382965 0.10121635 0.15907082 0.0015257142 0.010511502
-0.086593874 -0.09271496 -0.13476607 -0.16263188 0.028847616 0.10955292 0.0436488 -0.13400069
0.08623664 0.100790836 0.053954005 -0.008620817 0.19943823 0.087322295 -0.075681 0.11076975
0.18615097 -0.078056 -0.038910445 -0.1481132 0.08518867 -0.1279277 0.17919165 -0.10326589
-0.12275202 0.120647274 0.10601945 0.2774766 -0.08880017 0.08105815 -0.120801106 -0.14729698
0.16683091 0.083410494 0.12338625 -0.11667755 -0.1360896 0.22541757 0.10560553 -0.0056554372
-0.13665381 -0.10746479 0.14977993 -0.11647176 -0.12933664 0.22622752 0.02443697 0.08646925
0.09164868 -0.13085108 -0.09663589 0.13706033 0.05419607 -0.12069309 0.16815117 -0.10021889
-0.07877976 -0.14903516 0.0943696 0.16276309 0.0933213 0.19784097 -0.14124855 0.16388443
0.10639471 -0.13786918 0.20389731 -0.12829445 -0.0434679 0.03337604 0.039189775 -0.15329486
-0.10903774 -0.13709335 -0.1733482 -0.098205544 -0.09253744 0.14027514 0.045859918 -0.08991545
00000000: 7ba9 2b3d eee0 553d 84f2 0a3e d5bd 833d
00000010: 04d0 093e 3977 8dbc 2878 54bd 2d5d 123e
00000020: 1f80 1bbe 0653 a53d a33f 1dbe 89bc 09be
00000030: d3f7 433d 73bf dd3d 22fc d1bd 728a 233b
00000040: edea eabd 3887 083e 7300 eabd 5bfe 073e
00000050: 638b be3d b03e 74bb f7d0 103d 4bf0 073e
00000060: ec1e bb3d 49ab 3c3d 8430 90bd bf43 f4bd
00000070: 9925 03be 5729 d53d 22d2 dbbd d750 053e
00000080: 2173 ffbd 0ade 9c3d 0560 04be 2be9 0abe
00000090: 9d06 ecbd 5042 c93c e1ae 55bd 0c39 9ebd
000000a0: 3697 3c3e 822d 5c3e a914 be3d 227d 1b3d
000000b0: db49 e2bd 7bf2 733e 1290 953d f10a dd3d
000000c0: 3e06 fd3d f350 3dbd 0663 dbbd 43e2 fcbd
000000d0: 24a9 073d 3e1a eabd 1029 e3bd 6399 a1bd
000000e0: 71dc cdbd 7f26 ea3d c67b 963d 3734 143e
000000f0: 30d2 433d 01ec 213e 4690 2dbe 9878 e53d
00000100: d2e8 223d 8849 d43d 84ca dabd d6d3 1bbe
00000110: f086 02be d7be f93d b1b7 0cbe c96a ee3d
00000120: 0605 1dbe 3ac9 0f3d c59c 193e c395 adbd
00000130: 082f a83c 1762 1b3e d41f 0e3e d9f2 debd
00000140: 6c7e c13d b8c8 00be f65e dfbd 1e37 9c3d
00000150: ab75 6a3e 17a6 febd ce0f 7f3d a898 4b3d
00000160: 5919 cfbd 00f4 67be ec5b d7bd 22a8 1fbe
00000170: f465 fe3c e695 b63d a093 e0bd bd71 153d
00000180: 7891 8abd b081 e5bd 394b 1ebd ceaa 20be
00000190: d971 acbd 8dbf b7bd c233 183e c533 0f3e
000001a0: 6c04 093e e317 0bbe ac4a e0bd 985f 193e
000001b0: 34d2 31be 48db 1c3e 0626 2b3d 3003 fbbd
000001c0: 8f7e fdbd 970c d03d 2342 26be 4c5d f93d
000001d0: 9edc 3cbd f407 5d3e 55eb 25be 447b fdbd
000001e0: 4438 d5bd bc24 b0bd 982d 06be f0ac e5bb
000001f0: 27a5 073e 4ee1 de3d e36e cabd fa76 e9bd
00000200: 31ec b1bd d834 efbd c004 033e fd90 0a3e
00000210: 9a61 163e 0ef7 8a3c 9d4f 14be c61f dfbd
00000220: 0efd 253d c48b c9bd 6fff ca3d 6d60 f4bd
00000230: 4d80 a93d c310 6e3e 070b 003e c40d 353d
00000240: 3f12 8f3d 08e8 803e 429d de3d bf9c 073e
00000250: b85e 0c3d 4074 223d 8ee8 4bbd b559 cd3d
00000260: 5a5a d43c 320b 6b3c cd24 4b3d 010f ddbd
00000270: 8a3f c13c b2a7 4fbd b037 febd 5848 1a3c
00000280: a5a9 c13d 8c5f cabd 80b9 1a3e ef0f f93d
00000290: f9af e73c b06a dfbd a74f 25bc 6e4e 2bbe
000002a0: 2a31 e7bd bb67 edbd 69ab 08be a40a 09be
000002b0: 854a cf3d 76e3 223e 79fa c73a 6f38 2c3c
000002c0: 2158 b1bd 57e1 bdbd 1e00 0abe f988 26be
000002d0: d651 ec3c 485d e03d 16c9 323d 7a37 09be
000002e0: d69c b03d 6d6b ce3d e0fe 5c3d 543e 0dbc
000002f0: 8939 4c3e 08d6 b23d a4fe 9abd 40db e23d
00000300: 5c9e 3e3e d3db 9fbd 8f60 1fbd fdaa 17be
00000310: 6677 ae3d 7bff 02be 047e 373e 117d d3bd
00000320: 6965 fbbd eb15 f73d ba20 d93d 6a11 8e3e
00000330: dddc b5bd d101 a63d 9266 f7bd 05d5 16be
00000340: b9d5 2a3e 1fd3 aa3d eeb1 fc3d a4f4 eebd
00000350: 125b 0bbe ddd3 663e b647 d83d 3f51 b9bb
00000360: faee 0bbe 8016 dcbd e95f 193e bf88 eebd
00000370: d370 04be 30a8 673e 0a30 c83c ca16 b13d
00000380: 4eb2 bb3d d3fd 05be 0ae9 c5bd 8b59 0c3e
00000390: b3fc 5d3d f02d f7bd d22f 2c3e 903f cdbd
000003a0: 4857 a1bd ac9c 18be d944 c13d 5eab 263e
000003b0: 3d1f bf3d d396 4a3e 76a3 10be 52d1 273e
000003c0: 78e5 d93d 942d 0dbe 75ca 503e 9f5f 03be
000003d0: 660b 32bd 51b5 083d 7585 203d 54f9 1cbe
000003e0: 2e4f dfbd 3362 0cbe 3182 31be fd1f c9bd
000003f0: 4584 bdbd 49a4 0f3e 9cd7 3b3d 9725 b8bd
