SAC_own_hardcore/sac_0/value_sac.pth (torch, 524956 bytes, 5 tensors)

fc1.weight f4 [400, 24]
0.20991102 -0.4497841 0.34291095 -0.21260406 0.20867962 0.07860351 -0.0376909 -0.06963093
-0.06497608 0.027548064 0.039043784 -0.012754125 0.106042646 0.19006796 -0.030039467 -0.08095297
0.13454404 0.032001544 0.006055656 -0.019036844 -0.155322 0.18736334 0.21423708 0.12814064
-0.24359055 0.117060915 0.12789908 -0.053701244 0.15906915 0.06768796 0.11372179 0.16555801
-0.1322366 -0.10380502 -0.17404716 0.0014584129 0.057304304 0.19548333 0.10069487 0.14624763
0.012656307 -0.07586729 0.13489802 -0.045769352 -0.188309 0.03699751 -0.09052248 0.014654302
-0.10693444 -0.47637817 0.0848559 0.08171301 -0.1788795 0.028725857 0.16314575 0.13658844
0.15698473 -0.037319757 -0.15777804 -0.06866851 -0.03326521 -0.02776094 0.06614891 -0.10808956
0.21231732 0.21169963 -0.014711569 0.13367613 0.14585912 0.098341525 0.0601078 0.11409102
0.033986334 0.30326146 -0.12452282 -0.03704186 -0.08189186 0.15926276 -0.019478763 0.052578054
0.015019974 0.028647818 -0.13127844 0.022789644 0.08525956 -0.25462675 -0.023489205 0.09787917
-0.12077305 0.16241613 0.20081332 0.042984907 -0.072388716 -0.08579996 0.18491775 -0.13668835
-0.12066352 -0.11859694 -0.09782771 0.14310391 -0.18324015 -0.019748088 -0.020641498 -0.029597454
0.06649606 -0.15864135 0.03873039 0.16019963 -0.030248342 -0.13730887 0.06541271 -0.054691322
0.050641343 -0.054830145 -0.15027168 -0.16777368 -0.09079182 -0.17437987 0.11166002 -0.0011663397
-0.016700186 -0.2745883 0.25648156 0.12896794 0.08869421 0.073155254 0.15382104 0.16150396
0.1102773 -0.14238027 -0.15165582 0.02936889 0.052332588 0.12489994 0.0031704365 -0.07673288
0.16221865 -0.0852686 -0.072608024 -0.01631412 -0.042369347 0.12470556 0.08275695 0.044704482
0.066689834 -0.4727382 0.4437217 -0.023553895 0.050403964 0.16975662 -0.0015767548 0.08348406
-0.05751913 -0.19030835 0.10369039 -0.14741923 0.18555564 -0.15413299 0.11499193 0.046972092
0.19194092 -0.014494414 0.10060209 -0.06793419 -0.11439489 0.19537619 0.19780332 0.21784379
-0.1644707 0.36927116 -0.19426878 0.03087142 -0.17051224 0.1759674 0.17707439 0.1604467
-0.004084086 0.004240588 -0.24250695 -0.10552636 -0.003404377 -0.12397853 0.17455193 0.10816104
0.17486818 0.1527486 -0.10862373 0.070488 -0.00047640994 -0.121949166 0.14012748 -0.1662475
-0.13585454 -0.3666959 0.3437661 -0.095227756 -0.16696882 -0.07042417 -0.20167124 0.0692376
0.0844504 -0.12674893 0.21239859 -0.10331718 0.08357782 -0.095837876 -0.042010967 0.03721392
0.09772017 0.20811427 0.14342824 -0.1382724 0.20151982 -0.052846212 -0.031034464 0.13521494
0.23737921 -0.46932206 0.43251717 -0.17276073 -0.19366415 0.121449396 0.16811025 -0.12322265
0.1636833 -0.22421534 -0.07541789 0.036758345 -0.2127453 0.19655079 0.067958 0.14445229
-0.17855906 -0.10619216 -0.017170753 0.10882416 -0.08195742 0.12622698 0.19612111 0.07048219
-0.09661457 0.53262705 -0.37983644 0.16713081 0.1481326 -0.025132142 0.12964438 0.11130193
-0.07847417 -0.092576 -0.1715293 -0.15148036 0.20045601 -0.09139254 0.16587879 0.08984103
00000000: eaf2 563e 1a4a e6be 0692 af3e e1b4 59be
00000010: 1cb0 553e e1fa a03d c661 1abd a99a 8ebd
00000020: 2e12 85bd 7aac e13c 60ec 1f3d adf6 50bc
00000030: e32c d93d 2da1 423e 5415 f6bc acca a5bd
00000040: eac5 093e 0d14 033d 866e c63b 28f3 9bbc
00000050: bb0c 1fbe 2ddc 3f3e f760 5b3e 4d37 033e
00000060: cd6f 79be a2bd ef3d faf7 023e d6f5 5bbd
00000070: 06e3 223e fc9f 8a3d f8e6 e83d 0a88 293e
00000080: 0869 07be ba97 d4bd 6b39 32be 3728 bf3a
00000090: ebb7 6a3d c82c 483e 1d39 ce3d f0c1 153e
000000a0: 665c 4f3c 4f60 9bbd b522 0a3e a578 3bbd
000000b0: 13d4 40be b38a 173d da63 b9bd 9918 703c
000000c0: 7200 dbbd d7e7 f3be eec8 ad3d 2759 a73d
000000d0: 302c 37be 7d52 eb3c ae0f 273e d7dd 0b3e
000000e0: 9bc0 203e 9adc 18bd 9190 21be 13a2 8cbd
000000f0: 1a41 08bd e96a e3bc 1479 873d 0f5e ddbd
00000100: b669 593e cac7 583e cb08 71bc 65e2 083e
00000110: 185c 153e 4867 c93d 9933 763d 8da8 e93d
00000120: 4135 0b3d 1645 9b3e d205 ffbd 35b9 17bd
00000130: ebb6 a7bd c715 233e ed91 9fbc 165c 573d
00000140: 5616 763c d4ae ea3c db6d 06be 59b1 ba3c
00000150: 909c ae3d 705e 82be 6f6c c0bc e074 c83d
00000160: dc57 f7bd 6a50 263e 02a2 4d3e f110 303d
00000170: 8940 94bd e4b7 afbd 145b 3d3e 08f8 0bbe
00000180: 701e f7bd f4e2 f2bd e559 c8bd d589 123e
00000190: 4ea3 3bbe bec6 a1bc 5c18 a9bc 5c76 f2bc
000001a0: 162f 883d e172 22be c2a3 1e3d 5f0b 243e
000001b0: 5fcb f7bc b29a 0cbe 19f7 853d 0204 60bd
000001c0: 4c6d 4f3d 9395 60bd d2e0 19be ddcc 2bbe
000001d0: 10f1 b9bd a390 32be 02ae e43d dedf 98ba
000001e0: d4ce 88bc d696 8cbe 8d51 833e 2c10 043e
000001f0: 4fa5 b53d 6cd2 953d 4383 1d3e 4b61 253e
00000200: 11d9 e13d 22cc 11be aa4b 1bbe 0797 f03c
00000210: b25a 563d 8acb ff3d 19c7 4f3b 2126 9dbd
00000220: a51c 263e 4ea1 aebd 84b3 94bd 30a5 85bc
00000230: 7b8b 2dbd a165 ff3d 7a7c a93d 0c1c 373d
00000240: ae94 883d be0a f2be 7e2f e33e 19f4 c0bc
00000250: 6374 4e3d aed4 2d3e 1dab ceba b1f9 aa3d
00000260: 2e99 6bbd 31e0 42be a15b d43d 11f5 16be
00000270: 4c02 3e3e 0ad5 1dbe e480 eb3d cf65 403d
00000280: 298c 443e fb79 6dbc 7808 ce3d 1521 8bbd
00000290: de47 eabd b210 483e f48c 4a3e 7112 5f3e
000002a0: 026b 28be 1c11 bd3e 65ee 46be 0fe6 fc3c
000002b0: c39a 2ebe cc30 343e fd52 353e 244c 243e
000002c0: ccd3 85bb a1f4 8a3b be53 78be 341e d8bd
000002d0: f81b 5fbb 75e8 fdbd bebd 323e 8983 dd3d
000002e0: a510 333e 216a 1c3e 1e76 debd 035c 903d
000002f0: a9c6 f9b9 7cc0 f9bd 947d 0f3e c93c 2abe
00000300: 741d 0bbe 91bf bbbe 1c02 b03e c506 c3bd
00000310: e0f9 2abe 8c3a 90bd e882 4ebe 71cc 8d3d
00000320: 55f4 ac3d 79ca 01be 047f 593e f597 d3bd
00000330: d92a ab3d a646 c4bd b113 2cbd a06d 183d
00000340: 8321 c83d e81b 553e dade 123e 4897 0dbe
00000350: 365b 4e3e 4575 58bd fd3b febc c975 0a3e
00000360: 8913 733e fb4a f0be e472 dd3e 30e8 30be
00000370: e54f 46be 76ba f83d 1825 2c3e 285c fcbd
00000380: 989c 273e b598 65be b274 9abd eb8f 163d
00000390: e7d9 59be 9c44 493e 902d 8b3d 4deb 133e
000003a0: 30d8 36be 467b d9bd aea9 8cbc 34df de3d
000003b0: 4bd9 a7bd a541 013e f9d3 483e f758 903d
000003c0: dcdd c5bd 3f5a 083f ec79 c2be 5724 2b3e
000003d0: 13b0 173e ece1 cdbc 7fc1 043e 44f2 e33d
000003e0: 11b7 a0bd 7c98 bdbd 60a5 2fbe ab1d 1bbe
000003f0: 5744 4d3e 032c bbbd 21dc 293e 93fe b73d

fc1.bias f4 [400]
-0.06969551 -0.10796733 -0.0024148356 0.097301744 0.11824978 0.08931853 0.058297116 0.12647799
0.18497646 -0.047180515 -0.17253675 0.16871628 0.010281699 0.1392194 0.12167366 -0.017025433
-0.056975674 0.018916637 0.12210439 0.099525385 0.19487843 0.046185568 -0.024744477 -0.20460969
-0.05864594 -0.14916193 0.14270964 0.21518113 0.15174563 0.2326447 0.1883245 0.21456832
-0.1669427 0.17107075 0.18623012 -0.045977872 0.0436711 0.20660964 0.013818584 -0.0029352575
0.075074986 0.21865214 0.04614578 0.026455885 0.10530844 -0.11492152 -0.18420412 0.050011113
-0.09440719 0.044802696 -0.19827555 0.0141441915 0.07257037 0.018367134 0.21507472 0.078222
0.13188457 -0.012199002 -0.10960192 0.090135165 -0.058213837 0.15439865 0.00017371647 0.04799924
0.133766 0.22479573 0.1894987 0.036531266 -0.14525428 -0.01604238 0.08689381 0.0472074
0.21354 -0.14071588 0.051155545 0.12145587 -0.121493526 -0.14796217 0.13443042 -0.08865097
-0.048237845 0.15181537 0.084949225 0.118687466 0.1727089 -0.07456397 0.11292116 0.23792738
-0.19404627 0.037849396 0.03418514 -0.032834813 0.078584686 -0.18470596 -0.14155632 0.13339143
0.19643041 0.1799714 -0.11398116 -0.16244462 0.13198763 -0.19243853 -0.0872405 -0.123186626
0.030549739 0.06852802 -0.13564023 -0.0036351567 -0.04532664 0.050175976 -0.030013666 -0.10306305
0.09640139 0.07879055 -0.171986 -0.13412155 0.20751987 0.19604273 0.013238566 0.124871746
0.0340608 0.10820217 -0.13681075 0.15471683 -0.1744134 0.15611768 0.2039306 -0.12839247
-0.19685645 0.18071002 -0.013560781 0.088126294 -0.09704919 -0.04161478 -0.02273838 0.016200997
0.17712586 -0.052812837 0.100846656 -0.14462282 0.07376401 -0.01796111 -0.09412235 0.085674
-0.11915133 -0.036365308 0.020647952 0.14663585 -0.1231469 0.11597039 0.08716789 -0.14074208
0.121015176 -0.07447575 -0.004262391 -0.03127848 0.07119338 0.08744642 -0.08384857 0.13690226
-0.023072714 0.10910824 0.12162569 0.18548694 -0.13555941 0.05750364 0.18474416 0.20865627
-0.10937225 -0.08267212 -0.04337927 -0.07376915 -0.062530145 0.18366224 0.100705504 -0.18354233
-0.09035152 -0.01737367 -0.0010527361 -0.009970851 -0.011928426 0.02238994 0.0060743103 0.15069659
-0.08772123 0.09606185 0.07136738 -0.09089164 -0.10625371 -0.05606892 -0.13401651 0.17799905
0.044982456 0.15418762 -0.14821707 -0.0927261 -0.08469989 -0.04609156 0.2181481 -0.05125324
-0.020024657 0.1951972 -0.14875895 0.20405717 0.11932477 -0.18675323 0.14608854 0.0292253
0.10569702 0.016913773 -0.16905338 0.19563586 -0.09401551 0.1616582 -0.09239079 0.13144703
0.08938649 0.11063845 0.10258958 0.22426774 0.1918745 -0.13387927 -0.04800246 0.09537111
0.18187094 0.019102594 -0.14480507 0.090565935 0.13895719 -0.040275767 -0.15255165 0.14094725
-0.10247723 -0.11345699 0.006493326 0.036287706 0.1703518 -0.20594357 -0.10120186 -0.11274384
0.007068145 -0.102860264 0.021099484 -0.16667463 -0.19102293 0.21385986 0.17807756 0.07232021
-0.10166713 0.02965616 0.031500902 0.1090914 -0.054107163 -0.09854011 0.08615488 0.1913528
00000000: 85bc 8ebd fa1d ddbd 3842 1ebb 2346 c73d
00000010: f12c f23d a2ec b63d f5c8 6e3d 7283 013e
00000020: 786a 3d3e 5b40 41bd 79ad 30be f6c3 2c3e
00000030: 9274 283c 888f 0e3e 0a30 f93d ec78 8bbc
00000040: 535f 69bd 10f7 9a3c de11 fa3d f7d3 cb3d
00000050: 368e 473e 142d 3d3d eeb4 cabc 3485 51be
00000060: ba36 70bd e8bd 18be 7a22 123e 7158 5c3e
00000070: 3563 1b3e 6a3a 6e3e 23d8 403e ccb7 5b3e
00000080: 07f3 2abe 2c2d 2f3e 1cb3 3e3e 4b53 3cbd
00000090: 78e0 323d 7a91 533e 5867 623c 735d 40bb
000000a0: eac0 993d 59e6 5f3e 5b03 3d3d 03ba d83c
000000b0: f4ab d73d f95b ebbd 01a0 3cbe 74d8 4c3d
000000c0: 8f58 c1bd 0883 373d bf08 4bbe 0abd 673c
000000d0: c69f 943d ac76 963c 8c3c 5c3e db32 a03d
000000e0: c00c 073e 53de 47bc f976 e0bd c998 b83d
000000f0: a271 6ebd ae1a 1e3e a927 3639 da9a 443d
00000100: f4f9 083e da30 663e f20b 423e cfa1 153d
00000110: 8abd 14be 4f6b 83bc 62f5 b13d 8c5c 413d
00000120: 3baa 5a3e d317 10be 7a88 513d dbbd f83d
00000130: 99d1 f8bd 6583 17be 21a8 093e a48e b5bd
00000140: 0c95 45bd 7d75 1b3e dcf9 ad3d 6a12 f33d
00000150: 9ada 303e ffb4 98bd 3643 e73d 3ca3 733e
00000160: 11b4 46be f807 1b3d b805 0c3d cc7d 06bd
00000170: 02f1 a03d 8f23 3dbe 24f4 10be c397 083e
00000180: 0e25 493e 6c4a 383e f46e e9bd e257 26be
00000190: c427 073e 9b0e 45be 26ab b2bd 4549 fcbd
000001a0: 7243 fa3c 6b58 8c3d 46e5 0abe cf3b 6ebb
000001b0: 6da8 39bd 5385 4d3d 38df f5bc b812 d3bd
000001c0: 186e c53d f15c a13d 191d 30be 2957 09be
000001d0: 1780 543e 6dbf 483e 92e6 583c c2bc ff3d
000001e0: 5683 0b3d 1999 dd3d 1e18 0cbe 176e 1e3e
000001f0: 6d99 32be 50dd 1f3e 2fd3 503e 5179 03be
00000200: bd94 49be 0c0c 393e 0a2e 5ebc 8f7b b43d
00000210: bac1 c6bd 4274 2abd d745 babc f4b7 843c
00000220: 7b60 353e 4652 58bd b188 ce3d 0118 14be
00000230: 9611 973d 2e23 93bc 38c3 c0bd da75 af3d
00000240: 9d05 f4bd caf3 14bd e525 a93c b527 163e
00000250: 7134 fcbd e281 ed3d 1485 b23d b11e 10be
00000260: ced6 f73d be86 98bd 87ab 8bbb dd1d 00bd
00000270: d6cd 913d 1c17 b33d cdb8 abbd 1b30 0c3e
00000280: fd02 bdbc 2474 df3d e416 f93d 4af0 3d3e
00000290: 16d0 0abe f088 6b3d 932d 3d3e fda9 553e
000002a0: 8ffe dfbd 0050 a9bd 76ae 31bd 4814 97bd
000002b0: ce0f 80bd f411 3c3e b03e ce3d 85f2 3bbe
000002c0: 380a b9bd 3a53 8ebc f6fb 89ba c85c 23bc
000002d0: 726f 43bc 1c6b b73c 020b c73b 3550 1a3e
000002e0: 30a7 b3bd 13bc c43d 1029 923d 6525 babd
000002f0: 8c9b d9bd 86a8 65bd a03b 09be 6245 363e
00000300: 863f 383d 5ce3 1d3e 37c6 17be 2ee7 bdbd
00000310: 2377 adbd 81ca 3cbd 3762 5f3e ebee 51bd
00000320: c00a a4bc c6e1 473e 4454 18be 5df4 503e
00000330: 8c60 f43d 3d3c 3fbe 3c98 153e e569 ef3c
00000340: ae77 d83d c18e 8a3c 541c 2dbe c454 483e
00000350: 348b c0bd ba89 253e 6237 bdbd 0d9a 063e
00000360: 4410 b73d 6996 e23d 7c1a d23d 71a6 653e
00000370: c07a 443e a617 09be 3a9e 44bd ee51 c33d
00000380: 603c 3a3e 0b7d 9c3c c847 14be a27a b93d
00000390: cb4a 0e3e 34f8 24bd 8036 1cbe 7a54 103e
000003a0: 95df d1bd 235c e8bd f7c5 d43b 6ba2 143d
000003b0: b470 2e3e dfe2 52be ec42 cfbd 3ee6 e6bd
000003c0: e69b e73b 67a8 d2bd d3d8 ac3c c1ac 2abe
000003d0: 849b 43be 14fe 5a3e f759 363e 9e1c 943d
000003e0: db36 d0bd 7af1 f23c 1707 013d 506b df3d
000003f0: 799f 5dbd 66cf c9bd f871 b03d fdf1 433e

fc2.weight f4 [300, 400]
-0.050504103 -0.020475267 -0.032650527 -0.024551395 -0.015216928 -0.0132234935 0.006942124 -0.023894796
0.026381887 -0.032863013 0.022865657 -0.01223089 0.022743378 0.0031252094 -0.0031760554 0.036074523
0.002167403 0.027924277 -0.0151116 -0.016368428 -0.005785189 0.008783912 0.00584083 0.0380815
0.019190492 -0.036644917 -0.04962916 0.038728807 0.031775773 -0.043693252 0.0007241036 -0.037598446
-0.012532774 -0.0062324447 -0.0013499823 -0.0075337775 0.025177935 0.029620847 -0.016236082 -0.005231611
-0.0071110185 0.042792037 -0.009640062 0.025087701 -0.048335493 0.020759227 -0.0038436241 -0.04362138
0.008501761 0.020318853 -0.020115172 -0.023610156 -0.01960309 -0.022559987 0.04457 0.019451298
0.044179548 -0.026000442 0.0188271 -0.029982802 0.02885383 0.0058474466 -0.049465854 0.014280222
0.0109035345 0.0005115047 -0.033878293 -0.012147462 0.041724376 0.039555047 -0.043398816 -0.046133112
-0.015486575 0.016279694 -0.0069273147 -0.03396221 0.0122006945 -0.052154887 0.02310481 0.021905119
0.03568704 0.026794283 0.026000261 -0.0033221245 -0.042863358 0.0025862998 -0.0069743567 -0.012627974
-0.04239253 0.03775705 -0.017395966 0.031964395 0.007808551 0.023380306 0.04141507 0.020913197
0.011308801 -0.03677122 0.00067140575 -0.0046593845 0.023452379 -0.010725884 -0.03706444 -0.013704557
0.04080249 0.020032723 -0.041068427 -0.015876414 0.02057964 -0.025816942 -0.009694986 0.009016413
0.039605692 0.009830294 0.01388457 -0.03582291 0.040003706 0.020029444 0.010656561 -0.026189506
0.036309067 0.03203279 0.03983582 0.037040386 -0.024178516 0.027559895 -0.03074101 -0.04108305
0.03847506 0.0016568338 -0.017508922 -0.016186919 0.007506348 -0.04484081 0.012076933 0.048512433
0.04481072 0.025406636 -0.0053349165 0.030119184 -0.03760953 -0.029113024 -0.043789145 0.023915704
-0.04530892 0.045941494 0.013245621 0.031334378 0.012761931 0.0454114 0.018485192 -0.0024457672
-0.008142991 0.033806365 0.007718701 0.019397948 0.005155233 -0.0283725 0.048345264 0.026411053
0.014902746 0.014097203 -0.020520918 -0.034541547 0.027561795 -0.028250702 0.013949122 -0.009442387
0.0469362 -0.028743515 0.002196063 0.022371393 0.0009746069 -0.007919522 -0.03677149 0.011051763
0.00881263 0.04144145 -0.031017473 -0.012886385 -0.021860175 0.02373007 -0.044843893 0.028296558
-0.03332092 0.037247095 -0.04980071 0.006442545 0.028338592 -0.050325643 0.011807192 -0.0009326501
0.039641086 0.014906234 0.014488197 -0.004144974 0.016556848 -0.005818993 0.016441327 0.038200565
-0.04063521 0.026814593 0.0027236543 -0.035986476 -0.019027753 0.018542718 0.022989623 -0.04227906
-0.04536232 0.0514812 0.0031634867 0.02766172 0.046716485 -0.01797262 -0.0009897277 -0.013543903
0.024934113 -0.010839313 -0.012842752 -0.039960817 -0.04151011 0.013037849 -0.0076057403 0.004535343
-0.016147649 0.026359703 -0.039220497 0.019093122 -0.02562727 -0.012873565 -0.022567376 -0.046542544
-0.009210263 0.036349457 -0.024330635 -0.027015805 0.02088154 0.028962553 -0.03462114 -0.034714874
0.0041629495 0.0003572656 -0.004527751 -0.04305242 0.041459914 0.03586939 -0.027761294 -0.019496888
0.035228316 0.007823231 -0.0060875257 0.0024393767 0.029751183 -0.036279846 0.014145813 0.0013822818
00000000: 64dd 4ebd bfbb a7bc 8fbc 05bd 0220 c9bc
00000010: 6c50 79bc 5aa7 58bc c27a e33b 05bf c3bc
00000020: d41e d83c 5e9b 06bd c250 bb3c 1264 48bc
00000030: 5250 ba3c 50d0 4c3b 5e25 50bb e1c2 133d
00000040: fd0a 0e3b 74c1 e43c a596 77bc 1517 86bc
00000050: af91 bdbb 66ea 0f3c 6f64 bf3b 59fb 1b3d
00000060: 6135 9d3c fb18 16bd f247 4bbd 19a2 1e3d
00000070: 5027 023d b2f7 32bd c5d1 3d3a d400 1abd
00000080: 4456 4dbc 8939 ccbb e4f1 b0ba e8dd f6bb
00000090: f541 ce3c 6ba7 f23c 8801 85bc ef6d abbb
000000a0: 8c03 e9bb b446 2f3d 5af1 1dbc b984 cd3c
000000b0: 70fb 45bd 410f aa3c 50e5 7bbb 55ac 32bd
000000c0: f84a 0b3c b973 a63c 93c8 a4bc 166a c1bc
000000d0: a996 a0bc b9cf b8bc 088f 363d 5458 9f3c
000000e0: 9df5 343d e1fe d4bc 4a3b 9a3c 7e9e f5bc
000000f0: de5e ec3c f09b bf3b b59c 4abd 98f7 693c
00000100: bda4 323c 8016 063a f7c3 0abd 2606 47bc
00000110: 2ee7 2a3d 7904 223d f5c2 31bd 13f6 3cbd
00000120: 67bb 7dbc fe5c 853c 87fe e2bb f51b 0bbd
00000130: 6ce5 473c 5da0 55bd 4c46 bd3c 5d72 b33c
00000140: 932c 123d af7f db3c 80fe d43c 00b8 59bb
00000150: 7d91 2fbd e97e 293b 2589 e4bb 90e5 4ebc
00000160: caa3 2dbd 23a7 1a3d fc81 8ebc 19ed 023d
00000170: e0de ff3b 0e88 bf3c d9a2 293d 2752 ab3c
00000180: 8d48 393c 6b9d 16bd 4701 303a c0ad 98bb
00000190: 341f c03c 9ebb 2fbc e2d0 17bd 1489 60bc
000001a0: 8320 273d aa1b a43c 5e37 28bd 410f 82bc
000001b0: a296 a83c 0d7e d3bc b8d7 1ebc 94b9 133c
000001c0: 9439 223d 3e0f 213c 1c7c 633c 0bbb 12bd
000001d0: edda 233d ca14 a43c db98 2e3c 608b d6bc
000001e0: d1b8 143d d134 033d e32a 233d a9b7 173d
000001f0: 0612 c6bc 4ac5 e13c 92d4 fbbc b346 28bd
00000200: 0698 1d3d 1e2a d93a df6e 8fbc 6e9a 84bc
00000210: d0f7 f53b ffaa 37bd 54de 453c f9b4 463d
00000220: 728b 373d 9421 d03c 86d0 aebb 82bc f63c
00000230: 730c 1abd 707e eebc 3f5c 33bd deea c33c
00000240: d995 39bd 262d 3c3d 2904 593c 7a58 003d
00000250: 6b17 513c 4e01 3a3d 426e 973c 2a49 20bb
00000260: 2e6a 05bc 8b78 0a3d 28ed fc3b 72e8 9e3c
00000270: 3bed a83b 726d e8bc af05 463d fe5b d83c
00000280: a62a 743c f4f7 663c 7c1b a8bc 707b 0dbd
00000290: 46c9 e13c 046e e7bc dc8a 643c 3eb4 1abc
000002a0: 2c40 403d 8577 ebbc d3eb 0f3b 3644 b73c
000002b0: c37c 7f3a e2c0 01bc b49d 16bd 7412 353c
000002c0: d962 103c 83be 293d 5b18 febc 6b21 53bc
000002d0: 1c14 b3bc 9065 c23c 3bae 37bd 2fce e73c
000002e0: 847b 08bd 6990 183d d4fb 4bbd fc1b d33b
000002f0: 5626 e83c 4322 4ebd f472 413c 177d 74ba
00000300: b15e 223d 4739 743c e75f 6d3c 90d2 87bb
00000310: 3aa2 873c 40ad bebb f6af 863c 3278 1c3d
00000320: 1b71 26bd 47aa db3c 567f 323b 8e66 13bd
00000330: 17e0 9bbc e6e6 973c bc54 bc3c cf2c 2dbd
00000340: d7cd 39bd f3dd 523d 8052 4f3b d59a e23c
00000350: c959 3f3d 513b 93bc c0b9 81ba 3fe7 5dbc
00000360: a042 cc3c 6097 31bc 686a 52bc f4ad 23bd
00000370: 8106 2abd b49c 553c 9339 f9bb 379d 943b
00000380: 1348 84bc 4ef0 d73c aca5 20bd 2e69 9c3c
00000390: 48f0 d1bc a5eb 52bc 38df b8bc 65a3 3ebd
000003a0: a5e6 16bc 2be3 143d 0a51 c7bc 4050 ddbc
000003b0: c30f ab3c e042 ed3c e6ce 0dbd 2f31 0ebd
000003c0: 5a69 883b 614f bb39 875d 94bb bc57 30bd
000003d0: dfd1 293d c8eb 123d a76b e3bc f0b7 9fbc
000003e0: 914b 103d 022d 003c de79 c7bb f3dd 1f3b
000003f0: c1b8 f33c 2d9a 14bd d7c3 673c ae2d b53a

fc2.bias f4 [300]
-0.038020525 0.03907438 -0.006971304 0.007171095 -0.029863868 -0.027354663 0.04576377 -0.024234872
-0.026084647 0.010403309 -0.05078009 -0.037980128 0.024202717 -0.0019042529 0.01599798 0.03257893
0.023297764 0.042591248 -0.0066849655 0.026021851 0.012332665 -0.015917528 -0.015255368 0.038263194
0.00088712585 -0.004006624 -0.01997472 -0.020412643 0.00893138 -0.041958656 0.04281536 -0.032861676
0.025052352 0.0071328874 0.023893004 -0.017607085 -0.021687878 -0.0001537592 0.06363224 0.031733997
-0.00032905856 0.03037443 -0.0329311 -0.040620722 0.01593322 0.014426643 -0.013126974 0.008752464
-0.00840039 0.045037825 -0.014942745 -0.03747929 -0.03295194 0.04542089 -0.033635736 0.03347111
-0.04315708 -0.024668686 0.00036660864 -0.014809902 0.04299558 -0.04729269 -0.0184112 0.031078419
-0.039420735 0.008785067 0.0012948166 0.02824836 -0.0023664387 0.040218648 0.01627003 -0.0060390765
-0.048544463 -0.0016440043 0.041960236 -0.03809743 0.028985335 0.040093467 0.026649864 0.0015926252
-0.032744072 -0.015790185 -0.018123992 -0.0214966 -0.03172471 0.04146638 0.030256249 0.049126275
-0.018118545 -0.047714107 -0.030637987 -0.02196219 -0.013357534 0.047237415 0.033971976 0.026676802
-0.03184359 -0.035600398 -0.008217151 0.03796381 -0.04111802 -0.037087258 -0.008784926 0.0007634175
0.0051292526 0.026005462 -0.007495943 -0.0068558296 0.007496894 0.014707606 -0.029754354 -0.014889496
-0.018726666 -0.05009817 0.019193267 0.0020922364 0.021003412 0.055033263 0.01109343 0.0037245909
0.031030659 -0.042964388 -0.023376 0.045955658 0.020740457 0.01737767 0.027248153 -0.004309933
0.032127522 -0.002055876 -0.034137595 -0.00593063 -0.052443538 -0.006147855 0.038071994 -0.015428646
4.0228457e-05 -0.026680486 -0.049478494 0.03981627 -0.024155172 -0.01658875 -0.027428249 0.025120389
-0.02764406 0.03639442 -0.040373456 0.041139953 0.0016522814 0.017766643 0.011658315 -0.037692115
0.01684054 0.02574807 -0.04255635 -0.019985456 0.048303165 -0.048164587 -0.030849595 0.049568303
0.021014681 -0.0034553956 -0.03270443 -0.020504825 -0.028302059 -0.009026957 -0.043661617 0.06303172
0.016501972 -0.029598877 0.0016240303 -0.014668056 0.013811022 0.024160987 0.04003483 -0.03735398
-0.03666374 0.015903294 -0.031526424 -0.025323236 -0.03406555 0.039884645 0.031780638 0.005565436
-0.030419366 -0.009366886 -0.009013354 0.037990034 0.03377861 0.03252962 -0.040744606 -0.013685393
-0.044318274 -0.03298602 -0.002184507 4.660108e-06 -0.030379789 0.0152425505 0.0053047454 0.043757137
-0.037783775 0.015222263 -0.016794452 0.012727105 -0.04227209 -0.005068997 0.05068086 0.011379533
-0.009644577 -0.02863983 -0.021128003 -0.011092357 -0.03510687 0.038723066 0.053603545 -0.0098960865
0.017904773 -0.024787623 -0.020362604 -0.015597732 -0.0018040076 0.0003372839 -0.037879966 0.015291191
0.014786967 -0.049492415 0.03505848 0.004711481 -0.045938123 0.00562865 0.023591073 0.003996478
-0.006417188 0.011325457 -0.03670299 -0.018342094 0.0054082423 -0.051131878 -0.03586067 0.010454766
0.0139867095 -0.044685535 0.0023354404 0.039966784 0.02501641 0.016781764 0.010997235 -0.032378696
0.045813728 -0.035285812 -0.016965458 -0.008642362 -0.020989161 0.02169502 -0.014255083 0.010881114
00000000: 69bb 1bbd 750c 203d 896f e4bb 81fb ea3b
00000010: 12a5 f4bc e316 e0bc ca72 3b3d 3688 c6bc
00000020: 78af d5bc a472 2a3c c9fe 4fbd 0d91 1bbd
00000030: c744 c63c 2098 f9ba 320e 833c 7c71 053d
00000040: f4da be3c 2974 2e3d 8e0d dbbb c72b d53c
00000050: f20e 4a3c 7a65 82bc a7f1 79bc deb9 1c3d
00000060: 028e 683a 004a 83bb 06a2 a3bc 6a38 a7bc
00000070: ec54 123c d7dc 2bbd 295f 2f3d f799 06bd
00000080: 973a cd3c ffba e93b 43bb c33c bc3c 90bc
00000090: c7aa b1bc 6c3a 21b9 9f51 823d 82fb 013d
000000a0: 7e85 acb9 ccd3 f83c c3e2 06bd ea61 26bd
000000b0: 6286 823c ba5d 6c3c 8512 57bc 7f66 0f3c
000000c0: caa1 09bc 9579 383d 6ad2 74bc e283 19bd
000000d0: 9df8 06bd 410b 3a3d a0c5 09bd 0119 093d
000000e0: 7ac5 30bd fc15 cabc 6135 c039 3ba5 72bc
000000f0: 221c 303d fbb5 41bd 16d3 96bc 2b98 fe3c
00000100: a377 21bd 3eef 0f3c d6b6 a93a 1b69 e73c
00000110: 4116 1bbb 4fbc 243d ba48 853c 72e3 c5bb
00000120: 8fd6 46bd a17b d7ba 7fde 2b3d 0d0c 1cbd
00000130: a772 ed3c 0c39 243d d150 da3c a2bf d03a
00000140: a61e 06bd 6b5a 81bc c478 94bc a319 b0bc
00000150: c5f1 01bd a7d8 293d f4db f73c a238 493d
00000160: 586d 94bc de6f 43bd 84fc fabc 0dea b3bc
00000170: 8fd9 5abc 057c 413d 3326 0b3d 4f89 da3c
00000180: 6d6e 02bd b9d1 11bd 3ba1 06bc f17f 1b3d
00000190: 5e6b 28bd cfe8 17bd a6ee 0fbc 1520 483a
000001a0: 4a13 a83b 6809 d53c 87a0 f5bb dea6 e0bb
000001b0: 81a8 f53b 2cf8 703c 67bf f3bc 13f3 73bc
000001c0: aa68 99bc bd33 4dbd 333b 9d3c e71d 093b
000001d0: 590f ac3c 8f6a 613d 38c1 353c 4418 743b
000001e0: 0234 fe3c 6dfb 2fbd 067f bfbc 003c 3c3d
000001f0: e4e7 a93c 9e5b 8e3c 8537 df3c 573a 8dbb
00000200: 2698 033d e0bb 06bb ddd3 0bbd bb55 c2bb
00000210: 09cf 56bd f273 c9bb 61f1 1b3d 6ec8 7cbc
00000220: faba 2838 0991 dabc f6a9 4abd 6316 233d
00000230: 11e1 c5bc 21e5 87bc 35b1 e0bc 46c9 cd3c
00000240: cc75 e2bc 5112 153d a35e 25bd 5e82 283d
00000250: 5d91 d83a 5a8b 913c 8402 3f3c 0c63 1abd
00000260: 2cf5 893c 9eed d23c 914f 2ebd 8ab8 a3bc
00000270: 8ad9 453d 3b48 45bd 4ab8 fcbc 2208 4b3d
00000280: fb26 ac3c eb73 62bb 15f5 05bd bcf9 a7bc
00000290: b8d9 e7bc cde5 13bc 86d6 32bd c616 813d
000002a0: 252f 873c 5879 f2bc 6add d43a 4952 70bc
000002b0: a047 623c 43ed c53c 90fb 233d 7d00 19bd
000002c0: b82c 16bd a047 823c da21 01bd ad72 cfbc
000002d0: 5188 0bbd 155e 233d 6a2c 023d 435e b63b
000002e0: 0932 f9bc 9177 19bc bfac 13bc 709b 1b3d
000002f0: 715b 0a3d c73d 053d d1e3 26bd b338 60bc
00000300: 1487 35bd 591c 07bd f229 0fbb 065e 9c36
00000310: 09df f8bc e4bb 793c 6ed3 ad3b af3a 333d
00000320: 29c3 1abd cc66 793c 8594 89bc 5985 503c
00000330: 8025 2dbd d419 a6bb bc96 4f3d 3971 3a3c
00000340: 4a04 1ebc 149e eabc a214 adbc b8bc 35bc
00000350: 39cc 0fbd 149c 1e3d 648f 5b3d 3223 22bc
00000360: 08ad 923c 6a0f cbbc 7acf a6bc a18d 7fbc
00000370: 7374 ecba 7bd5 b039 0628 1bbd e787 7a3c
00000380: 0945 723c 8fb8 4abd 7b99 0f3d c462 9a3b
00000390: 9d29 3cbd 8a70 b83b 1142 c13c e3f4 823b
000003a0: 4647 d2bb 698e 393c e055 16bd 2942 96bc
000003b0: a037 b13b a96f 51bd a3e2 12bd 784a 2b3c
000003c0: 8328 653c 2e08 37bd 300e 193b 36b4 233d
000003d0: 37ef cc3c e979 893c bf2d 343c 869f 04bd
000003e0: 2da7 3b3d db87 10bd 25fb 8abc b298 0dbc
000003f0: 76f1 abbc c1b9 b13c 278e 69bc b346 323c

v.weight f4 [1, 300]
0.041884355 0.020153012 -0.012763071 0.008098528 0.014870205 0.06311491 -0.033524983 0.09123472
0.015968546 -0.05088305 -0.02776348 0.029296812 -0.030901922 0.07389844 -0.04816111 -0.036271594
-0.006023318 -0.024028337 -0.027184516 0.087447815 0.04551977 0.051667113 0.12683722 -0.031864136
-0.03904998 -0.039928246 -0.009492149 0.022199884 0.051895276 -0.03299863 0.07581891 -0.021099487
0.046777997 0.04158203 -0.030701963 0.054667816 -0.04090953 0.033894368 0.042052306 -0.0052656843
0.015786773 0.11029986 0.060168896 0.006072268 -0.036315233 0.034717742 -0.033118892 -0.029007195
-0.025579628 -0.052630134 -0.012515835 0.046328418 -0.02417934 0.081699446 -0.04854684 -0.00094543915
-0.001607789 0.038529683 -0.040098727 -0.03172721 0.05777598 0.00525786 0.03757269 0.09474883
0.05535777 0.06667986 -0.03975415 0.089225546 -0.012004429 -0.017689586 -0.04751136 0.078338176
-0.05204009 0.01702869 0.05977315 -0.03376526 -0.052456353 -0.038155396 0.024702633 0.078722805
-0.03528273 -0.047851752 -0.021746155 -0.007616006 -0.033525556 0.07965067 0.01847647 0.04898865
-0.011670287 -0.028787496 -0.09361856 0.07800817 0.09809399 0.0020706349 0.067908585 0.038209885
-0.0028469106 0.020226933 0.04413473 -0.047169406 0.052015975 0.017432572 -0.016257115 -0.15241049
-0.022149572 0.007888528 0.079699114 0.083391696 0.07683039 0.08037861 0.082108915 0.070707984
0.0719205 -0.032943744 -0.025200088 -0.044650294 0.08050799 0.060144432 0.07677774 -0.0030269104
-0.009520797 -0.0245687 -0.030904295 0.04689537 -0.020251568 0.04541307 -0.0027022709 0.0514894
-0.024959158 0.08752555 -0.0490544 -0.025834192 -0.045182202 -0.043092094 -0.04640111 -0.052376334
-0.011064951 0.052499905 -0.022480188 0.022669911 -0.041656245 0.08434077 0.059116177 -0.002699338
0.08210048 0.076048814 0.036252107 0.05108645 -0.091122486 0.08435329 -0.036614627 0.03365619
-0.058078658 0.029621413 -0.013918644 0.001228606 0.0732685 0.019555159 0.017913256 0.09918586
-0.043360606 0.048066854 0.0029586735 -0.052089352 -0.025044236 -0.013633023 -0.04209037 0.10755714
-0.016049363 -0.04891455 -0.047473215 -0.042974792 -0.027439788 0.0292875 0.035936993 0.046964064
-0.035264403 0.056524657 0.044910047 -0.09320585 -0.01340931 -0.0006535194 -0.012906941 -0.020056156
-0.012712262 -0.005389426 0.049157236 0.121211186 -0.041421324 0.0026824013 -0.034057453 0.022984859
0.0011809616 -0.0057811034 0.08013779 0.08180883 -0.047864273 -0.025586251 -0.011159101 -0.014002873
-0.018205851 0.070005134 0.06385447 0.040317334 -0.045024537 0.07784273 0.056776255 0.030598313
-0.017832095 -0.034468535 0.04384396 0.06696179 0.06582066 -0.028440246 0.0761958 0.043363277
0.05252196 -0.055374943 0.04712878 0.110907845 -0.05624831 -0.008611282 -0.030811882 -0.018784482
-0.03768305 0.016423546 0.08983229 0.09860161 -0.01120061 0.052724853 0.100483075 0.06467981
0.06674699 0.03605447 -0.031446084 -0.04743717 -0.0069434936 0.036695614 -0.014397095 -0.027632775
-0.041215617 -0.025850302 0.07602802 -0.03900379 -0.04575771 0.080533765 -0.0506232 -0.03567477
0.03467217 -0.017822102 0.10822506 -0.029567117 0.023854563 -0.007112612 -0.04291051 -0.043335322
00000000: ee8e 2b3d ee17 a53c 331c 51bc b0af 043c
00000010: 29a2 733c 6442 813d 7e51 09bd 45d9 ba3d
00000020: 78d0 823c bf6a 50bd 3d70 e3bc deff ef3c
00000030: 0726 fdbc 1158 973d 9644 45bd 8691 14bd
00000040: 415f c5bb 13d7 c4bc 10b2 debc d717 b33d
00000050: f072 3a3d e5a0 533d 9ee1 013e f883 02bd
00000060: dff2 1fbd cd8b 23bd f584 1bbc 88dc b53c
00000070: 2490 543d 9229 07bd f246 9b3d d5d8 acbc
00000080: 499a 3f3d eb51 2a3d af82 fbbc 5ceb 5f3d
00000090: c090 27bd d2d4 0a3d 0a3f 2c3d c38b acbb
000000a0: 4353 813c e5e4 e13d a973 763d e0f9 c63b
000000b0: 48bf 14bd 3134 0e3d ada7 07bd 7fa0 edbc
000000c0: 5e8c d1bc b292 57bd 380f 4dbc dec2 3d3d
000000d0: c013 c6bc 0a52 a73d 0dd9 46bd 59d7 77ba
000000e0: 72bc d2ba 4dd1 1d3d 903e 24bd 64f4 01bd
000000f0: 82a6 6c3d 204a ac3b d2e5 193d ad0b c23d
00000100: d4be 623d 738f 883d 3fd5 22bd e2bb b63d
00000110: 39ae 44bc c0e9 90bc 469b 42bd c46f a03d
00000120: fd27 55bd c07f 8b3c b1d4 743d 714d 0abd
00000130: 79dc 56bd d548 1cbd 2d5d ca3c 6c39 a13d
00000140: a084 10bd 3300 44bd fe24 b2bc b08f f9bb
00000150: 1852 09bd e41f a33d f75b 973c 53a8 483d
00000160: bb34 3fbc c1d3 ebbc 16bb bfbd bfc2 9f3d
00000170: 80e5 c83d 7db3 073b a813 8b3d f881 1c3d
00000180: 3c93 3abb f4b2 a53c 9ec6 343d b534 41bd
00000190: b40e 553d c1ce 8e3c a42d 85bc 7f11 1cbe
000001a0: 0573 b5bc e23e 013c 4a39 a33d 44c9 aa3d
000001b0: 4059 9d3d 8a9d a43d b828 a83d 59cf 903d
000001c0: 0e4b 933d 05f0 06bd 6a70 cebc 3ae3 36bd
000001d0: 60e1 a43d 025a 763d a63d 9d3d 215f 46bb
000001e0: 1efd 1bbc 4c44 c9bc 012b fdbc 5c15 403d
000001f0: 9ee6 a5bc 0e03 3a3d 9518 31bb 8de6 523d
00000200: 2677 ccbc 9840 b33d 44ed 48bd 3aa2 d3bc
00000210: f910 39bd 5681 30bd 170f 3ebd 9188 56bd
00000220: c549 35bc 240a 573d 5f28 b8bc 40b6 b93c
00000230: bd9f 2abd dbba ac3d ce23 723d 60e7 30bb
00000240: 4c24 a83d 7bbf 9b3d 177d 143d 0740 513d
00000250: 6d9e babd 6bc1 ac3d 38f9 15bd 13db 093d
00000260: e3e3 6dbd 9ba8 f23c 060b 64bc 2d09 a13a
00000270: cc0d 963d 2432 a03c d2be 923c f521 cb3d
00000280: e49a 31bd c0e1 443d 4ee6 413b a55b 55bd
00000290: 9229 cdbc 0b5d 5fbc f466 2cbd eb46 dc3d
000002a0: f479 83bc a05a 48bd 4673 42bd 5606 30bd
000002b0: 68c9 e0bc 57ec ef3c ab32 133d 645d 403d
000002c0: 6871 10bd 6686 673d 99f3 373d b5e2 bebd
000002d0: b9b2 5bbc f250 2bba a277 53bc cf4c a4bc
000002e0: 1747 50bc c899 b0bb 1959 493d 923d f83d
000002f0: 68a9 29bd 3acb 2f3b d47f 0bbd be4a bc3c
00000300: 7fca 9a3a 696f bdbb 481f a43d 638b a73d
00000310: 540d 44bd 429a d1bc a9d4 36bc 4e6c 65bc
00000320: 7024 95bc da5e 8f3d 22c6 823d ca23 253d
00000330: a66b 38bd 026c 9f3d 388e 683d 50a9 fa3c
00000340: 9d14 92bc e12e 0dbd b995 333d 4323 893d
00000350: fbcc 863d 85fb e8bc 8b0c 9c3d b19d 313d
00000360: 4421 573d d6d0 62bd 1c0a 413d a723 e33d
00000370: a164 66bd 5616 0dbc 3369 fcbc eae1 99bc
00000380: 8b59 1abd ac8a 863c fef9 b73d a4ef c93d
00000390: c382 37bc 04f6 573d 12ca cd3d d976 843d
000003a0: a5b2 883d daad 133d 9ccd 00bd 7a4d 42bd
000003b0: 3f86 e3bb 244e 163d cbe1 6bbc 215e e2bc
000003c0: b5d1 28bd 03c4 d3bc 94b4 9b3d 70c2 1fbd
000003d0: 706c 3bbd e3ee a43d 465a 4fbd b51f 12bd
000003e0: 6804 0e3d a8ff 91bc 1aa5 dd3d bd36 f2bc
000003f0: a56a c33c ea10 e9bb eec2 2fbd 6180 31bd
