SAC_own_hardcore/sac_100/actor_sac.pth (torch, 533976 bytes, 8 tensors)

fc1.weight f4 [400, 24]
0	0xbf17d53f	-0.5930976
1	0xbe997e62	-0.29979235
2	0x3e93164c	0.2872795
3	0x3eced742	0.40398604
4	0xbe40f9cc	-0.1884529
5	0x3d3c83c6	0.046024106
6	0xbdfa1438	-0.12210888
7	0xbe067670	-0.13131118
8	0x3e1f4bdf	0.15556286
9	0x3c8e2191	0.01734999
10	0xbd4d34da	-0.05009923
11	0xbeb8a62a	-0.36064273
12	0xbd141d35	-0.036160666
13	0xbe01ce0a	-0.12676254
14	0x3dc2d810	0.09513867
15	0xbca7cf03	-0.020484453
16	0x3d562a6e	0.052286558
17	0x3d7fc0e3	0.06243981
18	0x3dd9934c	0.10623798
19	0xbd5a45b5	-0.053289134
20	0x3d9e39f0	0.077258945
21	0x3e389b66	0.1802803
22	0xbd6b7a02	-0.057489403
23	0xbdfceefe	-0.12350272
24	0x3dd47f76	0.10375874
25	0x3f5f3935	0.87196666
26	0xbf14caec	-0.58122134
27	0xbbb10e2e	-0.0054033017
28	0xbe18c2b6	-0.14918026
29	0x3ea3251c	0.3186425
30	0x3d27802c	0.04089372
31	0x3ea4881d	0.32135096
32	0xbd43afb5	-0.04777499
33	0xbe17f227	-0.14838468
34	0xbe342f1c	-0.17596096
35	0x3e7aa700	0.24477768
36	0x3e5f4e16	0.21807131
37	0x3e6d03f2	0.23146036
38	0xbe7baac5	-0.24576862
39	0xbd4f309f	-0.050583478
40	0x3b943d7c	0.004523931
41	0xbe579f44	-0.21056849
42	0xbe9a857d	-0.30179968
43	0xbccd6c64	-0.025076099
44	0x3dbfca99	0.09364814
45	0xbd07b9a6	-0.033136033
46	0xbdc4ceb5	-0.09609739
47	0x3b804758	0.003914755
48	0x3e195588	0.14974034
49	0x3e2ee299	0.17078628
50	0xbf2da0c0	-0.6782341
51	0xbf432891	-0.76233774
52	0xbdaaed0e	-0.08345996
53	0x3e94cb03	0.29061136
54	0x3e93b399	0.2884796
55	0x3e693b20	0.2277646
56	0xbde7151e	-0.11283325
57	0xbe4c8da5	-0.19975908
58	0x3e5c0c99	0.2148918
59	0xbe6420a6	-0.2227808
60	0x3de3ae3c	0.11117217
61	0xbe1eb953	-0.15500383
62	0x3d82ee97	0.06393164
63	0xbe0da769	-0.13833393
64	0xbe600e7d	-0.21880527
65	0xbe25136e	-0.16120693
66	0x3df7aebf	0.12093877
67	0xbddc2a95	-0.107503094
68	0x3d07ff2b	0.03320233
69	0x3d7be1ca	0.061494626
70	0xbe994749	-0.299372
71	0xbd44a7cd	-0.04801159
72	0xbe456180	-0.19275475
73	0x3e4be240	0.19910526
74	0x3ee95b86	0.4557764
75	0x3ede8de9	0.43467644
76	0xbdecd35b	-0.1156375
77	0xbf03c831	-0.5147734
78	0xbdb845b6	-0.08997671
79	0xbea98cdf	-0.3311529
80	0x3c835069	0.016029553
81	0xbe3826fe	-0.17983624
82	0xbea58a14	-0.32331908
83	0x3cb90ffe	0.022590633
84	0xbc70233b	-0.014656837
85	0xbe4b89c0	-0.19876766
86	0xbd8c8291	-0.06860841
87	0x3e06d473	0.1316698
88	0xbde01415	-0.1094133
89	0x3d180b9e	0.037120454
90	0xbcd6dbcc	-0.026227854
91	0xbd9ff7cf	-0.078109376
92	0x3de18e4c	0.11013469
93	0x3dbdfdf1	0.09276951
94	0xbe51f4f8	-0.20503604
95	0xbe478909	-0.19485869
96	0x3e1e60f5	0.15466674
97	0xbef87195	-0.48524156
98	0x3e7d13e2	0.24714616
99	0x3f0b977c	0.5452802
100	0x3e35ddb4	0.17760354
101	0x3da59ea7	0.08086901
102	0xbea05cf1	-0.3132091
103	0x3cc8b2ed	0.024499381
104	0x3dd268af	0.10273873
105	0xbeec8888	-0.46197915
106	0x3e87b2ae	0.2650351
107	0xbe071ec2	-0.13195327
108	0x3d5e2b9d	0.05424081
109	0x3e853096	0.2601363
110	0xbcd1e6b1	-0.025622698
111	0xbe645d99	-0.2230133
112	0xbe18ff87	-0.14941226
113	0xbd6ab721	-0.05730355
114	0xbe26df98	-0.16296232
115	0xbda3b3af	-0.07993256
116	0xbe8dacc1	-0.27670863
117	0xbdfe34ac	-0.1241239
118	0xbd782ce0	-0.06058967
119	0xbe010044	-0.12597758
120	0x3e0bec82	0.1366444
121	0x3f3ef431	0.74591357
122	0x3f1701d5	0.5898717
123	0xbe442e44	-0.19158274
124	0x3e62b837	0.22140585
125	0xbd8935bd	-0.06699703
126	0xbe868618	-0.2627418
127	0xbe48aa2f	-0.1959617
128	0xbe0afc19	-0.1357273
129	0xbcfb9578	-0.03071092
130	0xb8af032c	-8.345241e-05
131	0x3e8ea1ff	0.27857968
132	0xbb632ceb	-0.0034664224
133	0xbe8067f4	-0.2507931
134	0x3dce6af3	0.10078993
135	0x3e0a2444	0.13490397
136	0x3cf7f673	0.030268883
137	0xbdf8ed88	-0.121546805
138	0x3cfee5d2	0.031115446
139	0xbaaaf76d	-0.0013043709
140	0x3e3311eb	0.17487304
141	0xbc9815b0	-0.018565029
142	0x3daee586	0.08539872
143	0xbcfb8d97	-0.030707164
144	0x3eab4274	0.33449137
145	0x3f067a0c	0.5252998
146	0xbec0e3ac	-0.376737
147	0xbe600d4f	-0.21880077
148	0x3e518ffe	0.20465085
149	0xbb983ee8	-0.004646171
150	0x3caff459	0.021478819
151	0xbdd030c1	-0.10165549
152	0x3e964d12	0.29355675
153	0xbdbf3cfc	-0.09337804
154	0x3eb38f42	0.35070235
155	0xbe13e70e	-0.14443609
156	0x3d8e0942	0.069353595
157	0xbe406804	-0.18789679
158	0xbd86d90b	-0.065843664
159	0x3d86d64a	0.06583841
160	0xbd80eb34	-0.062948614
161	0x3d28eba4	0.04124035
162	0xbe233ae0	-0.15940428
163	0xbe125284	-0.1428929
164	0xbcaf4479	-0.021394955
165	0xbd401238	-0.046892375
166	0xbe37dbd4	-0.17954952
167	0xbe211e18	-0.15734136
168	0xbdb622ac	-0.08893332
169	0x3eb876b3	0.3602806
170	0xbdcd58d5	-0.10026709
171	0xbea33d15	-0.3188254
172	0x3e3db5aa	0.1852633
173	0xbe43e9dd	-0.1913218
174	0x3e47789f	0.19479607
175	0x3e7eb81f	0.24874924
176	0x3e1dae3c	0.15398496
177	0x3ea5b0a9	0.32361344
178	0x3d21e797	0.039527502
179	0x3da3b5eb	0.079936825
180	0x3e6dd158	0.2322439
181	0xbe1d38f6	-0.1535376
182	0xbbba1077	-0.0056782323
183	0x3da3c839	0.07997174
184	0x3d03c98d	0.032174636
185	0xbe77b5de	-0.2419047
186	0xbd88b5e6	-0.066753194
187	0xbdfd2857	-0.1236121
188	0xbdda9a10	-0.10673916
189	0x3d0287f9	0.031867955
190	0x3dff930c	0.12479219
191	0xbe8aa320	-0.2707758
192	0xbda615b8	-0.08109611
193	0x3ec0b59e	0.37638563
194	0xbef39e8c	-0.475819
195	0xbc82a366	-0.015947055
196	0x3d42b89b	0.047539335
197	0x3e673fcd	0.22582932
198	0xbe54c56c	-0.20778435
199	0xbe598219	-0.21241035
200	0xbea0fb3b	-0.31441674
201	0x3e8a96cb	0.2706817
202	0xbe289bbd	-0.1646566
203	0xbe64f78a	-0.22360054
204	0x3e58907c	0.21148866
205	0xbe6e1369	-0.23249592
206	0xbda5bc32	-0.08092536
207	0x3d4527ad	0.04813354
208	0x3e5db7b5	0.2165211
209	0x3e2e2f0e	0.17010137
210	0xbd4751bc	-0.048661932
211	0x3e14bf73	0.14526157
212	0xbe328b84	-0.17436033
213	0xbd91554d	-0.07096348
214	0x3cac5112	0.021034751
215	0xbe2f3989	-0.17111792
216	0x3e933993	0.28754863
217	0xbef0b757	-0.47014877
218	0x3f5e48d1	0.8682986
219	0xba8c97c0	-0.0010726377
220	0xbdc0919b	-0.09402772
221	0xbc93e691	-0.018054279
222	0xbf04d6bc	-0.5189016
223	0x3e85dce2	0.26145083
224	0x3e83ec6a	0.25766307
225	0xbe02ed09	-0.12785734
226	0x3e88cea3	0.2672015
227	0x3d551a93	0.052027296
228	0xbc89421c	-0.016755156
229	0xbcbfab05	-0.023396978
230	0xbe165eb1	-0.1468456
231	0xbe113bf6	-0.1418303
232	0xbe751c01	-0.23936464
233	0x3d5fb411	0.054615084
234	0xbe0f342f	-0.1398475
235	0xbe3ef445	-0.18647869
236	0x3d07efec	0.03318779
237	0x3d9c8c3b	0.07643934
238	0xbe2e3a11	-0.17014338
239	0x3e034686	0.12819871
240	0x3c478090	0.012176648
241	0xbe0b97c5	-0.13632114
242	0xbf461f15	-0.7739118
243	0xbd13c54c	-0.03607683
244	0xbe2d9999	-0.16953124
245	0x3c6a55bf	0.01430267
246	0x3df1a1ae	0.11798416
247	0x3da275e9	0.07932646
248	0x3e4a98a2	0.19784787
249	0xbe6f1c5f	-0.23350666
250	0xbd945898	-0.072434604
251	0xbcd65d26	-0.026167464
252	0xbe720474	-0.23634511
253	0xbe3a48fd	-0.18191905
254	0x3d9add84	0.07561782
255	0x3e52c1a8	0.20581686

fc1.bias f4 [400]
0	0x3dea3d65	0.11437491
1	0x3dc2d209	0.09512717
2	0x3e2633a5	0.16230638
3	0x3e012614	0.12612182
4	0xbdc2f4b6	-0.09519331
5	0xbe9b8937	-0.30378124
6	0xbe5aa450	-0.21351743
7	0xbc8d02ca	-0.017213244
8	0x3d9cbb87	0.076529555
9	0xbdfadc9f	-0.122491114
10	0xbe5e95f2	-0.21736887
11	0xbde055f9	-0.10953898
12	0xbd98d9af	-0.07463395
13	0x3c15bd4e	0.009139372
14	0x3daeee4b	0.085415445
15	0xbdf7d907	-0.121019416
16	0xbe1e1bad	-0.15440245
17	0xbe9c0c5e	-0.30478185
18	0xbdd0b786	-0.10191254
19	0x3d53c548	0.051701814
20	0xbe833505	-0.25626388
21	0x3db70820	0.089370966
22	0xba9e56dc	-0.001208033
23	0xbe29e1ac	-0.16589993
24	0x3da503b3	0.08057346
25	0xbdd98ecf	-0.10622942
26	0xbe0f9b98	-0.14024198
27	0xbd8847b9	-0.06654305
28	0xbe8239dc	-0.25434768
29	0x3d9b770d	0.075910665
30	0xbd58a67a	-0.05289314
31	0x3dc9d1f8	0.098545015
32	0xbd7cfe9a	-0.061766244
33	0xbdced5fd	-0.10099409
34	0xbe6d2b13	-0.23160963
35	0xbe237213	-0.15961485
36	0xbe597526	-0.21236095
37	0xbddc3ac9	-0.107534
38	0xbd063e80	-0.03277445
39	0xbe1b7641	-0.15181829
40	0xbe2fa883	-0.17154126
41	0xbe4fa894	-0.20279151
42	0xbdc2d3da	-0.09513064
43	0xbd798018	-0.060913175
44	0xbd6fdcf9	-0.058560345
45	0x3b03ab1b	0.0020091
46	0x3d0c4a80	0.034250736
47	0x3d0c0f0a	0.03419403
48	0x3d890be7	0.06691723
49	0x3e14a636	0.1451653
50	0x3e2171ea	0.15766111
51	0x3d1da6ec	0.038489267
52	0xbe65cbc7	-0.22441016
53	0xbe437354	-0.19086963
54	0xbda1d56f	-0.07902037
55	0xbd75e8f0	-0.0600366
56	0x3b01571f	0.0019735766
57	0x3e20257a	0.15639296
58	0x3df96943	0.1217828
59	0xbca5b2e4	-0.020226903
60	0xbe08daed	-0.13364764
61	0x3e43b793	0.19112997
62	0x3d0e0e3a	0.034681536
63	0xbe5f6ee2	-0.21819642
64	0xbdf5e575	-0.12006656
65	0xbe2b6119	-0.16736259
66	0x3c6ceb6c	0.014460426
67	0xbd8fc069	-0.07019121
68	0xbd430b04	-0.047617927
69	0x3d95ef82	0.07321073
70	0xbe7b5647	-0.24544631
71	0x3d4923c6	0.04910638
72	0xbe8e9bf2	-0.27853352
73	0xbe34ed99	-0.17668761
74	0xbe956d6a	-0.2918504
75	0x3dafaadc	0.08577511
76	0x3da18206	0.07886128
77	0x3da8324f	0.082127206
78	0x3dda221c	0.10651037
79	0x3cce29f4	0.02516649
80	0x3dc12f3f	0.094328396
81	0xbd501b4f	-0.050807294
82	0xbce5055e	-0.02795666
83	0xbe189c5d	-0.14903398
84	0xbe55cc35	-0.2087868
85	0xbde8d33b	-0.11368414
86	0x3e54b22a	0.20771089
87	0x3d9ec045	0.07751516
88	0xbe50f3f7	-0.20405565
89	0x3e10e435	0.14149554
90	0xbe2016e9	-0.1563374
91	0xbe76ff49	-0.24120821
92	0xbe065f56	-0.13122305
93	0x3b1899df	0.0023285074
94	0x3e356379	0.17713727
95	0xbc6375f5	-0.013883104
96	0x3ce845d5	0.028353611
97	0xbe0438bc	-0.12912267
98	0xbe69dc31	-0.22837903
99	0x3d533e66	0.05157318
100	0x3e42fc6b	0.19041602
101	0xbd8b2455	-0.06794039
102	0xbc2b0cf5	-0.010440101
103	0xbde39208	-0.111118376
104	0xbe0775bc	-0.13228506
105	0xbe289eb6	-0.16466793
106	0xbe5c555a	-0.21516934
107	0xbd7c3ceb	-0.061581533
108	0xbe10d56b	-0.14143912
109	0xbc337c76	-0.010954967
110	0x3e4d4a75	0.20047934
111	0xbe43d7f4	-0.19125348
112	0xbe13dded	-0.14440127
113	0x3e710796	0.2353805
114	0x3d80c13a	0.06286855
115	0x3d44f6d7	0.048086967
116	0xbe0e9ac2	-0.13926223
117	0xbe8db0d7	-0.2767398
118	0xbe209482	-0.15681651
119	0xbde103e2	-0.10987069
120	0x3db9ab99	0.09065933
121	0x3db90017	0.0903322
122	0x3e266c14	0.16252166
123	0x3e3970eb	0.18109481
124	0x3dca00ac	0.098634094
125	0x3c9d671b	0.019214204
126	0xbe1d3ac1	-0.15354444
127	0xbe4d5702	-0.20052722
128	0xbe220070	-0.1582048
129	0xbe1c26c2	-0.1524916
130	0x3d8d2f02	0.06893732
131	0xbe93303b	-0.28747734
132	0xbdeb7c44	-0.11498311
133	0x3cf1f8d1	0.02953759
134	0xbe210216	-0.15723452
135	0xbe2a3fd5	-0.16625912
136	0xbd229ab7	-0.03969833
137	0xbda48e76	-0.08034985
138	0xbe428e52	-0.18999603
139	0xbe780c4d	-0.24223442
140	0x3d34e325	0.044161934
141	0xbd3ac68e	-0.045599513
142	0x3d07e5eb	0.03317825
143	0xbd8adf87	-0.06780916
144	0xbd33c270	-0.043886602
145	0xbe067fd2	-0.13134697
146	0x3e274f3b	0.16338818
147	0x3d8e28f6	0.069414064
148	0x3d906b2b	0.07051691
149	0x3ddf9375	0.10916797
150	0x3d2d7d98	0.042356104
151	0x3e204665	0.15651853
152	0xbe5414ca	-0.20711055
153	0xbe9e2537	-0.30887768
154	0xbdf232e9	-0.118261166
155	0xbe1671fe	-0.14691922
156	0x3c83f3d7	0.016107483
157	0x3c4b3bba	0.012404377
158	0xbe0e72b3	-0.13910942
159	0x3d41c3df	0.047305938
160	0xbe2a708b	-0.16644494
161	0x3d85f312	0.065405026
162	0x3d903ede	0.07043241
163	0x39f3abb0	0.0004647649
164	0x3cbc542d	0.022989357
165	0xbcbf595f	-0.023358045
166	0xbdf98e59	-0.12185354
167	0x3d489c48	0.048977166
168	0xbe7b53d8	-0.24543703
169	0x3d4c78bd	0.049919832
170	0x3cd6dcc0	0.026228309
171	0xbdd9f982	-0.10643293
172	0x3ddf980d	0.10917673
173	0x3d74480e	0.05963903
174	0xbb4e4e4b	-0.0031479772
175	0xbdbb4a5f	-0.091450445
176	0x3d4874eb	0.048939627
177	0xbe5ccf27	-0.21563397
178	0xbd75f043	-0.060043585
179	0xbdced799	-0.10099716
180	0xbe342f0e	-0.17596075
181	0x3e4fff24	0.20312172
182	0xbe828664	-0.25493157
183	0xbcab252e	-0.020891752
184	0xbe3f8ce7	-0.18706094
185	0xbe020cda	-0.12700215
186	0x3bffcbe3	0.0078062876
187	0x3d5eda37	0.054407325
188	0x3db90198	0.09033507
189	0xbd4da8c2	-0.050209768
190	0xbe5c22c7	-0.21497642
191	0x3e38d5ec	0.18050355
192	0x3df0f8f4	0.11766234
193	0xbe2cca89	-0.16874136
194	0xbd1a5ff9	-0.037689183
195	0xbe6522a0	-0.2237649
196	0x3d1ba36e	0.037997656
197	0xbcdd5686	-0.027018797
198	0xbd4034e4	-0.04692544
199	0x3a1ebe2b	0.0006055559
200	0xbe83f969	-0.25776222
201	0xbe80c888	-0.25152993
202	0xbe2aadda	-0.16667882
203	0x3e25e4eb	0.16200607
204	0xbdf50a5a	-0.11964865
205	0xbc9a0c3c	-0.018804662
206	0xbe6adc84	-0.22935683
207	0x3e779f95	0.2418197
208	0xbe422508	-0.18959439
209	0xbdb54692	-0.08851351
210	0xbddc6293	-0.10760989
211	0xbdf43d0a	-0.11925705
212	0xbe83f56f	-0.25773188
213	0xbe30418e	-0.17212507
214	0x3e828968	0.25495458
215	0x3d238f78	0.039931744
216	0xbe2032ae	-0.15644333
217	0x3e0c9ef2	0.13732508
218	0xbde118a0	-0.10991025
219	0xbd4d35bb	-0.05010007
220	0xbe519117	-0.20465504
221	0xbce0fcb5	-0.02746425
222	0xbe8091ec	-0.2511133
223	0xbe3082f2	-0.17237452
224	0x3cc2b093	0.023765838
225	0xbdf7cf46	-0.12100081
226	0x3dfce32d	0.12348018
227	0x3aae1903	0.00132826
228	0x3d3c99a3	0.046044957
229	0x3d09c2d2	0.03363306
230	0x3de70c68	0.11281663
231	0x3cf3e98b	0.029774448
232	0x3e3a59fc	0.18198389
233	0xbcecf364	-0.028924651
234	0xbda0a0ff	-0.078432076
235	0x3d987733	0.074446104
236	0xbda21ef7	-0.07916062
237	0x3caf852b	0.021425804
238	0x3d9d0471	0.07666863
239	0xbe964658	-0.29350543
240	0xbcc11f74	-0.023574568
241	0xbda75256	-0.08170001
242	0xbe7bc3c2	-0.24586394
243	0xbcb62710	-0.022235423
244	0x3c919d93	0.017775333
245	0xbde9a32a	-0.11408074
246	0x3e0f2d76	0.13982186
247	0xbdc3003d	-0.0952153
248	0x3dba1557	0.090861015
249	0xbc34deb8	-0.011039428
250	0xbe77678c	-0.24160594
251	0x3cd50db9	0.02600752
252	0xbe58bd76	-0.21166024
253	0x3d8d6741	0.0690446
254	0xbe65e65c	-0.22451156
255	0xbd40c2fb	-0.047060948

fc2.weight f4 [300, 400]
0	0xba4f993d	-0.00079192576
1	0xbcbcff65	-0.023071
2	0x3b667366	0.0035163998
3	0xbd2fb6c9	-0.042898927
4	0xbd8246a2	-0.063611284
5	0x3b41e777	0.0029587427
6	0xbd7064f7	-0.058690038
7	0xbcdc4767	-0.026889516
8	0xbd038f38	-0.032119006
9	0x3cbe6e84	0.023246057
10	0x3c4cb5bd	0.012494502
11	0x3d0534b3	0.03252096
12	0xbcc6da87	-0.024274124
13	0x3c0007cd	0.00781436
14	0x3814d74a	3.5486453e-05
15	0x3cf5a101	0.029984
16	0xbbaa7343	-0.0052017285
17	0xbd731197	-0.059342947
18	0xbcfde3fe	-0.030992504
19	0x3c822ab0	0.015889496
20	0xbba8ce3d	-0.0051515386
21	0x3c08c6f1	0.008348213
22	0x3c2319e8	0.009954907
23	0xbd4e8cb0	-0.05042714
24	0xbb3ee70b	-0.0029129412
25	0xbd58b606	-0.052907966
26	0xbd4e80f4	-0.050415948
27	0x3c3077ae	0.010770721
28	0xbcea1251	-0.028573187
29	0x3cc57c5c	0.02410715
30	0xbbf823f1	-0.007572644
31	0xbabb777c	-0.0014302577
32	0xbd08cdce	-0.033399396
33	0xbd5f759c	-0.05455552
34	0x3d01d1d0	0.031694233
35	0x3d3bfdf6	0.045896493
36	0xbcf7792b	-0.030209145
37	0x3c7102e4	0.014710162
38	0x3af890b4	0.0018964023
39	0x3c66026c	0.014038663
40	0x3cddf256	0.027093094
41	0xbd2fd558	-0.04292807
42	0x3c688d7e	0.014193891
43	0xbc38c2e3	-0.011276933
44	0x3c2b1052	0.010440903
45	0xbc98316c	-0.018578254
46	0x3b5a1d9c	0.0033281809
47	0xbc935ca6	-0.017988514
48	0xbb223108	-0.0024748463
49	0xbd2a0988	-0.041512996
50	0x3d15eeee	0.036604814
51	0xbcb34600	-0.021883965
52	0x3d26bd3e	0.04070782
53	0x3d23e277	0.040010896
54	0xbc681840	-0.014165938
55	0xbd206b59	-0.039164875
56	0x3c2c16ac	0.010503452
57	0xbd17de30	-0.03707713
58	0xbd5d82cc	-0.054079816
59	0x3ce2ddef	0.027693717
60	0xbcefa51a	-0.029253531
61	0xbd2fa907	-0.042885806
62	0xbb053a2c	-0.0020328863
63	0xbcc2945b	-0.023752382
64	0x3cf5d9cb	0.030011078
65	0xbd292456	-0.04129442
66	0xbd29405a	-0.041321136
67	0x3d113c1f	0.035457727
68	0xbcbaed93	-0.022818362
69	0x3c9ae0a3	0.018905943
70	0xbd0fdbb5	-0.03512164
71	0x3d2e3cff	0.04253864
72	0xbd4aa260	-0.04947126
73	0x3d10af4f	0.035323437
74	0x3d079b48	0.033107072
75	0xbd4e837d	-0.050418366
76	0xbd291320	-0.041278005
77	0x3c5be9e2	0.013422461
78	0xbc812f17	-0.015769524
79	0x3cae7004	0.021293648
80	0xbd68ab45	-0.05680396
81	0xbbb914bd	-0.005648224
82	0xbc024799	-0.0079516405
83	0x3cdc6d7e	0.026907679
84	0xbd04b511	-0.03239924
85	0xbc657a47	-0.014006204
86	0xbd6b52a1	-0.057451848
87	0xbc5fe1d9	-0.013664686
88	0xbbabe574	-0.005245859
89	0xbd10a8e4	-0.035317317
90	0x3cecbb4e	0.028897908
91	0xbccfebcd	-0.025380993
92	0xba9d9871	-0.001202358
93	0xbd50d250	-0.05098182
94	0xbcbb4e12	-0.022864375
95	0xbb6623e0	-0.0035116598
96	0xbd2bc02f	-0.041931327
97	0x3c8d9b12	0.017285857
98	0x3b976107	0.004619721
99	0xbb3b6823	-0.0028596006
100	0xbd444377	-0.047915902
101	0x3c8dcba8	0.017309025
102	0xbd319ab9	-0.043360446
103	0xbc395bc5	-0.0113133835
104	0x3cd18154	0.025574364
105	0xbd0c3eef	-0.034239706
106	0xbc7f5070	-0.015583143
107	0xbd0d3212	-0.03447158
108	0xbd322430	-0.043491542
109	0xbd2b905f	-0.04188573
110	0xbca74176	-0.020416956
111	0x3c4360c4	0.011924926
112	0xbd3c90f6	-0.046036683
113	0xbd2144cb	-0.039372247
114	0xbd770811	-0.060310427
115	0xbd381442	-0.044941194
116	0x3c55959f	0.013036161
117	0x3bd7e3b4	0.0065884236
118	0xbd45a596	-0.04825362
119	0xbd3f50ef	-0.046708044
120	0xbd2ba622	-0.041906483
121	0x3cba1998	0.022717282
122	0xbc9ff470	-0.019525737
123	0xbc993d8d	-0.018706108
124	0x3a951057	0.0011372668
125	0x3c06c389	0.00822533
126	0x3c4786fc	0.012178179
127	0xbc8f8f3c	-0.017524354
128	0x3cbec542	0.02328742
129	0xbc7a94c5	-0.0152942585
130	0xbc77ff83	-0.015136602
131	0xbc27b914	-0.010236997
132	0xbbb0bed5	-0.0053938427
133	0x3c8c2204	0.017106064
134	0x3b5bc678	0.0033535045
135	0x3cb1bc73	0.021696305
136	0xbd7c40b7	-0.061585154
137	0xbccc413d	-0.024933452
138	0xbc72b106	-0.0148127135
139	0xbcab79eb	-0.020932158
140	0xbd092fe7	-0.03349295
141	0x3c68b52b	0.01420335
142	0xbadd388b	-0.0016877813
143	0xbcfebd43	-0.031096106
144	0x3bf3ba56	0.0074379845
145	0xbd0a9d63	-0.033841502
146	0xbd0b03a7	-0.03393903
147	0xbce2d252	-0.02768818
148	0xbc2c6415	-0.010521908
149	0xbd4e356f	-0.050343927
150	0xbcfb6953	-0.030689871
151	0xbc9c8c29	-0.019109802
152	0xbd0e9d42	-0.03481794
153	0xbd7b8dcc	-0.061414525
154	0xbccd4d5f	-0.025061307
155	0x3cd99e7d	0.02656483
156	0xbcc2b64f	-0.023768572
157	0xbd28740e	-0.041126303
158	0xbbce7c3e	-0.006301432
159	0xbd5431be	-0.05180525
160	0xbd3c110e	-0.045914702
161	0xbd49f71e	-0.049307935
162	0xbd451dcd	-0.048124123
163	0xbd50e2bb	-0.050997477
164	0xbd232141	-0.039826635
165	0xbc0c5bd1	-0.008566813
166	0x3d20d66c	0.03926699
167	0x3cc78b85	0.02435852
168	0x3d2f208f	0.04275566
169	0xbd4a3d43	-0.04937483
170	0xbbcd6efd	-0.0062693343
171	0x3c381bb9	0.011237078
172	0x3b887ef2	0.0041655237
173	0xbc183f82	-0.009292485
174	0xbc7964d1	-0.01522179
175	0x3d02132f	0.031756576
176	0x3b212352	0.0024587703
177	0xbd797fcb	-0.06091289
178	0x3c867739	0.016414272
179	0x3bd0614d	0.0063592554
180	0xbcde8ce2	-0.027166788
181	0xbb827853	-0.003981629
182	0xbd2a5917	-0.04158887
183	0xbd56af19	-0.05241308
184	0xbc0ddd4d	-0.008658719
185	0x3c6cd59e	0.014455227
186	0x3c13882d	0.009004635
187	0x3d24c1b5	0.040223796
188	0xbc8e963f	-0.017405627
189	0xbbfe602b	-0.007762929
190	0x3a9fb980	0.0012186021
191	0x3c07200c	0.008247387
192	0x38fd3802	0.000120744124
193	0x3cb5631c	0.022141986
194	0xbd1aacf3	-0.037762593
195	0xbd5c7cde	-0.05383002
196	0x3c97bd9b	0.018523028
197	0x3a8e1a95	0.0010841662
198	0xbd59cbc6	-0.05317285
199	0xbd691e2f	-0.05691355
200	0xbd06384b	-0.03276853
201	0x3c256bfb	0.010096545
202	0x3ccd1db7	0.025038583
203	0xbd0555af	-0.032552417
204	0xbce493c7	-0.027902497
205	0x3cb64528	0.022249773
206	0xbd58e4d3	-0.0529526
207	0xbcc7597e	-0.024334665
208	0xbcff5f07	-0.031173242
209	0x3cb70b24	0.02234418
210	0x3d2cde86	0.042204402
211	0xbb7114f4	-0.003678617
212	0xbc5eb2e0	-0.013592452
213	0x3c0fb8e8	0.008772112
214	0x3c71b031	0.01475148
215	0xbd1cdbbe	-0.0382955
216	0xbcbb22e4	-0.022843786
217	0x3bcea39d	0.0063061253
218	0x3c3756a8	0.011190094
219	0x3c52dee1	0.012870521
220	0x3c1dff97	0.009643457
221	0x3a40b08e	0.00073505274
222	0xbd52d954	-0.05147679
223	0x3ca95ec1	0.020675065
224	0xbb512231	-0.0031911249
225	0x3c649993	0.013952631
226	0xbb1e732a	-0.002417753
227	0x3d28306a	0.041061796
228	0xbcde45a0	-0.02713281
229	0xbd2d877e	-0.042365544
230	0xbd0e9241	-0.034807447
231	0xbd1d76ce	-0.03844338
232	0x3bb029af	0.005376063
233	0x3d3a6369	0.04550496
234	0xbbab95c2	-0.0052363584
235	0x3c8eb12e	0.01741847
236	0xbc9352b6	-0.017983776
237	0x3cfe9252	0.03107563
238	0xbd4baefd	-0.04972743
239	0xbc8c172b	-0.017100891
240	0xbabd151c	-0.0014425847
241	0xbcaf554e	-0.021402981
242	0xbd1a85a0	-0.03772509
243	0x3cec4306	0.028840553
244	0xbd71bdb3	-0.059018802
245	0xbb9c2901	-0.0047656302
246	0x3b79ac13	0.003809695
247	0x3c0d820c	0.008636963
248	0xbd49b62e	-0.049246006
249	0xbc8a5b16	-0.016889136
250	0xbc2c4243	-0.010513845
251	0x3d3f2798	0.04666862
252	0xbcc9a5c7	-0.024615182
253	0x3c3e05c8	0.011598058
254	0xbc358403	-0.011078837
255	0xbd307abb	-0.043085795

fc2.bias f4 [300]
0	0xbd10b72a	-0.03533093
1	0x3dd3257c	0.10309884
2	0xbdedfb1a	-0.116201594
3	0xbd1acf85	-0.037795562
4	0xbda03346	-0.0782228
5	0xbb8ceba9	-0.004300554
6	0xbd6ef450	-0.058338463
7	0x3d000efb	0.031264286
8	0x3ccec73d	0.025241489
9	0xbcedf25c	-0.02904623
10	0xbd39ffc3	-0.04540993
11	0xbdaab517	-0.083353214
12	0xbd0a69dd	-0.033792365
13	0x3c9e603e	0.019333001
14	0x3df2b20f	0.11850368
15	0xbda85066	-0.0821846
16	0x3deafb4d	0.11473713
17	0x3cde2971	0.02711937
18	0x3cc4b93f	0.024014113
19	0x3e0d1f41	0.13781454
20	0xbcde7c24	-0.027158804
21	0x3c2036c1	0.009778679
22	0xbe7c9f99	-0.24670257
23	0x3d1f4b94	0.038890436
24	0x3b714f17	0.0036820823
25	0x3d2c6be9	0.0420951
26	0xbda69d1f	-0.08135437
27	0xbd4eceb5	-0.0504901
28	0xbcea9066	-0.028633308
29	0x3da03b40	0.07823801
30	0xbdc91ab8	-0.09819549
31	0x3dfd0fed	0.12356553
32	0x3df12b8e	0.117758855
33	0xbcbe7123	-0.023247307
34	0xbe3c82b5	-0.18409236
35	0xbba0c2c3	-0.00490603
36	0xbbef07a3	-0.0072946115
37	0xbdc78dba	-0.09743829
38	0x3cc69346	0.024240147
39	0x3bcfde07	0.0063436064
40	0xbdf60eaa	-0.12014516
41	0x3c3d341f	0.011548071
42	0xbd7ddef6	-0.06198021
43	0xbb387cca	-0.0028150552
44	0x3d417692	0.047232218
45	0xbd51dc3d	-0.051235426
46	0x3abade41	0.0014256911
47	0xbd00190c	-0.031273887
48	0xbcd68c8d	-0.026190067
49	0xbdac0667	-0.08399659
50	0xbe07730a	-0.13227478
51	0xbd179ac0	-0.037012815
52	0xbd9ad1da	-0.07559557
53	0x3cb510ae	0.02210268
54	0x3c83b125	0.01607568
55	0xbdedce62	-0.1161163
56	0xbd8e0d64	-0.06936148
57	0x3d68ebb0	0.056865394
58	0x3d2959f6	0.04134556
59	0x3ddf05c7	0.10889774
60	0xbcfa356a	-0.030543048
61	0x3e24e8ad	0.16104384
62	0x3c9a7a5d	0.018857175
63	0xbc3cf8f0	-0.011533961
64	0xbd1bb0ba	-0.038010336
65	0x3d74438e	0.059634738
66	0xbd33c08b	-0.043884795
67	0xbd5bae5f	-0.05363309
68	0xbd9ceec1	-0.07662726
69	0xbb3295de	-0.0027249972
70	0x3df84974	0.12123385
71	0x3c1efef0	0.0097043365
72	0x3d2b1229	0.041765366
73	0xbd65056c	-0.055913374
74	0xbd2ba7e6	-0.041908167
75	0xbe05b4bb	-0.13057224
76	0x3dc24bc2	0.09487106
77	0xbe0439d9	-0.12912692
78	0xbb59774e	-0.0033182683
79	0x3c0dc22a	0.008652249
80	0xbc19c1ae	-0.009384556
81	0xbd6f4120	-0.058411717
82	0x3e2a24cf	0.16615604
83	0xbc256b82	-0.010096433
84	0x3d8e27dd	0.06941197
85	0xbd83274f	-0.06403982
86	0x3dbcea4a	0.092243746
87	0xbc70c5c7	-0.014695591
88	0xbd579bc9	-0.052638803
89	0x3dbb5589	0.09147174
90	0xbd5e2fed	-0.054244924
91	0xbc2db1be	-0.010601459
92	0x3bb6d0fe	0.005579113
93	0x3d6abdc7	0.057309892
94	0x3dce6d30	0.100794196
95	0xbc345c26	-0.011008298
96	0x3e112fd7	0.14178406
97	0x3d7ad5c7	0.06123903
98	0xbcde8b75	-0.027166108
99	0xbc406529	-0.011742868
100	0xbd09f02a	-0.033676304
101	0x3c893dfc	0.01675319
102	0x3d9f6be6	0.07784252
103	0x3b30bc47	0.002696769
104	0xbbeac587	-0.0071646604
105	0xbc6b7603	-0.014371398
106	0xbd1597c0	-0.036521673
107	0x3cf5b47b	0.029993286
108	0x3d47a371	0.048739854
109	0x3d1f9979	0.038964722
110	0x3d6456ac	0.05574672
111	0x3d8b62b8	0.068059385
112	0xbd5fc488	-0.054630786
113	0xbd4fac65	-0.050701518
114	0xbd927c13	-0.071525715
115	0xbd93f8cf	-0.07225191
116	0xbd7fe5b3	-0.062474918
117	0x3c97e3d6	0.018541258
118	0x3cb1cc26	0.02170379
119	0x3ddaf39d	0.10690997
120	0xbc0e8490	-0.008698598
121	0xbd9ac95a	-0.07557936
122	0xbd4ba520	-0.049718022
123	0xb9010a0e	-0.00012306144
124	0xbca4450d	-0.020052457
125	0xbda40f49	-0.08010728
126	0xbc9ad9ce	-0.018902685
127	0xbdc99bd9	-0.09844179
128	0xbc78d81f	-0.015188246
129	0x3c503ad8	0.012709342
130	0x3e2b4856	0.16726813
131	0x3dc4484e	0.095841035
132	0x3d5a216b	0.053254526
133	0x3cbe4ad9	0.02322905
134	0x3ce816a7	0.028331114
135	0x391b7c62	0.00014828288
136	0xbcc9dfe7	-0.024642898
137	0xbcc79b07	-0.024365915
138	0xbd311ef8	-0.043242425
139	0xbd50febd	-0.051024187
140	0xbd711f8d	-0.05886798
141	0xbb6d096b	-0.0036168944
142	0xbd9d0cf0	-0.07668483
143	0x3b70fe25	0.0036772576
144	0xbca3ac77	-0.019979699
145	0x3b19f6c7	0.0023493038
146	0xbd6d5514	-0.057942465
147	0xbb942495	-0.0045209625
148	0xbdddd2ca	-0.108312204
149	0x3b619cad	0.0034425661
150	0xbd8b2f55	-0.06796137
151	0xbbacf831	-0.00527861
152	0x3d5547a5	0.05207028
153	0x3cd3bc52	0.025846634
154	0xbd555923	-0.05208696
155	0xbb6c2dc4	-0.003603802
156	0xbd3e4c4e	-0.04645949
157	0x3db8d6a7	0.09025317
158	0x3d05d6ab	0.032675426
159	0xbd317d4e	-0.04333239
160	0x3bbe3862	0.005805061
161	0xbcf7b585	-0.030237922
162	0x3de828a1	0.11335874
163	0xbd7761b0	-0.060395896
164	0xbd1027b0	-0.0351941
165	0xbe26c3c2	-0.16285613
166	0xbcec2251	-0.028824957
167	0xbd09069f	-0.03345358
168	0xbd6976ec	-0.05699818
169	0x3d8ff548	0.070292056
170	0xbd1f4298	-0.038881868
171	0xbd862e32	-0.0655178
172	0x3d1bacd4	0.03800662
173	0xbc8a6f15	-0.016898671
174	0x3a4cad87	0.000780784
175	0xbd01dc71	-0.03170437
176	0xbd417ef5	-0.047240216
177	0xbe00b7bc	-0.12570089
178	0xbcbb8db4	-0.022894718
179	0xbccb6c20	-0.024831831
180	0x3d8f98b8	0.07011551
181	0xbd1f9938	-0.03896448
182	0x3c945dcc	0.018111132
183	0xbbb99fce	-0.005664802
184	0x3d8153c2	0.06314804
185	0x3d152b78	0.03641841
186	0xbcc9149b	-0.024545958
187	0xbd9edea8	-0.07757312
188	0xb93d727e	-0.00018067096
189	0x3cd07db8	0.025450572
190	0xbcc47b9a	-0.023984719
191	0xbd8041a9	-0.06262524
192	0x3dbda597	0.092600994
193	0xbd005dc3	-0.03133942
194	0x3dd1fbf3	0.102531336
195	0xbda9f3ba	-0.0829844
196	0x3b31353c	0.0027039787
197	0x3c8a343e	0.016870614
198	0xbdc42eaa	-0.09579213
199	0xbcd5641b	-0.02604871
200	0xbc2a24a5	-0.010384713
201	0x3d7a6def	0.061139997
202	0xbe0c3779	-0.13693036
203	0xbdfee0cd	-0.12445221
204	0xba9b7081	-0.001185909
205	0xbd67647f	-0.056492325
206	0xbce47c2a	-0.027891237
207	0xbcb9c916	-0.022678893
208	0xbcd437f7	-0.025905592
209	0xbe1c0178	-0.15234935
210	0xbd1dfa66	-0.038568877
211	0x3beafc49	0.007171188
212	0x3daf1137	0.08548205
213	0xbd4c0082	-0.04980517
214	0xbd83aab7	-0.06429046
215	0xbcc75723	-0.024333542
216	0xbb66171e	-0.0035108994
217	0x3de5b273	0.11215677
218	0x3cd2c383	0.025727993
219	0xbd02069b	-0.03174458
220	0x3d355f77	0.044280495
221	0xbdbefe58	-0.09325856
222	0x3cb5303f	0.022117732
223	0xbcb9ad3c	-0.022665612
224	0x3ca9f7f7	0.020748122
225	0xbd07f445	-0.033191938
226	0xbc89ce0e	-0.016821887
227	0xbe19df98	-0.150267
228	0xbd301651	-0.042990033
229	0x3db87707	0.09007078
230	0xb954e429	-0.00020302892
231	0x3c5be956	0.013422331
232	0xbd331523	-0.04372133
233	0xbd8cde20	-0.068783045
234	0x3d6f5fe0	0.058441043
235	0x3d1b96d9	0.037985656
236	0x3d97e776	0.074171945
237	0x3c614a4b	0.013750623
238	0x3d3a135f	0.04542863
239	0xbb32faf3	-0.0027310222
240	0xbd42d180	-0.047563076
241	0x3e128932	0.14310148
242	0x3dc5b287	0.09653192
243	0xbd297dee	-0.04137986
244	0xbd6dec46	-0.058086656
245	0x3ddddbc3	0.10832932
246	0x3d677d16	0.056515776
247	0x3d829504	0.06376079
248	0xbd671931	-0.05642051
249	0xbbd747f2	-0.006569856
250	0x3b373f40	0.0027961284
251	0xbdb93003	-0.09042361
252	0x3d993d03	0.0748234
253	0x3ce3ca44	0.027806409
254	0xbccf479f	-0.025302706
255	0xbd43b6c3	-0.047781717

mu.weight f4 [4, 300]
0	0xbccbdb76	-0.02488492
1	0xbceca578	-0.028887495
2	0xbe94174a	-0.28924018
3	0xbc476b8a	-0.012171635
4	0x3d0162c9	0.03158835
5	0x3c8702a5	0.016480753
6	0x3dac82d1	0.08423389
7	0x3df18a79	0.1179399
8	0xbd05e5a5	-0.03268971
9	0x3d9fde46	0.07806067
10	0x3b22dc44	0.0024850527
11	0x3cf528ea	0.029926736
12	0xbcd11b24	-0.025525637
13	0x3e400ff4	0.18756086
14	0x3e0e0c3c	0.13871855
15	0xbed5e7b2	-0.41778332
16	0x3de05c3c	0.10955092
17	0x3d7c60bf	0.0616157
18	0x3df91344	0.12161878
19	0xbdbd5d0c	-0.09246263
20	0xbd073f3b	-0.033019286
21	0xbdf2f7e5	-0.118636884
22	0x3ed1240e	0.4084782
23	0xbee10ae3	-0.43953618
24	0x3f132647	0.5748028
25	0x3e4fd7c8	0.20297158
26	0xbeddac21	-0.43295386
27	0xbe82769e	-0.25481123
28	0xbc416d71	-0.011805878
29	0x3eb1d6c0	0.34734154
30	0xbeb2b67e	-0.34904855
31	0x3dba38c9	0.09092862
32	0xbc9da79d	-0.019244963
33	0xbc956bc7	-0.018239869
34	0x3cba2276	0.02272151
35	0x3d22c8e9	0.039742384
36	0x3e99f57b	0.300701
37	0x3e8de063	0.27710256
38	0x3ea174ac	0.31534326
39	0x3e74b002	0.23895267
40	0x3ee10769	0.43950966
41	0xbe5ad6bc	-0.21370977
42	0xbd7a66fb	-0.061133366
43	0x3c238e50	0.00998266
44	0xbdbc2999	-0.091876216
45	0xbc1a2138	-0.009407334
46	0x3eeaa89b	0.4583176
47	0x3cf933dc	0.030420236
48	0x3b73e143	0.0037213124
49	0x3c97640a	0.01848032
50	0x3e8220b5	0.25415578
51	0x3ca0d181	0.01963115
52	0x3e2fd386	0.17170534
53	0xbdbe0207	-0.092777304
54	0x3e6c607e	0.23083684
55	0xbea53a91	-0.32271245
56	0xbc8890cc	-0.016670607
57	0xbe547de7	-0.20751153
58	0x3e8b67f4	0.27227747
59	0x3e78d009	0.24298109
60	0x3e98095f	0.2969465
61	0xbdf82925	-0.12117223
62	0xbdb6299d	-0.08894656
63	0x3a84121d	0.0010076199
64	0xbcaaa98b	-0.020832798
65	0x3ee53055	0.44763437
66	0x3dc205b8	0.09473747
67	0xbd9d0fb6	-0.07669012
68	0xbd93b64b	-0.07212504
69	0xbd675e1c	-0.056486234
70	0x3dbfd8e8	0.093675435
71	0xbd30acfb	-0.043133717
72	0xbe07d5e8	-0.13265193
73	0xbea90eed	-0.330192
74	0xbd52309c	-0.05131589
75	0x3c2847d7	0.010271034
76	0x3ccf102f	0.025276272
77	0xbd42a9bc	-0.047525153
78	0x3b8701ff	0.004120111
79	0xbacad8b3	-0.0015475958
80	0xbdb59eeb	-0.08868202
81	0xbd8ade09	-0.06780631
82	0xbdcfb1ef	-0.1014136
83	0xbbd36eaa	-0.006452401
84	0x3de662ad	0.1124929
85	0x3bdc686e	0.006726316
86	0xbe4ba538	-0.19887245
87	0xbf1758ec	-0.5912006
88	0xbdad285f	-0.08454966
89	0x3ee1a690	0.4407239
90	0xbe13cf98	-0.1443466
91	0xbb034158	-0.0020027962
92	0x3e38de6a	0.18053594
93	0x3e1f11fe	0.15534207
94	0x3e2cc291	0.16871096
95	0x3e0d625e	0.13807055
96	0x3eb58099	0.35449675
97	0xbe25ed1f	-0.16203736
98	0x3ed71ef0	0.4201579
99	0xbd11849e	-0.035526864
100	0x3f13cdec	0.57736087
101	0xbecf01ad	-0.40430966
102	0xbe38824f	-0.18018459
103	0xbcdbfba7	-0.026853396
104	0x3d728325	0.0592071
105	0xbd8c0453	-0.06836762
106	0x3cc014bb	0.023447385
107	0x3a27d3bc	0.00064020953
108	0xbeaffb5a	-0.34371454
109	0x3ec2c002	0.38037115
110	0x3dda5c02	0.1066208
111	0x3dd135c8	0.10215336
112	0xbcb21b37	-0.021741493
113	0x3b58373b	0.0032991904
114	0x3acb49fa	0.0015509718
115	0xbf021f76	-0.50829256
116	0x3d0bdd52	0.034146614
117	0xbd346898	-0.04404506
118	0x3e528b5e	0.20560977
119	0xbaad749e	-0.0013233607
120	0x3df80d54	0.12111917
121	0xbc9c41c6	-0.019074332
122	0x3d327c0e	0.04357534
123	0x3deddb61	0.11614109
124	0x3da7ee9a	0.081998065
125	0x3ef6a3df	0.481719
126	0xbeb1d9a7	-0.34736368
127	0x3d9cd35d	0.07657502
128	0x3ea31c05	0.31857315
129	0x3eec0c05	0.4610292
130	0xbda334a9	-0.079690285
131	0xbe96e23d	-0.2946948
132	0x3e16f6d0	0.14742589
133	0x3d2d1367	0.04225483
134	0x3e5fe02d	0.2186286
135	0xbc2652f8	-0.010151617
136	0xbd43ff35	-0.047850806
137	0xbcf6940f	-0.030099897
138	0xbdfa8f7f	-0.12234401
139	0x3ea02ddb	0.31284985
140	0x3e015c60	0.12632895
141	0xbddfaec6	-0.10922007
142	0xbd815844	-0.063156635
143	0x3e8a454c	0.27005994
144	0x39c92161	0.00038362577
145	0xbcbab20d	-0.02278998
146	0xbe6812a5	-0.22663362
147	0xbc7bb189	-0.015362152
148	0xbe5f946e	-0.21833965
149	0x3e7a04b1	0.24415852
150	0x3ccbac8e	0.024862554
151	0x3d71123c	0.05885528
152	0xbe66fbf3	-0.22557048
153	0x3e58f076	0.21185479
154	0x3dd686b5	0.10474912
155	0xbe26f1c5	-0.16303165
156	0x3d00a2d9	0.031405304
157	0xbe002bca	-0.12516704
158	0xbd4e9889	-0.050438438
159	0x3d5a8522	0.05334962
160	0x3cb05b51	0.021527918
161	0xbd0a4cd6	-0.033764683
162	0x3d628dfb	0.055311184
163	0xbd7fcb7a	-0.06244991
164	0x3ed1a0cf	0.40943
165	0xbe555243	-0.20832162
166	0x3bec8ead	0.0072191567
167	0xbed0612e	-0.40699142
168	0x3e482505	0.19545372
169	0x3e5623a7	0.20912038
170	0x3cf1dbf3	0.029523825
171	0x3e313f70	0.17309356
172	0xbe82ba8b	-0.25532946
173	0x3cf62b91	0.030050071
174	0x3e9170ee	0.2840647
175	0xbd7c7b98	-0.061641306
176	0xbd7103a2	-0.058841355
177	0xbe17cc79	-0.14824094
178	0xbc081362	-0.0083054025
179	0xbcb43d76	-0.022001963
180	0xbe99c581	-0.30033496
181	0xbb92a330	-0.00447502
182	0x3e5b2bc9	0.21403421
183	0xbd025ee3	-0.031828772
184	0x3e0ee79f	0.13955544
185	0xbdc428fe	-0.09578131
186	0xbdee9b16	-0.11650674
187	0x3c210710	0.009828344
188	0xbe2b2d31	-0.16716458
189	0x3ee2c666	0.4429199
190	0xbd772ca5	-0.06034531
191	0xbe9ffe9e	-0.31248945
192	0xbd1e1300	-0.03859234
193	0x3caf3e43	0.021391993
194	0x3ccf78af	0.025326101
195	0xbf29075e	-0.66026866
196	0x3e35e17b	0.17761795
197	0x3ab6cb9f	0.0013946182
198	0xbdcea60f	-0.10090267
199	0x3d9bc2c3	0.07605507
200	0xbe6b2298	-0.22962415
201	0x3dfb2e41	0.122646816
202	0x3e00248d	0.12513943
203	0xbccd4487	-0.02505709
204	0xbe3711a5	-0.17877825
205	0xbd62b018	-0.055343717
206	0x3e9f5432	0.31118923
207	0xbcc080c5	-0.023498902
208	0xbc9bdf95	-0.01902751
209	0x3c9c6f2a	0.019095976
210	0xbd60c95c	-0.05487953
211	0xbe828d5a	-0.25498468
212	0xbe7630c3	-0.24042039
213	0xbe9f53c1	-0.31118587
214	0x3d82b04c	0.06381282
215	0xbeff3468	-0.4984467
216	0xbd91efbc	-0.07125804
217	0x3c081513	0.008305806
218	0xbe49f34d	-0.19721718
219	0x3c61f5a1	0.013791473
220	0x3ec2699c	0.379712
221	0x3e3f09af	0.18656038
222	0x3ccfa639	0.025347816
223	0xbb3400c3	-0.0027466274
224	0x3d1ee509	0.038792644
225	0x3e5b2030	0.21398997
226	0x3e76dcd0	0.24107671
227	0x3e0a0aaa	0.1348063
228	0xbdb15bb6	-0.086600706
229	0xbca1d841	-0.019756438
230	0x3db50145	0.08838133
231	0x3cb01815	0.021495858
232	0xbb74d73c	-0.0037359735
233	0x3e363e54	0.17797214
234	0xbdb71ddd	-0.08941243
235	0xbd9171a3	-0.071017526
236	0xbdc80376	-0.09766285
237	0x3c3ceb65	0.011530732
238	0xbea3d192	-0.31995827
239	0x3e5a7cf2	0.21336725
240	0xbc997c96	-0.018736165
241	0x3d025e29	0.03182808
242	0x3e3f93c9	0.1870872
243	0xbf379e6d	-0.71726114
244	0x3e4efd48	0.20213807
245	0x3c864168	0.01638861
246	0xbdf5a72f	-0.11994778
247	0x3c4c69dc	0.012476411
248	0x3e23dcf9	0.16002263
249	0x3c949373	0.018136716
250	0xbcd73f96	-0.026275437
251	0x3d51b990	0.051202357
252	0x3cae5540	0.021280885
253	0x3e8a399b	0.26997074
254	0x3c8b89da	0.017033506
255	0x3eb7c81d	0.35894862

mu.bias f4 [4]
0	0xbb004bfb	-0.0019576538
1	0xbc53afa6	-0.012920296
2	0xbc665b73	-0.014059889
3	0xbce55d63	-0.027998632

sigma.weight f4 [4, 300]
0	0xbc90cbde	-0.017675336
1	0xbcfe66b4	-0.031054832
2	0xbcd14164	-0.025543876
3	0xbc91c61f	-0.017794667
4	0xbc7aa106	-0.01529718
5	0x3ce9107e	0.028450247
6	0x3d205479	0.03914306
7	0x3d234a70	0.03986591
8	0x3e7aa36a	0.244764
9	0x3c840c0a	0.016119022
10	0xba22196a	-0.00061835966
11	0xbcf993cd	-0.030465985
12	0xbca33eb4	-0.01992736
13	0x3c422378	0.011849277
14	0xbcfcdaf9	-0.030866133
15	0xbcfcc3a0	-0.030855
16	0x3e1078cd	0.14108582
17	0xbde39142	-0.1111169
18	0x3d368f0d	0.044570018
19	0xbcbc3257	-0.022973223
20	0xbc478eb0	-0.012180015
21	0x3bd47c2d	0.0064845295
22	0x3d4ff936	0.050774775
23	0x3e1a4e1f	0.15068863
24	0x3d50bec1	0.050963167
25	0x3d8ae8f2	0.06782712
26	0x3d3431c6	0.04399278
27	0x3c763fd4	0.015029866
28	0xbc26093c	-0.010134038
29	0x3d828107	0.06372266
30	0x3b907764	0.0044087637
31	0x3da11a32	0.078663245
32	0x3e253166	0.16132125
33	0x3e0b34d3	0.1359437
34	0xbcbcce05	-0.023047457
35	0xbc81dcd7	-0.015852375
36	0xbdbc1da7	-0.09185343
37	0x3d31e69e	0.043432824
38	0xbc948e73	-0.018134331
39	0x3bec9beb	0.0072207353
40	0xbd88db7e	-0.0668249
41	0x3ceb998e	0.028759744
42	0xbd307742	-0.043082483
43	0xbca123bb	-0.019670358
44	0xbb26911e	-0.0025416086
45	0xbce57161	-0.028008165
46	0x3d8fcdff	0.070217125
47	0xbca34dd3	-0.01993457
48	0x3d51db9e	0.051234834
49	0xbafbb73f	-0.0019204392
50	0xbcfc2c41	-0.03078282
51	0xbcc450bb	-0.023964277
52	0xbcb9719c	-0.022637181
53	0x3db3b3d1	0.08774532
54	0xbd244234	-0.0401022
55	0x3d42a47f	0.047520157
56	0xbc0de4a7	-0.008660472
57	0xbd42a81c	-0.047523603
58	0xbc4fdc59	-0.012686812
59	0x3e410883	0.18850903
60	0x3c73e4b4	0.01488607
61	0x3c0432d9	0.008068764
62	0x3bfb32b9	0.0076659587
63	0x3d623772	0.055228658
64	0xbd341056	-0.04396089
65	0x3db7517d	0.089510895
66	0xbd75962c	-0.05995767
67	0x3c5731dd	0.013134447
68	0xbd47b53a	-0.048756815
69	0x3d2a3229	0.041551743
70	0x3dd25731	0.10270537
71	0xbd14a1c8	-0.0362871
72	0x3d7d7cbb	0.06188653
73	0x3d37a081	0.044830803
74	0xbc9d287e	-0.019184347
75	0xbc26f119	-0.010189318
76	0xbc6d089d	-0.014467386
77	0x3ceedb1f	0.02915722
78	0xbd07ad8c	-0.03312449
79	0x3d5ea276	0.054354154
80	0x3d7ada6e	0.061243467
81	0x3cf2ebc0	0.02965343
82	0x3dbbdd2c	0.091730446
83	0x3cad729f	0.02117282
84	0xbd6c82f4	-0.057742074
85	0xbd23812e	-0.039918117
86	0x3e7ce48e	0.24696562
87	0x3e4c89a4	0.1997438
88	0x3d73469e	0.059393518
89	0x3dcb8c90	0.099389195
90	0x3d05b3fe	0.032642357
91	0x3b853f06	0.004066351
92	0xbd0dd659	-0.034628246
93	0xbadf3766	-0.001703006
94	0x3da76811	0.08174146
95	0x3b69a840	0.0035653263
96	0x3d8fe5ba	0.07026239
97	0xbcedee42	-0.029044274
98	0x3c136e0f	0.008998408
99	0x3ce12159	0.027481722
100	0x3ca53ada	0.020169664
101	0x3d571c21	0.05251706
102	0x3d872812	0.0659944
103	0xbce9e095	-0.028549472
104	0x3d212265	0.03933944
105	0x3cf03697	0.029322905
106	0x3d34e223	0.044160973
107	0x3d4e43c4	0.050357595
108	0xbb8bf8ed	-0.0042716176
109	0x3d3ab4ab	0.045582455
110	0x3ccb01c5	0.024781117
111	0x3e2c727b	0.16840546
112	0x3bc1e349	0.005916987
113	0xbd62801b	-0.055297952
114	0xbce2c3f0	-0.02768132
115	0x3e0247b0	0.12722659
116	0x3d5ec368	0.054385573
117	0xbb4deccb	-0.0031421657
118	0x3c2e3311	0.010632292
119	0xbd6439d2	-0.055719204
120	0xbd7b4345	-0.06134345
121	0xba02af74	-0.0004985251
122	0xbc0cab31	-0.008585737
123	0xbcc7a865	-0.024372289
124	0x3cb444db	0.02200549
125	0xbdd69a5d	-0.10478661
126	0x3d00682e	0.031349353
127	0xbd25dedd	-0.040495742
128	0x3c2e04ea	0.010621289
129	0x3e05e0fa	0.13074103
130	0x3d45d01e	0.04829418
131	0xbc6d1b5c	-0.014471855
132	0x3dcc787b	0.09983917
133	0x3da1c53f	0.0789895
134	0xbda47855	-0.08030764
135	0x3cc998f0	0.02460906
136	0x3ce506c4	0.027957328
137	0xbd110d5d	-0.035413135
138	0x3c8eee55	0.01744763
139	0x3e2902f5	0.16505034
140	0xbc201582	-0.009770753
141	0x3d9cd412	0.07657637
142	0xbc6e02d3	-0.0145270405
143	0x3d760988	0.060067683
144	0x3c25ab1c	0.010111596
145	0x3c6e3987	0.014540083
146	0xbcb0b033	-0.021568393
147	0xbd1bb776	-0.03801676
148	0xbd15ae0c	-0.036542937
149	0x3d9ce9b7	0.07661765
150	0x3d4800ae	0.048828773
151	0x3bcddbc0	0.0062822998
152	0xbc9682a2	-0.018372837
153	0x3d943a74	0.072377115
154	0x3d8067af	0.06269776
155	0x3bb4dec2	0.005519719
156	0x3d44ce9b	0.048048597
157	0x3e15b7e4	0.1462093
158	0x3ce51ed1	0.027968796
159	0xbc412832	-0.011789368
160	0x3d016adb	0.031596046
161	0x3c9d2476	0.019182425
162	0x3e07266a	0.13198248
163	0xbb96d72a	-0.0046032863
164	0x3d3db4bf	0.04631495
165	0x3d505c35	0.050869185
166	0x3bebcf9c	0.00719638
167	0xbcb1fb94	-0.021726407
168	0x3d8935d0	0.06699717
169	0xbc8dbbb1	-0.017301412
170	0x3cee8f4c	0.029121064
171	0xbc0660b8	-0.0082017705
172	0x3cbeec3c	0.023306005
173	0xbc261f9b	-0.010139371
174	0x3c374c58	0.011187635
175	0xbbd6cdd1	-0.006555297
176	0x3d2cbbc4	0.042171255
177	0x3c643028	0.013927497
178	0x3d821cf6	0.0635318
179	0x3c093532	0.008374499
180	0x3c55a7f6	0.013040533
181	0x3c2da22e	0.010597749
182	0x3d638026	0.055542134
183	0x3ae8f999	0.0017774581
184	0xbd857ea7	-0.06518298
185	0xbcf3cb40	-0.029760003
186	0xbd8ad324	-0.06778553
187	0xbb36c2f2	-0.0027887193
188	0xbd917d45	-0.071039714
189	0x3d848972	0.06471528
190	0xbc766451	-0.015038566
191	0xbce02e01	-0.027365686
192	0x3cce6222	0.025193278
193	0x3c051a1a	0.008123899
194	0xbd324220	-0.043520093
195	0x3dd4eb7d	0.10396478
196	0xbd8bb0d1	-0.068208344
197	0x3d2e001e	0.04248058
198	0xbbe7adef	-0.007070295
199	0xbcc07cc1	-0.023496987
200	0xbc0f0529	-0.008729258
201	0xbc926700	-0.01787138
202	0xbc577e4f	-0.013152673
203	0x3d39da3a	0.045374133
204	0x3b92324b	0.004461562
205	0xbb1d8363	-0.0024034611
206	0x3d36bc28	0.044613034
207	0x3c830467	0.01599331
208	0x3d2b13f8	0.04176709
209	0x3c712c90	0.014720097
210	0x3c95062d	0.018191421
211	0x3c62bbc0	0.013838708
212	0x3d878a01	0.06618119
213	0x3cff82e8	0.03119035
214	0x3c05ed77	0.008174292
215	0x3e184b8a	0.14872566
216	0x3dbc1757	0.09184139
217	0x3e3269c0	0.17423153
218	0x3cc655e3	0.024210876
219	0x3daa4aeb	0.08315071
220	0x3ce48e55	0.0278999
221	0x3d648347	0.05578926
222	0x3cb0f4d5	0.02160112
223	0x3d1f95af	0.03896111
224	0xbd166c99	-0.03672466
225	0x3daf5841	0.08561755
226	0xbcc0c4b0	-0.023531288
227	0x3c0ca794	0.008584876
228	0xbc2b68f9	-0.010462039
229	0xbc0a80d0	-0.008453563
230	0xbc721a0a	-0.014776716
231	0x3c06e401	0.008233071
232	0xbd38b6bd	-0.045096148
233	0x3b895410	0.0041909292
234	0x3bd6f0e0	0.0065594763
235	0xbd674285	-0.056459922
236	0xbb8807cf	-0.0041513215
237	0x3d263596	0.040578447
238	0x3b4d5be8	0.0031335298
239	0xbd2dc3b5	-0.04242297
240	0x3d180264	0.037111655
241	0x3e0fbd6f	0.14037107
242	0x3d95e771	0.073195346
243	0x3cbf12d5	0.02332441
244	0xbc9bd6ea	-0.019023377
245	0x3dd850f1	0.10562313
246	0xbdbd4536	-0.092417166
247	0x3d866e1b	0.0656397
248	0x3da55d3c	0.08074424
249	0xbc3e0509	-0.01159788
250	0xbce2c0a9	-0.027679758
251	0xbc78c2e7	-0.015183187
252	0x3e06ce20	0.13164568
253	0xbc6ce953	-0.014459926
254	0x3d426d01	0.047467235
255	0x3d14358f	0.03618389

sigma.bias f4 [4]
0	0x3e8e023d	0.27736083
1	0x3e933afb	0.28755936
2	0x3ea48a45	0.3213674
3	0x3e9d7e98	0.30760646
