SAC_own_hardcore/sac_100/target_value_sac.pth (torch, 525026 bytes, 5 tensors)

fc1.weight f4 [400, 24]
0	0x3f82498a	1.0178692
1	0x3fbd79c7	1.4802788
2	0xbf4ae870	-0.7926092
3	0x3d887cfb	0.06664463
4	0x3ea83108	0.32849908
5	0x3ca6346e	0.020288672
6	0x3e9f71de	0.3114156
7	0xbb63d1c3	-0.003476248
8	0x3d738e4f	0.059461888
9	0x3eb2e5fd	0.34941092
10	0x3e4ff0b0	0.20306659
11	0x3e4c2268	0.19935
12	0xbce17d4e	-0.02752557
13	0x3e0be7fe	0.13662717
14	0xbdf12d3d	-0.11776207
15	0xbe6b9418	-0.23005712
16	0x3d0dba49	0.034601483
17	0xbd857afd	-0.06517599
18	0xbc87e6d2	-0.016589556
19	0x3d575802	0.052574165
20	0xbe1a55e8	-0.15071833
21	0x3e3c7f05	0.18407829
22	0x3e5b7c6b	0.2143418
23	0x3d1c72f2	0.038195558
24	0xbf3c1034	-0.73462224
25	0xbf360d91	-0.7111445
26	0x3f4e4144	0.8056834
27	0xbec9e56b	-0.39432845
28	0x3d8d6a3a	0.06905027
29	0x3c9893ed	0.018625224
30	0x3dea1693	0.11430087
31	0x3d27f7aa	0.041007675
32	0xbe0bc079	-0.13647641
33	0xbedb818e	-0.4287228
34	0xbdbd863e	-0.0925412
35	0xbe6b45e7	-0.22975884
36	0xbe23824c	-0.15967673
37	0x3e866cce	0.26254886
38	0x3e0f5bbe	0.1399984
39	0x3e5d93f3	0.2163847
40	0x3b707f7f	0.0036697087
41	0xbd9f90fd	-0.07791326
42	0x3d3dc683	0.046331894
43	0xbe0f90db	-0.14020102
44	0xbe862d35	-0.26206365
45	0xbc34ba2a	-0.011030713
46	0xbe16207e	-0.14660832
47	0x3dbdd8f5	0.09269897
48	0xbe6487a6	-0.22317371
49	0xbef620a5	-0.4807178
50	0x3e7e524b	0.2483608
51	0x3f05159d	0.51986104
52	0xbf396f5f	-0.72435564
53	0xbd3c4439	-0.0459635
54	0xbdd0d542	-0.10196926
55	0xbd31756c	-0.043324873
56	0x3e64c92a	0.22342363
57	0x3e960340	0.29299355
58	0xbe95c049	-0.29248264
59	0x3ce86589	0.028368728
60	0x3b16c091	0.0023002962
61	0xbc930e75	-0.01795123
62	0x3d112427	0.03543487
63	0xbe06e842	-0.13174537
64	0x3e7ed285	0.24884994
65	0x3e6844ea	0.22682539
66	0xbd0db843	-0.034599554
67	0x3e1aba5d	0.15110154
68	0x3e13d828	0.14437926
69	0x3dc52aea	0.09627326
70	0x3d8132f8	0.0630855
71	0x3d71eb77	0.059062447
72	0x3ebe0ec0	0.37120628
73	0x3f90e888	1.1320963
74	0xbf57270a	-0.84043944
75	0xbf1fe645	-0.6246074
76	0xbd3cad66	-0.046063803
77	0xbd6cba74	-0.057795003
78	0x3d87bdc4	0.06627992
79	0x3e560c28	0.20903075
80	0xbd775e8a	-0.060392894
81	0x3cca7b43	0.024716979
82	0xbd37a3e2	-0.044834025
83	0x3e3a2d85	0.18181427
84	0x3d0098e6	0.031395815
85	0xbf0e2684	-0.5552752
86	0xbc93e1a4	-0.01805193
87	0x3dd12031	0.10211218
88	0xbe00f8be	-0.12594888
89	0x3e363d58	0.17796838
90	0x3e50870a	0.20364013
91	0x3ceeb01c	0.02913671
92	0xbd5d120d	-0.053972293
93	0xbdcacbfd	-0.09902189
94	0x3e013e41	0.12621404
95	0xbde9f150	-0.1142298
96	0xbf3473df	-0.70489305
97	0xc002e5f0	-2.0452843
98	0x3f80cfd1	1.006342
99	0x3d0c2a78	0.03422019
100	0xbee86686	-0.4539072
101	0xbd983562	-0.07432057
102	0xbe79fa39	-0.24411859
103	0xbd1cac81	-0.03825045
104	0x3d1c9a95	0.03823336
105	0xbe0498a9	-0.1294886
106	0x3c292077	0.010322682
107	0x3e26cf70	0.16290069
108	0xbdaa0204	-0.08301166
109	0x3c02007b	0.007934685
110	0x3e8564f5	0.26053587
111	0x3e26a9dd	0.16275735
112	0x3e17cb7e	0.1482372
113	0x3d26c897	0.04071864
114	0xbdad9624	-0.08475903
115	0xbe68d6db	-0.22738211
116	0xbd8038c1	-0.06260825
117	0xbe15e0f1	-0.1463659
118	0x3e09d310	0.1345942
119	0x3e066622	0.13124898
120	0x3e8c2ac4	0.27376378
121	0xbd23a108	-0.039948493
122	0x3e7501ac	0.23926419
123	0x3eed3ea6	0.4633686
124	0x3eb4bb5b	0.3529919
125	0x3c3651cd	0.011127901
126	0x3e8f6edc	0.28014266
127	0x3d6b68b7	0.05747291
128	0x3d3b0430	0.04565829
129	0xbeec1a84	-0.4611398
130	0x3e2b3598	0.16719663
131	0xbe287559	-0.16451015
132	0x3d5bcbcf	0.053661164
133	0x3cc22d08	0.023703113
134	0xbd2af3a2	-0.041736253
135	0xbe2dda12	-0.16977718
136	0x3dde2f75	0.108488955
137	0xbdecb1c4	-0.115573436
138	0xbcad8ce8	-0.021185353
139	0x3d84712f	0.064669006
140	0x3d0501f3	0.032472562
141	0x3e3d8b1f	0.18510102
142	0x3e31af8d	0.17352124
143	0x3d8d81a1	0.069094904
144	0x3f035802	0.51306164
145	0x3f054b0b	0.5206763
146	0xbd122ab1	-0.035685245
147	0x3f013650	0.504735
148	0x3cc954a3	0.02457649
149	0x3d52eb82	0.05149413
150	0xbdcc672e	-0.099806175
151	0xbd2a25ce	-0.04153996
152	0xbd0ca65e	-0.034338348
153	0x3ce0720d	0.027398134
154	0x3e420586	0.1894742
155	0xbd301896	-0.042992197
156	0x3df29213	0.11844268
157	0xbe31b39d	-0.17353673
158	0x3dd35b5f	0.10320162
159	0xbc8e14b1	-0.01734385
160	0x3e58c13a	0.2116746
161	0x3d18ad77	0.037274804
162	0x3e343a8c	0.17600459
163	0x3dd142ea	0.10217841
164	0x3c9e95b5	0.019358495
165	0x3e9f31da	0.3109272
166	0x3eb0f5ad	0.34562436
167	0x3e95fd37	0.2929475
168	0x3e3e491b	0.18582575
169	0x3f43623e	0.7632178
170	0x3e52554d	0.20540352
171	0xbe13077f	-0.14358328
172	0xbe27d9a5	-0.16391619
173	0x3d9ca85d	0.076493
174	0x3f199fdb	0.60009545
175	0xbdeadabc	-0.114675015
176	0x3da2563f	0.079266064
177	0x3cb6fdfa	0.022337902
178	0xbdb6e19b	-0.089297496
179	0x3c9d5d13	0.01920942
180	0xbc125d53	-0.008933383
181	0xbe8b877a	-0.27251798
182	0x3e8e1bfc	0.27755725
183	0x3e76e72a	0.2411162
184	0x3df41f0c	0.11919984
185	0x3dbe2f6e	0.0928639
186	0xbe1f64d0	-0.155658
187	0xbdc46490	-0.09589493
188	0xbde1e7cb	-0.11030539
189	0xbe8b5f5d	-0.27221194
190	0xbd896e08	-0.0671044
191	0xbe64f275	-0.22358115
192	0xbef93de5	-0.48680034
193	0xbfabc1d2	-1.3418524
194	0x3f40d92a	0.75331366
195	0x3e80e707	0.2517626
196	0xbea7e110	-0.32788897
197	0xbe01243b	-0.12611477
198	0xbe425d36	-0.1898087
199	0x3d6fb47c	0.058521733
200	0x3d8fca5b	0.07021018
201	0xbed44cdb	-0.41464886
202	0x3e125117	0.14288746
203	0xbe5f898c	-0.21829814
204	0xbd8c2cad	-0.06844459
205	0xbdf95388	-0.121741354
206	0x3e5e371b	0.21700709
207	0x3ea38c11	0.319428
208	0x3e99e479	0.30057123
209	0x3eceb041	0.40368846
210	0x3ea39c7b	0.31955323
211	0xbc993a5d	-0.018704588
212	0x3eb527a7	0.35381815
213	0x3ddcd21b	0.10782262
214	0x3de102bd	0.109868504
215	0x3e939c66	0.2883026
216	0x3d308eb9	0.04310486
217	0xbf1014f7	-0.5628199
218	0x3bd4c0cd	0.00649271
219	0x3e27da1a	0.16391793
220	0xbdab26e0	-0.08357024
221	0xbe47977b	-0.19491379
222	0x3cd590a6	0.02606995
223	0xbee6409f	-0.44971177
224	0x3e7555f9	0.23958577
225	0xbebcde65	-0.36888424
226	0xbec18e11	-0.378037
227	0xbd4849a6	-0.04889836
228	0xbe1de39b	-0.15418856
229	0x3e3b2780	0.18276787
230	0x3e64efc4	0.22357088
231	0x3eaf7107	0.3426592
232	0xbd0dae3c	-0.03458999
233	0x3c6e04f1	0.014527545
234	0x3dae0923	0.084978364
235	0x3e0e60ea	0.13904157
236	0xbd22c583	-0.039739143
237	0x3e33dc4b	0.17564504
238	0x3e3179a9	0.17331566
239	0x3d280f7e	0.0410304
240	0xbf790c84	-0.9728472
241	0xbfd0b078	-1.6303854
242	0x3f03b297	0.5144438
243	0x3f425cb8	0.7592273
244	0xbe51e2ec	-0.2049672
245	0x3cf03b29	0.029325085
246	0xbd328cef	-0.043591436
247	0xbaf0a865	-0.0018360732
248	0x3cd6708d	0.026176715
249	0xbe02fdae	-0.12792084
250	0xbe12a306	-0.14320001
251	0xbd4191e1	-0.04725826
252	0xbd9ac87a	-0.07557769
253	0xbdcaa5c9	-0.09894902
254	0x3ea0397a	0.3129385
255	0x3e8c76f0	0.27434492

fc1.bias f4 [400]
0	0xbe98892e	-0.2979216
1	0x3d5f62ad	0.054537464
2	0xbe05bf4b	-0.13061254
3	0x3e24e82c	0.16104192
4	0x3e8ab538	0.27091384
5	0xbd9119c8	-0.070849955
6	0xbdb539e8	-0.08848935
7	0x3e77ca80	0.24198341
8	0x3e539f19	0.2066616
9	0xbd1b3396	-0.037890993
10	0xbe31e720	-0.17373323
11	0x3eaddbd3	0.33956775
12	0xbd74372b	-0.059622925
13	0x3e826225	0.25465503
14	0xba110c46	-0.000553314
15	0xbd81105d	-0.06301949
16	0x3e06862a	0.13137117
17	0x3e1b45b9	0.15163316
18	0xbdd2aebb	-0.102872334
19	0xbbc326bd	-0.0059555457
20	0x3ecfe13e	0.40601534
21	0xbdac736b	-0.08420452
22	0xbe575bac	-0.21031064
23	0xbdf9fb1c	-0.122060984
24	0x3db050f2	0.08609189
25	0xbd76f8c6	-0.060295843
26	0x3d7017c6	0.058616422
27	0x3ea7a3f3	0.3274227
28	0x3e89519f	0.26820084
29	0x3e6efa40	0.2333765
30	0x3e61cdcb	0.2205116
31	0x3e06af7b	0.13152878
32	0xbe6d45ab	-0.23171107
33	0x3dbd3015	0.092376865
34	0x3db38f67	0.08767586
35	0xbda6de10	-0.08147824
36	0x3e0a4eac	0.13506573
37	0x3d1024e8	0.035191447
38	0xbe319eca	-0.1734573
39	0xbd24af84	-0.040206447
40	0x3dd9bfa5	0.106322564
41	0x3ec100e3	0.3769599
42	0xbd368ce3	-0.044567954
43	0xbe01301d	-0.1261601
44	0xbddb3f3f	-0.107054226
45	0xbe931dca	-0.28733665
46	0xbe7aaa23	-0.24478965
47	0xbd7cdc7a	-0.0617337
48	0xbc44f8e9	-0.012022235
49	0xbd4f8252	-0.050661393
50	0xbeab5108	-0.3346026
51	0xbe3e14c4	-0.18562609
52	0x3e2383ca	0.15968242
53	0xbd79de74	-0.061003163
54	0xbd560a9c	-0.05225621
55	0xbdf3b4df	-0.11899733
56	0xbd35170c	-0.044211432
57	0xbdf36de7	-0.118861966
58	0xbe381f7f	-0.17980765
59	0x3d6f4ebd	0.0584247
60	0xbdef93e7	-0.11698132
61	0x3e93c47c	0.28860843
62	0xbe77b4f5	-0.24190123
63	0xbd76268d	-0.06009536
64	0x3e031829	0.12802185
65	0x3eb47117	0.3524253
66	0x3e405437	0.18782125
67	0x3db83e43	0.089962505
68	0xbe94367c	-0.28947818
69	0xbe6a9db9	-0.22911729
70	0xbdd112b9	-0.10208649
71	0x3bae8e56	0.0053270264
72	0x3d41cc1b	0.04731379
73	0xbd7327cf	-0.059364136
74	0xbdb55816	-0.08854692
75	0x3ea5dfb8	0.32397246
76	0xbe69b837	-0.22824179
77	0xbe62be38	-0.22142875
78	0x3e83fb56	0.25777692
79	0xbe0ca430	-0.13734508
80	0x3e0a98cd	0.13534851
81	0x3eae9c07	0.34103414
82	0xbdaa1eb4	-0.083066374
83	0x3daf16c9	0.08549268
84	0x3e127423	0.14302115
85	0xbe8c05d0	-0.27348185
86	0xbd8c6620	-0.06855416
87	0x3df08a24	0.11745098
88	0xbebe6dca	-0.37193137
89	0x3de47528	0.11155158
90	0xbdfdddc2	-0.123958126
91	0x3d785448	0.060627252
92	0xbb6fd1f5	-0.003659365
93	0xbdc6427a	-0.09680648
94	0xbd40db81	-0.047084335
95	0xbe1f03c9	-0.15528788
96	0x3eac04d0	0.33597422
97	0x3e9d9a36	0.30781716
98	0xbeb02c3a	-0.34408742
99	0xbea8fc22	-0.33004862
100	0x3e8f7f2c	0.28026712
101	0xbe642507	-0.2227975
102	0xbe6361ea	-0.2220532
103	0xbe80a30d	-0.25124398
104	0x3ce5178b	0.027965328
105	0x3e3fb62a	0.18721834
106	0x3dee943d	0.11649368
107	0x3df04a90	0.11732972
108	0xbdf41a9d	-0.119191386
109	0x3d26b4b5	0.04069968
110	0x3e2d7318	0.16938436
111	0xbd8d0a45	-0.068867244
112	0x3c925d54	0.017866768
113	0x3d3c983a	0.046043612
114	0x3e340665	0.17580564
115	0xbe92b5ce	-0.2865433
116	0x3d75ab4d	0.05997782
117	0x3dd5b131	0.10434187
118	0xbe4dcef2	-0.20098475
119	0x3cae2c3e	0.02126133
120	0xbd608b7b	-0.05482052
121	0x3e144661	0.14479972
122	0x3de4f6a0	0.111798525
123	0x3e5dd576	0.2166346
124	0xbea0e3f6	-0.3142392
125	0x3e4bb3d3	0.19892816
126	0x3e93685d	0.2879056
127	0xbd71518d	-0.058915664
128	0xbd8f9f44	-0.070127994
129	0xbd1c5308	-0.038165122
130	0xbe0ca8c3	-0.13736252
131	0x3dbc9dc1	0.09209777
132	0x3d26ab68	0.04069081
133	0x3d312c97	0.043255415
134	0xbce7fdea	-0.028319318
135	0x3cc32c98	0.023824975
136	0x3ed49cee	0.41525978
137	0x3cf54e84	0.029944666
138	0x3db60990	0.08888543
139	0xbe389988	-0.18027318
140	0x3e0ef01d	0.13958783
141	0xbc7d9a01	-0.015478612
142	0x3e35303b	0.1769418
143	0x3e3755f3	0.17903881
144	0xbe5911c4	-0.21198183
145	0xbe46f5ab	-0.19429652
146	0xbd99bcc1	-0.07506705
147	0x3c72b676	0.01481401
148	0xbcfa6ad4	-0.030568518
149	0x3c370d99	0.0111726755
150	0x3e714dda	0.23564854
151	0xbe98e11f	-0.29859254
152	0x3e16c315	0.14722855
153	0xbe4d577d	-0.20052905
154	0x3dca090b	0.09865006
155	0xbd7f8332	-0.062380977
156	0xbd98ece0	-0.07467055
157	0xbe11c3df	-0.14234875
158	0x3e9b7b7a	0.30367643
159	0x3e4828a6	0.19546756
160	0xbe476843	-0.19473366
161	0x3da0642d	0.07831607
162	0x3e777680	0.24166298
163	0x3d997ccd	0.07494507
164	0xbdd8db36	-0.10588686
165	0x3cdc32b4	0.026879646
166	0x3e06bb65	0.13157423
167	0x3d7675c7	0.060170915
168	0xbde8347b	-0.11338135
169	0xbe883888	-0.2660563
170	0xbe53c9f9	-0.20682515
171	0xbdf492c9	-0.119420595
172	0xbe89825d	-0.26857272
173	0x3e1753d5	0.14778073
174	0x3e4a6e83	0.1976872
175	0xbe55a182	-0.20862392
176	0xbe585c57	-0.21128975
177	0xbdf84a57	-0.12123554
178	0xbe9554c1	-0.29166225
179	0xbe52e6a0	-0.20595789
180	0xbe413944	-0.18869501
181	0xbe4c5ad2	-0.1995652
182	0xbe1c263f	-0.15248965
183	0xbbe16aa6	-0.0068791686
184	0xbdf5c51d	-0.12000487
185	0x3e8b68fa	0.27228528
186	0xbcd16b9f	-0.025564013
187	0xbe44474a	-0.1916782
188	0x3a050643	0.00050744804
189	0xbe0b9685	-0.13631637
190	0xbe0e0fff	-0.1387329
191	0x3e8cc1eb	0.27491698
192	0xbe0990dd	-0.13434167
193	0x3e588859	0.21145763
194	0xbd2fed01	-0.042950634
195	0x3d1089d5	0.035287697
196	0xbde7ebab	-0.11324247
197	0x3e4268ed	0.18985339
198	0x3d5f0a59	0.054453228
199	0xbe36b41e	-0.17842147
200	0xbd47727f	-0.048693176
201	0x3e9277e5	0.28607097
202	0xbe981896	-0.29706258
203	0x3e1ae170	0.1512506
204	0xbd0e90d6	-0.034806095
205	0xbe2c8319	-0.16846885
206	0x3a97e7a2	0.0011589418
207	0xbc589e00	-0.013221264
208	0x3e4705c4	0.19435793
209	0x3d81fa9d	0.06346629
210	0xbcf96580	-0.030443907
211	0x3ea03dd1	0.31297162
212	0x3cb938b9	0.022610055
213	0x3e4b8002	0.1987305
214	0x3cd1f7f2	0.025630925
215	0x3e7af130	0.24506068
216	0xbce24baa	-0.02762397
217	0x3e388b38	0.18021858
218	0xbdd0fc00	-0.10204315
219	0x3cfec992	0.031101976
220	0x3e804bc8	0.25057817
221	0xbdfc7f8e	-0.123290166
222	0xbd277c63	-0.04089011
223	0x3dbc1a6c	0.09184727
224	0x3e62d535	0.22151645
225	0xbe1897bc	-0.14901632
226	0xbe8ca54a	-0.27469856
227	0x3dab0a83	0.08351614
228	0x3da3dd93	0.08001246
229	0x3cbcceb4	0.023047782
230	0x3d8d46f7	0.06898301
231	0x3e90ffae	0.28320068
232	0xbe1b52eb	-0.1516835
233	0xbe5684de	-0.20949122
234	0x3e32f574	0.17476445
235	0xbd982c14	-0.07430282
236	0x3e8e833d	0.27834502
237	0xbe410e53	-0.1885312
238	0xbe2025e8	-0.1563946
239	0xbe2ddde8	-0.16979182
240	0xbd02eef1	-0.031966154
241	0xbe569e35	-0.20958789
242	0xbdb124ad	-0.086495735
243	0xbe8ce262	-0.27516466
244	0xbe2b1289	-0.1670629
245	0xbd4c20d9	-0.049836013
246	0x3dd6c2ce	0.10486375
247	0x3de0b9e5	0.109729566
248	0xbe0270fd	-0.12738414
249	0x3e269796	0.16268763
250	0x3dbb599b	0.0914795
251	0xbd8c4098	-0.06848258
252	0xbd8a9e2e	-0.06768452
253	0xbe36222d	-0.17786475
254	0xbdafe9db	-0.08589526
255	0x3c2692be	0.010166822

fc2.weight f4 [300, 400]
0	0x3c387f4d	0.01126082
1	0xbf1a6125	-0.6030448
2	0xbd99c6c2	-0.07508613
3	0xbe95bfa6	-0.2924778
4	0xbf0250f5	-0.5090478
5	0xbdd529fa	-0.10408397
6	0x3ceb7c16	0.028745692
7	0xbdbfbe9a	-0.09362526
8	0x3d6ff711	0.05858523
9	0xbdda854e	-0.10669957
10	0xbee63de6	-0.449691
11	0xbf82d096	-1.0219905
12	0xbd925e9e	-0.07146953
13	0xbefaf8ca	-0.49017936
14	0xbc59d4cc	-0.013295364
15	0x3d630654	0.055425957
16	0x3da75c13	0.08171859
17	0xbd9c3479	-0.07627196
18	0xbe356640	-0.17714787
19	0x3c5d3cb8	0.013503246
20	0xbdef90be	-0.11697529
21	0xbeb1155a	-0.34586602
22	0x3e255f1a	0.1614956
23	0xbe37885b	-0.17923109
24	0xbdd0c260	-0.10193324
25	0x3d8165ed	0.06318269
26	0xbeb3fbf4	-0.35153162
27	0x3c856683	0.016284233
28	0xbedc6264	-0.43043816
29	0xbdd9508a	-0.10611065
30	0xbe287fd7	-0.16455017
31	0xbe773a79	-0.241434
32	0x3d9172d6	0.07101981
33	0x3cdeb484	0.027185686
34	0x3a5702ba	0.00082020054
35	0x3b439dcf	0.00298487
36	0xbf6a5a31	-0.9154387
37	0x3d227fb5	0.039672572
38	0x3c772bcf	0.015086128
39	0x3d41e8f3	0.0473413
40	0x3af76ab5	0.0018876406
41	0xbd1b6f55	-0.03794797
42	0xbce66c58	-0.028127834
43	0x3d9540aa	0.07287724
44	0xbcb55082	-0.022133116
45	0x3db11f50	0.086485505
46	0xbd814657	-0.063122444
47	0x3cf18481	0.029482128
48	0xbea36f72	-0.31920964
49	0x3de771a0	0.11300969
50	0x3cd615ca	0.026133437
51	0xbdc44ead	-0.09585319
52	0xbd2a1605	-0.041524906
53	0xbce6568e	-0.028117444
54	0x3bb8eda3	0.005643563
55	0x3def0622	0.116710916
56	0x3d90b803	0.070663475
57	0x3d67552e	0.056477718
58	0xbed6d4e0	-0.41959286
59	0x3c95f7ca	0.018306632
60	0xbcfe4bf5	-0.031042079
61	0xbd28a308	-0.041171104
62	0xbea3c303	-0.3198472
63	0x3c2a14eb	0.010380964
64	0x3c8a40a4	0.016876526
65	0xbda1435e	-0.078741774
66	0xbd271d35	-0.04079934
67	0x3d7a70fc	0.061142907
68	0x3d95a534	0.073069006
69	0xbdcf5841	-0.10124255
70	0x3deeca44	0.11659673
71	0xbcc5977a	-0.024120081
72	0x3b81085b	0.0039377636
73	0xbec0669e	-0.3757829
74	0xbd5b2d9d	-0.053510297
75	0xbd97936a	-0.07401164
76	0x3e1c8a56	0.15287146
77	0xbe12bea7	-0.1433054
78	0x3dcfa58d	0.10138998
79	0xbe692ad8	-0.2277025
80	0x3dd0a7ea	0.10188277
81	0xbd88698b	-0.06660756
82	0x3e235be9	0.1595303
83	0xbd31fdb1	-0.04345483
84	0xbd9444bd	-0.07239673
85	0x3e2071fd	0.15668483
86	0x3d46ce10	0.04853636
87	0xbd12e86e	-0.035866193
88	0x3e4881cd	0.19580765
89	0xbf8f4e41	-1.1195756
90	0xbc527fea	-0.01284788
91	0x3e98e754	0.2986399
92	0x3d84f6f7	0.06492417
93	0xbd2a530d	-0.04158311
94	0x3ee01d8e	0.43772548
95	0xbdb9042b	-0.09033998
96	0xbc447558	-0.011990868
97	0x3d47f34d	0.048816014
98	0xbd4fa73c	-0.050696597
99	0x3d59d237	0.053178992
100	0x3c644e9b	0.013934757
101	0x3e2ae822	0.16690114
102	0x3c0c8014	0.008575458
103	0x3d4b61b2	0.049653716
104	0x3de6915e	0.11258195
105	0xba672369	-0.0008817227
106	0xbf286f7d	-0.6579512
107	0xbd27cac9	-0.040964875
108	0xbe829c70	-0.25509977
109	0x3ced1409	0.028940218
110	0xbf154cb6	-0.58320177
111	0xbede24e4	-0.4338752
112	0x3d8071e0	0.0627172
113	0x3da1cf4d	0.079008676
114	0x3eb47bb2	0.35250622
115	0x3cf97a11	0.030453714
116	0x3d38ebb4	0.04514666
117	0xbcf6e22b	-0.030137142
118	0x3c4f0441	0.012635292
119	0xbd2867b3	-0.04111452
120	0x3d48b049	0.048996244
121	0x3d9932cf	0.07480394
122	0xbf1772d8	-0.5915961
123	0x3d57aecf	0.052656945
124	0x3dad4941	0.08461238
125	0x3d793300	0.060839653
126	0x3da85faf	0.08221375
127	0x3e0d8493	0.13820104
128	0x3eca8754	0.39556372
129	0x3d745813	0.059654307
130	0x3e3906fd	0.18069072
131	0xbe1f206e	-0.15539715
132	0xbe0edd6f	-0.13951658
133	0x3acf2245	0.001580306
134	0xbda15f3b	-0.07879492
135	0xbf52f279	-0.82401234
136	0xbe95ebcb	-0.29281458
137	0xbdba8991	-0.0910827
138	0x3c9daae6	0.01924653
139	0x3db7599a	0.08952637
140	0xbeca5f10	-0.39525652
141	0x3dc9286e	0.098221645
142	0xbd81b3b1	-0.063331015
143	0x3d30e841	0.043190245
144	0xbe192295	-0.14954598
145	0x3df3cc7c	0.11904237
146	0x3d2347f3	0.039863538
147	0xbc9ce083	-0.019150024
148	0x3deb3d64	0.11486319
149	0x3c331be1	0.01093194
150	0x3d947f1b	0.07250806
151	0x3d52ccb8	0.051464766
152	0x3d647c6c	0.05578272
153	0x3e2cce20	0.16875505
154	0xbe23c83f	-0.15994357
155	0x3d180cd4	0.03712161
156	0x3dbfb94c	0.093615144
157	0xbd444ae8	-0.047923
158	0xbe6494dc	-0.2232241
159	0x3dfc1f4d	0.12310658
160	0x3ddec8e6	0.10878162
161	0x3d005701	0.031332973
162	0xbed449e2	-0.41462618
163	0xbb8a4cff	-0.0042206044
164	0x3d86a496	0.06574361
165	0x3bdaa22b	0.006672164
166	0x3c2966b9	0.010339432
167	0xbcd2d79d	-0.025737578
168	0x3dea7ad5	0.114492096
169	0xbd8ac649	-0.06776101
170	0x3df4bcbb	0.1195006
171	0x3e0f42ff	0.139904
172	0xbd4c0eca	-0.04981879
173	0xbce859c3	-0.028363114
174	0x3d78bbf1	0.06072611
175	0x3c351274	0.011051763
176	0x3d7ea3e2	0.06216801
177	0x3edec678	0.43510795
178	0x3d38b55a	0.045094825
179	0x3d58e9b4	0.05295725
180	0xbd9cac55	-0.07650057
181	0xbcd5beb7	-0.026091916
182	0x3c23bf75	0.009994377
183	0x3d2fdeed	0.042937208
184	0x3c87feba	0.016600955
185	0x3d3d7526	0.0462543
186	0xbd98e588	-0.074656546
187	0x3ca153dc	0.019693308
188	0x3d1a536e	0.03767722
189	0xbdc76091	-0.097352155
190	0x3eaeb1d5	0.3412005
191	0xbea78d0c	-0.32724798
192	0x3da460ce	0.080262765
193	0xbe0a96e2	-0.1353412
194	0x3c9c6a43	0.019093638
195	0xbd225e4f	-0.03964072
196	0x3e1c9bef	0.15293859
197	0x3f901a8a	1.1258099
198	0xbe26d794	-0.16293174
199	0x3e48d773	0.19613437
200	0xbdfb81dc	-0.12280628
201	0xbc4d118c	-0.0125163905
202	0xbd99685d	-0.07490609
203	0xbd95093b	-0.07277151
204	0x3d633e2b	0.05547921
205	0x3eb6f139	0.35730913
206	0x3e0320e9	0.12805523
207	0xbd4cce13	-0.050001215
208	0x3d65aa4c	0.05607061
209	0xbe855618	-0.26042247
210	0x3e2ba416	0.16761813
211	0xbd895063	-0.06704786
212	0x3d8998ae	0.067185745
213	0xbd1d6dc5	-0.038434763
214	0x3cead69d	0.028666789
215	0xbdf1ec23	-0.11812618
216	0x3de77d9d	0.11303256
217	0xbd97c4f2	-0.07410611
218	0xbe34ea58	-0.1766752
219	0xbe07d0c3	-0.1326323
220	0x3c9c138a	0.019052286
221	0xbc66078a	-0.014039883
222	0xbe17d1d5	-0.14826138
223	0x3ca4c2a9	0.020112352
224	0x3d654aff	0.055979725
225	0x3d795076	0.06086775
226	0x3d085a38	0.033289164
227	0x3f4c8fc6	0.7990688
228	0xbc211145	-0.0098307775
229	0xbecb18a0	-0.39667225
230	0xbe76efff	-0.24114989
231	0xbcdf8333	-0.02728424
232	0x3d57b7cb	0.052665513
233	0x3d3cc1b6	0.046083175
234	0x3e2e5682	0.17025188
235	0x3cd2c2a3	0.025727576
236	0xbec829bc	-0.3909434
237	0x3ee82ea0	0.45348072
238	0xbeeebbb9	-0.46627596
239	0xbcc275f2	-0.023737881
240	0x3d5c9d68	0.05386105
241	0x3dd937a7	0.10606318
242	0x3d06e66a	0.032934584
243	0x3e2803d3	0.16407709
244	0x3e4771d4	0.19477016
245	0x3d7d1a00	0.061792374
246	0xbd7088ce	-0.058724217
247	0x3c3488e1	0.011018963
248	0xbd6fa285	-0.0585046
249	0xbd1617cd	-0.036643792
250	0xbef647d7	-0.48101684
251	0x3cf18003	0.029479986
252	0xbeba1015	-0.36340395
253	0x3d95f24c	0.07321605
254	0x3d1ccfa3	0.038283955
255	0xbc709dfc	-0.014686104

fc2.bias f4 [300]
0	0xbdbf1880	-0.09330845
1	0x3d1e4985	0.038644332
2	0x3e23478f	0.15945266
3	0x3bc52468	0.006016303
4	0xbcf4a494	-0.029863633
5	0xbdca64b7	-0.09882491
6	0x3d3b7327	0.045764115
7	0xbda27f46	-0.07934432
8	0xbcf5cb1c	-0.030004077
9	0x3e0841ec	0.13306397
10	0x3e02a3fb	0.12757866
11	0xbd1c37d6	-0.038139187
12	0x3c8535fc	0.016261093
13	0xbd9a126a	-0.075230435
14	0x3bd44831	0.0064783324
15	0x3e49727c	0.19672579
16	0x3e808c48	0.25107026
17	0x3d18df95	0.0373226
18	0x3e2acb11	0.16679026
19	0xbce4a94e	-0.027912762
20	0x3b5920d1	0.0033131132
21	0xbda8caeb	-0.082418285
22	0xbd9793e7	-0.07401257
23	0x3e0934c6	0.13399038
24	0x3dee71d9	0.116428085
25	0xbc535dd2	-0.0129007865
26	0xbca3a17f	-0.019974468
27	0xbd9cceb6	-0.076566145
28	0x39ff2e3b	0.00048671835
29	0x3d0a6a08	0.033792526
30	0xbca533f8	-0.020166382
31	0x3dec8922	0.115495935
32	0x3c9edc65	0.019392202
33	0xbd8604e5	-0.06543902
34	0x3e74ff47	0.23925506
35	0xbdb7db06	-0.08977322
36	0x3de112f4	0.10989943
37	0xbd822d71	-0.063563235
38	0xbc45a0a6	-0.012062227
39	0x3d01ca34	0.031686977
40	0xbc70a204	-0.014687065
41	0xbd23654d	-0.03989153
42	0xbdbdec8e	-0.09273635
43	0xbd588942	-0.052865274
44	0x3c814a14	0.015782394
45	0x3b516909	0.0031953475
46	0x3dc93e48	0.09826332
47	0x3c001de2	0.007819625
48	0xbc4b30d9	-0.012401783
49	0x3d387a37	0.04503843
50	0xbc76e204	-0.015068535
51	0xbdc0f4a0	-0.094216585
52	0xbd19ad0e	-0.037518553
53	0xbcc60a13	-0.024174726
54	0xbd2d2d3f	-0.04227948
55	0x3e7ac617	0.24489628
56	0x3e4c5bd0	0.19956899
57	0xbda5117f	-0.08059978
58	0x3e0c12b9	0.13679017
59	0x3ec1b017	0.37829658
60	0xbc98e6b4	-0.018664695
61	0xbd689e73	-0.056791734
62	0xbcdc19c2	-0.026867751
63	0xbd1f9c77	-0.038967576
64	0xbd446759	-0.047950123
65	0xbd88c1be	-0.066775784
66	0x3aa9b74e	0.0012948306
67	0xbd46b696	-0.04851397
68	0x3e125bf3	0.14292888
69	0x3e6443df	0.22291516
70	0x3e3f2bbf	0.18669032
71	0xbd8a3d83	-0.06750014
72	0x3d542411	0.051792208
73	0xbc3663d8	-0.011132203
74	0xbcff8824	-0.031192847
75	0xbd23ed47	-0.040021207
76	0x3e271f10	0.16320443
77	0x3e260351	0.16212203
78	0x3c7fca7b	0.01561224
79	0xbd819d91	-0.063288815
80	0x3e20b3bf	0.15693568
81	0x3e13f3d7	0.14448486
82	0xbd15aa7e	-0.036539547
83	0x3c92f9be	0.017941352
84	0x3ee92943	0.45539293
85	0xbcd1ed60	-0.025625885
86	0xbd2b63be	-0.04184317
87	0xbc8ec329	-0.017427044
88	0xbc946d4e	-0.018118527
89	0x3d143e03	0.03619195
90	0x3eb630b1	0.35584024
91	0xbda8f00f	-0.082489125
92	0xbdba220d	-0.09088526
93	0x3d3df93f	0.046380278
94	0xbcf51a73	-0.029919839
95	0x3c8c795c	0.017147712
96	0xbd18fc7e	-0.03735017
97	0xbd346100	-0.04403782
98	0xbc15dbb6	-0.009146621
99	0x3e21c8de	0.15799281
100	0xbd4b2cf1	-0.049603406
101	0xbd3a7220	-0.045518994
102	0xbc0fee85	-0.008784895
103	0x3e20c08f	0.15698455
104	0x3e0154f0	0.12630057
105	0x3c85e5c4	0.016344912
106	0xbda80ba9	-0.08205349
107	0xbda4493e	-0.08021782
108	0xbd8047b1	-0.06263674
109	0xbd718874	-0.058968022
110	0xbdbf3f97	-0.09338301
111	0xbda76ff5	-0.08175651
112	0xbdbbc971	-0.09169281
113	0xbd4d33b1	-0.050098125
114	0x3eaf2853	0.34210452
115	0xbbf37ed4	-0.0074308906
116	0xbd1c6e4a	-0.038191117
117	0xbc191a25	-0.009344612
118	0xbd76c5bc	-0.060247168
119	0xbbb1c9b8	-0.005425658
120	0x3e85ee85	0.26158538
121	0x3e2c62a2	0.168345
122	0xbcbf7e50	-0.02337566
123	0x3d3015c7	0.04298952
124	0x3e4d6e7c	0.20061678
125	0xbd03ef24	-0.032210484
126	0x3c922d85	0.017843971
127	0xbd6f5d0f	-0.058438357
128	0x3e07937c	0.13239855
129	0xbd7a618a	-0.061128177
130	0x3dcd1b48	0.10014969
131	0x3e60e0f3	0.21960811
132	0x3d5de208	0.05417064
133	0x3e642081	0.22278024
134	0x3ec5f329	0.3866208
135	0xbc7cc82c	-0.015428584
136	0xbb9e5dd6	-0.0048329635
137	0xbdaf66f0	-0.08564556
138	0xbd4aa9b1	-0.049478237
139	0xbcb4e7ce	-0.02208319
140	0xbcc5e0b1	-0.024154993
141	0xbdac4807	-0.084121756
142	0xbdd1c8f9	-0.102434106
143	0x3c92f8a5	0.017940829
144	0xbdb95b90	-0.09050667
145	0xbd0d27c0	-0.034461737
146	0xbd29c947	-0.04145172
147	0x3d1424a5	0.03616776
148	0x3cfd78d4	0.030941404
149	0xbd2fb482	-0.042896755
150	0x3e736349	0.23768343
151	0xbd4148e9	-0.047188673
152	0x3df8e460	0.12152934
153	0x3c84eafc	0.01622533
154	0x3d447470	0.047962606
155	0xbcae548f	-0.021280555
156	0xbcc2c263	-0.023774331
157	0xbd45483b	-0.048164587
158	0xbd0b72dd	-0.03404509
159	0xbc744e0e	-0.014911188
160	0x3e619759	0.22030391
161	0xbd84292d	-0.06453166
162	0xbd05f49d	-0.032703985
163	0xbcf6099c	-0.030033879
164	0x3e5eebb9	0.21769609
165	0x3e9a36bd	0.30119887
166	0x3e232fb1	0.15936162
167	0xbbba476e	-0.0056847846
168	0x3e641361	0.22273017
169	0x3db4d644	0.088299304
170	0x3e3dc84e	0.18533441
171	0xbc705254	-0.014668066
172	0x3e0c3141	0.13690664
173	0xbd2b8f78	-0.04188487
174	0x3cf48a03	0.029850965
175	0xbd3b0370	-0.045657575
176	0x3db5913e	0.088655934
177	0xbd266493	-0.04062326
178	0xbd03e095	-0.0321966
179	0x3dbc6e7d	0.092007615
180	0x3e53700b	0.2064821
181	0x3d083e8c	0.033262774
182	0x3e237894	0.15963966
183	0xbb59921a	-0.0033198656
184	0x3e5933c9	0.2121116
185	0xbc197726	-0.009366786
186	0xbd9b6b65	-0.07588843
187	0xbce203a9	-0.027589636
188	0x3dfdee76	0.123989984
189	0x3d037fb4	0.03210421
190	0xbd26e317	-0.040743914
191	0xbd97c08a	-0.07409771
192	0xbd5fa0e2	-0.05459679
193	0xbd078ec5	-0.03309514
194	0xbd74e860	-0.059791923
195	0xbd95564a	-0.07291849
196	0x3e12c8d6	0.14334425
197	0x3e2e9ed1	0.17052771
198	0x3badd3a6	0.0053047715
199	0x3e742263	0.23841242
200	0xbd1b9236	-0.037981234
201	0xbd6d0bb8	-0.057872504
202	0xbdad8cda	-0.08474131
203	0x3b51dbe1	0.0032021927
204	0x3e0297fc	0.1275329
205	0xbda1e725	-0.079054154
206	0xbcae36c2	-0.021266345
207	0xbd49dfb2	-0.049285598
208	0x3dfa7478	0.12229246
209	0xbceb07a3	-0.028690165
210	0xbcecf94b	-0.028927466
211	0xbda933d4	-0.082618386
212	0xbde224a0	-0.11042142
213	0x3e556300	0.20838547
214	0xbc910332	-0.017701719
215	0xbd9bd149	-0.07608277
216	0x3c0cba34	0.008589316
217	0x3e3835e8	0.17989314
218	0xbcdd067a	-0.026980627
219	0xbd9b9652	-0.07597031
220	0x3e030d0d	0.12797947
221	0x39b0d5f7	0.00033728752
222	0x3da03660	0.07822871
223	0x3c7a8863	0.015291306
224	0x3e9eaac1	0.3098965
225	0xbe1a0f46	-0.15044889
226	0xbd185425	-0.03718962
227	0xbd7ce23f	-0.061739203
228	0x3dc029b5	0.09382955
229	0xbd96e9eb	-0.07368835
230	0xbd3081a9	-0.043092404
231	0xbd5e9a88	-0.05434659
232	0xbda2932d	-0.07938228
233	0x3bf9affa	0.007619855
234	0xbd24d7a7	-0.040244725
235	0x3dec2e10	0.11532223
236	0x3e73536b	0.2376229
237	0xbd78745c	-0.060657844
238	0xbd12e1fe	-0.035860054
239	0x3edbd4f8	0.4293592
240	0x3e0e3d82	0.13890651
241	0x3e1e12ae	0.15436813
242	0xbd9654c5	-0.07340387
243	0x3ef66814	0.4812628
244	0x3e06f8a4	0.13180786
245	0xbd5cf4fd	-0.053944577
246	0x3ed051e2	0.40687472
247	0x3e6349b1	0.2219608
248	0x3d154295	0.03644045
249	0xbd10d436	-0.03535863
250	0xbda9d80e	-0.08293162
251	0x3dab7980	0.08372784
252	0xbce8aaf3	-0.028401827
253	0x3e140b09	0.14457335
254	0x3de1b01d	0.11019919
255	0x3e00e66d	0.125879

v.weight f4 [1, 300]
0	0x3ea11290	0.31459475
1	0x3ca4a1be	0.020096656
2	0xbf13a925	-0.5767997
3	0x3c036074	0.008018602
4	0x3c73a2c3	0.014870348
5	0x3e306597	0.17226253
6	0xbd09518c	-0.033525035
7	0x3e4fe53f	0.20302294
8	0x3b21a28e	0.002466354
9	0xbe7ec324	-0.24879128
10	0xbf48f3c1	-0.7849694
11	0x3ceeeeda	0.029166628
12	0xbca69f1e	-0.020339545
13	0x3e457a06	0.1928483
14	0xbd1e7545	-0.038686056
15	0xbf32fd27	-0.6991753
16	0xbf42e372	-0.76128304
17	0xbc52e7d9	-0.01287266
18	0xbf54a06e	-0.83057296
19	0x3e4c1419	0.19929542
20	0x3d38deff	0.04513454
21	0x3e3f413a	0.18677226
22	0x3e71c433	0.2361
23	0xbeb844be	-0.35989946
24	0xbf02dc1a	-0.511171
25	0xbd007562	-0.031361945
26	0xbc1b85b5	-0.009492327
27	0x3ebe9dfa	0.37229902
28	0x3d32044f	0.04346114
29	0xbee7ce78	-0.4527471
30	0x3e3d0453	0.18458681
31	0xbf3e5e26	-0.7436241
32	0x3d1bc5c5	0.038030405
33	0x3e144ccb	0.14482419
34	0xbf3747cf	-0.71593946
35	0x3e280924	0.16409737
36	0xbf3dff60	-0.74217796
37	0x3e29788e	0.16549894
38	0x3e1c0255	0.15235265
39	0xbbaadf66	-0.0052146195
40	0x3d65dcfa	0.056118943
41	0x3e67f346	0.22651395
42	0x3e330f8f	0.17486404
43	0xbbc6d539	-0.0060678986
44	0xbd14b785	-0.03630783
45	0x3cc24478	0.02371429
46	0xbe6760c5	-0.22595508
47	0xbc9b4fcd	-0.01895895
48	0xbc8c9bbc	-0.017164104
49	0xbd579329	-0.052630577
50	0xbc4cf788	-0.012510188
51	0x3e584a56	0.21122107
52	0xbc9fe2e5	-0.019517371
53	0x3e4a1554	0.19734699
54	0xbd2731fe	-0.04081916
55	0xbf62e848	-0.88635683
56	0xbf566099	-0.83741146
57	0x3e2242b0	0.15845752
58	0xbf3f89f3	-0.7481987
59	0xbf612315	-0.87944156
60	0x3e2d55fc	0.16927332
61	0xbb8aec7d	-0.0042396174
62	0x3ceefb5a	0.029172588
63	0x3e4c22b4	0.19935113
64	0x3d3fd697	0.04683551
65	0x3e3910b4	0.18072778
66	0xbd22d596	-0.039754473
67	0x3e3a0c4d	0.18168755
68	0xbea5125e	-0.32240576
69	0xbf0355ac	-0.513026
70	0xbf2646e0	-0.64951897
71	0x3e411398	0.1885513
72	0xbe8fa250	-0.28053522
73	0x3c085214	0.00832035
74	0x3e2c8876	0.1684893
75	0xbcd51991	-0.026013168
76	0xbec30bd8	-0.38094974
77	0xbedc5e13	-0.43040523
78	0x3c5badf1	0.01340817
79	0x3e4e061b	0.20119517
80	0xbf408ea0	-0.7521763
81	0xbf3f99f2	-0.74844277
82	0xbc056b1c	-0.008143213
83	0xbf1e2cdf	-0.6178722
84	0xbf8e3b21	-1.1111795
85	0x3e4d5a41	0.2005396
86	0x3ec5908e	0.3858685
87	0x3e1f82ff	0.15577315
88	0xbc3f34df	-0.01167032
89	0xbe5bd0ec	-0.21466416
90	0xbf7daed9	-0.9909492
91	0x3e3db783	0.18527035
92	0x3e4499b9	0.19199266
93	0x3aa5ce86	0.001265005
94	0x3e34584c	0.17611808
95	0x3ceaf672	0.028681967
96	0x3bacffef	0.005279533
97	0x3c41b0d0	0.011821941
98	0x3d2fa60e	0.04288297
99	0xbe81dee9	-0.2536538
100	0x3d23fa8e	0.04003387
101	0x3c02ae54	0.007976133
102	0xbc852e2c	-0.016257368
103	0xbf58772e	-0.84556854
104	0xbe6e0d47	-0.23247252
105	0xbad87042	-0.0016512948
106	0x3e3a97e5	0.18222006
107	0x3e51984d	0.20468254
108	0x3e366da5	0.17815264
109	0x3e487300	0.19575119
110	0x3e41aebe	0.18914315
111	0x3e42313f	0.18964098
112	0x3e3b9423	0.18318228
113	0xbd06f02c	-0.03294389
114	0xbf7845ab	-0.96981305
115	0xbd152805	-0.03641512
116	0x3e40def5	0.18835051
117	0x3e2d52a5	0.16926058
118	0x3e36db04	0.17856985
119	0x3b0aa17d	0.0021153383
120	0xbf4b0462	-0.7930356
121	0xbf445937	-0.7669863
122	0xbcfd2b63	-0.030904477
123	0x3d3fdd9f	0.046842214
124	0xbf2aaf80	-0.6667404
125	0x3e31af14	0.17351943
126	0x3b88cf15	0.0041750767
127	0x3efc1369	0.4923356
128	0xbe70df35	-0.23522647
129	0x3e47738a	0.19477668
130	0xbe9af1ec	-0.30262697
131	0xbf46a966	-0.7760223
132	0xbe7f81f9	-0.24951924
133	0xbf5ce461	-0.8628598
134	0xbf7813c1	-0.9690514
135	0xbd5688c1	-0.052376512
136	0xbc247086	-0.010036593
137	0x3e80f428	0.25186276
138	0xbcb828f7	-0.022480471
139	0x3e946d0f	0.28989455
140	0xbd2aa01e	-0.041656606
141	0x3e5080f7	0.20361696
142	0x3e38b863	0.18039088
143	0x3bbaf178	0.005705055
144	0x3e6308b2	0.22171286
145	0x3e4aa485	0.19789322
146	0x3d119f55	0.03555234
147	0x3d50c751	0.050971333
148	0xbf35b14c	-0.7097366
149	0x3e4a480c	0.19754046
150	0xbf3dfee4	-0.7421706
151	0x3cca12e8	0.024667218
152	0xbec98236	-0.39357156
153	0x3ca4a736	0.020099264
154	0xbf76a095	-0.9633878
155	0xbab5db20	-0.0013874508
156	0x3e41600d	0.18884297
157	0x3ca03224	0.019555159
158	0x3c90d04d	0.01767745
159	0x3e502028	0.20324767
160	0xbf420c53	-0.75800055
161	0x3e20f7bd	0.15719505
162	0x3b41e5f1	0.0029586519
163	0xbd2e7946	-0.042596124
164	0xbf60e694	-0.87851834
165	0xbf86be5b	-1.0526842
166	0xbf3e376a	-0.74303305
167	0x3e521e79	0.20519437
168	0xbf3e0da8	-0.7423959
169	0xbf35783f	-0.70886606
170	0xbf10ec5d	-0.5661066
171	0xbd3006ef	-0.042975362
172	0xbe710695	-0.23537667
173	0x3f0538aa	0.5203959
174	0x3cc47ec8	0.023986235
175	0x3d1f3aed	0.038874555
176	0xbee8e5a7	-0.4548771
177	0x3e2de638	0.16982353
178	0x3d2e5ace	0.042567067
179	0xbf4cda54	-0.8002064
180	0xbf3f757f	-0.7478866
181	0xbc2475ff	-0.010037898
182	0xbf304bc8	-0.68865633
183	0xbca1a4e6	-0.01973195
184	0xbf428df5	-0.7599786
185	0xbbb09a97	-0.0053895223
186	0x3e1f4f3f	0.15557574
187	0x3e64359a	0.22286072
188	0xbef84877	-0.48492786
189	0x3b11a01d	0.002222068
190	0xbd0b8024	-0.03405775
191	0x3e14b16e	0.14520809
192	0xba7198e4	-0.0009216203
193	0xbbbc7bff	-0.005752086
194	0x3e4ea06a	0.2017838
195	0x3e4e3cb8	0.2014035
196	0xbf4665d9	-0.7749916
197	0xbf2d6816	-0.6773695
198	0xbc36d51f	-0.0111592105
199	0xbf3d8d09	-0.7404333
200	0xbc9420bd	-0.018082017
201	0x3e3c4fcf	0.1838982
202	0x3e43a9fb	0.19107811
203	0x3d0580fc	0.032593712
204	0xbf50b487	-0.8152546
205	0x3e422f58	0.18963373
206	0x3e29dfbd	0.16589256
207	0x3ef2c1f2	0.47413594
208	0xbea65904	-0.3248979
209	0xbd0d2794	-0.034461573
210	0x3d11745d	0.035511363
211	0x3e33d6ea	0.17562452
212	0x3e3ee12a	0.18640581
213	0xbf3bc2b5	-0.73343974
214	0x3e3632af	0.17792772
215	0x3e15acc0	0.1461668
216	0x3d30695f	0.04306924
217	0xbf4df193	-0.8044674
218	0x3d1c8b6d	0.038218904
219	0x3e638acc	0.22220916
220	0xbf2e0463	-0.67975444
221	0xbc0d1664	-0.008611295
222	0xbed471f4	-0.4149319
223	0xbc99e22d	-0.018784607
224	0xbf85e3b3	-1.0460113
225	0x3eed46e6	0.46343154
226	0x3e501ecb	0.20324247
227	0x3e5703e3	0.20997576
228	0xbe9cc33e	-0.30617708
229	0x3e27d12c	0.16388386
230	0x3e500d58	0.2031759
231	0x3e3478df	0.17624234
232	0x3e3fe098	0.1873802
233	0x3d12410d	0.03570657
234	0xbcffa04b	-0.031204363
235	0xbe931983	-0.287304
236	0xbf63957d	-0.88899976
237	0x3cdeb361	0.027185144
238	0xbc6be262	-0.014397236
239	0xbf69b3c5	-0.9128993
240	0xbe950331	-0.29103997
241	0xbf3b4ac7	-0.73160976
242	0x3e4640b1	0.19360615
243	0xbf832d52	-1.0248206
244	0xbead2993	-0.3382078
245	0x3e4214ad	0.189532
246	0xbf807964	-1.0037045
247	0xbf43bc0b	-0.76458806
248	0x3cca3228	0.02468212
249	0xbc9155e5	-0.017741153
250	0x3e584e1e	0.2112355
251	0xbe9e14c0	-0.30875206
252	0x3c70838b	0.0146798
253	0xbe5eddb4	-0.2176426
254	0xbe8c26d7	-0.27373382
255	0xbea71500	-0.3263321
