SAC_own_hardcore/sac_100/value_sac.pth (torch, 524956 bytes, 5 tensors)

fc1.weight f4 [400, 24]
00000000: 0d39 823f e04b bd3f 42da 4abf b382 863d
00000010: a928 a83e 285d ae3c 2792 9f3e 7d0f 4fbb
00000020: c070 6f3d e128 b33e 5c81 503e a7cd 4c3e
00000030: 5eba e4bc ceaa 0b3e 5fcf f3bd 70c2 6cbe
00000040: ac00 073d 1ad7 89bd 35b7 93bc 61b9 533d
00000050: beda 1abe 40f5 3b3e bbb8 5a3e fbce 193d
00000060: 8aea 3bbf 3c7f 35bf 7809 4e3f 64e3 cabe
00000070: 30aa 8c3d b44e a33c 3858 eb3d 9f54 233d
00000080: a757 0bbe d5ca dbbe ae5f bdbd 6cc4 6abe
00000090: 988f 21be 8b55 863e fd81 0f3e 4cc6 5d3e
000000a0: b35d 8a3b b2af 9dbd bbce 3e3d b7c3 0fbe
000000b0: 216d 86be 0c27 3abc a659 16be e745 bd3d
000000c0: 562e 65be 5273 f6be 64e7 7d3e 9559 053f
000000d0: 537d 39bf 5a46 3cbd f42c d6bd 096b 31bd
000000e0: bf43 673e 72b4 953e 9856 96be 23a4 e43c
000000f0: 3fd9 643b 5212 a7bc 63fb 0b3d 7442 08be
00000100: d82a 7d3e 658c 663e 968b 12bd 65f1 193e
00000110: 133b 133e 1cc1 c33d 049c 7f3d e19f 6d3d
00000120: 0180 be3e a61a 913f 548d 56bf e4ec 1fbf
00000130: 116f 41bd bac2 75bd 99b4 8b3d dc15 553e
00000140: 0468 79bd 9bb0 c43c 9041 3dbd 6ca4 383e
00000150: 583f 073d 0ded 0dbf b8af 8ebc ec85 d23d
00000160: 0a3e 00be 661d 373e e51e 513e 2705 f23c
00000170: 36c9 5bbd 6f54 cabd 5859 013e 4113 eabd
00000180: f50e 34bf b6de 02c0 89df 803f 62ea 0d3d
00000190: b710 e9be 687c 9dbd 8034 79be fbd9 1abd
000001a0: 23c7 1d3d 4107 04be 69ef 2f3c d86d 273e
000001b0: 6917 aabd 4603 ec3b 1d8e 853e 1706 273e
000001c0: 69af 183e aa21 2b3d a998 acbd fa03 69be
000001d0: 9dde 80bd d258 16be 75bd 093e aacc 063e
000001e0: 4d6a 8b3e d8be 25bd a7bb 753e c2db ed3e
000001f0: 901c b53e b2b4 103c 67fc 8e3e cab1 723d
00000200: e702 3b3d fcc8 ebbe e905 293e 8804 28be
00000210: c68f 5f3d 0b49 c13c 2d30 2bbd e9f3 2dbe
00000220: 8431 dd3d a563 eebd 2157 afbc a3f8 843d
00000230: 0fee 063d 35e3 3d3e 81e5 313e 4e2b 8e3d
00000240: d60e 033f 3911 053f 889e 0ebd 7c55 013f
00000250: 4cc6 d63c b1da 4a3d 777f cdbd a12f 22bd
00000260: 65a5 0bbd 5649 e43c a8c3 413e 32e3 36bd
00000270: 9d00 f63d 7eb3 30be a1ec d23d db2f 90bc
00000280: c59b 573e 46db 113d 7772 333e 425b d13d
00000290: 1005 a13c 033f 9f3e ecfc b03e 4af9 953e
000002a0: d87c 403e 8e7f 433f 6c94 573e 4160 12be
000002b0: a040 28be 57a6 9c3d fb2a 1a3f b726 eabd
000002c0: 2f3f a63d 3067 a53c d48b bbbd 501a 923c
000002d0: d89d aebb 24b9 89be f220 8f3e 7cf5 783e
000002e0: a1af f93d 80ce c53d adcd 1cbe f7fe c0bd
000002f0: 5b38 dfbd 84a4 8abe 9c9c 86bd e369 63be
00000300: 19a3 f7be ef6e abbf 3b6b 403f 8539 7d3e
00000310: 5ad9 a7be 5881 00be 6a28 44be a06a 6a3d
00000320: 2623 903d c361 d4be 0cca 123e d4ea 5ebe
00000330: f781 8fbd 7513 f8bd b1a7 5f3e a845 a43e
00000340: 3ace 9a3e d6c9 cf3e 6c71 a43e 6c06 90bc
00000350: 36a3 b53e c10d df3d 3f87 e33d da59 943e
00000360: 60a1 313d c9f8 0fbf 382d e93b 1081 283e
00000370: cd7e afbd 5b1c 48be 2d4e f33c effd e6be
00000380: 2c9a 743e b4aa bdbe 86b2 c1be 2696 4cbd
00000390: d3c6 1dbe d832 3d3e ebbc 643e c75d af3e
000003a0: 0cf0 0bbd 6af3 7a3c 3d3d ae3d 7acb 0d3e
000003b0: 5b87 25bd d645 333e 5e0b 313e 1d07 283d
000003c0: 5c66 79bf 2cf4 d0bf aea0 033f 2b9c 433f
000003d0: 168a 50be 001a ee3c f0a9 36bd fb49 8fba
000003e0: f21e d93c e355 02be 0d8e 14be 734b 3cbd
000003f0: 6c67 97bd de50 cfbd 5b19 a03e fa58 8c3e
1.017366 1.478878 -0.79239285 0.06567898 0.3284352 0.021284655 0.31166193 -0.0031594925
0.058457136 0.34992126 0.20361847 0.20000325 -0.027920898 0.13639376 -0.11904787 -0.23121047
0.032959625 -0.067304805 -0.018031696 0.051690463 -0.15122506 0.18355274 0.21359532 0.037550908
-0.73404753 -0.7089727 0.804832 -0.3962661 0.06868398 0.01993499 0.11491436 0.039875623
-0.13607655 -0.42928186 -0.09246765 -0.22926491 -0.15777433 0.2623714 0.1401443 0.21657676
0.0042225956 -0.07699527 0.046583872 -0.14039503 -0.26255134 -0.011361849 -0.14682636 0.092418484
-0.22380957 -0.48134857 0.247953 0.52089816 -0.72456855 -0.04596553 -0.10457793 -0.043314967
0.22584437 0.2923923 -0.2936294 0.027910298 0.0034919528 -0.020394478 0.034175288 -0.133066
0.24723375 0.22514494 -0.03577765 0.15033491 0.14378004 0.09558317 0.062404647 0.0580138
0.37207034 1.1336257 -0.838094 -0.6247084 -0.04722506 -0.06000016 0.06821556 0.2080912
-0.060890213 0.024009993 -0.046205103 0.18031472 0.033019394 -0.55439836 -0.017417774 0.1027945
-0.12523666 0.17882308 0.20421942 0.029543472 -0.053658687 -0.09879386 0.12631738 -0.11429454
-0.7033532 -2.0448432 1.0068218 0.034647353 -0.45520565 -0.07689744 -0.24336433 -0.03780554
0.03851999 -0.12893392 0.010738232 0.16350496 -0.083052464 0.0072025387 0.26084986 0.16310917
0.14910664 0.04178015 -0.08427555 -0.22755423 -0.0629246 -0.1468232 0.13451178 0.1316401
0.2722954 -0.040465206 0.23997365 0.46456724 0.35373354 0.008832144 0.27926943 0.059251584
0.045657065 -0.46051776 0.16506161 -0.16407979 0.054580472 0.0235944 -0.04179399 -0.16987576
0.1080046 -0.116400994 -0.021403851 0.06492736 0.032941874 0.18543704 0.17372705 0.069418535
0.5119451 0.51979405 -0.034819156 0.50521064 0.026217602 0.049524967 -0.100340776 -0.039596204
-0.03409328 0.027867 0.18922293 -0.044650264 0.12011836 -0.17255971 0.1029904 -0.017600944
0.21055515 0.035609506 0.17524134 0.10222484 0.019655734 0.31102762 0.34567964 0.29291755
0.18797624 0.7636651 0.21052712 -0.1429453 -0.16430902 0.07648914 0.60221833 -0.114331655
0.0811752 0.020190805 -0.091575295 0.017834812 -0.005328875 -0.26899064 0.27954823 0.24312395
0.12191702 0.096585274 -0.15312834 -0.09423631 -0.10899421 -0.2707864 -0.065728396 -0.22208361
-0.4836662 -1.3393229 0.7516362 0.24728973 -0.32783014 -0.1254934 -0.19156042 0.05723059
0.07037954 -0.41480836 0.14334887 -0.21769267 -0.07007211 -0.12113086 0.21841313 0.32084394
0.30235463 0.40583676 0.32117784 -0.017581187 0.35476083 0.10891295 0.111097805 0.289748
0.04336679 -0.5623899 0.007115986 0.16455483 -0.08569107 -0.19542067 0.029700363 -0.4511561
0.23886937 -0.370443 -0.37831515 -0.04994788 -0.15407877 0.18476427 0.22337691 0.34251234
-0.034164473 0.0153168235 0.08507774 0.13847151 -0.04041229 0.17507109 0.17289492 0.04102241
-0.97421813 -1.6324515 0.5141705 0.7641017 -0.20365176 0.029065132 -0.04459566 -0.0010932082
0.026504014 -0.12728076 -0.14507313 -0.04597039 -0.07392773 -0.10122846 0.31269345 0.27411634

fc1.bias f4 [400]
00000000: 56e7 98be 4b4a 5f3d 743f 07be f14d 253e
00000010: 2de8 8a3e a6f5 90bd 774f b5bd e8aa 793e
00000020: 5f35 553e 3961 1bbd d4e3 32be 4bc8 ad3e
00000030: 3b07 76bd 6093 823e 5d7a ad38 b6a9 81bd
00000040: b17a 063e 25d5 1b3e bba4 d2bd 5246 b7bb
00000050: 90f8 cf3e 6d94 acbd 0521 58be 3347 f8bd
00000060: 7496 b03d 272e 76bd 8467 6f3d ebe1 a73e
00000070: aa8c 893e b50c 703e 3f84 613e 4381 063e
00000080: 6b78 6dbe 0176 bc3d 58b4 b63d 2317 a7bd
00000090: ec6d 0a3e a05e 113d 1baa 31be 640f 24bd
000000a0: ad2d d83d 138c c03e ffa8 35bd c737 01be
000000b0: 3228 dbbd e7bd 92be 81a6 7abe cdef 7bbd
000000c0: 222a 53bc 46d3 51bd dc4a abbe de50 3ebe
000000d0: b09c 253e fe15 77bd e3e2 54bd 8f96 f4bd
000000e0: 0700 36bd 780a f5bd a9ca 37be 0222 763d
000000f0: f8d7 f2bd a3c8 933e 17c7 77be d0f0 77bd
00000100: 18e7 043e 3fc2 b43e 35ea 403e f60a b83d
00000110: f350 94be 6f6e 69be 315a d1bd a468 e93b
00000120: b7fe 403d 26bf 77bd ba33 b6bd 26d1 a53e
00000130: 4c31 6abe f318 66be 8dd5 833e aaf8 0bbe
00000140: 9ebe 0a3e 9455 ae3e a194 a9bd f41d af3d
00000150: 2f64 143e acb1 8bbe 0b81 8bbd 00d0 ef3d
00000160: 3934 bebe ee02 e43d 6b56 febd bdb5 7b3d
00000170: 8aa6 81bb 5324 c6bd 9ffe 42bd eac5 1ebe
00000180: 350f ac3e b8a0 9d3e e571 b0be 81f4 a8be
00000190: 1372 8f3e e951 63be 7ad8 61be 09bd 80be
000001a0: 444f e33c 0537 403e 521c ea3d 124c f03d
000001b0: 7394 f2bd c2b2 2a3d 4877 2f3e 8faa 8fbd
000001c0: fa82 8f3c fef0 413d 046d 323e 4aac 92be
000001d0: f1bd 7a3d c315 d63d 55c3 4dbe a1d3 b03c
000001e0: edb9 5ebd b25f 143e e617 e53d 70df 5d3e
000001f0: bb06 a1be df4b 4c3e c821 943e 88e6 72bd
00000200: 314c 93bd 9716 1bbd 5da2 0cbe fb76 bf3d
00000210: 2dd6 263d f5cf 303d 4d61 e9bc 8a0f bf3c
00000220: c69b d43e cb13 fb3c fb41 b93d bc99 38be
00000230: 4e86 0e3e fc1f 80bc a049 353e b5f2 363e
00000240: b753 59be 28f8 46be 4009 9abd 3524 783c
00000250: 45d1 fbbc c21a 4a3c 5c9c 713e 5143 99be
00000260: a0b3 133e 1d1d 4ebe 788b ca3d 3f1c 81bd
00000270: 3672 99bd 4edd 10be e3c1 9b3e f974 483e
00000280: cacd 47be b7f8 a03d 10b2 773e 2582 993d
00000290: 2730 d7bd 258d e73c cc04 063e ca05 793d
000002a0: bb6f e8bd 312d 88be 39af 53be 6d04 f6bd
000002b0: 315b 89be a2dc 183e 1c6b 4a3e 7ca1 55be
000002c0: 6162 57be 4c07 f7bd 815f 95be e161 54be
000002d0: 5aef 40be e7f2 4cbe a5b0 1bbe 8be0 debb
000002e0: 9bcd f2bd 6ddd 8b3e 61c2 d6bc fb58 44be
000002f0: fb93 b03a a4ee 0bbe 649d 0dbe 6dae 8c3e
00000300: d9c9 09be 2647 583e 58ed 2fbd 6bb1 143d
00000310: 2d8f ebbd e813 453e 4d48 563d 41cf 37be
00000320: f90e 44bd 1990 923e 5c42 98be 232e 1b3e
00000330: af91 0fbd ebbb 2cbe 27f0 ab3a 33c1 59bc
00000340: 2279 463e d9a0 813d c5b8 f4bc 8728 a03e
00000350: fc64 bb3c 7250 4b3e 832d d33c 83e1 7a3e
00000360: 9e90 e0bc 70e1 383e 43fa d1bd f5a9 fe3c
00000370: 674e 803e da79 ffbd 998a 29bd 3bcb b93d
00000380: e0ed 623e 1037 18be 25ca 8cbe 806e aa3d
00000390: db2a a43d b6bc b93c b54e 8d3d 0f3f 913e
000003a0: 7782 1bbe 6897 55be fe2d 333e a945 9abd
000003b0: b6a8 8e3e 1dcc 41be 848f 20be 44fa 2cbe
000003c0: ee4d 02bd a133 56be 9b43 b2bd e62e 8dbe
000003d0: 3277 2bbe a8cd 4dbd d49c d83d 60ff e13d
000003e0: 3007 02be 0eab 263e 6573 bb3d 52f5 8bbd
000003f0: 9401 8abd 996a 35be 1199 afbd d3d8 243c
-0.29863995 0.05451421 -0.13207799 0.16143014 0.2713026 -0.07078104 -0.08853047 0.24381602
0.2082114 -0.037934516 -0.17469722 0.33941874 -0.06006549 0.25503063 8.272075e-05 -0.06331198
0.1313274 0.15218027 -0.10285326 -0.0055930996 0.40619326 -0.084267475 -0.21106346 -0.12122955
0.08622447 -0.060102608 0.05844833 0.3278955 0.2686513 0.23442347 0.22023104 0.13135247
-0.23190467 0.09202195 0.089211166 -0.0815871 0.13518494 0.035490632 -0.17350046 -0.04005374
0.10555587 0.37606868 -0.04435062 -0.12618934 -0.10701026 -0.2866051 -0.24477579 -0.06150799
-0.012888463 -0.051226877 -0.3345555 -0.18585536 0.16173053 -0.060323708 -0.05197419 -0.11942779
-0.04443362 -0.119648874 -0.17948402 0.060091026 -0.11857599 0.2886401 -0.2419704 -0.06053239
0.1297878 0.35304448 0.18839343 0.08986466 -0.2896801 -0.22796033 -0.10222281 0.00712307
0.047117915 -0.060485028 -0.08896585 0.3238613 -0.22870368 -0.22470455 0.25748864 -0.13669077
0.13549277 0.34049666 -0.08280302 0.08550635 0.14491342 -0.2728399 -0.06811722 0.11709595
-0.37149218 0.11133371 -0.12418827 0.061452616 -0.0039566206 -0.09674897 -0.047606107 -0.15505186
0.33605352 0.3078668 -0.34461895 -0.32999042 0.2801672 -0.22199215 -0.22055236 -0.25144222
0.027747758 0.18770988 0.11431183 0.11733259 -0.11844721 0.041674383 0.17135346 -0.07014953
0.01751851 0.04734897 0.17424399 -0.2864707 0.0612163 0.104533695 -0.20094045 0.021585288
-0.05437653 0.1448963 0.11186199 0.21667266 -0.31450447 0.19950818 0.28932023 -0.059301883
-0.07192267 -0.03786334 -0.13733812 0.093488656 0.040731598 0.043167073 -0.02848878 0.02332284
0.41525096 0.030649086 0.09045788 -0.18027395 0.1391842 -0.015640251 0.17703867 0.17866023
-0.21223341 -0.19430602 -0.075212955 0.015145351 -0.030739436 0.012335481 0.23594803 -0.2993417
0.1442399 -0.20128293 0.09889883 -0.06304216 -0.07492487 -0.14146921 0.3042136 0.19575872
-0.19512096 0.078599386 0.24189019 0.07495526 -0.10507231 0.028265545 0.13087767 0.060796537
-0.11349436 -0.26596978 -0.20672311 -0.12012563 -0.26827386 0.14927915 0.19767421 -0.20862383
-0.21033622 -0.12061939 -0.29174426 -0.20740463 -0.18841305 -0.20014535 -0.15204103 -0.00680167
-0.118556224 0.27317372 -0.026215734 -0.19174568 0.0013471836 -0.13665253 -0.13829571 0.27476826
-0.13455905 0.21120891 -0.042950958 0.03630201 -0.11501918 0.19245875 0.052315045 -0.17950155
-0.04786584 0.28625563 -0.29738128 0.15154319 -0.035051044 -0.1686856 0.0013117836 -0.013290691
0.19382146 0.063295074 -0.029873261 0.3128092 0.022875302 0.19854906 0.025778538 0.24500088
-0.027412709 0.18054748 -0.10252812 0.031086901 0.25059816 -0.12474413 -0.041391943 0.09071966
0.22161055 -0.14864755 -0.27497974 0.083218575 0.080159865 0.022672992 0.06899778 0.28368422
-0.15186487 -0.20858538 0.17498013 -0.07532818 0.2786309 -0.1892552 -0.15679747 -0.16892344
-0.0318126 -0.20918132 -0.08704301 -0.27574843 -0.16744688 -0.050244957 0.105767876 0.11035037
-0.12698054 0.1627619 0.09152869 -0.068339005 -0.06738582 -0.17716445 -0.08574117 0.010061461

fc2.weight f4 [300, 400]
00000000: 4726 343c eea2 1abf 8e95 9abd 201f 96be
00000010: 2452 02bf ef0a d5bd 2e46 ec3c ef1b c2bd
00000020: 1642 703d 930a d9bd 758a e6be 89de 82bf
00000030: ef2c 92bd a28f f9be 0d04 52bc 700a 623d
00000040: 0d6f a73d 1a48 9dbd 010c 35be a03a 593c
00000050: e514 efbd 1b32 b2be df72 253e d38b 37be
00000060: 9887 d1bd e730 863d a400 b5be 2df2 883c
00000070: 8525 dcbe 29cc d9bd 6916 28be cc5d 77be
00000080: 715f 913d 22b7 e13c 41c4 a63a 4565 293b
00000090: b56f 68bf 9df9 223d eb34 773c 023b 453d
000000a0: 720a 9b3a fa40 1abd 813d e9bc a728 953d
000000b0: 5b97 b6bc 59c7 b03d e0e9 81bd ba39 f63c
000000c0: cb4a a3be c6c9 e73d 8cf3 d63c dc8f c5bd
000000d0: 8631 2fbd 76ba e8bc 8ef4 c53b a5e9 ee3d
000000e0: 1603 913d bc3c 6b3d 0373 d7be 7c28 953c
000000f0: d10d fcbc ea8d 25bd 1984 a4be f5fc 303c
00000100: 4d4b 8a3c cf0c a2bd 69b9 26bd 35f7 7a3d
00000110: bac6 963d c54f d1bd 4def f03d f9f4 c5bc
00000120: 7229 8a3b d05e bfbe b619 5ebd 7b30 93bd
00000130: 52e1 1b3e 963d 0fbe a422 d03d 4d9a 68be
00000140: 07c5 d03d fa44 87bd 52be 233e 9c01 33bd
00000150: bf7b 94bd dae9 203e 7178 463d 3101 13bd
00000160: a054 4a3e 671a 8fbf 585c 54bc c2b8 973e
00000170: 7fd6 863d b013 28bd b694 e03e 876a b9bd
00000180: f571 41bc 1cc4 483d 51fa 4ebd 3d76 563d
00000190: eb6c 6c3c 3c9a 2a3e c6f9 013c 2dc5 4d3d
000001a0: 39fa e63d 9a54 a5ba 922d 27bf 3102 1fbd
000001b0: d915 83be 2b2a e83c 3968 15bf 8c90 dcbe
000001c0: f236 813d 8357 a23d 2e69 b43e 56ce fa3c
000001d0: 0981 373d 2a8e f4bc 3b37 503c b3aa 27bd
000001e0: a57d 4b3d f82b 993d acb4 17bf 21fd 563d
000001f0: 90a4 ac3d b196 7a3d 72e9 a73d 0476 0c3e
00000200: b49d ca3e 47cc 743d c8e6 383e 6a8b 1fbe
00000210: a008 10be dcad e83a df9d a3bd 2e4c 52bf
00000220: 27f6 95be 08bf babd ad84 9c3c b076 b73d
00000230: 8e07 cbbe 73cb c93d a7d7 81bd 2682 333d
00000240: 2b98 18be 313f f33d 0f9f 233d dc04 9ebc
00000250: 85b4 eb3d f65a 333c d1b2 933d da45 553d
00000260: 7900 6c3d d6f4 2c3e 841d 24be 5797 153d
00000270: 6d12 c03d 9ed1 43bd 55ca 65be 178c fb3d
00000280: 47b6 dd3d 1407 fe3c 2dec d4be f204 85bb
00000290: 61c3 873d c31c e33b 8752 343c d765 d3bc
000002a0: dbd5 ea3d 8ae5 8bbd a54e f53d 8173 0e3e
000002b0: e96d 4bbd 027d e6bc e776 783d 7412 353c
000002c0: c4e5 7f3d 9fe2 df3e 3280 3a3d 385b 593d
000002d0: 9818 9abd 148c d6bc 45bb 203c 2d90 2e3d
000002e0: 5f40 8a3c 7251 3e3d 7db0 98bd 6065 a03c
000002f0: a906 183d 6bd3 c7bd 7902 b13e 498b a7be
00000300: f7a4 a33d 179d 0abe 5dc7 9d3c 6c1c 24bd
00000310: 4b1e 1b3e d343 903f ec63 26be 1f5a 493e
00000320: 56d1 fbbd cbc8 55bc ec36 9abd ccf8 94bd
00000330: 1fd0 613d ebef b63e e533 013e 484b 4dbd
00000340: c54a 633d c7fd 84be 2edf 2b3e 847d 89bd
00000350: 87bd 893d 37ec 19bd ce95 e83c 5bbc f0bd
00000360: a0c6 e73d 8b0f 98bd 0420 34be 0729 07be
00000370: 220e 9d3c 2a0b 45bc 5352 16be f5c6 a83c
00000380: 810b 663d 6a53 783d 3a86 093d baf2 4d3f
00000390: 5e5d 16bc d309 cbbe 116d 76be ccd5 e1bc
000003a0: 3819 593d 460b 3b3d c2ce 2f3e 4444 d63c
000003b0: 9cc8 c8be 39c6 e73e 28d2 eebe 9eba c4bc
000003c0: e7b1 5c3d fdec d93d e191 043d 7ba1 253e
000003d0: a1ba 463e 0289 7e3d 9637 70bd df2d 303c
000003e0: 73bf 71bd 173b 15bd 23a9 f5be 3b92 f23c
000003f0: eff7 b9be 8206 953d 8728 1e3d 18da 6abc
0.010995454 -0.6040486 -0.075480565 -0.29320621 -0.50906587 -0.10402476 0.028842058 -0.09477984
0.058656774 -0.1059772 -0.4502751 -1.0224162 -0.07137477 -0.48742396 -0.012818349 0.055185735
0.08175478 -0.07679768 -0.1768036 0.013258606 -0.11673907 -0.34803852 0.16157101 -0.17924432
-0.102309406 0.06552296 -0.3535205 0.01671704 -0.42997375 -0.106346436 -0.16414799 -0.24156874
0.07098282 0.027553145 0.0012723283 0.0025847715 -0.9079545 0.03978883 0.0150883 0.048151977
0.0011828674 -0.037659623 -0.02847171 0.072831444 -0.022288969 0.086317725 -0.06343436 0.030056823
-0.31893 0.11317782 0.02623918 -0.096465796 -0.04277184 -0.028409224 0.006041116 0.11665658
0.07080667 0.057430968 -0.42079934 0.018207781 -0.030768307 -0.040418543 -0.32132033 0.010802497
0.01688161 -0.07912599 -0.040704165 0.06127091 0.07362123 -0.10220293 0.11764393 -0.024164664
0.0042163664 -0.37377024 -0.05422374 -0.07186981 0.15222672 -0.13988337 0.10162857 -0.22715111
0.1019383 -0.06604953 0.1599057 -0.043702707 -0.07250165 0.15714207 0.048454706 -0.035889808
0.19758844 -1.1179932 -0.01296147 0.29633147 0.06583881 -0.0410344 0.43863457 -0.090535216
-0.011806955 0.04901515 -0.05053169 0.052358855 0.014430265 0.16660398 0.007933086 0.05023687
0.11278195 -0.0012613714 -0.6530391 -0.03882045 -0.25602606 0.02834042 -0.58362156 -0.4307903
0.06309308 0.07926848 0.35236496 0.030615967 0.044800792 -0.029852945 0.0127084805 -0.040934276
0.04968037 0.074790895 -0.5926006 0.052487496 0.08429825 0.061178867 0.08198823 0.13716894
0.39573443 0.059765127 0.18056786 -0.15580526 -0.1406579 0.001775201 -0.07989096 -0.8214749
-0.29289362 -0.091184676 0.019106233 0.08958185 -0.396542 0.09853258 -0.063399605 0.04382529
-0.14901797 0.11877287 0.039946612 -0.019289427 0.11509041 0.01094698 0.07211841 0.05206857
0.05761764 0.16890272 -0.16026884 0.036521282 0.093785144 -0.04780733 -0.22440465 0.122825794
0.10825782 0.031009234 -0.41586438 -0.0040594274 0.066290624 0.006930919 0.011006004 -0.025805397
0.11466571 -0.068308905 0.11977891 0.13911249 -0.049665365 -0.02813578 0.06066027 0.011051763
0.06247498 0.43727586 0.045532413 0.05306551 -0.07524222 -0.026189841 0.009810274 0.042617965
0.016876398 0.04646439 -0.074555375 0.01957959 0.037115727 -0.09757122 0.345722 -0.32723454
0.07990449 -0.13536488 0.019260103 -0.040066168 0.15148275 1.1270698 -0.16249055 0.19663285
-0.12295787 -0.013048361 -0.07530007 -0.07274017 0.05513012 0.35729918 0.12617452 -0.050120622
0.055491228 -0.25974867 0.16784355 -0.06713393 0.067256026 -0.037578788 0.028391745 -0.11754676
0.113171816 -0.074248396 -0.17590338 -0.13199244 0.019171778 -0.0120265875 -0.14679842 0.020602683
0.056163315 0.060626425 0.033575274 0.80448496 -0.009177534 -0.39655933 -0.24065043 -0.027567767
0.053002566 0.045665048 0.17168716 0.026155598 -0.39215553 0.4526842 -0.46644711 -0.024014767
0.0538806 0.10640905 0.032365683 0.16174881 0.19407131 0.06214238 -0.05864676 0.010753124
-0.05902047 -0.036433306 -0.47980604 0.029610744 -0.3632197 0.07276632 0.03861287 -0.014334224

fc2.bias f4 [300]
00000000: 5e67 bfbd 0049 1e3d 5855 233e a923 c53b
00000010: 12a5 f4bc d6f7 cabd ca72 3b3d d7ca a2bd
00000020: 6bcb f5bc 0168 083e 4434 033e 7c38 1cbd
00000030: 9a35 853c 20e1 99bd 0c48 d43b a0c2 493e
00000040: 3944 803e dade 183d b5be 2a3e 1c95 e5bc
00000050: 8e20 593b 25d2 a8bd a3d9 97bd 0aea 093e
00000060: 8b9d ee3d 7e5e 53bc 06a2 a3bc 7586 9dbd
00000070: f72d ff39 9878 083d 75cb a5bc f63f eb3d
00000080: fbdb 9e3c 3c4e 86bd 2562 763e af56 b8bd
00000090: 16ee e23d 8bc7 82bd b6d2 43bc b9c9 013d
000000a0: 0aa2 70bc 080b 23bd ec30 bebd f689 58bd
000000b0: 6f49 813c bb68 513b b94c c93d 761d 003c
000000c0: 4531 4bbc 9579 383d 65e2 76bc fb20 c1bd
000000d0: 85ad 19bd a929 c5bc 962d 2dbd 083c 793e
000000e0: 3fc5 4c3e af5b a5bd f3fb 0c3e 09fd c13e
000000f0: bc49 9abc fd9e 68bd f219 dcbc 07de 1fbd
00000100: cc67 44bd 4a8b 88bd d6b6 a93a da45 47bd
00000110: a382 123e 2756 643e cbe6 3e3e 246a 8abd
00000120: cfff 573d 9364 36bc 55b2 febc eced 23bd
00000130: 3746 273e c42c 263e 2bca 7f3c c363 81bd
00000140: a496 1f3e 7361 133e a6aa 15bd b8a9 8d3c
00000150: 250a e93e 6ac9 d0bc a4b8 2dbd baec 8fbc
00000160: 586d 94bc 1d4b 163d 6276 b63e e83b a9bd
00000170: 786a babd e1f8 3d3d a459 f6bc 4b79 8c3c
00000180: 12fd 18bd 4461 34bd ecdb 15bc e8ee 213e
00000190: 1d2d 4bbd d472 3abd a6ee 0fbc fa13 213e
000001a0: 8cde 013e 06e5 853c 804e a8bd 5e1e a4bd
000001b0: 356c 80bd 01ef 70bd e4a3 bfbd 1345 a7bd
000001c0: ce8a bbbd bd33 4dbd ad6a af3e ec7e f3bb
000001d0: acda 1cbd 3d75 1bbc f542 77bd 71ca b1bb
000001e0: de7e 853e d71b 2c3e 067f bfbc 2815 303d
000001f0: 044f 4e3e ba89 04bd c92c 923c d296 70bd
00000200: aa34 083e f6c1 7abd 8b68 cd3d 3143 603e
00000210: 8438 613d e04e 653e 8c06 c63e 6ec8 7cbc
00000220: ec5d 9ebb ac8c afbd f6a9 4abd a29f b6bc
00000230: 11e1 c5bc 2ff6 abbd e4b8 d1bd 23f8 923c
00000240: c00b b9bd 52bf 0cbd 7cc9 29bd 2a24 143d
00000250: 9368 fa3c 0d44 30bd dbf4 733e 6749 41bd
00000260: 59fe fa3d 96ea 843c a542 3e3d d254 aebc
00000270: 44c7 c1bc 3b48 45bd 9173 0bbd 884f 75bc
00000280: 6ee0 603e 1741 84bd 15f5 05bd 000a f6bc
00000290: fed4 5f3e 76a8 9a3e 37e8 223e 5851 bebb
000002a0: 62b1 633e 3580 b43d 54ff 3d3e 4952 70bc
000002b0: 1f57 0c3e 67be 2dbd 5f89 f43c 1f04 3bbd
000002c0: 6cfd b43d 0ae0 26bd fee0 03bd 782b bb3d
000002d0: 434b 533e 173e 083d 10f1 223e 2692 59bb
000002e0: 4a4e 583e 9177 19bc 1a9b 9bbd 8aa9 e2bc
000002f0: f53e fd3d 917f 033d d1e3 26bd d2f5 97bd
00000300: 2fa1 5fbd 6f8f 07bd a88a 75bd a939 95bd
00000310: b4f3 123e 3bae 2e3e 6ed3 ad3b 211e 733e
00000320: 9692 1bbd 30aa 6cbd a35b adbd 15db 513b
00000330: 1cb5 033e 2aa9 a1bd 75ec adbc 4e89 4abd
00000340: e676 fb3d fc07 ebbc b9f9 ecbc 806f a9bd
00000350: 1546 e2bd cadf 543e 413d 92bc 5c11 9cbd
00000360: b8b9 0c3c ebf8 373e e906 ddbc 4bbc 9bbd
00000370: 40e6 033e 7bd5 b039 9f2e a03d e787 7a3c
00000380: 8abf 9e3e 94eb 19be d099 17bd 125c 7dbd
00000390: add3 c03d d0a8 96bd 8ade 30bd 7b35 5fbd
000003a0: 3989 a2bd 24af f93b 0fd8 24bd ca7a ec3d
000003b0: 7f88 733e e274 78bd a3e2 12bd 1efe db3e
000003c0: 2b89 0f3e ceff 1d3e e713 96bd 5c6d f63e
000003d0: 06a4 073e fb16 5dbd e46e d03e 294d 623e
000003e0: 2442 153d ccd4 10bd ca04 aabd 9994 ad3d
000003f0: fcaa e8bc 6b3d 143e 6cfc e13d 799f 013e
-0.093458876 0.038643837 0.15950525 0.006016214 -0.029863868 -0.09910552 0.04576377 -0.07948845
-0.030004224 0.13320924 0.12812907 -0.038139805 0.01626091 -0.07513642 0.006478315 0.1970315
0.2505205 0.037321903 0.16674311 -0.028025202 0.0033130976 -0.08243207 -0.07414558 0.13468185
0.11651143 -0.012900947 -0.01997472 -0.07691661 0.00048671637 0.033318132 -0.020238617 0.11486809
0.019392004 -0.06557891 0.24060877 -0.090009086 0.110805675 -0.06385716 -0.011952093 0.03168652
-0.014687071 -0.039805442 -0.09286675 -0.052865945 0.015782086 0.0031953293 0.09829087 0.007819524
-0.0124018835 0.045037825 -0.015068625 -0.09430119 -0.037518997 -0.024067717 -0.042279802 0.24339306
0.19997118 -0.08074128 0.13767986 0.37888363 -0.018833987 -0.056792248 -0.02686784 -0.0390301
-0.04795055 -0.06667192 0.0012948166 -0.0486506 0.14307646 0.2229849 0.18642728 -0.06758526
0.052734192 -0.011132377 -0.031090895 -0.04002182 0.16335379 0.16228014 0.015612165 -0.06317856
0.15584809 0.14392643 -0.036539696 0.017292842 0.45515552 -0.025486667 -0.042412415 -0.017568935
-0.018118545 0.036692727 0.35637194 -0.08263379 -0.091023386 0.046379928 -0.03007204 0.01714768
-0.03735072 -0.044038072 -0.009146672 0.15813792 -0.04960357 -0.045519665 -0.008784926 0.15730277
0.12682551 0.016344558 -0.08218098 -0.080136046 -0.06270639 -0.058821682 -0.093574315 -0.08167472
-0.09157334 -0.05009817 0.34261075 -0.0074309018 -0.03829448 -0.009488401 -0.06036659 -0.005425744
0.26073354 0.16807495 -0.023376 0.042988926 0.2014733 -0.03235791 0.01784362 -0.058737583
0.1330134 -0.06122013 0.100297056 0.21900631 0.054985538 0.2239337 0.3867687 -0.015428646
-0.0048329737 -0.08571753 -0.049478494 -0.022292916 -0.024155172 -0.08396565 -0.10240343 0.017940586
-0.09035444 -0.034362145 -0.041451916 0.0361673 0.030567443 -0.04303365 0.23823874 -0.047189143
0.12255544 0.01622514 0.046450276 -0.02128068 -0.023654588 -0.048164587 -0.03404576 -0.014972575
0.21960613 -0.064577274 -0.03270443 -0.030034065 0.21858594 0.3020665 0.15908895 -0.005808037
0.22235635 0.08813516 0.18554431 -0.014668056 0.13705109 -0.04241791 0.02985066 -0.045658227
0.08837399 -0.040741004 -0.03219699 0.091391504 0.20634179 0.03326234 0.1591227 -0.0033198684
0.21123615 -0.009366886 -0.07597943 -0.027668733 0.12365524 0.03210408 -0.040744606 -0.074199334
-0.054597076 -0.033095773 -0.059946686 -0.072863884 0.14350778 0.17058651 0.0053047454 0.23741962
-0.037981592 -0.05777949 -0.08464744 0.0032021452 0.12862056 -0.078935936 -0.021230916 -0.04944735
0.122785375 -0.02869033 -0.02892767 -0.0827322 -0.11048523 0.20788494 -0.017851474 -0.076204985
0.008589201 0.17966048 -0.026980834 -0.076042734 0.12880802 0.0003372839 0.07821392 0.015291191
0.31005508 -0.15031272 -0.03701192 -0.061855383 0.09415374 -0.07356417 -0.04318098 -0.054494362
-0.079363294 0.0076197553 -0.040245112 0.11546858 0.23782538 -0.060658343 -0.03586067 0.42967314
0.14017169 0.15429613 -0.07328015 0.4813031 0.13246164 -0.053976994 0.40709603 0.22099747
0.03644003 -0.03535919 -0.08301695 0.084756084 -0.028401844 0.14476554 0.11034474 0.1265849

v.weight f4 [1, 300]
00000000: 5ae9 a03e fba0 a43c 88a0 13bf ed5f 033c
00000010: 29a2 733c 9169 303e 7e51 09bd e8c2 4f3e
00000020: 39a2 213b 7ead 7ebe 8d11 49bf 7aee ee3c
00000030: ed9e a6bc 9996 453e d674 1ebd d631 33bf
00000040: 17e5 42bf 08e7 52bc 14ed 54bf c3f5 4b3e
00000050: b0de 383d ec61 3f3e b2a7 713e 6957 b8be
00000060: 9fc1 02bf dc74 00bd f584 1bbc 5234 be3e
00000070: 2004 323d 8e8b e7be bde6 3c3e ab56 3ebf
00000080: 5fc5 1b3d f933 143e 484d 37bf a812 283e
00000090: 9725 3ebf f470 293e cf18 1c3e 53df aabb
000000a0: 53dc 653d e10e 683e 15f7 323e bfd5 c6bb
000000b0: ebb6 14bd 3644 c23c 892f 67be 7a4f 9bbc
000000c0: 8c9b 8cbc b292 57bd 5ef7 4cbc d628 583e
000000d0: d8e2 9fbc e52c 4a3e 3031 27bd cd4b 63bf
000000e0: a58b 56bf d62f 223e 11a3 3fbf 224e 61bf
000000f0: 1040 2d3e 35ed 8abb 38fb ee3c d104 4c3e
00000100: eed5 3f3d c42d 393e 3fd5 22bd 2cef 393e
00000110: 100b a5be 4e49 03bf 1737 26bf 08f5 403e
00000120: 47ac 8fbe 0a52 083c e49c 2c3e 3219 d5bc
00000130: 5f00 c3be fb43 dcbe a9ad 5b3c 1a1e 4e3e
00000140: 917b 40bf 1e90 3fbf ef6a 05bc bb50 1ebf
00000150: e151 8ebf 3276 4d3e 3c2e c53e 016e 1f3e
00000160: bb34 3fbc 5ef3 5abe efd8 7dbf 54a3 3d3e
00000170: 6183 443e 44ce a53a a740 343e 62f6 ea3c
00000180: 3100 ad3b 18b0 413c dca5 2f3d 3bd0 81be
00000190: c2f9 233d 87ad 023c a42d 85bc b067 58bf
000001a0: dc26 6ebe e770 d8ba 897d 3a3e 52b7 513e
000001b0: 3c4b 363e 718c 483e 569c 413e 3b4a 423e
000001c0: 29ad 3b3e 05f0 06bd a87e 78bf 8527 15bd
000001d0: 76bd 403e 2542 2d3e 95c2 363e 05a2 0a3b
000001e0: f30d 4bbf 3647 44bf 012b fdbc 68dd 3f3d
000001f0: 9fa1 2abf 8997 313e 41cf 883b fdb7 fb3e
00000200: d2e9 70be 1a58 473e 14e4 9abe 14ab 46bf
00000210: b9b8 7fbe 130d 5dbf fa48 78bf 9188 56bd
00000220: 5b70 24bc dfe4 803e 5f28 b8bc 2854 943e
00000230: bd9f 2abd 8498 503e e8d7 383e 89f1 ba3b
00000240: 0c27 633e cac2 4a3e dd9e 113d 37c7 503d
00000250: 2ba9 35bf 7434 4a3e 3dce 3dbf b812 ca3c
00000260: 7aa7 c9be b7a6 a43c 80e3 76bf cfdb b5ba
00000270: ff76 413e 2432 a03c 3ed0 903c 4e00 503e
00000280: 70e5 41bf 7ad7 203e 4ee6 413b f878 2ebd
00000290: 870d 61bf 04d1 86bf 8429 3ebf 7efa 513e
000002a0: 0608 3ebf b56a 35bf d6e7 10bf 5606 30bd
000002b0: 90ed 70be d506 053f fe7d c43c 5a3a 1f3d
000002c0: 34a2 e8be 6bc9 2d3e bc5a 2e3d e6d9 4cbf
000002d0: b75f 3fbf 6976 24bc 443e 30bf 4da4 a1bc
000002e0: d87d 42bf c899 b0bb c431 1f3e 5513 643e
000002f0: 1b95 f8be ef9f 113b d47f 0bbd 6a97 143e
00000300: 7399 71ba 8b7b bcbb 368a 4e3e b65b 4e3e
00000310: 979c 46bf 01b3 2dbf a9d4 36bc ef98 3dbf
00000320: 8c20 94bc db68 3c3e 6fc5 433e 9780 053d
00000330: 50f3 50bf ad46 423e 6bf5 293e 9b6d f23e
00000340: 405f a6be e326 0dbd d473 113d 05ea 333e
00000350: b7ff 3e3e 58b6 3bbf b520 363e 8990 153e
00000360: 3a69 303d 97e0 4dbf de8a 1c3d 3e68 633e
00000370: 152c 2ebf 5616 0dbc 3f45 d4be eae1 99bc
00000380: b5f5 85bf 1dee ec3e e035 503e afe8 563e
00000390: b3d1 9cbe 71e9 273e e8ea 4f3e 5357 343e
000003a0: 21fe 3f3e 9240 123d a09f ffbc e311 93be
000003b0: e4cf 63bf 4bb3 de3c cbe1 6bbc 93d7 69bf
000003c0: efae 95be 1c35 3bbf c35b 463e 9942 83bf
000003d0: 8917 adbe 0a29 423e f690 80bf 84c9 43bf
000003e0: d731 ca3c 8c55 91bc fd2d 583e 2027 9ebe
000003f0: be82 703c ead1 5ebe f31c 8cbe 8b16 a7be
0.31428033 0.020096293 -0.57666826 0.008018476 0.014870205 0.1722777 -0.033524983 0.20289195
0.0024663343 -0.2487087 -0.78542405 0.029166449 -0.020339454 0.1929573 -0.038685642 -0.6999792
-0.76130813 -0.012872465 -0.8317425 0.1991797 0.045134246 0.18689698 0.23599127 -0.3600419
-0.5107669 -0.031361446 -0.009492149 0.37149292 0.043460965 -0.4522366 0.18447395 -0.74350995
0.038030025 0.14472951 -0.71602297 0.16413367 -0.7427611 0.16546994 0.15243839 -0.0052146106
0.05611832 0.22661926 0.17477067 -0.006067961 -0.036307257 0.023714166 -0.22576727 -0.018958796
-0.017164014 -0.052630134 -0.012510149 0.21109328 -0.019517347 0.19743688 -0.040818393 -0.8878754
-0.8380683 0.1583856 -0.74858195 -0.88009846 0.16918969 -0.004239703 0.029172525 0.19923712
0.04683488 0.18083864 -0.03975415 0.18157643 -0.32235003 -0.5128373 -0.6492781 0.18843472
-0.28061125 0.008320341 0.16856724 -0.02601299 -0.3808622 -0.43020615 0.013408103 0.2012867
-0.7518855 -0.7482928 -0.008143171 -0.61841935 -1.1118737 0.20064619 0.38511837 0.15569307
-0.011670287 -0.213819 -0.9915914 0.18519336 0.19190742 0.0012649973 0.17602788 0.028681938
0.005279564 0.011821769 0.042882785 -0.2535418 0.04003311 0.007975942 -0.016257115 -0.84533215
-0.23257011 -0.001651314 0.1821195 0.20480087 0.17802137 0.19584824 0.18907294 0.18973629
0.18327774 -0.032943744 -0.9706826 -0.036414642 0.18822274 0.16919763 0.17847665 0.00211537
-0.7931816 -0.7667116 -0.030904295 0.04684201 -0.66652864 0.17342962 0.004175097 0.4916381
-0.23526695 0.19467202 -0.30252135 -0.77604795 -0.2497281 -0.86348075 -0.96986353 -0.052376334
-0.010036553 0.25174615 -0.022480188 0.28970456 -0.041656245 0.2037068 0.18051112 0.0057050628
0.22182864 0.19800869 0.035551894 0.050971236 -0.70961255 0.19746572 -0.7414282 0.024667129
-0.39385587 0.020099027 -0.9644089 -0.0013874712 0.1889305 0.019555159 0.017677423 0.20312616
-0.7574072 0.15707198 0.0029586735 -0.042595834 -0.87911266 -1.0532537 -0.742821 0.20505711
-0.7423099 -0.70865947 -0.56603754 -0.042974792 -0.23528123 0.5196355 0.023985859 0.038874008
-0.4543625 0.16971366 0.042567 -0.80019987 -0.74755424 -0.010037997 -0.6884501 -0.019731665
-0.7597327 -0.005389426 0.15546328 0.22273 -0.48551258 0.0022220572 -0.034057453 0.14510885
-0.0009216286 -0.005752032 0.20169911 0.20152172 -0.7758269 -0.67851263 -0.011159101 -0.74061483
-0.018081926 0.18399374 0.19118284 0.032593336 -0.81621265 0.18972273 0.16597526 0.47349247
-0.32494545 -0.034460913 0.035510853 0.1756974 0.18652235 -0.7332511 0.17785914 0.14605917
0.043069102 -0.8042082 0.03821837 0.22207734 -0.68036014 -0.008611282 -0.4145908 -0.018784482
-1.0465609 0.46275416 0.20333052 0.20987199 -0.30628738 0.16397645 0.20304453 0.17611437
0.18749286 0.03570611 -0.031204045 -0.28724584 -0.8898909 0.027185103 -0.014397095 -0.91344565
-0.29235026 -0.73127913 0.19370942 -1.0254699 -0.33807018 0.18960968 -1.0044239 -0.76479363
0.024681969 -0.017740987 0.21111293 -0.30889225 0.014679609 -0.21759763 -0.27365837 -0.32634386
